dapg/examples/dapg_jit_model/no_pen-v0/model_classifier.pt (torch, 148333 bytes, 10 tensors)

in_shift f4 [128]
0	0x00000000	0.0
1	0x00000000	0.0
2	0x00000000	0.0
3	0x00000000	0.0
4	0x00000000	0.0
5	0x00000000	0.0
6	0x00000000	0.0
7	0x00000000	0.0
8	0x00000000	0.0
9	0x00000000	0.0
10	0x00000000	0.0
11	0x00000000	0.0
12	0x00000000	0.0
13	0x00000000	0.0
14	0x00000000	0.0
15	0x00000000	0.0
16	0x00000000	0.0
17	0x00000000	0.0
18	0x00000000	0.0
19	0x00000000	0.0
20	0x00000000	0.0
21	0x00000000	0.0
22	0x00000000	0.0
23	0x00000000	0.0
24	0x00000000	0.0
25	0x00000000	0.0
26	0x00000000	0.0
27	0x00000000	0.0
28	0x00000000	0.0
29	0x00000000	0.0
30	0x00000000	0.0
31	0x00000000	0.0
32	0x00000000	0.0
33	0x00000000	0.0
34	0x00000000	0.0
35	0x00000000	0.0
36	0x00000000	0.0
37	0x00000000	0.0
38	0x00000000	0.0
39	0x00000000	0.0
40	0x00000000	0.0
41	0x00000000	0.0
42	0x00000000	0.0
43	0x00000000	0.0
44	0x00000000	0.0
45	0x00000000	0.0
46	0x00000000	0.0
47	0x00000000	0.0
48	0x00000000	0.0
49	0x00000000	0.0
50	0x00000000	0.0
51	0x00000000	0.0
52	0x00000000	0.0
53	0x00000000	0.0
54	0x00000000	0.0
55	0x00000000	0.0
56	0x00000000	0.0
57	0x00000000	0.0
58	0x00000000	0.0
59	0x00000000	0.0
60	0x00000000	0.0
61	0x00000000	0.0
62	0x00000000	0.0
63	0x00000000	0.0
64	0x00000000	0.0
65	0x00000000	0.0
66	0x00000000	0.0
67	0x00000000	0.0
68	0x00000000	0.0
69	0x00000000	0.0
70	0x00000000	0.0
71	0x00000000	0.0
72	0x00000000	0.0
73	0x00000000	0.0
74	0x00000000	0.0
75	0x00000000	0.0
76	0x00000000	0.0
77	0x00000000	0.0
78	0x00000000	0.0
79	0x00000000	0.0
80	0x00000000	0.0
81	0x00000000	0.0
82	0x00000000	0.0
83	0x00000000	0.0
84	0x00000000	0.0
85	0x00000000	0.0
86	0x00000000	0.0
87	0x00000000	0.0
88	0x00000000	0.0
89	0x00000000	0.0
90	0x00000000	0.0
91	0x00000000	0.0
92	0x00000000	0.0
93	0x00000000	0.0
94	0x00000000	0.0
95	0x00000000	0.0
96	0x00000000	0.0
97	0x00000000	0.0
98	0x00000000	0.0
99	0x00000000	0.0
100	0x00000000	0.0
101	0x00000000	0.0
102	0x00000000	0.0
103	0x00000000	0.0
104	0x00000000	0.0
105	0x00000000	0.0
106	0x00000000	0.0
107	0x00000000	0.0
108	0x00000000	0.0
109	0x00000000	0.0
110	0x00000000	0.0
111	0x00000000	0.0
112	0x00000000	0.0
113	0x00000000	0.0
114	0x00000000	0.0
115	0x00000000	0.0
116	0x00000000	0.0
117	0x00000000	0.0
118	0x00000000	0.0
119	0x00000000	0.0
120	0x00000000	0.0
121	0x00000000	0.0
122	0x00000000	0.0
123	0x00000000	0.0
124	0x00000000	0.0
125	0x00000000	0.0
126	0x00000000	0.0
127	0x00000000	0.0

in_scale f4 [128]
0	0x3f800000	1.0
1	0x3f800000	1.0
2	0x3f800000	1.0
3	0x3f800000	1.0
4	0x3f800000	1.0
5	0x3f800000	1.0
6	0x3f800000	1.0
7	0x3f800000	1.0
8	0x3f800000	1.0
9	0x3f800000	1.0
10	0x3f800000	1.0
11	0x3f800000	1.0
12	0x3f800000	1.0
13	0x3f800000	1.0
14	0x3f800000	1.0
15	0x3f800000	1.0
16	0x3f800000	1.0
17	0x3f800000	1.0
18	0x3f800000	1.0
19	0x3f800000	1.0
20	0x3f800000	1.0
21	0x3f800000	1.0
22	0x3f800000	1.0
23	0x3f800000	1.0
24	0x3f800000	1.0
25	0x3f800000	1.0
26	0x3f800000	1.0
27	0x3f800000	1.0
28	0x3f800000	1.0
29	0x3f800000	1.0
30	0x3f800000	1.0
31	0x3f800000	1.0
32	0x3f800000	1.0
33	0x3f800000	1.0
34	0x3f800000	1.0
35	0x3f800000	1.0
36	0x3f800000	1.0
37	0x3f800000	1.0
38	0x3f800000	1.0
39	0x3f800000	1.0
40	0x3f800000	1.0
41	0x3f800000	1.0
42	0x3f800000	1.0
43	0x3f800000	1.0
44	0x3f800000	1.0
45	0x3f800000	1.0
46	0x3f800000	1.0
47	0x3f800000	1.0
48	0x3f800000	1.0
49	0x3f800000	1.0
50	0x3f800000	1.0
51	0x3f800000	1.0
52	0x3f800000	1.0
53	0x3f800000	1.0
54	0x3f800000	1.0
55	0x3f800000	1.0
56	0x3f800000	1.0
57	0x3f800000	1.0
58	0x3f800000	1.0
59	0x3f800000	1.0
60	0x3f800000	1.0
61	0x3f800000	1.0
62	0x3f800000	1.0
63	0x3f800000	1.0
64	0x3f800000	1.0
65	0x3f800000	1.0
66	0x3f800000	1.0
67	0x3f800000	1.0
68	0x3f800000	1.0
69	0x3f800000	1.0
70	0x3f800000	1.0
71	0x3f800000	1.0
72	0x3f800000	1.0
73	0x3f800000	1.0
74	0x3f800000	1.0
75	0x3f800000	1.0
76	0x3f800000	1.0
77	0x3f800000	1.0
78	0x3f800000	1.0
79	0x3f800000	1.0
80	0x3f800000	1.0
81	0x3f800000	1.0
82	0x3f800000	1.0
83	0x3f800000	1.0
84	0x3f800000	1.0
85	0x3f800000	1.0
86	0x3f800000	1.0
87	0x3f800000	1.0
88	0x3f800000	1.0
89	0x3f800000	1.0
90	0x3f800000	1.0
91	0x3f800000	1.0
92	0x3f800000	1.0
93	0x3f800000	1.0
94	0x3f800000	1.0
95	0x3f800000	1.0
96	0x3f800000	1.0
97	0x3f800000	1.0
98	0x3f800000	1.0
99	0x3f800000	1.0
100	0x3f800000	1.0
101	0x3f800000	1.0
102	0x3f800000	1.0
103	0x3f800000	1.0
104	0x3f800000	1.0
105	0x3f800000	1.0
106	0x3f800000	1.0
107	0x3f800000	1.0
108	0x3f800000	1.0
109	0x3f800000	1.0
110	0x3f800000	1.0
111	0x3f800000	1.0
112	0x3f800000	1.0
113	0x3f800000	1.0
114	0x3f800000	1.0
115	0x3f800000	1.0
116	0x3f800000	1.0
117	0x3f800000	1.0
118	0x3f800000	1.0
119	0x3f800000	1.0
120	0x3f800000	1.0
121	0x3f800000	1.0
122	0x3f800000	1.0
123	0x3f800000	1.0
124	0x3f800000	1.0
125	0x3f800000	1.0
126	0x3f800000	1.0
127	0x3f800000	1.0

out_shift f4 [4]
0	0x00000000	0.0
1	0x00000000	0.0
2	0x00000000	0.0
3	0x00000000	0.0

out_scale f4 [4]
0	0x3f800000	1.0
1	0x3f800000	1.0
2	0x3f800000	1.0
3	0x3f800000	1.0

weight f4 [128, 128]
0	0xbdac9bec	-0.08428177
1	0xbc38afd6	-0.011272391
2	0xbddf3899	-0.10899467
3	0xbd752d78	-0.059857816
4	0x3d9dff30	0.07714689
5	0x3ceb7126	0.028740477
6	0xbdaf387c	-0.085556954
7	0x3d806635	0.062694944
8	0xbd79f3d4	-0.06102355
9	0xbd8498bf	-0.064744465
10	0x3ca12ce8	0.019674733
11	0x3d53bc64	0.051693335
12	0xbd9c8c70	-0.07643974
13	0x3d8a6375	0.06757251
14	0x3c41f3cc	0.011837911
15	0xbcc9b131	-0.024620624
16	0x3d22f676	0.039785825
17	0xbd530356	-0.051516853
18	0x3cb11b44	0.021619447
19	0x3b15d2eb	0.0022861313
20	0xbd79a156	-0.060944878
21	0x3d04c3e8	0.032413393
22	0x3d188a30	0.03724116
23	0xbd8156d3	-0.063153885
24	0x3d2c0824	0.04199995
25	0xbd5809aa	-0.05274359
26	0xbcc07d88	-0.023497358
27	0x3b32ba7c	0.0027271798
28	0x3bdb4f29	0.0066927862
29	0x3c0563c5	0.008141463
30	0x3d62f8c5	0.055413026
31	0x3c7b52f0	0.015339598
32	0x3ca216de	0.019786295
33	0xbd8947d9	-0.06703157
34	0xbc95f2b4	-0.018304206
35	0x3da5010c	0.0805684
36	0x3cb64fda	0.022254873
37	0x3d8670b2	0.06564464
38	0xbd015ae4	-0.03158082
39	0xbcbc3b9a	-0.022977639
40	0x3d5e72d7	0.05430874
41	0xbbd73e72	-0.0065687234
42	0xbd5ecf25	-0.054396767
43	0xbd5d2530	-0.053990543
44	0xbc8579d5	-0.016293446
45	0xbddc4686	-0.10755639
46	0xbda4a57c	-0.08039376
47	0x3d8d4521	0.06897951
48	0xbd73cba8	-0.059520394
49	0xbc4d6c68	-0.012538053
50	0xbc9474fa	-0.018122185
51	0x3d58b6d2	0.052908726
52	0x3ddb3560	0.1070354
53	0xbd86bf6e	-0.06579481
54	0xbd577d0b	-0.052609485
55	0x3d774ea6	0.06037774
56	0xbc212388	-0.0098351315
57	0x3d80e638	0.06293911
58	0xbb9b1acb	-0.0047334186
59	0x3c466561	0.012109132
60	0x3d703580	0.05864477
61	0xbd8377fa	-0.06419368
62	0x3dd80d67	0.10549431
63	0x3da66168	0.081240475
64	0xbdbcb764	-0.092146665
65	0x3ccaab46	0.024739873
66	0xbc0be6e3	-0.008538934
67	0xbcffee60	-0.031241596
68	0xbc997167	-0.018730832
69	0xbc75b389	-0.014996418
70	0x3cfc9032	0.030830476
71	0xbcc0046e	-0.023439612
72	0x3c3a7eb4	0.011382747
73	0xbd826bf6	-0.06368248
74	0x3db52b4c	0.08846149
75	0x3d911e26	0.070858285
76	0xbd948ef9	-0.07253832
77	0x3d56e681	0.05246592
78	0x3dbab068	0.09115678
79	0x3db215d9	0.08695573
80	0xbcb336c2	-0.021876696
81	0x3d6448e8	0.05573359
82	0xbd0aed49	-0.0339177
83	0xbc83969a	-0.016063023
84	0xbdb9c201	-0.090702064
85	0xbcbb637a	-0.022874583
86	0x3d387b54	0.04503949
87	0xbd52aa6b	-0.051432054
88	0xbd5cb7e0	-0.053886294
89	0x3db9de80	0.09075642
90	0x3bd5ccfb	0.0065246797
91	0x3ce454bf	0.027872441
92	0xbc1c24e3	-0.009530279
93	0x3d0c3177	0.03422686
94	0x3cc053f0	0.023477525
95	0x3d27ae7f	0.040937897
96	0xbc1d51f8	-0.009602062
97	0x3dd4a37c	0.10382745
98	0xbd487c0e	-0.048946433
99	0xbce5828f	-0.028016357
100	0x3cdcb245	0.026940474
101	0x3d00c136	0.03143426
102	0xbd98f419	-0.07468433
103	0x3d410775	0.047126252
104	0x3cc79114	0.02436117
105	0xbcb7bdd4	-0.022429384
106	0xbc8d6a3e	-0.017262574
107	0xbda249eb	-0.07924255
108	0x3d57fc0a	0.052730598
109	0xbcafce0c	-0.021460555
110	0x3e1e8e4d	0.15483971
111	0x3b9b4bb2	0.004739248
112	0x3d2a399c	0.041558847
113	0xbd99627c	-0.074894875
114	0xbd90140e	-0.07035075
115	0x3d958ae3	0.07301881
116	0x3b35e4ad	0.002775471
117	0xbd70b955	-0.058770496
118	0xbd8fab26	-0.07015066
119	0x3dc33713	0.09531989
120	0xbcf1c1d7	-0.029511375
121	0x3d7a8008	0.061157256
122	0x3cb9ca8c	0.02267959
123	0xbd954a09	-0.07289512
124	0x3d68ee19	0.056867693
125	0xbbf43401	-0.0074524884
126	0x3cf7d096	0.030250829
127	0xbc74aecd	-0.014934254
128	0xbd43087a	-0.047615506
129	0xbdc370df	-0.09543013
130	0xbd44559d	-0.04793321
131	0x3cfe5c56	0.031049889
132	0x3d5a18f9	0.053246472
133	0xbd11ed0c	-0.035626456
134	0x3ce4492a	0.027866919
135	0xbd322785	-0.04349472
136	0x3dbc8d80	0.092066765
137	0x3ba40709	0.0050057215
138	0x3d814daf	0.06313645
139	0xbd03cea3	-0.032179486
140	0xbd11ab0f	-0.035563525
141	0xbd55c9f0	-0.052194536
142	0xbd8eb06e	-0.06967245
143	0xbd469aa3	-0.048487317
144	0xbce3c8cc	-0.027805708
145	0x3da260bf	0.07928609
146	0x3d9072c6	0.07053141
147	0x3cf0dcb1	0.029402109
148	0xbdbc1ff7	-0.09185784
149	0xbd8335d0	-0.06406748
150	0xbd870197	-0.065921
151	0xbdc760cb	-0.09735259
152	0x3d4caa50	0.04996711
153	0x3c7d676c	0.015466552
154	0x3dd6f5d6	0.10496108
155	0x3db44484	0.08802131
156	0x3da4a9d0	0.08040202
157	0xbd0cb572	-0.034352727
158	0xbc33288f	-0.010934963
159	0xbe2f202d	-0.17102118
160	0xbd169374	-0.036761716
161	0xbcfac19d	-0.0306099
162	0x3d07a59b	0.033116918
163	0x3c4099ae	0.01175539
164	0x3d731cc8	0.05935362
165	0x3c12a61d	0.008950737
166	0x3db2be66	0.08727722
167	0xbd2f28f1	-0.042763654
168	0x3d47c312	0.048770018
169	0xbd104edc	-0.035231456
170	0x3c6d7f32	0.014495658
171	0xbcd071a4	-0.025444813
172	0x3ddf0c54	0.10891023
173	0x3c107bbc	0.008818563
174	0x3cde2808	0.027118698
175	0x3d6a91ed	0.057268072
176	0x3cc1fa95	0.023679057
177	0xbd4a0add	-0.049326766
178	0x3c9394bf	0.018015264
179	0xbc980017	-0.01855473
180	0x3d22cf48	0.03974846
181	0xbd2d92c4	-0.042376295
182	0x3dd34cd3	0.103173874
183	0xbce68962	-0.028141681
184	0xbd133690	-0.035940707
185	0x3c70917e	0.014683126
186	0xbd729119	-0.059220407
187	0xbd1dcf60	-0.038527846
188	0x3de03371	0.10947312
189	0x3adb694c	0.0016739755
190	0xbdc42ab9	-0.09578461
191	0xbc805faa	-0.015670616
192	0xbd83d9d2	-0.0643803
193	0x3cfaac14	0.030599631
194	0x3d5763aa	0.05258528
195	0x3c194bd7	0.0093564605
196	0xbdc3322a	-0.095310524
197	0x3c6d3f2f	0.014480396
198	0xbd3ac716	-0.04560002
199	0x3dc4549a	0.09586449
200	0xbd2172cb	-0.039416116
201	0xbd266d19	-0.040631387
202	0x3d79c4c9	0.060978685
203	0x3abe5854	0.0014522173
204	0xbcf449fd	-0.029820437
205	0xbdbf98ae	-0.09355293
206	0x3d29b979	0.041436646
207	0x3d30f5aa	0.043203034
208	0x3de979a5	0.11400155
209	0xbcabfa73	-0.020993447
210	0x3cbbcf70	0.022926062
211	0x3ce3604f	0.027755884
212	0xbd9349cb	-0.07191809
213	0x3cf7e9f8	0.030262932
214	0x3bd33347	0.0064453217
215	0xbd43f51b	-0.047841173
216	0x3cfc46d5	0.030795494
217	0xbd175c71	-0.036953393
218	0xbddd312b	-0.10800394
219	0xbccb3ec9	-0.024810212
220	0x3cc52c1e	0.024068888
221	0x3d631102	0.05543614
222	0x3bc583bd	0.0060276673
223	0xbdb6a748	-0.08918625
224	0xbd429dad	-0.047513653
225	0x3c88c906	0.016697418
226	0x3d4f25ec	0.050573274
227	0x3d2c6da1	0.042096738
228	0xbbc0739e	-0.0058731576
229	0xbdb1d10b	-0.0868245
230	0xbda3f3ec	-0.08005509
231	0x3d69aad9	0.0570477
232	0xbc90ec1d	-0.017690713
233	0xbc207db4	-0.009795595
234	0x3ce56d45	0.028006205
235	0x3d0b9ef3	0.034087133
236	0x3cb2829d	0.021790797
237	0x3cbb3992	0.0228546
238	0x3cdf6cbc	0.027273528
239	0xbcd663be	-0.026170608
240	0x3be7bd98	0.007072162
241	0xbd460860	-0.04834783
242	0xbd278e7e	-0.040907376
243	0xbc9a3812	-0.018825565
244	0xbc03f18a	-0.008053193
245	0x3c4ff22f	0.012692018
246	0x3de50a13	0.11183562
247	0x3d0a89d2	0.033822842
248	0x3d96ee50	0.07369673
249	0xbd9cf3c1	-0.0766368
250	0x3de12e69	0.1099518
251	0x3ae5d05d	0.001753341
252	0x3d688aa5	0.056772847
253	0x3ce72ad9	0.028218674
254	0x3e01b2eb	0.12665908
255	0x3dd4197a	0.10356422

bias f4 [128]
0	0x3c751bfa	0.014960283
1	0xbe3ec6c8	-0.18630517
2	0x3d7af9e7	0.06127348
3	0xbd54bb4d	-0.051936436
4	0xbd82889f	-0.06373715
5	0xbe7a3954	-0.24435931
6	0xbd762976	-0.060098134
7	0xbc8e25c5	-0.017351994
8	0x3e37b309	0.1793939
9	0x3e464be7	0.19364892
10	0xbcc5bb18	-0.024137065
11	0xbdae1a0d	-0.085010625
12	0xbdf07648	-0.1174131
13	0x3e2725c2	0.16322997
14	0xbe12de09	-0.14342512
15	0x3e466041	0.19372655
16	0x3c2b08de	0.010439126
17	0xbdd1f075	-0.10250942
18	0x3c41b0ac	0.011821907
19	0x3dfc4011	0.12316907
20	0x3de74ad3	0.112935685
21	0x3d4543f2	0.0481605
22	0xbdd86735	-0.1056656
23	0xbe4d1f96	-0.2003158
24	0x3dd91545	0.1059976
25	0xbddf46b8	-0.109021604
26	0x3e57288c	0.21011561
27	0x3d92fb64	0.07176855
28	0x3e5033d6	0.20332274
29	0xbd67caef	-0.056590017
30	0x3e388d0d	0.18022557
31	0x3e69a51f	0.22816895
32	0x3e0709eb	0.13187377
33	0xbe150178	-0.14551342
34	0x3e445723	0.19173865
35	0x3e5eca75	0.21756919
36	0xbe1d4c9c	-0.15361255
37	0xbe2d3036	-0.16912922
38	0xbe065567	-0.13118516
39	0x3e449882	0.19198802
40	0x3d841395	0.064490475
41	0xbe58e8b8	-0.21182525
42	0x3d964807	0.07337957
43	0x3e221a9a	0.1583046
44	0xbd8b0469	-0.067879505
45	0x3e28b99c	0.16477054
46	0x3e495e67	0.19664918
47	0x3e48532a	0.19562975
48	0xbe42944b	-0.19001882
49	0x3e020fde	0.12701365
50	0x3d1f9d31	0.03896827
51	0x3e47395a	0.19455472
52	0x3cba30f8	0.022728428
53	0x3d0f6513	0.0350085
54	0xbdc1626a	-0.09442599
55	0xbe168f99	-0.14703216
56	0x3d0a4e07	0.03376582
57	0xbdbf9a30	-0.09355581
58	0x3e26f0ec	0.16302842
59	0x3c0a8b62	0.008456083
60	0x3e23356a	0.15938345
61	0x3de2dd93	0.11077418
62	0x3d38025b	0.04492412
63	0xbe5b80c5	-0.2143584
64	0xbe1c1627	-0.15242825
65	0xbe65a107	-0.22424708
66	0xbd6d637b	-0.0579562
67	0xbe6d2187	-0.23157321
68	0x3dca471e	0.09876846
69	0xbdbb8360	-0.09155917
70	0xbd3e3b4f	-0.04644328
71	0xbaf15d7d	-0.0018414702
72	0xbe19f823	-0.15036063
73	0x3dc7b1e8	0.0975073
74	0xbd841e4c	-0.06451091
75	0x3e15077a	0.14553633
76	0x3e0a52c2	0.13508132
77	0xbddfed05	-0.1093388
78	0xbe2be2c4	-0.16785723
79	0xbdf24827	-0.11830168
80	0x3e4792cb	0.19489591
81	0x3dab1359	0.083533
82	0xbda6fb63	-0.08153417
83	0x3dcbbd2f	0.09948193
84	0x3defbf98	0.117064655
85	0x3d8a1476	0.06742184
86	0x3ca27cf9	0.019834982
87	0x3e1c6d2d	0.15276022
88	0xbe2dc3ab	-0.16969173
89	0x3e4856be	0.1956434
90	0xbe27ed28	-0.16399062
91	0xbe4ead6f	-0.20183347
92	0x3e0a7e7e	0.13524815
93	0x3e52aee8	0.20574534
94	0x3dabec26	0.08394651
95	0x3dc52273	0.09625711
96	0x3e3b09d1	0.18265463
97	0xbe55bdf6	-0.20873246
98	0x3cb5ac67	0.022176934
99	0x3b7bc826	0.0038418858
100	0x3e516d00	0.20451736
101	0xbda0d216	-0.07852571
102	0xbd41c4d0	-0.047306836
103	0xbe13885c	-0.14407486
104	0x3dac32b8	0.08408111
105	0xbd058656	-0.032598816
106	0x3e12ba7e	0.14328954
107	0xbe37c8fe	-0.17947766
108	0xbcba1954	-0.022717156
109	0xbdfb8150	-0.12280524
110	0xbd14b7a1	-0.036307935
111	0xbe4f4148	-0.20239747
112	0x3c3933f9	0.011303895
113	0xbe0b1cb8	-0.13585174
114	0xbdabd40b	-0.08390053
115	0xbc8fad25	-0.017538616
116	0xbe14271a	-0.14468041
117	0xbdb9ff00	-0.090818405
118	0x3da74de2	0.08169152
119	0x3e143a20	0.14475298
120	0xbd8a39d1	-0.06749309
121	0x3d99e512	0.07514395
122	0xbb6a559d	-0.0035756596
123	0x3c641004	0.013919834
124	0xbe0032b9	-0.12519349
125	0xbe14df00	-0.14538193
126	0x3d8ac418	0.06775683
127	0xbe15232d	-0.145642

weight f4 [128, 128]
0	0x3ca154d5	0.019693771
1	0x3dc152a4	0.094395906
2	0xbd9e5775	-0.07731525
3	0x3d911963	0.0708492
4	0xbd181c2a	-0.037136234
5	0x3da44b3d	0.08022163
6	0xbbde8931	-0.006791257
7	0x3c1a4817	0.009416602
8	0x3bd491c6	0.006487104
9	0xbd9dc363	-0.07703283
10	0x3d3bbfa4	0.04583706
11	0x3cc8d5a8	0.024515942
12	0xbdbf3101	-0.09335519
13	0xbdedcf0b	-0.11611756
14	0x3d927ea1	0.07153059
15	0x3b8141b9	0.0039446023
16	0xbdae256e	-0.08503233
17	0xbd9972bf	-0.07492589
18	0xbd55b563	-0.052174937
19	0x3d33b98d	0.043878127
20	0x3d2e7875	0.042595346
21	0xbca7a7a0	-0.020465672
22	0x3bf5014b	0.007476961
23	0xbc67a2cb	-0.014137934
24	0x3cea4c26	0.028600764
25	0xbd1e90b1	-0.038712207
26	0xbc067b00	-0.008208036
27	0x3d2bc385	0.04193451
28	0x3d75ee7d	0.060041893
29	0xbbe3ea3f	-0.0069554145
30	0xbcc0ec35	-0.023550132
31	0x3d16e282	0.03683711
32	0xbc8a2898	-0.01686506
33	0xbd785839	-0.06063101
34	0xbdc03379	-0.09384818
35	0xbd23f9a6	-0.040033005
36	0x3cf25e8a	0.029586095
37	0x3d4fd1bc	0.050737128
38	0xbc39c4f8	-0.011338465
39	0x3d8d35d6	0.06895034
40	0x3dbfcb9a	0.09365006
41	0x3da166b4	0.07880917
42	0x3d43f758	0.047843307
43	0x3b81999e	0.00395508
44	0xbd279a03	-0.04091836
45	0x3d67d6b9	0.05660126
46	0xbd46a34a	-0.04849557
47	0xbd9252ca	-0.07144697
48	0x3da8ae04	0.08236316
49	0xbdb309eb	-0.08742126
50	0xbd410017	-0.047119226
51	0xbde0f039	-0.10983319
52	0xbd8babb1	-0.06819857
53	0xbd8ef888	-0.06980997
54	0x3c2208c0	0.0098897815
55	0xbc786b26	-0.015162265
56	0xbd81ea48	-0.06343514
57	0x3cf59ebf	0.029982923
58	0x3d8d4610	0.06898129
59	0xbc36ab15	-0.011149188
60	0x3d1cb770	0.038260877
61	0xbc880947	-0.016605986
62	0x3d4af4f2	0.049550004
63	0xbc5bc255	-0.013413032
64	0x3b909968	0.0044128187
65	0x3bb8ac42	0.005635769
66	0x3d2a89a4	0.04163517
67	0x3b886406	0.0041623143
68	0x3dd5bcfe	0.10436438
69	0x3e018c60	0.12651205
70	0xbd306931	-0.04306907
71	0x3da0f706	0.07859616
72	0x3daff022	0.085907236
73	0xbd7f49a4	-0.06232609
74	0x3dcd8eaf	0.1003698
75	0xbd10844a	-0.03528241
76	0x3ca84bec	0.020544015
77	0x3cbd07da	0.023075033
78	0x3cea984a	0.02863707
79	0xbd10f54c	-0.035390183
80	0x3c5f04ef	0.013612016
81	0x3d6aa20c	0.057283446
82	0xbc68e649	-0.0142150605
83	0xbd742820	-0.05960858
84	0xbd47ac8e	-0.048748545
85	0xbd97b50a	-0.07407577
86	0x3e038b83	0.12846188
87	0x3d0f6868	0.03501168
88	0xbcfef3f7	-0.03112219
89	0x3d37e6f6	0.044897996
90	0x3d3549a0	0.044259667
91	0x3d840711	0.0644666
92	0xbd60d5a3	-0.05489124
93	0xbdd16b86	-0.102255866
94	0xbcc350af	-0.023842184
95	0xbd9a74e0	-0.075418234
96	0xbda1cfb2	-0.07900943
97	0x3d3fd8b5	0.046837527
98	0x3d9862b7	0.07440703
99	0xbb4fe30b	-0.0031721022
100	0x3b68d5b0	0.0035527758
101	0x3bce50e8	0.006296266
102	0xbd24f671	-0.040274087
103	0x3cb9fb12	0.022702727
104	0x3c989d22	0.018629614
105	0x3de2c041	0.11071826
106	0x3cf6e82a	0.030140001
107	0x3d8f2935	0.069902815
108	0x3d887c23	0.06664302
109	0xbd96f27e	-0.073704705
110	0x3d56a301	0.052401546
111	0xbd1d58c8	-0.038414747
112	0xbbc56a26	-0.006024617
113	0xbc1c6838	-0.009546332
114	0xbb5a1d34	-0.0033281567
115	0x3cf2aa7f	0.029622314
116	0xb9441b82	-0.00018702264
117	0x3de3f7db	0.11131259
118	0x3cb8403c	0.022491567
119	0xbccf6910	-0.025318652
120	0x3d93e00f	0.0722047
121	0xbe08f59e	-0.13374946
122	0xbd9ac7c3	-0.07557633
123	0xbe08a0a4	-0.1334253
124	0x3d186b48	0.037211686
125	0xbc98c144	-0.018646844
126	0x3d5884fb	0.052861195
127	0x3c06ac25	0.008219753
128	0x3d9bc9f2	0.076068774
129	0xbbb1ff9a	-0.0054320814
130	0x3c875c66	0.016523551
131	0xbd8bc839	-0.06825299
132	0x3d38b065	0.045090098
133	0xbaeff38c	-0.0018306836
134	0x3dd113ab	0.102088295
135	0x3c9f4a3b	0.019444576
136	0x3cc0b9e6	0.023526143
137	0x3d8de48d	0.06928358
138	0x3d514135	0.051087577
139	0xbdb4a8c7	-0.08821254
140	0x3c057a01	0.008146764
141	0x3cfce8c3	0.030872708
142	0xbd8f8be1	-0.07009102
143	0xbc755731	-0.014974401
144	0xbd70d044	-0.058792368
145	0x3d5d7fba	0.054076888
146	0xbae405d6	-0.0017396759
147	0x3cc18aa0	0.023625672
148	0x3cdc6c22	0.02690703
149	0xbd391bf1	-0.045192663
150	0xbd8faaf9	-0.07015032
151	0x3c64d9ab	0.013967912
152	0xbd540008	-0.051757842
153	0xbd80b84a	-0.0628515
154	0x3da3f0e2	0.08004929
155	0x3dc3e468	0.095650494
156	0x3df6eb84	0.1205664
157	0x3bf1dc8e	0.0073810285
158	0x3cff965f	0.031199632
159	0xbd997be8	-0.07494336
160	0x3d1ae8f8	0.037819833
161	0x3d15ad13	0.03654201
162	0x3dd575e1	0.10422874
163	0x3d3d97f3	0.04628749
164	0x3db502a5	0.08838395
165	0xbdfe2774	-0.12409869
166	0x3d2ceb68	0.04221669
167	0x3d1502fd	0.036379803
168	0x3d53b008	0.05168155
169	0x3d2ed035	0.04267903
170	0x3d72c1ab	0.059266727
171	0x3d9fd6bd	0.0780463
172	0x3b94c794	0.004540393
173	0x3cd0ab57	0.025472326
174	0x3d449535	0.047993857
175	0x3ceaeeb9	0.028678285
176	0x3d6d6331	0.057955924
177	0x3c869d5a	0.016432453
178	0x3d3e535b	0.046466213
179	0xbb63ce77	-0.0034760514
180	0xbcf1f672	-0.02953646
181	0xbc97b8cf	-0.01852074
182	0x3d5610e2	0.052262194
183	0xbd7ff9df	-0.062494155
184	0x3dcfcd63	0.10146596
185	0x3d370af9	0.0446882
186	0x3d8b508b	0.06802472
187	0x3d3bfb20	0.04589379
188	0x3dc1090b	0.09425553
189	0xbd5d339f	-0.054004308
190	0xbd883fa8	-0.066527665
191	0x3db4a984	0.08821395
192	0x3d5e8d4c	0.05433397
193	0xbe0e4749	-0.1389438
194	0xbb027e19	-0.0019911586
195	0xbde12229	-0.10992844
196	0xbd583930	-0.052788913
197	0xbd047f2f	-0.032347854
198	0x3d30cab9	0.04316208
199	0x3c22d9d4	0.00993963
200	0xbc94a7d6	-0.018146437
201	0x3d243884	0.04009296
202	0xbb82cea3	-0.003991918
203	0xbd588f8f	-0.052871283
204	0x3d37fe2d	0.044920135
205	0xbdc5bdd6	-0.09655349
206	0xbdadad91	-0.08480371
207	0x3c820317	0.015870614
208	0xbacc51f7	-0.0015588392
209	0xbc8a697f	-0.016896008
210	0xbcd634ca	-0.026148219
211	0xbcb9bc44	-0.02267278
212	0x3d9aa457	0.075508766
213	0x3e11f50f	0.14253639
214	0xbde15384	-0.110022575
215	0xbd95e9a0	-0.07319951
216	0xbde0f616	-0.10984437
217	0x3e095512	0.13411358
218	0x3d8b3c22	0.06798579
219	0x3d8a0ef7	0.067411356
220	0x3a02d33a	0.00049905817
221	0x3cfdc805	0.030979166
222	0x3dc9f0ee	0.09860407
223	0x3d7416c5	0.059592027
224	0x3d41dfbb	0.047332507
225	0xbca086c1	-0.019595506
226	0x3d4403e7	0.047855284
227	0xbc135fb0	-0.008994982
228	0xbb2d5b71	-0.0026452208
229	0xbdaf0fd5	-0.085479416
230	0xbd05a6a6	-0.03262963
231	0xbd2ead06	-0.042645477
232	0x3e05dae9	0.13071789
233	0xbdf0b36b	-0.11752971
234	0xbdaf6684	-0.08564475
235	0xbd6bfe5e	-0.05761563
236	0xbc7e05bd	-0.015504298
237	0xbd85cef2	-0.06533612
238	0xbd959722	-0.07304217
239	0xbe0547e9	-0.13015713
240	0xbd6ef11f	-0.05833542
241	0x3cb58897	0.022159858
242	0x3d2a1b4a	0.04152993
243	0x3d0bd28b	0.034136336
244	0xbdcb3c54	-0.09923616
245	0xbdc0caec	-0.09413704
246	0x3dc8c9dc	0.098041266
247	0xbd3fdc15	-0.046840746
248	0xbcc08816	-0.02350239
249	0xbcd60e7c	-0.026129954
250	0xbc428c38	-0.011874251
251	0x3d6e6d0d	0.058209468
252	0xbd92cd1e	-0.07168029
253	0xbdcab699	-0.09898109
254	0xbcaa7eef	-0.02081248
255	0x3d5fb8c8	0.05461958

bias f4 [128]
0	0xbe0ce4ea	-0.13759199
1	0x3e459273	0.19294147
2	0xbc9e9470	-0.01935789
3	0xbde03ebc	-0.10949466
4	0x3e36eadd	0.1786303
5	0xbe43bf7d	-0.19116016
6	0xbd105061	-0.035232905
7	0xbe2a73d2	-0.16645744
8	0x3e1e5596	0.15462336
9	0xbe369379	-0.17829694
10	0xbdd7c17c	-0.10534951
11	0xbdfc4cfd	-0.12319372
12	0xbe57d4e8	-0.21077311
13	0xbe3c0911	-0.18362834
14	0x3de93dbd	0.11388729
15	0x3e539683	0.20662884
16	0xbd93238e	-0.07184516
17	0x3e14b88f	0.14523529
18	0x3e2c5dd2	0.16832665
19	0x3e340516	0.17580065
20	0xbdd2a212	-0.10284819
21	0x3d07c227	0.033144142
22	0xbdc90026	-0.098144814
23	0xbe4a8e1d	-0.19780774
24	0x3e26f9b1	0.16306187
25	0x3d879a75	0.06621257
26	0x3c6d8353	0.014496642
27	0x3df7123a	0.12064023
28	0x3d84dde3	0.06487634
29	0xbe64ad0b	-0.22331636
30	0x3df0f2d1	0.117650636
31	0xbd1b2fdb	-0.037887435
32	0x3d91b7e3	0.07115152
33	0x3cdf07c5	0.027225384
34	0x3e516e0e	0.20452139
35	0x3d59e56a	0.053197302
36	0x3e0399d3	0.12851648
37	0x3d8a527d	0.06754015
38	0xbcf9a63e	-0.030474778
39	0xbe4a9044	-0.19781595
40	0x3d2ff287	0.0429559
41	0x3baa2e61	0.005193517
42	0x3d3ea492	0.046543665
43	0xbd47e013	-0.04879768
44	0xbc894d04	-0.016760357
45	0xbd82d917	-0.06389063
46	0xbddb7b73	-0.107169054
47	0xbe3821b7	-0.17981611
48	0xbe16eeba	-0.14739504
49	0xbe2a7ea4	-0.16649872
50	0xbe4c2b2f	-0.19938348
51	0xbd8d3be1	-0.068961866
52	0x3e1a3b4e	0.15061685
53	0x3dc90390	0.098151326
54	0xbe466ec1	-0.19378187
55	0x3e5ba571	0.2144983
56	0x3e63e46d	0.22255106
57	0xbe0f4200	-0.13990021
58	0xbe673fa7	-0.22582875
59	0xbe278079	-0.16357602
60	0xbe5b3fc7	-0.21411048
61	0x3dc6efbb	0.09713694
62	0xbdc0f503	-0.09421732
63	0x3e11d289	0.14240469
64	0xbdefe2de	-0.11713193
65	0x3e28457e	0.16432759
66	0x3c378be4	0.011202786
67	0xbd96b220	-0.073581934
68	0xbe3876d0	-0.18014073
69	0xbd59bcea	-0.053158678
70	0xbe575603	-0.21028905
71	0x3e04ed43	0.12981133
72	0x3e3e3365	0.18574293
73	0x3d060c14	0.032726362
74	0xbe5c1648	-0.21492875
75	0xbe46036e	-0.19337246
76	0xbe2f78af	-0.17135881
77	0xbe14aeff	-0.1451988
78	0xbb81931b	-0.003954304
79	0x3deb4409	0.11487586
80	0xbdbaba6d	-0.09117589
81	0x3e309600	0.1724472
82	0xbcbef669	-0.023310857
83	0x3d6fd860	0.05855596
84	0x3e4f43ea	0.20240751
85	0x3d79980f	0.06093603
86	0xbe5a6b64	-0.21330029
87	0xbe63b2c6	-0.22236165
88	0xbe1c046a	-0.15236059
89	0xbcc9c674	-0.024630763
90	0x3e257b86	0.16160402
91	0x3e642cc3	0.222827
92	0x3d064d10	0.032788336
93	0xbd97d83d	-0.07414291
94	0xbcec03d8	-0.028810427
95	0xbe2ee1ab	-0.17078273
96	0x3e34ab84	0.17643553
97	0xbe022a60	-0.12711477
98	0xbe5bbe75	-0.21459372
99	0xbd6e0290	-0.058107913
100	0xbdbaaf39	-0.09115452
101	0x3e45ff32	0.1933563
102	0x3dc26530	0.09491956
103	0xbd9617b2	-0.07328738
104	0xbd644bb2	-0.05573625
105	0x3d84cfc9	0.064849444
106	0x3d9ee749	0.07758958
107	0x3e0a4582	0.13503078
108	0xbcc14a99	-0.023595141
109	0x3d917ab9	0.071034856
110	0xbe33b313	-0.1754878
111	0x3db7d0d9	0.089753814
112	0x3e854333	0.2602783
113	0xbe343416	-0.17597994
114	0xbdc3b403	-0.09555819
115	0x3b4b1ef8	0.00309938
116	0x3e4a6aa7	0.19767247
117	0xbcb3b429	-0.021936493
118	0x3d94bbd1	0.07262386
119	0xbd7e55c2	-0.062093504
120	0x3e1bb482	0.15205577
121	0x3d10ab45	0.035319585
122	0x3c0d201f	0.008613615
123	0xbe513de4	-0.20433766
124	0xbe0ef307	-0.13959895
125	0x3e55c5c0	0.20876217
126	0x3b719f6e	0.003686871
127	0xbcdcac3a	-0.026937593

weight f4 [4, 128]
0	0xbd662ef4	-0.05619712
1	0x3dbad3d0	0.09122431
2	0x3ba327aa	0.0049790936
3	0xbd13a75d	-0.036048282
4	0xbc2045e0	-0.0097822845
5	0xbdd74500	-0.105112076
6	0xbdce9079	-0.1008615
7	0x3c83c2a7	0.016084028
8	0x3d0d57fc	0.034507737
9	0xbde50a72	-0.11183633
10	0x3d0ef521	0.034901742
11	0xbce216d3	-0.027598774
12	0xbdd23874	-0.10264674
13	0xbd3ee889	-0.04660848
14	0x3d158a32	0.036508746
15	0x3c2f168d	0.010686529
16	0xbbfaac7b	-0.007649956
17	0x3c3fc0cc	0.011703681
18	0x3d7a4beb	0.061107557
19	0x3ce6fa1a	0.02819543
20	0xbd3f4b2e	-0.046702556
21	0x3d1bfcce	0.03808289
22	0xbd62562c	-0.05525796
23	0x3c1eed87	0.009700186
24	0x3d7a85a5	0.06116261
25	0x3d35a9f9	0.04435155
26	0x3dc579cd	0.09642372
27	0x3cf31e62	0.029677574
28	0x3ca8ea55	0.02061955
29	0xbd9364d0	-0.07196963
30	0x3d5df2d7	0.05418667
31	0xbdac5534	-0.08414689
32	0x3d4d1aee	0.05007451
33	0xbb70a2b6	-0.0036718077
34	0x3e0fe8c5	0.14053638
35	0x3d2b24fe	0.041783325
36	0x3dc816c9	0.09769971
37	0xbcec428d	-0.028840328
38	0x3dc96963	0.09834554
39	0x3d3dbb8e	0.046321444
40	0xbd3055a5	-0.043050427
41	0x3da7996f	0.08183562
42	0x3ddda0cb	0.108216844
43	0xbdcca093	-0.099915646
44	0x3ba47813	0.005019197
45	0xbd17fa7c	-0.037104115
46	0x3d3bbea8	0.04583612
47	0xbdce6a22	-0.10078837
48	0xbd4286ed	-0.047491957
49	0xbd65f5ad	-0.056142498
50	0xbd9252ff	-0.071447365
51	0xbd96c792	-0.07362284
52	0x3c8788ba	0.016544688
53	0xbbc123fc	-0.0058941822
54	0xbdd778b2	-0.10521068
55	0x3cda790b	0.026669046
56	0x3d780bc5	0.0605581
57	0xbd72b6e6	-0.059256457
58	0xbcf8d1a8	-0.03037341
59	0xbc6d116d	-0.014469487
60	0xbc52272c	-0.012826722
61	0xbc7e6350	-0.015526608
62	0xbd4d69b2	-0.050149627
63	0x3d626e8e	0.055281214
64	0xbcd5e1cc	-0.026108645
65	0x3c599576	0.013280263
66	0x3c0a7635	0.008451034
67	0x3cdb70cd	0.026787186
68	0xbd19c4bc	-0.037541136
69	0xbdf2a2b0	-0.118474364
70	0xbd89346e	-0.06699453
71	0xbcde95b4	-0.027170993
72	0x3d423a20	0.047418714
73	0x3d97ae72	0.0740632
74	0xbd5daef9	-0.054121945
75	0xbdeac67e	-0.11463641
76	0xbc2d76ba	-0.010587389
77	0xbc3bf3d7	-0.01147171
78	0xbda01735	-0.078169264
79	0x3cdcf300	0.02697134
80	0xbd8d1103	-0.0688801
81	0x3dab81bf	0.083743565
82	0xbd601fbf	-0.054717775
83	0x3ccd7ec9	0.02508487
84	0x3d5fbf2c	0.054625675
85	0xbd6cc50e	-0.057805113
86	0xbdf98bf6	-0.121848986
87	0xbcac3c19	-0.02102475
88	0xbdece036	-0.11566202
89	0xbd4696df	-0.048483726
90	0x3db237df	0.08702063
91	0x3d6768a3	0.056496274
92	0x3c1fa6ff	0.009744405
93	0xbd10c5c9	-0.035344873
94	0xbd4e37da	-0.050346233
95	0xbd778c31	-0.06043643
96	0x3cee0d6f	0.02905914
97	0xbdd586fd	-0.104261376
98	0xbd6e87ec	-0.058235094
99	0x3d839a5a	0.064259246
100	0xbdc37ac4	-0.095449
101	0x3c4eae40	0.012614787
102	0x3d912bc9	0.070884295
103	0x3d927824	0.07151821
104	0xbd8097a9	-0.06278927
105	0xbc8d2ad0	-0.017232329
106	0x3db9d30c	0.09073457
107	0x3d55f33a	0.052233912
108	0xbd0be923	-0.034157883
109	0x3ce457bf	0.027873872
110	0xbdf21804	-0.11820987
111	0xbc5704f7	-0.013123742
112	0xbc181e95	-0.009284635
113	0xbc9df3df	-0.019281326
114	0x3da15525	0.07877568
115	0x3c38f7c0	0.011289537
116	0x3d0a8ba4	0.033824578
117	0x3c653549	0.013989755
118	0x3c81f48c	0.01586368
119	0xbd88cf19	-0.06680126
120	0x3da56aab	0.08076986
121	0x3d932c68	0.07186204
122	0x3d98d02d	0.074615814
123	0xbdb6a2db	-0.08917781
124	0xbce0a356	-0.027421635
125	0x3d1b505c	0.037918434
126	0xbc4fe930	-0.012689874
127	0xbc967237	-0.018365009
128	0x3d689b95	0.056789
129	0xbe2893a7	-0.16462575
130	0x3dcde6c0	0.10053778
131	0x3dae15e3	0.08500268
132	0xbd948b8f	-0.07253181
133	0x3c49db06	0.012320286
134	0x3c220d6d	0.009890896
135	0x3cdb6ba9	0.026784735
136	0xbd1fb30a	-0.038989104
137	0x3d34ae21	0.044111375
138	0x3dca7588	0.098856986
139	0x3da1b993	0.078967236
140	0x3db2b3c0	0.08725691
141	0x3d2acf34	0.04170151
142	0xbde8a9d6	-0.11360519
143	0xbdef0e78	-0.116726816
144	0x3d23ffba	0.0400388
145	0xbdc4521e	-0.09585975
146	0xbd66d21c	-0.05635272
147	0xbdb14bee	-0.086570606
148	0x3db49776	0.088179514
149	0xbd5778d4	-0.052605465
150	0x3d3963c6	0.045261167
151	0x3b4aaac1	0.0030924531
152	0xbe31f28c	-0.1737768
153	0xbd0592eb	-0.032610815
154	0x3bfdd12c	0.0077458825
155	0xbc911ddb	-0.017714432
156	0xbe0901e3	-0.13379626
157	0x3df58789	0.11988742
158	0xbd6eb7ed	-0.058280874
159	0xbd412bcc	-0.04716091
160	0x3d31896e	0.043343954
161	0x3b950a85	0.004548373
162	0xbd34fe83	-0.044188034
163	0x3d0ada0a	0.033899345
164	0xbda8b4b8	-0.08237594
165	0xbe0ad2e4	-0.13557011
166	0x3cf61d50	0.030043274
167	0xbc67efb7	-0.014156274
168	0xbc559928	-0.013037004
169	0xbb7cd497	-0.0038578862
170	0x3d0a6159	0.033784244
171	0xbc96695a	-0.018360782
172	0x3d41bdab	0.047300022
173	0x3b01c4ef	0.001980122
174	0x3c86834c	0.01642003
175	0x3ccdc41b	0.025117924
176	0x3d4f4f60	0.050612807
177	0x3df3f61b	0.11912175
178	0x3df981fd	0.121829964
179	0x3d605280	0.054766178
180	0xbdbc6bb9	-0.09200234
181	0xbe063f73	-0.13110141
182	0x3cc26096	0.023727696
183	0xbd80c5c1	-0.062877186
184	0xbd9656c1	-0.07340766
185	0x3dcd99bf	0.1003909
186	0x3e0f1676	0.13973412
187	0x3cc28755	0.023746172
188	0x3dedb3ab	0.116065346
189	0xbdb7f02c	-0.08981356
190	0x3cb2c854	0.02182404
191	0xbd8bf704	-0.06834224
192	0xbbb848e2	-0.0056239227
193	0xbe12217a	-0.14270583
194	0x3c260741	0.010133565
195	0x3c41a014	0.011817951
196	0x3e122128	0.1427046
197	0x3d8063f2	0.06269063
198	0x3dc87796	0.09788434
199	0xbd99a300	-0.07501793
200	0xbdba3ece	-0.0909401
201	0xbd701f1a	-0.05862341
202	0x3df1fcdd	0.11815808
203	0x3d22bb96	0.039729677
204	0x3b63c55b	0.0034755084
205	0x3dd9177e	0.10600184
206	0x3dfaf9ce	0.12254678
207	0xbc0931b1	-0.008373664
208	0x3da3bd46	0.079950854
209	0xbe08bc94	-0.13353187
210	0x3d774f04	0.06037809
211	0x3c417ecc	0.011810016
212	0xbe107b63	-0.14109568
213	0xbd69211c	-0.05691634
214	0x3c61b4f6	0.013776055
215	0x3cdfcb1d	0.027318532
216	0x3d7aae8c	0.061201617
217	0x3dafd74c	0.085859865
218	0xbd3bb102	-0.045823105
219	0xbdd26745	-0.10273603
220	0xbd3a77c9	-0.045524392
221	0x3e109e49	0.14122881
222	0x3d9ed89e	0.0775616
223	0x3e0e02a1	0.1386819
224	0xbdabe444	-0.083931476
225	0x3d9bd264	0.07608488
226	0x3dedb455	0.11606661
227	0xbc18731a	-0.009304786
228	0xbd35c136	-0.044373713
229	0xbd286054	-0.04110749
230	0xbdc4d914	-0.09611717
231	0x3db3d9bd	0.08781765
232	0x3ccd4ef2	0.025062058
233	0xbd739632	-0.05946941
234	0x3b244d90	0.0025070645
235	0xbdb89c26	-0.09014158
236	0xbc9d3966	-0.019192409
237	0xbcb8da9c	-0.022565179
238	0x3ddc69f1	0.10762394
239	0xbde01842	-0.10942127
240	0xbde5e89c	-0.11226007
241	0x3dac4485	0.084115066
242	0x3dd526e9	0.10407812
243	0xbd8e9ada	-0.06963129
244	0xbda70335	-0.081549086
245	0x3ced2201	0.028946878
246	0xbd998f88	-0.074980795
247	0x3d1bc29e	0.0380274
248	0xbd6f3a74	-0.058405355
249	0xbcb7f210	-0.022454292
250	0x3dbc77cf	0.09202539
251	0x3e2ddd64	0.16978985
252	0x3db94be0	0.09047675
253	0xbce8b5e1	-0.02840704
254	0xbcf350be	-0.029701587
255	0xbc125429	-0.008931198

bias f4 [4]
0	0x3e00bd50	0.12572217
1	0xbe4a48d9	-0.19754352
2	0x3dc4f8bd	0.096177556
3	0x3d87031a	0.065923885
