dapg/examples/dapg_jit_model/no_pen-v0/model_feature.pt (torch, 179982 bytes, 10 tensors)

in_shift f4 [72]
00000000: 0000 0000 0000 0000 0000 0000 0000 0000
00000010: 0000 0000 0000 0000 0000 0000 0000 0000
00000020: 0000 0000 0000 0000 0000 0000 0000 0000
00000030: 0000 0000 0000 0000 0000 0000 0000 0000
00000040: 0000 0000 0000 0000 0000 0000 0000 0000
00000050: 0000 0000 0000 0000 0000 0000 0000 0000
00000060: 0000 0000 0000 0000 0000 0000 0000 0000
00000070: 0000 0000 0000 0000 0000 0000 0000 0000
00000080: 0000 0000 0000 0000 0000 0000 0000 0000
00000090: 0000 0000 0000 0000 0000 0000 0000 0000
000000a0: 0000 0000 0000 0000 0000 0000 0000 0000
000000b0: 0000 0000 0000 0000 0000 0000 0000 0000
000000c0: 0000 0000 0000 0000 0000 0000 0000 0000
000000d0: 0000 0000 0000 0000 0000 0000 0000 0000
000000e0: 0000 0000 0000 0000 0000 0000 0000 0000
000000f0: 0000 0000 0000 0000 0000 0000 0000 0000
00000100: 0000 0000 0000 0000 0000 0000 0000 0000
00000110: 0000 0000 0000 0000 0000 0000 0000 0000
0.0 0.0 0.0 0.0 0.0 0.0 0.0 0.0
0.0 0.0 0.0 0.0 0.0 0.0 0.0 0.0
0.0 0.0 0.0 0.0 0.0 0.0 0.0 0.0
0.0 0.0 0.0 0.0 0.0 0.0 0.0 0.0
0.0 0.0 0.0 0.0 0.0 0.0 0.0 0.0
0.0 0.0 0.0 0.0 0.0 0.0 0.0 0.0
0.0 0.0 0.0 0.0 0.0 0.0 0.0 0.0
0.0 0.0 0.0 0.0 0.0 0.0 0.0 0.0
0.0 0.0 0.0 0.0 0.0 0.0 0.0 0.0

in_scale f4 [72]
00000000: 0000 803f 0000 803f 0000 803f 0000 803f
00000010: 0000 803f 0000 803f 0000 803f 0000 803f
00000020: 0000 803f 0000 803f 0000 803f 0000 803f
00000030: 0000 803f 0000 803f 0000 803f 0000 803f
00000040: 0000 803f 0000 803f 0000 803f 0000 803f
00000050: 0000 803f 0000 803f 0000 803f 0000 803f
00000060: 0000 803f 0000 803f 0000 803f 0000 803f
00000070: 0000 803f 0000 803f 0000 803f 0000 803f
00000080: 0000 803f 0000 803f 0000 803f 0000 803f
00000090: 0000 803f 0000 803f 0000 803f 0000 803f
000000a0: 0000 803f 0000 803f 0000 803f 0000 803f
000000b0: 0000 803f 0000 803f 0000 803f 0000 803f
000000c0: 0000 803f 0000 803f 0000 803f 0000 803f
000000d0: 0000 803f 0000 803f 0000 803f 0000 803f
000000e0: 0000 803f 0000 803f 0000 803f 0000 803f
000000f0: 0000 803f 0000 803f 0000 803f 0000 803f
00000100: 0000 803f 0000 803f 0000 803f 0000 803f
00000110: 0000 803f 0000 803f 0000 803f 0000 803f
1.0 1.0 1.0 1.0 1.0 1.0 1.0 1.0
1.0 1.0 1.0 1.0 1.0 1.0 1.0 1.0
1.0 1.0 1.0 1.0 1.0 1.0 1.0 1.0
1.0 1.0 1.0 1.0 1.0 1.0 1.0 1.0
1.0 1.0 1.0 1.0 1.0 1.0 1.0 1.0
1.0 1.0 1.0 1.0 1.0 1.0 1.0 1.0
1.0 1.0 1.0 1.0 1.0 1.0 1.0 1.0
1.0 1.0 1.0 1.0 1.0 1.0 1.0 1.0
1.0 1.0 1.0 1.0 1.0 1.0 1.0 1.0

out_shift f4 [128]
00000000: 0000 0000 0000 0000 0000 0000 0000 0000
00000010: 0000 0000 0000 0000 0000 0000 0000 0000
00000020: 0000 0000 0000 0000 0000 0000 0000 0000
00000030: 0000 0000 0000 0000 0000 0000 0000 0000
00000040: 0000 0000 0000 0000 0000 0000 0000 0000
00000050: 0000 0000 0000 0000 0000 0000 0000 0000
00000060: 0000 0000 0000 0000 0000 0000 0000 0000
00000070: 0000 0000 0000 0000 0000 0000 0000 0000
00000080: 0000 0000 0000 0000 0000 0000 0000 0000
00000090: 0000 0000 0000 0000 0000 0000 0000 0000
000000a0: 0000 0000 0000 0000 0000 0000 0000 0000
000000b0: 0000 0000 0000 0000 0000 0000 0000 0000
000000c0: 0000 0000 0000 0000 0000 0000 0000 0000
000000d0: 0000 0000 0000 0000 0000 0000 0000 0000
000000e0: 0000 0000 0000 0000 0000 0000 0000 0000
000000f0: 0000 0000 0000 0000 0000 0000 0000 0000
00000100: 0000 0000 0000 0000 0000 0000 0000 0000
00000110: 0000 0000 0000 0000 0000 0000 0000 0000
00000120: 0000 0000 0000 0000 0000 0000 0000 0000
00000130: 0000 0000 0000 0000 0000 0000 0000 0000
00000140: 0000 0000 0000 0000 0000 0000 0000 0000
00000150: 0000 0000 0000 0000 0000 0000 0000 0000
00000160: 0000 0000 0000 0000 0000 0000 0000 0000
00000170: 0000 0000 0000 0000 0000 0000 0000 0000
00000180: 0000 0000 0000 0000 0000 0000 0000 0000
00000190: 0000 0000 0000 0000 0000 0000 0000 0000
000001a0: 0000 0000 0000 0000 0000 0000 0000 0000
000001b0: 0000 0000 0000 0000 0000 0000 0000 0000
000001c0: 0000 0000 0000 0000 0000 0000 0000 0000
000001d0: 0000 0000 0000 0000 0000 0000 0000 0000
000001e0: 0000 0000 0000 0000 0000 0000 0000 0000
000001f0: 0000 0000 0000 0000 0000 0000 0000 0000
0.0 0.0 0.0 0.0 0.0 0.0 0.0 0.0
0.0 0.0 0.0 0.0 0.0 0.0 0.0 0.0
0.0 0.0 0.0 0.0 0.0 0.0 0.0 0.0
0.0 0.0 0.0 0.0 0.0 0.0 0.0 0.0
0.0 0.0 0.0 0.0 0.0 0.0 0.0 0.0
0.0 0.0 0.0 0.0 0.0 0.0 0.0 0.0
0.0 0.0 0.0 0.0 0.0 0.0 0.0 0.0
0.0 0.0 0.0 0.0 0.0 0.0 0.0 0.0
0.0 0.0 0.0 0.0 0.0 0.0 0.0 0.0
0.0 0.0 0.0 0.0 0.0 0.0 0.0 0.0
0.0 0.0 0.0 0.0 0.0 0.0 0.0 0.0
0.0 0.0 0.0 0.0 0.0 0.0 0.0 0.0
0.0 0.0 0.0 0.0 0.0 0.0 0.0 0.0
0.0 0.0 0.0 0.0 0.0 0.0 0.0 0.0
0.0 0.0 0.0 0.0 0.0 0.0 0.0 0.0
0.0 0.0 0.0 0.0 0.0 0.0 0.0 0.0

out_scale f4 [128]
00000000: 0000 803f 0000 803f 0000 803f 0000 803f
00000010: 0000 803f 0000 803f 0000 803f 0000 803f
00000020: 0000 803f 0000 803f 0000 803f 0000 803f
00000030: 0000 803f 0000 803f 0000 803f 0000 803f
00000040: 0000 803f 0000 803f 0000 803f 0000 803f
00000050: 0000 803f 0000 803f 0000 803f 0000 803f
00000060: 0000 803f 0000 803f 0000 803f 0000 803f
00000070: 0000 803f 0000 803f 0000 803f 0000 803f
00000080: 0000 803f 0000 803f 0000 803f 0000 803f
00000090: 0000 803f 0000 803f 0000 803f 0000 803f
000000a0: 0000 803f 0000 803f 0000 803f 0000 803f
000000b0: 0000 803f 0000 803f 0000 803f 0000 803f
000000c0: 0000 803f 0000 803f 0000 803f 0000 803f
000000d0: 0000 803f 0000 803f 0000 803f 0000 803f
000000e0: 0000 803f 0000 803f 0000 803f 0000 803f
000000f0: 0000 803f 0000 803f 0000 803f 0000 803f
00000100: 0000 803f 0000 803f 0000 803f 0000 803f
00000110: 0000 803f 0000 803f 0000 803f 0000 803f
00000120: 0000 803f 0000 803f 0000 803f 0000 803f
00000130: 0000 803f 0000 803f 0000 803f 0000 803f
00000140: 0000 803f 0000 803f 0000 803f 0000 803f
00000150: 0000 803f 0000 803f 0000 803f 0000 803f
00000160: 0000 803f 0000 803f 0000 803f 0000 803f
00000170: 0000 803f 0000 803f 0000 803f 0000 803f
00000180: 0000 803f 0000 803f 0000 803f 0000 803f
00000190: 0000 803f 0000 803f 0000 803f 0000 803f
000001a0: 0000 803f 0000 803f 0000 803f 0000 803f
000001b0: 0000 803f 0000 803f 0000 803f 0000 803f
000001c0: 0000 803f 0000 803f 0000 803f 0000 803f
000001d0: 0000 803f 0000 803f 0000 803f 0000 803f
000001e0: 0000 803f 0000 803f 0000 803f 0000 803f
000001f0: 0000 803f 0000 803f 0000 803f 0000 803f
1.0 1.0 1.0 1.0 1.0 1.0 1.0 1.0
1.0 1.0 1.0 1.0 1.0 1.0 1.0 1.0
1.0 1.0 1.0 1.0 1.0 1.0 1.0 1.0
1.0 1.0 1.0 1.0 1.0 1.0 1.0 1.0
1.0 1.0 1.0 1.0 1.0 1.0 1.0 1.0
1.0 1.0 1.0 1.0 1.0 1.0 1.0 1.0
1.0 1.0 1.0 1.0 1.0 1.0 1.0 1.0
1.0 1.0 1.0 1.0 1.0 1.0 1.0 1.0
1.0 1.0 1.0 1.0 1.0 1.0 1.0 1.0
1.0 1.0 1.0 1.0 1.0 1.0 1.0 1.0
1.0 1.0 1.0 1.0 1.0 1.0 1.0 1.0
1.0 1.0 1.0 1.0 1.0 1.0 1.0 1.0
1.0 1.0 1.0 1.0 1.0 1.0 1.0 1.0
1.0 1.0 1.0 1.0 1.0 1.0 1.0 1.0
1.0 1.0 1.0 1.0 1.0 1.0 1.0 1.0
1.0 1.0 1.0 1.0 1.0 1.0 1.0 1.0

weight f4 [128, 72]
00000000: 421c a43d 8511 c1bc 2320 853d 6ad1 83bc
00000010: b6ac 35bd 12ab e03c 3204 0f3c b3a6 e43c
00000020: b455 03bd 064a 61bd 39f2 9f3c 542d 093e
00000030: 5a0c e5bc fee3 3fbd 3fbb c3bd 2fc6 14bd
00000040: 6011 9dbd 03ac fc3d ce26 1f3e 30e4 73bc
00000050: 809e d1bc 3a13 bf3c 3a5b 0cbe 0290 53bc
00000060: 80a1 ad3c 96ac 8e3d 82f3 1a3d 275b 9a3d
00000070: 75de 3ebd 9764 ccbc 9053 29bd 3288 9fb8
00000080: 88d7 a4bd 364d 773d ca52 afbc 121d 3ebd
00000090: c878 49bc 908f 06bd d1af b6bd e8ae aebd
000000a0: deac f73d 548c 4e3d b29e e43d 9ce1 013d
000000b0: 5c17 023e 32e9 d73d cf4c 00be 48f4 46bd
000000c0: 0cf1 943d ccda 653d 3dd4 3d3d 9497 2d3d
000000d0: 74df 093d 1db4 13bd fe58 0fbd 15a6 c2bc
000000e0: 5ef2 9e3d a60c 883d 1f9b a73c 98a3 85bd
000000f0: ee86 d0bb faa3 a03d 2a4d 433d a589 e9bd
00000100: f712 73bd 9537 37bd 486c 443c 220e b03d
00000110: d973 fc3c 291b 4c3d a15c 723d 949e a23d
00000120: 8475 a83b ee74 75bd 5d1d 043c e251 c03d
00000130: 6027 793d b812 7f3d 47f1 033e 2bcd e4bc
00000140: debd b53d a9a7 5d3d d626 0ebd 6008 87bb
00000150: 0d06 80bd 7446 76bd 7e5a 3a3e 25e4 d9bd
00000160: 78fa 9dbd c1f2 94bd 9329 e43b 1bee 973d
00000170: 0811 013d 92df 193e 4b46 e33c fdf3 84bd
00000180: 683b 6e3d e5ac 303d 4e4a 963d b3b9 e8bc
00000190: c791 013d b8c4 0b3b 27ba 8a3b 1181 8fbc
000001a0: e79c dc3d 9459 983d 7d60 ccbc f3fe 8a3c
000001b0: 03e3 7b3d 56a3 3bbc bcae 643b 0c45 a43d
000001c0: 9070 05bd e430 69bd 8f1e 3dbd a460 873c
000001d0: 143f b0bd 2d99 933d 5b57 423c f54b b1bd
000001e0: 49f7 343d 3d44 39be 5bbd 003e 98c3 cf3d
000001f0: 4b52 d3bd ec0a 063d a6f7 083e 4e13 a43d
00000200: 0a6f 72bd 8e97 95b9 d8cf 55bd 2ae5 9a3d
00000210: e6f8 103d d3f3 663c 51a1 663d 2207 803d
00000220: 22c6 4c3c 6626 fdbd da02 473d 01b6 07be
00000230: d34c 0cbe fc89 2e3e 1633 113e be9c b7bd
00000240: e355 bc3d c032 72bd 7e5e cdbc 0acb f1bb
00000250: 80b9 91bd c1c5 1b3e 8345 8c3d dfd3 983d
00000260: b4bb ef3c a72a 1f3d f44a 7fbd d1d1 45bc
00000270: 8d8c 2f3d da4d e43d a0d2 1cbd fbc7 0c3e
00000280: 5ea6 6d3d d1e3 2f3c fd46 46bd 482a 01be
00000290: 9012 26bd d471 d33d dccd 9f3c 3ba6 213c
000002a0: 2a56 b23d 066e a7bc 558a f33d 6812 45bd
000002b0: adad 69bc c401 a43c 431a 163e 1d5a 143d
000002c0: 6c64 0cbd 1152 e13d 288c e03d b729 eabc
000002d0: 3c7c 89bd fddf 7fbc 10f6 1dbd fc2c 2ebd
000002e0: c2bb 95bd 04c1 8a3b ab9e 81bd 49a3 1abd
000002f0: aba3 5e3d a3e6 773d ba16 6dbd eb23 083d
00000300: 45ac b63d 2bdc 83bd 7f9d 9abd c651 f53d
00000310: a1dd 003d fccd fb3d b533 243e cb03 a63b
00000320: 4bf9 053d 9790 923d e35c b8bb 92b1 09bd
00000330: d899 f23d 2c34 a4bd ecc9 33bc 80af ba3d
00000340: 3b7e 213d 9ec6 513d 39ee 273d fb10 92bc
00000350: 7117 3d3d 3bcc ca3d 33ba bbbd 706e b4bc
00000360: 2bc0 b13c bd32 b9bd f87b 0f3e 2808 303d
00000370: 00ec 6cbd 600d 1c3c c3aa bebd 65f2 8a3d
00000380: b987 22bd 9ed4 c13d 3d2d db3d 3d30 893d
00000390: c9b9 4cbc 83df 71bc e120 353e 64c8 b33d
000003a0: 1bd6 813c e8a0 663d ed4e a7bd 4e65 c73c
000003b0: 3944 98bd 02cc b6bd d860 e33c eb65 14be
000003c0: 81e4 123d e34c 41be 2a50 813e d254 413b
000003d0: d3bc 8fbd f31a 18bd b1ab 5c3d c86f 47bd
000003e0: de62 6ebd 6e90 15bb 27ab 413d 0902 8abc
000003f0: 0453 1b3d 932f 76bd 1d2e fa3d 6594 803c
0.08013202 -0.023567924 0.0650027 -0.016091067 -0.044354163 0.027425323 0.008729028 0.02791152
-0.032064155 -0.055002235 0.01952468 0.13396198 -0.027959991 -0.04684829 -0.09557199 -0.036321815
-0.0766933 0.12337496 0.15542147 -0.014885947 -0.025588274 0.023324598 -0.13706675 -0.012912752
0.021195173 0.06966512 0.037829883 0.07536917 -0.04659887 -0.024950309 -0.041339457 -7.607079e-05
-0.08048922 0.06037637 -0.021401782 -0.046414442 -0.012296863 -0.032851756 -0.08920253 -0.085294545
0.12093519 0.050426796 0.11163081 0.0317093 0.12704223 0.10542525 -0.125293 -0.04857281
0.072725385 0.056116864 0.046344984 0.042380884 0.033660367 -0.03606044 -0.03499698 -0.023760835
0.077610716 0.066430375 0.02045971 -0.06525344 -0.006363741 0.07843776 0.04768101 -0.11403207
-0.05934426 -0.04473074 0.011988707 0.085964456 0.03081696 0.04983059 0.05917037 0.079404026
0.005140962 -0.059925966 0.008063641 0.09390618 0.060828567 0.06227371 0.12885009 -0.027929863
0.08874105 0.05411497 -0.034705006 -0.0041208714 -0.06251154 -0.060125783 0.18198583 -0.10639218
-0.07713789 -0.07272864 0.006962964 0.07418462 0.031510383 0.15026692 0.02774348 -0.064918496
0.058162123 0.043133635 0.07338391 -0.02840886 0.031633165 0.002132697 0.004233617 -0.017517598
0.10772114 0.07438961 -0.024948353 0.016967272 0.061495792 -0.011452517 0.003489419 0.08020982
-0.03257805 -0.05693139 -0.04617172 0.016525574 -0.08605781 0.0720695 0.0118616475 -0.08657066
0.044181142 -0.18092437 0.12572233 0.101447284 -0.103184305 0.03272526 0.1337572 0.080114946
-0.059187926 -0.00028532412 -0.05220017 0.07563241 0.035393618 0.014096218 0.056306187 0.062513605
0.01249841 -0.123608395 0.048586704 -0.13253023 -0.13701181 0.17044824 0.14179644 -0.08965443
0.09196069 -0.05913043 -0.025069471 -0.0073789405 -0.071154594 0.15212156 0.06849196 0.07462286
0.029264309 0.038859036 -0.06232734 -0.01207395 0.04285865 0.111476615 -0.038286805 0.13748161
0.05801999 0.010735468 -0.048407543 -0.12613785 -0.040545046 0.10324445 0.019507341 0.009866293
0.08707841 -0.020438205 0.11891619 -0.048113257 -0.014262599 0.020020373 0.14658456 0.03621875
-0.034275457 0.11001981 0.10964233 -0.028584344 -0.06713149 -0.015617368 -0.03856474 -0.04252337
-0.073112026 0.004234435 -0.06329092 -0.037753377 0.054355305 0.060522687 -0.057883002 0.03323738
0.089195766 -0.06438478 -0.07549571 0.11978488 0.03146136 0.12295148 0.1603535 0.00506637
0.032708447 0.071564846 -0.0056263073 -0.03361661 0.118457496 -0.080177635 -0.010973435 0.09115505
0.039427023 0.051214807 0.04099867 -0.017830363 0.046164934 0.09902235 -0.09166374 -0.022025317
0.021698078 -0.09042881 0.14012134 0.04297653 -0.057842255 0.009524673 -0.09309914 0.06784514
-0.039680216 0.09464382 0.10701988 0.06698654 -0.0124954665 -0.014762762 0.17688324 0.08778456
0.015849164 0.056305796 -0.08169351 0.024340298 -0.074348874 -0.0892563 0.02775614 -0.14492004
0.03586245 -0.18876986 0.25256473 0.002950002 -0.07018437 -0.037135076 0.053874675 -0.048690587
-0.058199756 -0.0022821683 0.047282364 -0.016846674 0.037920967 -0.060103964 0.12215827 0.01569576

bias f4 [128]
00000000: 2e5c ab3d 3498 9cbd 1787 c83d ce1b 99ba
00000010: 4436 713d 6483 b53d da10 b63c 694d 1dbd
00000020: 951a 283d 016b 79bd 5d64 de3d c83b 093e
00000030: 0c95 8dbd 44c8 183e be8d e8bd 6fc4 aabd
00000040: 37d8 083e 6ccc a2bd 674b e6bc d239 ce3d
00000050: 65fe 9bbd 5a8f 61bd 5d88 da3d 4ade a1bd
00000060: 4ffa db3d 233e a2bd 2f8b d1bd ce53 ccbd
00000070: cf3d 14bd 28aa 11bd 9091 0cbe f335 073d
00000080: 7c77 e8bd a5fc 903d badf c93c bbb9 ae3c
00000090: 9a7b 35bd 6c13 303d 012d 913d ff80 c5bd
000000a0: b799 d8bd 9208 923d 30ed 8cbd 0587 163d
000000b0: a7a6 39bd 9883 043e ac64 9e3d e51c 7bbd
000000c0: 2acd 19be 6c92 8abd 17e8 8b3c e096 2b3d
000000d0: dca1 d33d 7da7 e43d 7554 9dbd 6423 11bc
000000e0: a3a9 073d cb03 00be fff3 093e b5ca da3c
000000f0: db4d e33d 90ac f93c d984 033e 17f7 b13d
00000100: d36b 0f3e 6bc2 a83c 60ad 13bd 7b95 883c
00000110: c7ca 8d3d b172 dfbd dcce 413c de05 1c3c
00000120: 8382 093e c779 37bc d8f3 b83d d440 883d
00000130: 42cd a53d 036e 9b3c ed09 f03d 1475 a8bd
00000140: 969f 89bd 576b 193e de1b 40bd 3f96 e73c
00000150: 39e8 a8bd fa73 673d d8bc c4bd 8dcd 403c
00000160: 759b e6ba a8e6 94bd d6c3 c0bd f85c 6e3d
00000170: 07ae ad3c 8b01 c0bd 43d8 d6bc ea31 003e
00000180: e12e 2e3e d5cb 39bd d7b9 4dbd 4406 97bd
00000190: 32eb 00bd d02b a83d 2fd3 763d 2410 ebbd
000001a0: c8f8 2e3d 0f22 b93c 2617 323c bbd4 9f3c
000001b0: e3e1 bf3d 142d cfbd 8cc6 87bb 724a 6a3d
000001c0: 7de8 bebd ecba d6bd 923d bdbd 38b6 2e3d
000001d0: 4230 093e 6f79 10bd 1b9c 66bd 9769 b33d
000001e0: 8775 433c 8d68 01be 41ca dd3d fa53 843d
000001f0: 2686 3b3d d619 f0bc 74b7 143d 18bb e43a
0.08367191 -0.07646218 0.09791391 -0.001168126 0.058889642 0.088629514 0.022224832 -0.038403902
0.041040976 -0.060893063 0.108589865 0.13401711 -0.06913194 0.14920145 -0.1135516 -0.08338248
0.1336373 -0.07949147 -0.028112127 0.10069622 -0.07616881 -0.05506835 0.106705405 -0.079037264
0.10741102 -0.07922008 -0.10231625 -0.09976922 -0.036191758 -0.035562664 -0.13727403 0.033010434
-0.11350915 0.07079438 0.024642814 0.021328798 -0.04430733 0.042987272 0.07088662 -0.09643745
-0.10576194 0.07130541 -0.068811774 0.03674986 -0.045324948 0.12940824 0.077340454 -0.061306853
-0.1501967 -0.06766209 0.017078442 0.041891932 0.103336066 0.11164758 -0.076821245 -0.008858535
0.033120763 -0.12501447 0.13471983 0.026707986 0.11098834 0.030477792 0.12843646 0.08689707
0.14005975 0.020600518 -0.036054015 0.01667284 0.06923442 -0.109105475 0.011829104 0.009522883
0.13428693 -0.011198468 0.090308845 0.0665299 0.080957904 0.018973356 0.11720643 -0.08225456
-0.06719892 0.14982353 -0.046901576 0.028269885 -0.08247418 0.05650709 -0.096063316 0.011767757
-0.0017593937 -0.07270557 -0.09412353 0.05819413 0.021201147 -0.09375294 -0.026226168 0.1251904
0.1701007 -0.045360405 -0.05022606 -0.07374242 -0.0314743 0.082114816 0.060259994 -0.11477688
0.042717725 0.022599248 0.010869777 0.019510617 0.09369256 -0.1011602 -0.0041435417 0.057199903
-0.09321687 -0.10484871 -0.09240259 0.042654246 0.13397315 -0.035272058 -0.056301218 0.08760374
0.011929876 -0.12637539 0.108295925 0.0646133 0.04578223 -0.029309195 0.036307767 0.0017450778

weight f4 [128, 128]
00000000: 5412 06bd 2c8d b8bd 3969 4e3d ce25 123d
00000010: f2e2 08bb d9a6 47ba 9981 113d 6c87 0abe
00000020: 26d3 b6bc 3911 14bd 5a00 673c 3c05 aa3c
00000030: e588 883c 8522 83bd 37fb 893b af37 bc3d
00000040: 8dcc b43c 42ca 0cbd 6248 413d 065a 9fba
00000050: 77bf d5bd b397 d3bd d9ca 2d3d c032 8e3c
00000060: 7c5a 783c ccc9 be3d 51f3 cdbd e8c3 e5bd
00000070: 3d40 51bd 5afd b7bd 6319 21bc bd06 e6bc
00000080: 7f30 873d 3450 38bc d1d6 f8bb 3c8d 96bd
00000090: 0830 90bc 803e 763d 3ac9 2dbd c605 61bd
000000a0: b8cf bdbd 2ba9 ad3d cdb2 1c3c 9b9a f03c
000000b0: 1b87 a1bd b5dc 933d 0844 823d 9c73 13be
000000c0: d50f 2ebd ac57 f93d fce4 353d 8d3c 7bbd
000000d0: 273d ccbd a966 edbd 32b5 f4bb ea98 973d
000000e0: 143b 9f3d 0367 113d 9c69 ac3d 7629 aa3c
000000f0: 01cb 0abe 4028 2cbd 171b 60bd 1eda 44bd
00000100: 4898 43bc ca8c 39bd 05e9 c9bc c886 b33d
00000110: c53f a3bc b9c8 b63c 3824 9bbc d629 a0bd
00000120: 4ee8 b43d 8c03 80bc 41f2 71bd 78ae 08be
00000130: f626 953b 6478 28bd b1bf 993d 111b 9a3c
00000140: 84a0 37bd ae8a 163e d4ef eebc dbf3 02bd
00000150: 8826 6a3d 111d b63d 4f2c b63d 0400 993c
00000160: 1751 eabc 9f61 103e bb33 32bc 4ef5 cd3d
00000170: 396e cbbd 7218 f53c fab7 a5bd 8a38 28bc
00000180: 5049 943d 8f82 2e3d 41cc a03d 2432 9bbc
00000190: db52 8d3c e041 ddbd 9c17 063d 42ef a6bd
000001a0: 4801 813d 2b84 a8bd 160a 55bd 8c4f 803d
000001b0: c846 113d 403b c13d 4a73 f83c 1639 483d
000001c0: 9768 82bb 4a25 343d 2f05 713d b20e dd3c
000001d0: 00e2 db3c 3ee9 333d abd2 d33b 703e f83c
000001e0: af28 563d 38c6 b4bd e1f8 833d 2437 85bd
000001f0: 1ec2 913c b5dd c73c e38c 67bb fafc 8cbd
00000200: 9e30 003d 7bfa c93d 8f98 c9bc 4e25 253d
00000210: 22b1 c2bc b4a0 23bd e2b4 3bbd 2231 02be
00000220: ec0b 7d3d 70da 03bc 7133 363e 87ab 9d3d
00000230: 0cc9 a6ba f700 f73d 704e 9abd cfa0 5bbd
00000240: e02c b53d 5c93 e53d 9980 863d e830 6e3d
00000250: 6627 0abd b8ea 9c3a 6a77 58bd 4447 d9bd
00000260: d867 b839 afff dcbb a958 56bd 012e 2f3d
00000270: bcdf 663d da27 92bb 2409 23be 3c76 18be
00000280: 31ef 37bd c3c8 dfbd 0d69 de3c ae6e 313d
00000290: a293 133d bd9e 82bc b222 843b fe1d 9bbb
000002a0: 2014 253c 29c9 213e 5e08 473d 3df7 93bd
000002b0: a009 72bd dd1c 15bd f776 943d c54b 553d
000002c0: 85c0 b53a f3f3 6cbd ec87 8fbd d0ee 96bd
000002d0: bca9 39bc 4a7c a1bc 23d6 503c 8ff0 113c
000002e0: 0294 823d 19c7 f33c ae7a d5bc 4be0 47bd
000002f0: 3afb a33c 7a48 c2bd 034d 33bc d728 80bd
00000300: 7b13 953b 5a9c c53b aaa4 123d 9379 1e3d
00000310: d373 a23c fc31 45bd 868e 973d b538 4bb9
00000320: 34ea 163d 73e9 f83c 39d3 a33c fdbd 093d
00000330: e3f2 af3c 3cb3 953d aea9 343d 6a0e a5bd
00000340: d9a7 8e3d f024 1a3e d549 bfbd 7601 a43d
00000350: d5d7 e4bb 5004 0dbe a40f a63c ca01 8e3d
00000360: 72b9 98bd 3ff6 973d ba6e 28bd 7b66 8c3d
00000370: d365 acbd d319 1d3d b1ab 503d 5a55 cbbc
00000380: 70dc 553e 0928 15bc a9e4 593c bdcd 43bd
00000390: 24c5 723c 4319 aabd c61a f33c 3c87 f73c
000003a0: 2c8d 983d b2a8 443d a8d1 8fbd 08f1 a03c
000003b0: bdbd e13b daf0 cabd 36d4 023e fd16 d33b
000003c0: 4729 95bd 2fb8 06be 06ce cf3c e196 b73d
000003d0: e91f 7b3c e04c bc3d f9c9 6ebd f93c 73bc
000003e0: adcd c6bd 316c a6bd 8c84 073e 5423 2bbd
000003f0: 1500 99bc f12c 6e3e 00ca 223e e65f 653c
-0.032732323 -0.090113014 0.050393317 0.035680585 -0.0020887223 -0.000761611 0.035523985 -0.13528222
-0.02231748 -0.036149237 0.014099205 0.02075445 0.016666839 -0.064030685 0.0042108553 0.09190308
0.022070194 -0.034372576 0.04718817 -0.0012157566 -0.1043691 -0.10331669 0.04242978 0.017358184
0.015158292 0.093158334 -0.100561745 -0.11219007 -0.051086653 -0.0898387 -0.009832713 -0.028079385
0.06601047 -0.011249591 -0.0075939675 -0.07351157 -0.017601028 0.0601182 -0.042428233 -0.054937147
-0.09268135 0.08479532 0.009564114 0.029370597 -0.078870974 0.07219831 0.06360632 -0.1439957
-0.042495567 0.12174925 0.04440783 -0.061337043 -0.099726014 -0.115918465 -0.007467889 0.07402213
0.0777494 0.03549863 0.08418581 0.020771723 -0.13554002 -0.042030573 -0.054713335 -0.048059575
-0.011938162 -0.045300283 -0.024647245 0.08765942 -0.019927869 0.022312509 -0.018938169 -0.078204796
0.08833371 -0.015626691 -0.059068922 -0.13347805 0.0045517636 -0.04113044 0.07507265 0.018811734
-0.044830814 0.1470134 -0.029167093 -0.03197084 0.057165653 0.08892263 0.0889517 0.018676765
-0.02860312 0.1409974 -0.010876591 0.10056554 -0.09933133 0.029918883 -0.08091731 -0.010267386
0.07240546 0.04260498 0.07851458 -0.018944807 0.017251423 -0.1080358 0.03273736 -0.081511036
0.062990725 -0.08228334 -0.05201157 0.06265172 0.035467893 0.09435129 0.030328412 0.048882566
-0.0039797532 0.043980874 0.058842834 0.026984546 0.026841164 0.04392361 0.0064643226 0.03030321
0.052284893 -0.0882687 0.06443954 -0.06504658 0.017792758 0.02439771 -0.0035331778 -0.06884189
0.031296365 0.098622285 -0.024608878 0.04031878 -0.023766104 -0.03994818 -0.0458268 -0.12714055
0.061778948 -0.008047685 0.17793061 0.07698732 -0.0012724712 0.12060731 -0.07534492 -0.053620156
0.0884645 0.11209747 0.06567497 0.05815211 -0.03372898 0.0011971807 -0.052848257 -0.10609296
0.00035172584 -0.006744347 -0.052330647 0.042768482 0.056365713 -0.004460317 -0.15921456 -0.14888853
-0.044905845 -0.10926964 0.027149701 0.043318443 0.036029465 -0.015944833 0.0040324563 -0.0047338
0.010075599 0.15799393 0.048591964 -0.07224891 -0.05909121 -0.03640448 0.07249253 0.052074213
0.0013866579 -0.057849836 -0.07008347 -0.073697686 -0.011331972 -0.019712586 0.012746367 0.008907451
0.063758865 0.029758023 -0.026059475 -0.048797887 0.020017255 -0.0948648 -0.010943654 -0.062577896
0.0045494414 0.0060306014 0.035801567 0.03869016 0.01983062 -0.048143372 0.07400231 -0.00019380714
0.036844447 0.030384755 0.01999818 0.033628453 0.021478122 0.07309577 0.04410713 -0.0805939
0.06965608 0.15053153 -0.09340254 0.08008091 -0.006983737 -0.13771176 0.02027113 0.06933935
-0.07457246 0.074200146 -0.041121222 0.06855484 -0.08417859 0.038354706 0.050944988 -0.024820972
0.20884871 -0.009103783 0.013299146 -0.04780363 0.01481751 -0.083055995 0.029675853 0.030215852
0.074488014 0.048012443 -0.07022411 0.019646183 0.0068890736 -0.0990922 0.12776265 0.0064419494
-0.07283264 -0.13156198 0.025366794 0.08964325 0.015327432 0.0919435 -0.058298085 -0.01484608
-0.09707198 -0.081261046 0.13234156 -0.04178174 -0.018676797 0.23259331 0.1589737 0.013999915

bias f4 [128]
00000000: 746f 8a3d 3446 3e3d f9f8 66bd 9bd8 c3bd
00000010: 4926 a3bd 0d08 c3bd 2b64 603d 5b92 16bb
00000020: fa62 593d 6718 053e 2c3c 823d c965 bdbd
00000030: 06de 27bd d2e1 133d 0161 46bc a5f1 1f3d
00000040: 3ca2 1cbc a556 013d c2f4 fa3d e602 d03d
00000050: 84e0 9dbd 7b88 9cbd de22 6dbd aedd afbc
00000060: 5d1d 7fbd 774b 523d 0fb0 ba3d 66e2 a8bc
00000070: cf71 b5bc 5753 64bd 51db cf3d 8412 6ebd
00000080: 9f3c 52bd bc24 a6bd fb5c a8bd 2587 2fbd
00000090: 5fc1 2dbd e2b8 1bbd d77a 173c 61d5 e93b
000000a0: c2f0 9b3d 6057 403d 697e 433d 70b3 023d
000000b0: 7cad b33b cc3b 65bd d7ce 2a3d 3688 5e3d
000000c0: 3e6f 99bd dd44 713d e759 44bd 468e 9abd
000000d0: 85c6 08bd 624a c5bd 2891 5a3d 30ae 373d
000000e0: 2bcc bb3c e8b0 d33c 7fa1 37bd 71cf eebc
000000f0: 9569 f43b fb81 8a3c e730 54bd 597d f6bd
00000100: 0e63 743d 675b 8e3d 8a45 dbbc f99b da3b
00000110: e5fb 7a3d 287b 013e ab5e 803d 269c 393b
00000120: 2367 b4bd bc81 aa3d 57ab 11bd 60e2 b2bd
00000130: 1ead 9abd 80ce 713c d0ea 1a3d 50b9 f1bc
00000140: 1522 703b 83df e4bc 7c0c f33b 0771 4c3d
00000150: db7e 8b3d c899 05bd 7f9f 6f3d 632c 6ebd
00000160: 3cff 4f3c a4ef b13c a587 463d 0f43 163d
00000170: 85ff e5bc b145 ddbc d54a 283d 6495 67bd
00000180: 4498 edbc 9656 13bb 19e9 5bbd 57a6 b9bc
00000190: 4e5d 733b 9cb1 953d 1825 6c3c 3656 3a3d
000001a0: 0f8d 653d be79 ccbb a42e 95bd d73f 15bd
000001b0: 7428 aa3c cfd7 be3c 6760 ff3c 9eec 803d
000001c0: a2a1 593a eca6 2dbb 4691 39bc 3cee 4abd
000001d0: 7c2e 143d 5cf3 bb3d 1c2b bd3a c82c 843d
000001e0: 1782 e7bd 8bc2 193d 0b41 88bd 6c0c abbc
000001f0: d156 0c3d 7214 aa3d a141 39bd c35b 373d
0.06759539 0.04645367 -0.056389783 -0.095627986 -0.07966287 -0.0952302 0.054783028 -0.0022975418
0.053072907 0.1299759 0.06359133 -0.092479296 -0.040983222 0.03610403 -0.0121080885 0.03904881
-0.009560164 0.03157677 0.12253715 0.10156803 -0.077088386 -0.07643219 -0.05789458 -0.02146801
-0.062283862 0.0513415 0.09115612 -0.020615768 -0.022148995 -0.05574354 0.10149253 -0.058123127
-0.051327344 -0.08112475 -0.082208596 -0.042853493 -0.04242074 -0.038018115 0.009245596 0.0071360325
0.0761428 0.046958327 0.047727976 0.031909406 0.0054833274 -0.05596523 0.041701164 0.05432912
-0.07491921 0.058903564 -0.0479373 -0.07546668 -0.033392448 -0.09633328 0.053361088 0.044843853
0.022924503 0.025841191 -0.04483175 -0.02915165 0.0074588754 0.016907683 -0.05180445 -0.12035627
0.05966478 0.06951027 -0.026766557 0.0066714254 0.06127538 0.12644637 0.062680565 0.0028321831
-0.08808734 0.08325526 -0.035563793 -0.08734584 -0.07552551 0.014758706 0.03782159 -0.02950731
0.0036641408 -0.02793861 0.0074172597 0.04991248 0.06811305 -0.03261736 0.058501717 -0.0581478
0.01269513 0.021720715 0.048469204 0.036685046 -0.028075943 -0.02701077 0.04108699 -0.056538954
-0.02900327 -0.002248203 -0.053689096 -0.022662325 0.0037134471 0.07309267 0.014413141 0.045492373
0.056042727 -0.0062400987 -0.072842866 -0.036437836 0.020771243 0.023296265 0.031173898 0.06295131
0.0008301978 -0.0026497198 -0.01132614 -0.049543604 0.036177143 0.091772765 0.0014432403 0.06453854
-0.113041095 0.037539046 -0.06653031 -0.020879947 0.034262482 0.08304681 -0.045228604 0.044765245

weight f4 [128, 128]
00000000: f269 d73c d464 9fbd 8f26 a7bc af49 703c
00000010: f103 14be 9ee0 94bd 97fc 993d ea36 88bd
00000020: aa14 993c bd7d ebbd 04f8 6a3d e452 3dbd
00000030: f38e 2bbd 3a3c 193d 09a2 99bc 22ab 63bd
00000040: c669 d23d 4be4 ef3c 4a4b 11bd 1955 8cbc
00000050: 9f89 123c ee5d 603c 5d7d 09bd 160f 823a
00000060: 6af8 f33c 9647 e3bc cdaf 38bd 16e3 a33b
00000070: 5b6a d63d 425f ff3b bb78 f83d af1c 1abc
00000080: d349 d9bd ad5e 8e3d 8158 00bd cbab 093d
00000090: fc93 293e 457a 01be e211 023c 32be 76bc
000000a0: 83c6 d13d 9acf cdbd e87f e33d a228 3b3d
000000b0: d0bc ea3d bdb1 3f3d 3983 36bd 927c 79bd
000000c0: 7c27 453d 35a6 efbc 0480 23bd 65b5 95bd
000000d0: 8d0e 01be 4677 53bd 3587 5b3d dad7 8cb9
000000e0: b87f 40bc 805b dabd 82d5 6f3d 00d5 cf3c
000000f0: 03ee 02bc 79b6 2c3c c398 5fbd 3dfb d5bb
00000100: 2ea0 21be d497 193e 31fe a13d 681f ba3d
00000110: 400f c73d 2b09 56bd 743f 7a3d 7ea8 4dbd
00000120: 4ad4 bfbc c117 863d deaa a33b 34bb 47bd
00000130: 7574 cc3c a779 273d a060 553d 6a52 543b
00000140: 05ca 943d a6c7 4cbd 8a0f 643c 9e0a a03b
00000150: 59cc 8a3c 36c3 613c 8575 763c 2443 a5bb
00000160: b2ac 95bd ef44 acbd d7e6 6ebc d377 03bd
00000170: b676 e8bd 507a f6bc c47c 9fbd e15f 3d3d
00000180: d64e 8b3d 4ea1 be3d 10f2 333d 3983 6f3d
00000190: d7f0 30bd 9db1 2d3c dafd 7fbd 037e a83d
000001a0: a94d b53c ea0d cdbd f2b0 68bc e9c4 4abd
000001b0: 9947 6a3c 510b 3ebd 588d c53d 50e5 0d3e
000001c0: 8968 cfbb 0300 99bd 1674 21bd 4022 4c3d
000001d0: d63f dd3c 62bf eabb ab5e 8bbd ae50 b43d
000001e0: fda4 6cbd 0a35 88bd 0eb9 4fbc 8e08 4dbc
000001f0: 0bf0 003e b32b eb3d bc5f 69bc 94df 1b3c
00000200: f1d3 893d e051 2dbe 84c4 4f3b b412 2c3d
00000210: 9d6a b83c 0b2b ce3d 258a d33a d6c8 093e
00000220: ed21 2abd 8f11 00bd 8215 1dbd ba2e 09bd
00000230: d25f a13c d43e bebd 947b cabc 27b6 38bd
00000240: f7c1 ee3d d871 353d 4226 45bd d9fa c6bd
00000250: ec17 103e 8dfc 3a3c ecb5 afbd 4e00 323d
00000260: 727f d9bc 0bf9 a5bd 1ebc f83d d25e a0bd
00000270: 8b54 ebba 9c30 efbc 8857 45bd 4870 d1bc
00000280: e656 9f3d a1f2 f93b 081e 793d fef4 983d
00000290: 98f8 f03c de3d 153e c313 3b3d de81 c03d
000002a0: 8dc9 c23d 32bc 353d 6841 5cbd b3b1 953c
000002b0: 00ca bb3c 5221 d73a b67f c7bc c150 a63d
000002c0: 552f 993d e9df fabd 143c a93d b720 01ba
000002d0: 4afe ce3c 15d9 ba3d b7fb 153d 0599 c03d
000002e0: 7624 c3bc da06 1dbd 373b 9f3d 7cc4 b63d
000002f0: 8fbc 403d 1d6e 673d 531d ac3d fd23 c63c
00000300: 918f a3bd 6d15 0d3d 0515 e23d 97d5 223e
00000310: 7a56 6d3d 02de 51bd 3711 bd3c d4d3 89bc
00000320: 7866 1dbd 742b c03d 453f fe3c 4542 933c
00000330: 1abb eb3c 0195 62bc b101 b33d e2b1 473b
00000340: 8511 823d b738 c33c 0111 a5bd 69af d23b
00000350: 5b80 023e 8922 56bd 1509 10bd c444 62bd
00000360: c17b f33c ce98 f5bd 228e 1fbe 8470 523c
00000370: 9456 0abe 8910 e53d 7cb7 823c 6106 173d
00000380: fd4f c83d 2952 9bbc 00df a43d a48c 1e3d
00000390: 5e26 05bc 8d86 233c 315b 453c f81a 0abd
000003a0: cbdb abbd 1948 233d 5747 0cbd 9144 a5bc
000003b0: 0960 f43d f62b 42bd 51b9 36bd 83d6 bcbc
000003c0: 5307 fabb d118 0dbe 3b4d 30bd be90 813d
000003d0: 719a dabd 5211 8d3b 3a37 ffbc 3bc3 263d
000003e0: a4c1 063d b491 233d 8736 a43d 79be ad3d
000003f0: 5ebf 53ba c277 02bc 7f66 cd3d b0ef c9bd
0.026295636 -0.07782903 -0.020404128 0.014666005 -0.14454629 -0.07269405 0.07518881 -0.06651099
0.018686611 -0.11498592 0.057365432 -0.04622163 -0.041884374 0.037410952 -0.018754022 -0.055583127
0.10274081 0.029283663 -0.035472192 -0.017130421 0.008943944 0.01369427 -0.03356682 0.0009922709
0.029781539 -0.027744096 -0.04508953 0.005001436 0.104695044 0.007793338 0.121324025 -0.009406253
-0.10609784 0.06951652 -0.031334404 0.0336111 0.16560358 -0.12644298 0.007938834 -0.0150599945
0.10242941 -0.100493625 0.111083806 0.045693047 0.114617944 0.046800364 -0.044558737 -0.060909815
0.04813336 -0.029254058 -0.039917007 -0.07309989 -0.12603207 -0.05162742 0.05359574 -0.00026863703
-0.0117492005 -0.106619835 0.058553226 0.025370121 -0.007991317 0.010541552 -0.054589044 -0.006530194
-0.1578376 0.14999324 0.07909811 0.090880215 0.097197056 -0.052254837 0.06109567 -0.050209515
-0.023416657 0.065474994 0.004994734 -0.048762515 0.024957875 0.0408875 0.052094102 0.0032397755
0.07265095 -0.049995087 0.01391972 0.004884078 0.016943144 0.013779452 0.015042667 -0.005043404
-0.0730833 -0.084115855 -0.014581404 -0.032096695 -0.11350767 -0.03008762 -0.07787469 0.046234015
0.06802146 0.0930811 0.04393202 0.058474753 -0.043198433 0.010601428 -0.06249795 0.0822716
0.022131758 -0.100124195 -0.014202343 -0.049504194 0.014299297 -0.04639751 0.096461 0.13857007
-0.0063296002 -0.07470705 -0.03941735 0.04983735 0.027007978 -0.007163928 -0.06805166 0.08804451
-0.057774533 -0.066507414 -0.012678398 -0.012514247 0.12591569 0.11482944 -0.014244016 0.009513754
0.06729878 -0.16925764 0.0031702826 0.042010024 0.022511775 0.100668035 0.0016139193 0.13455519
-0.04153626 -0.031266745 -0.03835059 -0.033491828 0.019699011 -0.09289327 -0.02471713 -0.04509559
0.116580896 0.044298023 -0.04813219 -0.09715814 0.14071625 0.011412752 -0.08579621 0.04345732
-0.026550028 -0.08104142 0.121452555 -0.078305855 -0.0017954273 -0.029197983 -0.04817918 -0.025566235
0.077802464 0.0076278006 0.060819656 0.074686036 0.029415414 0.14574382 0.045673143 0.0939977
0.09511099 0.04436893 -0.053773314 0.01827321 0.02292347 0.0016413128 -0.02435289 0.08120871
0.07479731 -0.12249739 0.08263412 -0.00049258344 0.025267739 0.09123436 0.036617007 0.09404186
-0.023821097 -0.038336612 0.07774966 0.08924195 0.047054823 0.056501497 0.08404031 0.024187082
-0.079863675 0.03444426 0.110391654 0.1590179 0.0579438 -0.051237114 0.023079498 -0.01682464
-0.0384278 0.09383288 0.031036029 0.017975936 0.02877574 -0.013829471 0.08740557 0.0030471017
0.06350998 0.023830755 -0.08059884 0.006429602 0.12744276 -0.05227903 -0.03516491 -0.05524136
0.029722096 -0.11992036 -0.15581563 0.012844209 -0.1350959 0.111847945 0.015956633 0.036871318
0.097808816 -0.018960075 0.080503464 0.038708344 -0.008126823 0.00998081 0.0120456675 -0.033717126
-0.083915316 0.03986368 -0.034247722 -0.020174297 0.1193238 -0.047405206 -0.044610325 -0.023051506
-0.0076302676 -0.13778998 -0.043042403 0.063264355 -0.106739886 0.0043050433 -0.031154264 0.04071353
0.032899514 0.039933875 0.08018213 0.084835954 -0.0008077527 -0.007963123 0.10029315 -0.0986017

bias f4 [128]
00000000: 01ef 20bd 07d1 91bd 87b0 de3c b8d4 163c
00000010: 5dab 28bd 45fd 643d a73e 163d d067 113c
00000020: adbc 6cbc 3f6c adbd 3a78 943c b72b 18bc
00000030: 1ff0 4e3d 5bc8 b93d fa23 0ebd 82ee c7bd
00000040: 68f4 913c c890 873d d89c 7b3d 36e5 d5bc
00000050: a0fc 49bc b3ad 17bd 9d10 5ebd 7994 54bd
00000060: 9a5d 123d 880c 73bd 84da de3c 7535 e23c
00000070: d024 e13c 5b1c 9bbd c877 a23d e71f a7bc
00000080: 9e04 873d e13b 9bbd 517b aa3d c092 883c
00000090: c5ea d6bd 2f64 e73c bdca 2cbd 3904 d03c
000000a0: a81b 08bc 1b77 e2bc d424 0f3d 0067 adbd
000000b0: 89f0 0c3e 5882 21bc 4b31 ffbb b869 c33d
000000c0: db2d 663c 6ec1 9ebd 7bfb 733d 4962 d03c
000000d0: 93b9 43bc 8fa6 b93d d618 7a3d 84e8 3639
000000e0: c10e a3bb b6a5 32bd 898d 87bb 4cfd 46bd
000000f0: 3f08 843b 6cc3 93bd f8d1 eebc 6ea7 9f3d
00000100: 32fd 3b3d acb5 89bd 86cf 853c 1574 363c
00000110: 2c5d 193d 5d1c 6e3d 241d ad3d 75cd f4bd
00000120: f4d4 8c3c 13a2 1e3d 5cea af3d 2e5d 8bbc
00000130: 6515 f03c f224 09bd eae1 fe3c e496 9c3d
00000140: 3101 533d 09f0 b2bd 3cd8 833d 85e3 273d
00000150: 3a89 bf3a 344f 0cbd 26b7 37bd 725f 14bd
00000160: 8ab4 b4bd 561c 2fbd 024e 5bbd 9559 c33c
00000170: 1cf9 77bb 8080 2c3d dff9 013d 5c60 01bd
00000180: 5fdc 693d 9615 143d 6fba 10bd 3398 59bd
00000190: 72ac 84bd de53 07bd 283f a8bd bc2d 9bbc
000001a0: 6846 0ebd 6fe4 e1bb 4539 a7bc e782 15bd
000001b0: a39b 42bd de86 51bd 4e12 203d 0159 82bd
000001c0: 0c8c 83bd 8301 c9bc 6386 823d b699 fbbc
000001d0: 4728 643d 4b89 9f3d 9dd0 1a3d 8381 cdbd
000001e0: 6ff5 67bd a07f 27bd 89a1 7cbd 91b8 8abb
000001f0: a43f bebc 9723 a0bc 8afd c53d c312 0abd
-0.039290432 -0.07119947 0.027183784 0.00920599 -0.04117905 0.0559056 0.036680844 0.0088748485
-0.014449281 -0.08467912 0.018123735 -0.009287766 0.050521966 0.09071418 -0.03470228 -0.09762289
0.017816737 0.06619412 0.061428875 -0.026110273 -0.012328297 -0.037030887 -0.054215062 -0.051899407
0.035733797 -0.059338123 0.027203806 0.02761338 0.027483374 -0.07573768 0.07933003 -0.020400954
0.065926775 -0.0757978 0.08324302 0.016671538 -0.104939975 0.028246013 -0.042185534 0.025392639
-0.008307375 -0.027644685 0.03494723 -0.08466911 0.13763632 -0.0098577365 -0.0077878586 0.095416486
0.014049019 -0.077517375 0.059566002 0.025437491 -0.0119461 0.09064972 0.06105884 0.00017443491
-0.004976124 -0.043615066 -0.0041367454 -0.048581406 0.0040293033 -0.07215008 -0.029152855 0.077956066
0.045895763 -0.06724104 0.016334306 0.011136075 0.03744237 0.058132518 0.08452824 -0.1195325
0.017191388 0.038728785 0.085896224 -0.017012205 0.029307077 -0.0334825 0.031113584 0.076459676
0.051514808 -0.08737189 0.06437728 0.040988464 0.001461304 -0.03425522 -0.0448524 -0.036223836
-0.088234976 -0.042751633 -0.05354119 0.023846427 -0.003783769 0.042114735 0.031732436 -0.031586036
0.057094928 0.0361534 -0.035334047 -0.053123664 -0.06478204 -0.033038966 -0.08215171 -0.018942706
-0.034735113 -0.0068936865 -0.02041305 -0.03650179 -0.047511708 -0.05115401 0.039079957 -0.063646324
-0.06423196 -0.024536854 0.063732885 -0.030712944 0.055702474 0.077898584 0.037796605 -0.10034468
-0.056630548 -0.040893197 -0.06167749 -0.004233428 -0.023223706 -0.01954822 0.09667499 -0.0337093
