dapg/examples/dapg_jit_model/no_pen-v0/model_discriminator.pt (torch, 143224 bytes, 7 tensors)

in_shift f4 [128]
0	0x00000000	0.0
1	0x00000000	0.0
2	0x00000000	0.0
3	0x00000000	0.0
4	0x00000000	0.0
5	0x00000000	0.0
6	0x00000000	0.0
7	0x00000000	0.0
8	0x00000000	0.0
9	0x00000000	0.0
10	0x00000000	0.0
11	0x00000000	0.0
12	0x00000000	0.0
13	0x00000000	0.0
14	0x00000000	0.0
15	0x00000000	0.0
16	0x00000000	0.0
17	0x00000000	0.0
18	0x00000000	0.0
19	0x00000000	0.0
20	0x00000000	0.0
21	0x00000000	0.0
22	0x00000000	0.0
23	0x00000000	0.0
24	0x00000000	0.0
25	0x00000000	0.0
26	0x00000000	0.0
27	0x00000000	0.0
28	0x00000000	0.0
29	0x00000000	0.0
30	0x00000000	0.0
31	0x00000000	0.0
32	0x00000000	0.0
33	0x00000000	0.0
34	0x00000000	0.0
35	0x00000000	0.0
36	0x00000000	0.0
37	0x00000000	0.0
38	0x00000000	0.0
39	0x00000000	0.0
40	0x00000000	0.0
41	0x00000000	0.0
42	0x00000000	0.0
43	0x00000000	0.0
44	0x00000000	0.0
45	0x00000000	0.0
46	0x00000000	0.0
47	0x00000000	0.0
48	0x00000000	0.0
49	0x00000000	0.0
50	0x00000000	0.0
51	0x00000000	0.0
52	0x00000000	0.0
53	0x00000000	0.0
54	0x00000000	0.0
55	0x00000000	0.0
56	0x00000000	0.0
57	0x00000000	0.0
58	0x00000000	0.0
59	0x00000000	0.0
60	0x00000000	0.0
61	0x00000000	0.0
62	0x00000000	0.0
63	0x00000000	0.0
64	0x00000000	0.0
65	0x00000000	0.0
66	0x00000000	0.0
67	0x00000000	0.0
68	0x00000000	0.0
69	0x00000000	0.0
70	0x00000000	0.0
71	0x00000000	0.0
72	0x00000000	0.0
73	0x00000000	0.0
74	0x00000000	0.0
75	0x00000000	0.0
76	0x00000000	0.0
77	0x00000000	0.0
78	0x00000000	0.0
79	0x00000000	0.0
80	0x00000000	0.0
81	0x00000000	0.0
82	0x00000000	0.0
83	0x00000000	0.0
84	0x00000000	0.0
85	0x00000000	0.0
86	0x00000000	0.0
87	0x00000000	0.0
88	0x00000000	0.0
89	0x00000000	0.0
90	0x00000000	0.0
91	0x00000000	0.0
92	0x00000000	0.0
93	0x00000000	0.0
94	0x00000000	0.0
95	0x00000000	0.0
96	0x00000000	0.0
97	0x00000000	0.0
98	0x00000000	0.0
99	0x00000000	0.0
100	0x00000000	0.0
101	0x00000000	0.0
102	0x00000000	0.0
103	0x00000000	0.0
104	0x00000000	0.0
105	0x00000000	0.0
106	0x00000000	0.0
107	0x00000000	0.0
108	0x00000000	0.0
109	0x00000000	0.0
110	0x00000000	0.0
111	0x00000000	0.0
112	0x00000000	0.0
113	0x00000000	0.0
114	0x00000000	0.0
115	0x00000000	0.0
116	0x00000000	0.0
117	0x00000000	0.0
118	0x00000000	0.0
119	0x00000000	0.0
120	0x00000000	0.0
121	0x00000000	0.0
122	0x00000000	0.0
123	0x00000000	0.0
124	0x00000000	0.0
125	0x00000000	0.0
126	0x00000000	0.0
127	0x00000000	0.0

in_scale f4 [128]
0	0x3f800000	1.0
1	0x3f800000	1.0
2	0x3f800000	1.0
3	0x3f800000	1.0
4	0x3f800000	1.0
5	0x3f800000	1.0
6	0x3f800000	1.0
7	0x3f800000	1.0
8	0x3f800000	1.0
9	0x3f800000	1.0
10	0x3f800000	1.0
11	0x3f800000	1.0
12	0x3f800000	1.0
13	0x3f800000	1.0
14	0x3f800000	1.0
15	0x3f800000	1.0
16	0x3f800000	1.0
17	0x3f800000	1.0
18	0x3f800000	1.0
19	0x3f800000	1.0
20	0x3f800000	1.0
21	0x3f800000	1.0
22	0x3f800000	1.0
23	0x3f800000	1.0
24	0x3f800000	1.0
25	0x3f800000	1.0
26	0x3f800000	1.0
27	0x3f800000	1.0
28	0x3f800000	1.0
29	0x3f800000	1.0
30	0x3f800000	1.0
31	0x3f800000	1.0
32	0x3f800000	1.0
33	0x3f800000	1.0
34	0x3f800000	1.0
35	0x3f800000	1.0
36	0x3f800000	1.0
37	0x3f800000	1.0
38	0x3f800000	1.0
39	0x3f800000	1.0
40	0x3f800000	1.0
41	0x3f800000	1.0
42	0x3f800000	1.0
43	0x3f800000	1.0
44	0x3f800000	1.0
45	0x3f800000	1.0
46	0x3f800000	1.0
47	0x3f800000	1.0
48	0x3f800000	1.0
49	0x3f800000	1.0
50	0x3f800000	1.0
51	0x3f800000	1.0
52	0x3f800000	1.0
53	0x3f800000	1.0
54	0x3f800000	1.0
55	0x3f800000	1.0
56	0x3f800000	1.0
57	0x3f800000	1.0
58	0x3f800000	1.0
59	0x3f800000	1.0
60	0x3f800000	1.0
61	0x3f800000	1.0
62	0x3f800000	1.0
63	0x3f800000	1.0
64	0x3f800000	1.0
65	0x3f800000	1.0
66	0x3f800000	1.0
67	0x3f800000	1.0
68	0x3f800000	1.0
69	0x3f800000	1.0
70	0x3f800000	1.0
71	0x3f800000	1.0
72	0x3f800000	1.0
73	0x3f800000	1.0
74	0x3f800000	1.0
75	0x3f800000	1.0
76	0x3f800000	1.0
77	0x3f800000	1.0
78	0x3f800000	1.0
79	0x3f800000	1.0
80	0x3f800000	1.0
81	0x3f800000	1.0
82	0x3f800000	1.0
83	0x3f800000	1.0
84	0x3f800000	1.0
85	0x3f800000	1.0
86	0x3f800000	1.0
87	0x3f800000	1.0
88	0x3f800000	1.0
89	0x3f800000	1.0
90	0x3f800000	1.0
91	0x3f800000	1.0
92	0x3f800000	1.0
93	0x3f800000	1.0
94	0x3f800000	1.0
95	0x3f800000	1.0
96	0x3f800000	1.0
97	0x3f800000	1.0
98	0x3f800000	1.0
99	0x3f800000	1.0
100	0x3f800000	1.0
101	0x3f800000	1.0
102	0x3f800000	1.0
103	0x3f800000	1.0
104	0x3f800000	1.0
105	0x3f800000	1.0
106	0x3f800000	1.0
107	0x3f800000	1.0
108	0x3f800000	1.0
109	0x3f800000	1.0
110	0x3f800000	1.0
111	0x3f800000	1.0
112	0x3f800000	1.0
113	0x3f800000	1.0
114	0x3f800000	1.0
115	0x3f800000	1.0
116	0x3f800000	1.0
117	0x3f800000	1.0
118	0x3f800000	1.0
119	0x3f800000	1.0
120	0x3f800000	1.0
121	0x3f800000	1.0
122	0x3f800000	1.0
123	0x3f800000	1.0
124	0x3f800000	1.0
125	0x3f800000	1.0
126	0x3f800000	1.0
127	0x3f800000	1.0

weight f4 [128, 128]
0	0xbc4b95c4	-0.012425844
1	0xbd36427b	-0.044496994
2	0x3d934f27	0.071928315
3	0x3dd8f55f	0.10593676
4	0xbd2f0ace	-0.042734914
5	0x3e17844f	0.14796565
6	0xbc20572b	-0.009786407
7	0xbdd2f008	-0.102996886
8	0xbc28788f	-0.01028265
9	0x3cdb8daf	0.026800958
10	0x3d493f15	0.049132425
11	0x3d358d51	0.044324223
12	0xbd140297	-0.036135282
13	0x3cc3a5da	0.023882795
14	0x3c0eced7	0.008716307
15	0x3cbf27e1	0.023334445
16	0x3db65fa1	0.089049585
17	0x3dc8bcd6	0.098016426
18	0x3d27d369	0.0409731
19	0xbb798bb1	-0.0038077647
20	0xbd861cda	-0.06548472
21	0xbb440533	-0.0029910326
22	0x3e104591	0.14089037
23	0xbde8f132	-0.11374129
24	0x3d04f4ca	0.03246001
25	0x3d33c8d8	0.04389271
26	0xbdba41ca	-0.090945795
27	0xbe07560e	-0.13216421
28	0xbcd9e01c	-0.026596121
29	0xbc6d0f93	-0.014469045
30	0x3d1a3acb	0.037653726
31	0xbd229e71	-0.039701883
32	0xbb5dfb37	-0.003387166
33	0x3a4809b5	0.0007630841
34	0xbc1fdf0f	-0.009757771
35	0xbd1d9699	-0.0384737
36	0xbdded850	-0.10881102
37	0x3d1a32f5	0.037646253
38	0xbc32c332	-0.010910796
39	0xbd4054f2	-0.04695601
40	0x3d388b30	0.045054615
41	0xbd8b00ef	-0.067872874
42	0xbd2fa31d	-0.042880166
43	0xbc6c90ce	-0.014438821
44	0x3d73e361	0.059543017
45	0x3d8546c0	0.06507635
46	0x3d03662f	0.03207987
47	0x3d22d8a0	0.03975737
48	0x3c74397b	0.014906283
49	0xbce5d1c2	-0.028054122
50	0xbc8a6d54	-0.016897835
51	0x3c60e4b0	0.013726398
52	0x3b3fe139	0.002927853
53	0x3de55cf4	0.1119937
54	0x3d8a2798	0.06745833
55	0x3d1030a6	0.035202645
56	0x3de26103	0.1105366
57	0x3c85971e	0.01630741
58	0xbc945787	-0.018108143
59	0x3cf6b7cb	0.030116936
60	0xbd44001d	-0.04785167
61	0x3ceb7804	0.028743751
62	0x3d6d196b	0.05788557
63	0xbd7b0834	-0.06128712
64	0x3b215932	0.0024619815
65	0xbd0f5cb9	-0.035000537
66	0xbd30047d	-0.04297303
67	0x3dad4bfa	0.08461757
68	0xbd685465	-0.05672111
69	0x39647f32	0.00021791158
70	0xbe20c9f2	-0.15702036
71	0xbe03a05c	-0.12854141
72	0xbda19576	-0.078898355
73	0x3c386b30	0.011256024
74	0xbd9ed3cf	-0.07755243
75	0xbc3f87ed	-0.011690122
76	0x3d8700e9	0.065919705
77	0x3ce12402	0.02748299
78	0x3d7774e0	0.060414195
79	0x3ca48ab3	0.020085668
80	0xbd02c2d1	-0.031924073
81	0x3d03f70e	0.03221803
82	0x3c7cc1fb	0.015427108
83	0xbdcd9a77	-0.100392275
84	0x3c54025d	0.012940017
85	0xbe2f37d4	-0.1711114
86	0xbd172458	-0.036899894
87	0xbd7c5506	-0.061604522
88	0x3cbad717	0.022807641
89	0x3cc8c77d	0.024509186
90	0xbbc91668	-0.0061367042
91	0x3bdbf0b3	0.006712043
92	0x3da3fbf5	0.08007041
93	0x3d500a1e	0.0507909
94	0x3c8ba999	0.017048644
95	0x3d8c2dcd	0.06844673
96	0xbd1b0790	-0.03784901
97	0x3d1cebb4	0.03831072
98	0xbd914ed1	-0.07095111
99	0xbdc78ef4	-0.09744063
100	0xba2656fd	-0.000634536
101	0xbcc2edd1	-0.02379504
102	0x3cd95fc7	0.026534928
103	0x3b48cd8f	0.00306401
104	0x3c1c0dd9	0.009524786
105	0x3e000170	0.12500548
106	0x3c30496f	0.010759695
107	0x3a91512c	0.0011086813
108	0xbd7af624	-0.061269894
109	0xbc72dd17	-0.01482322
110	0x3dc873ca	0.0978771
111	0xbbf256ac	-0.007395586
112	0xbcf2b2bb	-0.029626241
113	0x3d1f17db	0.03884111
114	0xbdd2a70f	-0.1028577
115	0xbd7daf13	-0.061934542
116	0xbd09848e	-0.03357368
117	0x3d48384f	0.048881825
118	0x3d8a800c	0.06762704
119	0xbd5c7514	-0.053822592
120	0xbd5c5eec	-0.053801462
121	0xbcf8793f	-0.030331252
122	0xbd80d657	-0.06290882
123	0x3cb0f413	0.021600759
124	0xbc41e190	-0.011833563
125	0x3db62d93	0.08895411
126	0xbde2b3c1	-0.110694416
127	0xbd8c6855	-0.06855837
128	0xbc9eef8b	-0.019401332
129	0xbd8364bd	-0.06415699
130	0xbd6898ed	-0.056786466
131	0xbb2b0c55	-0.002609988
132	0x3d6b7129	0.057480965
133	0xbdd3b0fb	-0.10336491
134	0xbd943e82	-0.07238485
135	0x3d62b674	0.055349782
136	0xbdc33213	-0.09531035
137	0xbcbaef7e	-0.022819277
138	0x3d4b3dc4	0.04961945
139	0xbd055a7d	-0.032557
140	0x3d1bccaa	0.03803698
141	0xbd36b4d7	-0.044606056
142	0xbd9d1d1a	-0.07671566
143	0xbdc02fa8	-0.0938409
144	0xbce425c9	-0.027850049
145	0xbbd57c37	-0.0065150517
146	0x3da54dc7	0.080714755
147	0xbd43bf21	-0.047789697
148	0x3c3b48cd	0.011430931
149	0xbd3469aa	-0.04404608
150	0xbdcc3426	-0.09970884
151	0x3d57d104	0.052689567
152	0x3d8a9df7	0.06768411
153	0xbd27de9f	-0.040983792
154	0x3dd0c36b	0.10193523
155	0xbc8dc2da	-0.017304827
156	0xbca73a4e	-0.020413544
157	0xbd0e71e9	-0.034776602
158	0xbd76b687	-0.060232665
159	0xbcc7ab90	-0.0243738
160	0xbc9584a0	-0.018251717
161	0x3d47a171	0.048737947
162	0xbcf62f09	-0.030051725
163	0x3cdfe383	0.027330166
164	0x3d971f2f	0.07378995
165	0x3d92c7b3	0.07166996
166	0xbcf09946	-0.029369961
167	0xbd29be3c	-0.041441187
168	0xbd1c4d49	-0.038159642
169	0xbd6cfc96	-0.057858072
170	0xbdb2e3ba	-0.08734842
171	0x3d191d04	0.037381187
172	0xbdccf405	-0.100074805
173	0xbd5baf89	-0.0536342
174	0xbbc95f7d	-0.0061454163
175	0xbdc69ab2	-0.096974745
176	0xbd9b97b0	-0.075972915
177	0xbcbf300a	-0.023338336
178	0xbd0479b9	-0.032342646
179	0xbc8c83e4	-0.017152734
180	0xbd9fa37e	-0.077948555
181	0xbdc7c7f0	-0.09754932
182	0x3d3211f5	0.043474156
183	0x3d4436bd	0.047903765
184	0xbbd4c683	-0.006493391
185	0xbc79a7c2	-0.0152377505
186	0x3c07f553	0.008298236
187	0xbd1cd778	-0.038291425
188	0x3d810082	0.06298925
189	0x3c8e72d2	0.017388735
190	0x3d1fe37f	0.039035317
191	0x3d058d1e	0.032605283
192	0x3d87b8cc	0.06627044
193	0xbdbbb7eb	-0.09165939
194	0xbcd4611b	-0.02592521
195	0x3da5e801	0.08100892
196	0xbd00c195	-0.031434614
197	0x3d8c8b90	0.06862557
198	0xbc1daa4b	-0.009623121
199	0x3d3b9a31	0.045801345
200	0xbcffde01	-0.03123379
201	0xbc92839b	-0.01788502
202	0x3da69a24	0.08134869
203	0x3dc1c3ce	0.09461175
204	0xbdcb010e	-0.099123105
205	0x3d064dd5	0.03278907
206	0xbd3ff09e	-0.04686033
207	0xbdeac12c	-0.11462626
208	0xbd543081	-0.05180407
209	0xbdad20b9	-0.08453507
210	0x3ce3e94e	0.02782121
211	0x3d43e20e	0.047823004
212	0xbc35401d	-0.011062649
213	0x3d43aba7	0.047771122
214	0xbd4e7365	-0.050403018
215	0xbcb092b7	-0.021554334
216	0x3d93f744	0.072248966
217	0x3d8a37fd	0.0674896
218	0x3c62cc51	0.013842658
219	0xbd1cb445	-0.038257856
220	0xbce71327	-0.028207375
221	0x3bc22381	0.0059246426
222	0xbd9279f0	-0.07152164
223	0xbc378012	-0.011199968
224	0x3cec6e1f	0.028861104
225	0xbd13129a	-0.03590641
226	0x3d6ff973	0.058587503
227	0x3d414bcf	0.047191437
228	0x3d23f5c5	0.040029306
229	0x3cbaae75	0.022788266
230	0xbdaa8354	-0.0832583
231	0x3bd4cd23	0.0064941808
232	0xbdbb29d0	-0.091388345
233	0x3cabcb43	0.020970946
234	0xbdb50a33	-0.08839836
235	0xbc69ebf3	-0.014277446
236	0x3cdd11d5	0.026986042
237	0xbd44b9b9	-0.04802868
238	0xbb9e09e6	-0.0048229573
239	0xbd8f2b63	-0.06990697
240	0xbd996e91	-0.07491792
241	0x3d5aab2d	0.053385902
242	0xbcf56cae	-0.02995905
243	0x3ce3ce87	0.02780844
244	0x3af53ccc	0.0018710135
245	0x3db5205e	0.08844064
246	0xbd1769d8	-0.036966175
247	0x3c4b6475	0.012414088
248	0x3d8714e8	0.065957844
249	0xbd3a75b5	-0.04552241
250	0x3cfa1bd7	0.030530853
251	0x3dbcce1f	0.09219002
252	0xbc223e39	-0.00990253
253	0xbdc665b3	-0.09687366
254	0x3d0c03ed	0.03418343
255	0xbd116dbc	-0.03550504

bias f4 [128]
0	0x3ddd833e	0.10816048
1	0xbc3ebfbb	-0.011642392
2	0xbd06699f	-0.032815572
3	0x3db66ccf	0.08907472
4	0x3cbb5229	0.022866325
5	0x3e1219c5	0.14267643
6	0xbde4c689	-0.1117068
7	0xbd3fa1d7	-0.046785202
8	0xbdbb1aaf	-0.09135949
9	0xbd27bcf7	-0.040951695
10	0xbc35291e	-0.011057166
11	0xbe0b27a1	-0.13589336
12	0x3dbe7240	0.09299135
13	0xbe02cffc	-0.12774652
14	0xbc936145	-0.017990718
15	0x3d7d1842	0.061790712
16	0xbdec39f6	-0.11534493
17	0xbe0097b2	-0.12557867
18	0xbe2bbec1	-0.16771986
19	0xbe1b91bf	-0.15192316
20	0x3d8ff445	0.070290126
21	0x3c1ff084	0.009761933
22	0x3ddb8f8a	0.10720737
23	0xbd97210c	-0.0737935
24	0xbbbe7446	-0.0058122007
25	0x3d36b3e3	0.044605147
26	0x3e12626c	0.14295357
27	0xbd6d0118	-0.05786237
28	0xbda9fca0	-0.083001375
29	0xbd78dc10	-0.060756743
30	0xbd8e9014	-0.069610745
31	0x3da3c2ee	0.07996164
32	0x3ddf05b1	0.108897574
33	0xbd1beb84	-0.038066402
34	0xbe2071e8	-0.15668452
35	0x3e1912e0	0.14948606
36	0xbdf25233	-0.118320845
37	0xbd8b5f23	-0.06805255
38	0xbcc54cb7	-0.024084432
39	0xbe0634ce	-0.13106081
40	0x3dcc161e	0.09965156
41	0xbde06e19	-0.109584995
42	0xbd8ef642	-0.06980564
43	0x3d41198a	0.047143497
44	0xbd4c4d32	-0.049878307
45	0xbe1d59c9	-0.15366282
46	0x3de0bad4	0.10973135
47	0x3c164f0f	0.0091741225
48	0xbcedc7e2	-0.029025976
49	0x3df2f496	0.11863057
50	0x3c7956fa	0.015218491
51	0xbde040da	-0.109498695
52	0xbe0546a1	-0.13015224
53	0x3d35e499	0.04440746
54	0xbdb2a043	-0.08721974
55	0xbdf88c50	-0.121361375
56	0xbe17346b	-0.1476609
57	0xbc1d48a9	-0.009599843
58	0xbdc90d97	-0.09817045
59	0xbc09fe21	-0.008422405
60	0xbde6dbf7	-0.11272424
61	0x3d018c9e	0.031628244
62	0x3c96532d	0.018350208
63	0xbd63654d	-0.05551653
64	0xbd273ad1	-0.040827576
65	0xbdf9d8bb	-0.12199541
66	0xbdf55bea	-0.11980422
67	0x3d968c1e	0.07350944
68	0x3d94b4ff	0.07261085
69	0x3d9033f9	0.07041163
70	0x3c6bb344	0.014386002
71	0xbe0a5cb7	-0.1351193
72	0xbdef4da2	-0.11684729
73	0x3e19d630	0.15023112
74	0x3d47add9	0.04874978
75	0x3decd82f	0.11564671
76	0xbc8681ad	-0.016419256
77	0xbdace788	-0.084425986
78	0x3e1d24df	0.15346096
79	0x3ddec401	0.108772285
80	0x3d485ead	0.048918415
81	0x3cf9b891	0.030483516
82	0x3ccfa501	0.025347235
83	0xbdb74754	-0.08949152
84	0xbddb0193	-0.1069366
85	0xbd8ba376	-0.06818287
86	0x3d5d9c12	0.05410392
87	0x3dc50562	0.09620167
88	0xbe0a21c0	-0.13489437
89	0x3db174b4	0.086648375
90	0xbc12836e	-0.008942468
91	0x3e2eeb1b	0.17081873
92	0x3a5534f7	0.00081331976
93	0x3e15249d	0.14564748
94	0x3e589c42	0.21153358
95	0xbd81f53f	-0.06345605
96	0xbdd9edd4	-0.10641065
97	0xbcdf3998	-0.027249143
98	0x3dc18934	0.094499975
99	0x3defc433	0.11707344
100	0xbdf96466	-0.121773526
101	0xbde29225	-0.11063031
102	0x3dbb37b6	0.091414854
103	0x3accd6de	0.0015628
104	0x3cb2239c	0.021745495
105	0xbddf6734	-0.10908356
106	0xbe1897be	-0.14901635
107	0xbcf3381f	-0.029689847
108	0xbe0e11c1	-0.1387396
109	0x3c104428	0.008805312
110	0x3dce25c2	0.100657955
111	0xbe2007b4	-0.15627939
112	0x3c132dc2	0.0089830775
113	0x3de4e5c4	0.11176637
114	0xbd8163ec	-0.06317887
115	0xbe2d2351	-0.16908003
116	0x3d841754	0.06449762
117	0xbc146c1f	-0.009058981
118	0xbdbf548e	-0.093422994
119	0xbe4fe4ef	-0.20302175
120	0xbe1124ca	-0.1417419
121	0xbd10862c	-0.035284206
122	0x3af79a98	0.0018890677
123	0x3e47d768	0.19515765
124	0x3d60257b	0.054723244
125	0x3dff01f1	0.12451542
126	0x3d4e757e	0.050405018
127	0x3e0f91d8	0.14020479

weight f4 [128, 128]
0	0xbbb6a571	-0.0055739214
1	0xbd9df2a9	-0.077122994
2	0xbd13759b	-0.03600083
3	0x3d8f9c33	0.070122145
4	0x3d611eff	0.0549612
5	0x3de63ac6	0.11241679
6	0xbd9de282	-0.077092186
7	0xbddc2644	-0.10749486
8	0x3c436084	0.011924867
9	0x3cacef47	0.02111019
10	0x3d1f2ff4	0.03886409
11	0xbe1c5c1a	-0.15269509
12	0xbb923f05	-0.004463079
13	0xbd9be9df	-0.07612967
14	0xbca3a6a4	-0.019976921
15	0x3d01a9ff	0.03165626
16	0xbd8f4fb5	-0.06997625
17	0xbdebcde0	-0.11513877
18	0xbd701258	-0.058611244
19	0xbde33012	-0.11093153
20	0xbce94528	-0.02847536
21	0xbdcee2b5	-0.10101835
22	0x3ddc625e	0.107609496
23	0xbe0aa4a0	-0.13539362
24	0xbd89ef36	-0.06735079
25	0x3d174eb3	0.036940288
26	0x3de2d787	0.11076265
27	0xbda06575	-0.078318514
28	0xbe086b18	-0.13322103
29	0xbd2f3cca	-0.042782582
30	0xbd22085f	-0.039558765
31	0x3d30c847	0.04315975
32	0x3d0dac03	0.03458787
33	0xbdc48847	-0.09596305
34	0xb9bbd146	-0.0003582334
35	0x3d853d74	0.06505862
36	0xbda526dc	-0.080640525
37	0xbdf1e6ea	-0.118116215
38	0xbdda80ed	-0.10669122
39	0xbdfcb52c	-0.12339243
40	0x3d6105ce	0.054937176
41	0xbc565ec9	-0.013084122
42	0xbddbd55b	-0.10734054
43	0xbc4655d0	-0.01210542
44	0xbc7059d5	-0.014669855
45	0x3d5318bd	0.051537264
46	0x3d97d4c9	0.074136324
47	0xbd00586b	-0.031334322
48	0xbc06d41b	-0.008229281
49	0x3d343897	0.04399928
50	0x3cf44be7	0.02982135
51	0xbd26af11	-0.0406943
52	0xbdbc64fd	-0.091989495
53	0x3ce29bfa	0.027662266
54	0xbc9b5935	-0.018963436
55	0xbd70699c	-0.058694467
56	0xbce7120c	-0.028206848
57	0x3d362915	0.044472773
58	0xbc95689f	-0.018238364
59	0xbc197a78	-0.009367578
60	0xbd6603e8	-0.05615607
61	0xbc0e8bd6	-0.008700332
62	0x3bcc8c35	0.0062423
63	0x3d2fb4b6	0.04289695
64	0xbd55c922	-0.05219377
65	0xbd582360	-0.05276811
66	0xbdd48ad9	-0.103780456
67	0xbceb16e2	-0.028697435
68	0xbd8d1863	-0.06889417
69	0xbc6030de	-0.013683526
70	0x3c45dbcb	0.0120763285
71	0x3bc7bbad	0.0060953707
72	0xbd868f1d	-0.065702654
73	0xbcbb2189	-0.02284314
74	0x3d09117d	0.033463944
75	0xbcdd7cf3	-0.02703712
76	0x3b035654	0.002004047
77	0xbd3448b6	-0.044014655
78	0x3cfd5ef2	0.030929063
79	0x3d10190c	0.035180137
80	0xbcd7bfc5	-0.02633656
81	0xbd597df5	-0.053098638
82	0x3d974ad5	0.0738732
83	0xbdeceeb9	-0.1156897
84	0xbdac8b2f	-0.08424985
85	0x3c3f2ef7	0.011668912
86	0x3d9cad83	0.07650282
87	0x3d12ba63	0.035822283
88	0xbd1295be	-0.035787337
89	0xbcdf8ff8	-0.02729033
90	0x3b32ce76	0.0027283705
91	0x3dd1a2ef	0.10236155
92	0xbaf06f3c	-0.0018343697
93	0xbcc303e7	-0.023805572
94	0x3dbe8fec	0.09304795
95	0xba3138df	-0.00067604886
96	0xbd211fcf	-0.039336976
97	0xbca2e590	-0.019884855
98	0x3d00101e	0.03126537
99	0x3d151d4b	0.03640489
100	0x3cf5dc1b	0.030012181
101	0x3caa1cb4	0.02076564
102	0x3b75881b	0.0037465158
103	0x3d276a1a	0.04087267
104	0xbc294488	-0.0103312805
105	0xbd80f726	-0.0629714
106	0xbda4d9d2	-0.080493584
107	0x3c1c3d08	0.009536035
108	0xbd8b1e77	-0.0679292
109	0x3ce47b55	0.02789084
110	0x3de50693	0.111828946
111	0x3d2f535d	0.04280411
112	0xbcf93b0b	-0.030423662
113	0x3c4d0c3a	0.012515122
114	0x3d3bde1a	0.04586611
115	0xbdaf3869	-0.08555681
116	0x3d87431f	0.06604599
117	0xbdca6d28	-0.09884101
118	0xbbc174ea	-0.00590383
119	0xba34eb44	-0.00069015124
120	0xbd926fcc	-0.0715023
121	0x3b7f1b0b	0.003892603
122	0x3d71f133	0.059067916
123	0x3d9f2ff5	0.07772819
124	0x3df42538	0.119211614
125	0x3da265af	0.07929551
126	0x3d9f8bea	0.07790358
127	0x3d0c0237	0.0341818
128	0x3da3d68c	0.07999906
129	0xbd8d34c9	-0.068948336
130	0xbcfdbaee	-0.030972924
131	0x3daf3d26	0.08556585
132	0x3d1f4f5d	0.038894046
133	0x3dbf32af	0.09335839
134	0xbcff12c7	-0.031136883
135	0xbc34de49	-0.011039325
136	0xbdc16fd9	-0.09445161
137	0xbe21ad71	-0.15788819
138	0xbcc201a6	-0.023682427
139	0xbdf7b233	-0.12094536
140	0xbca3de54	-0.020003475
141	0x3ced211f	0.028946457
142	0x3c2e77af	0.010648652
143	0xbd5cca8f	-0.053904112
144	0xbd215915	-0.039391596
145	0x3ce2ee10	0.027701408
146	0xbdcfc07d	-0.10144136
147	0xbe1c2283	-0.1524754
148	0x3cd73bf8	0.026273713
149	0x3d742477	0.059605088
150	0xbd37211b	-0.044709306
151	0xbe02cae1	-0.12772705
152	0xbdab7dc7	-0.083735995
153	0x3d8b8b67	0.06813698
154	0x3d51a05d	0.051178325
155	0x3d3868c1	0.045021776
156	0xbc38e52c	-0.011285108
157	0x3cd658ab	0.026165327
158	0xbb55fd2d	-0.0032652125
159	0xbd23f163	-0.040025126
160	0x3d909c25	0.07061032
161	0x3ca57bf0	0.0202007
162	0x3bf93439	0.0076051024
163	0x3df4c95f	0.11952471
164	0xbdaabdf6	-0.083370134
165	0xbd3f94ca	-0.046772756
166	0x3c707b2b	0.014677803
167	0xbd9d81bb	-0.0769076
168	0xbb4334ab	-0.0029786031
169	0x3d47f8d7	0.048821297
170	0x3d49ce59	0.049269054
171	0x3ca56d08	0.020193592
172	0xbdf2483e	-0.11830185
173	0xbd312e27	-0.043256905
174	0xbcd2c93d	-0.025730724
175	0x3d8b3e75	0.06799022
176	0xbc032872	-0.008005248
177	0x3d416105	0.047211666
178	0xbce5ebd3	-0.028066551
179	0xbc905c01	-0.017621996
180	0xbdbf4c50	-0.09340727
181	0xbcfef1dd	-0.031121189
182	0xbcb40bff	-0.021978376
183	0xbbbbcf9b	-0.0057315356
184	0x3bc4fbe6	0.006011474
185	0x3d78706b	0.060654085
186	0xbc0a55c2	-0.008443298
187	0xbcdd4915	-0.027012387
188	0xbd3105fe	-0.043218605
189	0x3cc68f2f	0.024238197
190	0x3dc0046f	0.09375846
191	0xbdba02e9	-0.09082586
192	0xbc6c020c	-0.014404785
193	0xbc67c59e	-0.014146237
194	0xbd078ed2	-0.03309519
195	0x3d0e59f2	0.034753747
196	0x3db4efec	0.08834824
197	0x3d9af20a	0.075656965
198	0x3de03b8d	0.109488584
199	0xbdc2ed31	-0.09517897
200	0xbc469d39	-0.012122446
201	0xbcc88269	-0.024476247
202	0x3d340230	0.0439474
203	0x3c5d184b	0.013494561
204	0x3d004046	0.031311296
205	0xbdc64984	-0.09681991
206	0x3dc8fce2	0.098138586
207	0x3daa3cad	0.08312354
208	0xbc583f05	-0.013198619
209	0x3d8189a9	0.06325085
210	0xbcd76a76	-0.026295882
211	0xbbc1aad6	-0.005910258
212	0x3b40ed17	0.0029438192
213	0xbdb488a4	-0.08815125
214	0x3d377eca	0.04479865
215	0x3d847114	0.064668804
216	0xbdb58250	-0.08862746
217	0x3d7fe5de	0.062475078
218	0xbd8367e0	-0.06416297
219	0xbd3fefdf	-0.04685962
220	0xbcb5c4a8	-0.0221885
221	0xbd2c37ab	-0.042045277
222	0x3d712a65	0.05887832
223	0x3d035287	0.032061126
224	0x3c372aab	0.011179606
225	0xbd5bc16a	-0.05365125
226	0x3d8b533e	0.068029866
227	0x3dbc983b	0.09208723
228	0xbdbf2df2	-0.09334935
229	0xbd848f8a	-0.064726904
230	0x3d1b1811	0.03786475
231	0xbda4350e	-0.08017932
232	0x3d20be8b	0.039244216
233	0xbde4b12b	-0.111666046
234	0xbcd8f5d6	-0.026484411
235	0x3d8ec2a1	0.06970716
236	0xbd9fed24	-0.07808903
237	0xbd5fdbd7	-0.054653015
238	0x3d3ee794	0.04660757
239	0x3c47de51	0.012199
240	0xbcdfbf8a	-0.027313013
241	0xbb8fbd73	-0.004386598
242	0xbd3737b2	-0.04473085
243	0x3caced75	0.021109322
244	0x3c5004c2	0.012696447
245	0x3cfed699	0.031108188
246	0x3c9f0913	0.019413507
247	0xbd0ef3b3	-0.03490038
248	0xbd988be7	-0.07448559
249	0xbd9aa7fe	-0.07551573
250	0x3ce8a103	0.028397089
251	0x3b9041a3	0.0044023558
252	0xbc41d69c	-0.011830952
253	0x3d468a4c	0.048471734
254	0x3e05fe4f	0.13085292
255	0xbcbca856	-0.023029488

bias f4 [128]
0	0x3da227e4	0.07917765
1	0xbbffc99d	-0.0078060166
2	0xbcec4bce	-0.02884474
3	0x3d96b694	0.07359043
4	0xbe16a28a	-0.14710441
5	0xbb26646d	-0.0025389448
6	0x3a9c961f	0.0011946595
7	0x3d3c55c2	0.045980223
8	0xbd0e52f3	-0.034747075
9	0x3c853a99	0.016263293
10	0x3a86790a	0.0010259461
11	0x3df98c21	0.121849306
12	0xbdd4df21	-0.10394121
13	0x3dedd902	0.116136566
14	0xbd97724e	-0.07394849
15	0xbce91d2f	-0.028456299
16	0xbd28f984	-0.04125358
17	0x3cd636f7	0.026149256
18	0xbd34b7ad	-0.04412048
19	0xbcbcb781	-0.02303672
20	0x3dcb0d32	0.09914626
21	0x3d9fdd3f	0.07805871
22	0xbcc789c9	-0.024357693
23	0xbc8b671e	-0.017016944
24	0x3d423a15	0.047418673
25	0x3cfc0ad5	0.030766884
26	0xbcde0508	-0.027102008
27	0xbcf3803b	-0.029724231
28	0x3cc463b1	0.023973318
29	0x3d916750	0.070997834
30	0x3b9a78b6	0.004714097
31	0xbd302c27	-0.043010857
32	0x3df28850	0.11842406
33	0x3b74db7b	0.0037362266
34	0xbcf0b8a9	-0.029384928
35	0xbdb7ecce	-0.08980714
36	0x3bae6d39	0.005323079
37	0x3d9e3fa6	0.07726984
38	0xbb243aac	-0.0025059385
39	0xbc918f8c	-0.017768644
40	0x3d1b8fe4	0.03797902
41	0x3d64305d	0.055710185
42	0xbd8777a4	-0.066146165
43	0x3b0f488e	0.0021863314
44	0xbd235c11	-0.039882723
45	0x3d21e7e3	0.039527785
46	0x3d0fad8e	0.035077624
47	0x3d871402	0.06595613
48	0xbcfdbddb	-0.03097432
49	0xbd1a9f3a	-0.037749507
50	0xbc012d27	-0.0078843
51	0xbe0c519c	-0.13703007
52	0xbd7f249b	-0.06229077
53	0xbd1fcb07	-0.03901198
54	0x3dac6349	0.08417375
55	0x3c8e3866	0.017360877
56	0xbd22b2d3	-0.03972132
57	0x3d322110	0.043488562
58	0xbdede28e	-0.116154775
59	0xbdee27af	-0.11628663
60	0x3dc33692	0.09531893
61	0x3bf0a164	0.007343458
62	0x3d68070d	0.05664735
63	0xbd02b321	-0.031909112
64	0x3d23d9c2	0.040002592
65	0xbd98278f	-0.0742942
66	0xbdc1dabd	-0.09465549
67	0x3d050c51	0.03248245
68	0x3dbd66eb	0.09248146
69	0x3b1b7d2a	0.0023725727
70	0xbcf8687e	-0.030323263
71	0xbd90b7d5	-0.07066313
72	0xbd3f25de	-0.046666972
73	0xbd59a5b8	-0.053136557
74	0x3dc1ea40	0.09468508
75	0x3d82d7c8	0.06388813
76	0x3c9d5734	0.01920662
77	0x3cb55771	0.022136422
78	0xbd003544	-0.031300798
79	0xbd8a2093	-0.06744494
80	0xbdf0ea5b	-0.1176345
81	0x3df26001	0.118347175
82	0x3d20f452	0.039295502
83	0xbddde956	-0.10835521
84	0xbde36e7c	-0.111050576
85	0xbc80d30d	-0.015725637
86	0xbdd483c6	-0.10376696
87	0x3d06302c	0.032760784
88	0xbdee92a6	-0.11649065
89	0x3c7448d1	0.014909939
90	0x3cd319af	0.025769083
91	0x3c822c97	0.015890403
92	0x3df9dd3f	0.122004025
93	0x3c607bfc	0.013701435
94	0x3d8ff0ea	0.070283726
95	0x3dbbf923	0.091783784
96	0xbd699c24	-0.057033673
97	0xbd1f5c23	-0.038906228
98	0x3ccba9f1	0.024861308
99	0x3d044e67	0.032301333
100	0xbd677734	-0.056510165
101	0x3d46a38a	0.048495807
102	0xbd9e2cea	-0.077234104
103	0xbcc13213	-0.023583448
104	0x3c88a23c	0.016678922
105	0x3d76fb30	0.060298145
106	0xbdb549aa	-0.08851941
107	0x3d97b221	0.07407022
108	0xbc534bbb	-0.0128964735
109	0x3caf5b8b	0.021405956
110	0x3e096072	0.13415697
111	0x39ab33cc	0.00032654253
112	0xbd8dae8e	-0.06918059
113	0xbc5f61e9	-0.013634183
114	0x3dcb9365	0.09940223
115	0xbdbf2c84	-0.093346626
116	0xbd24d661	-0.04024351
117	0xbda8da95	-0.08244816
118	0x3c5bd537	0.013417534
119	0x3d8ffe11	0.07030881
120	0x3db73d27	0.08947211
121	0xbd2e086e	-0.042488508
122	0xbdce987a	-0.10087676
123	0xbceab13a	-0.028648961
124	0xbcef588f	-0.029217033
125	0xbcadfbdc	-0.02123826
126	0xbadf1d1b	-0.0017022224
127	0xbc9b6fbe	-0.018974181

weight f4 [1, 128]
0	0xbe0188ac	-0.12649792
1	0xbe080905	-0.1328469
2	0x3dea3c20	0.11437249
3	0xbe094183	-0.13403897
4	0x3dbb894a	0.09157045
5	0x3dc5cc0b	0.09658059
6	0xbdb5f25b	-0.08884116
7	0xbde716bd	-0.11283634
8	0xbdfcf997	-0.12352293
9	0xbde66d67	-0.112513356
10	0x3dfd7610	0.12376034
11	0xbdd5773e	-0.10423134
12	0x3ddacc86	0.10683541
13	0xbdb1bf7e	-0.08679102
14	0x3de412ef	0.11136424
15	0x3ddad555	0.10685221
16	0x3df57079	0.11984343
17	0x3da6a72c	0.08137354
18	0x3dd976d5	0.106183685
19	0x3daf2d43	0.08553555
20	0xbdc6b369	-0.097021885
21	0xbd8c8b64	-0.06862524
22	0xbdb86ef3	-0.09005537
23	0xbddd68ec	-0.10811028
24	0x3e022700	0.1271019
25	0xbde3b52b	-0.111185394
26	0x3e264e24	0.16240746
27	0x3e138e8d	0.14409848
28	0xbe349c5a	-0.17637768
29	0xbd923312	-0.07138647
30	0x3e057aa7	0.1303507
31	0x3d8b2726	0.06794576
32	0xbdad6b6c	-0.08467755
33	0x3da9e01c	0.082946986
34	0xbe12a5f5	-0.1432112
35	0x3d99d605	0.07511524
36	0x3dc682ca	0.09692915
37	0xbdec2a41	-0.11531497
38	0xbde03a90	-0.1094867
39	0xbda8ab6e	-0.082358226
40	0xbdfaecc1	-0.122521885
41	0xbe156217	-0.145882
42	0x3e09e7a1	0.13467266
43	0x3db91254	0.09036699
44	0x3d9e70bf	0.07736348
45	0x3e1682e4	0.14698368
46	0x3e004056	0.12524542
47	0xbdd9cf73	-0.10635271
48	0xbdfce704	-0.1234875
49	0xbda1f106	-0.079073
50	0x3dae9ea6	0.085263535
51	0x3dee857e	0.11646555
52	0x3d91635d	0.0709903
53	0x3e08ead1	0.13370825
54	0xbdae2518	-0.08503169
55	0x3dda298b	0.10652455
56	0x3e0c114b	0.13678472
57	0xbe42913f	-0.1900072
58	0x3db88225	0.09009198
59	0x3dfabcc4	0.122430354
60	0xbdaa2ab0	-0.08308923
61	0xbdd1be92	-0.102414265
62	0xbe229fd9	-0.1588129
63	0xbdfe2b7c	-0.12410638
64	0xbdd04c9b	-0.10170861
65	0x3dd1b592	0.1023971
66	0x3e114076	0.14184746
67	0xbe039861	-0.12851097
68	0xbe39c438	-0.18141258
69	0x3dc5f3c7	0.096656375
70	0xbdef0bbd	-0.11672161
71	0x3dd7ea1c	0.105427
72	0x3dff64cd	0.12470398
73	0x3e11cc05	0.14237984
74	0xbde7a1b8	-0.11310142
75	0xbdbb2a6c	-0.09138951
76	0x3e3e89d1	0.1860726
77	0xbe02c5d4	-0.12770778
78	0xbdcb2a56	-0.09920184
79	0x3d8be90e	0.06831561
80	0x3e0b9865	0.13632353
81	0xbd8a54e1	-0.067544706
82	0x3e0984da	0.13429585
83	0x3ddca125	0.107729234
84	0x3dce8717	0.1008436
85	0xbe0da2e7	-0.13831674
86	0x3dbd5d37	0.09246295
87	0x3e043d4b	0.12914006
88	0x3de3658a	0.111033514
89	0xbe218602	-0.15773776
90	0x3d9e9a77	0.077443056
91	0xbe188c8d	-0.14897366
92	0xbdee28dc	-0.11628887
93	0x3dca21e4	0.098697454
94	0xbdd34cb8	-0.10317367
95	0xbdf0d313	-0.11759009
96	0x3daa6197	0.08319395
97	0xbdff9c79	-0.12481017
98	0x3e0d74f3	0.13814144
99	0x3dfc0197	0.12304991
100	0x3da5f0f7	0.08102601
101	0x3dfaf022	0.12252833
102	0x3dd58e3f	0.10427522
103	0x3e151f2d	0.14562674
104	0x3ddfeaa9	0.1093343
105	0xbdbed3e8	-0.09317762
106	0x3d848af1	0.064718135
107	0xbdf20eb4	-0.11819211
108	0x3e0aba15	0.13547547
109	0xbda72d99	-0.08162994
110	0xbe1432eb	-0.14472549
111	0xbda44289	-0.08020503
112	0x3db51301	0.08841515
113	0xbe0513d8	-0.12995851
114	0xbe2f3eb3	-0.17113762
115	0x3e0ecd52	0.13945511
116	0xbdc3118d	-0.09524832
117	0x3e11e1c5	0.1424628
118	0xbdadb23b	-0.084812604
119	0xbe023934	-0.12717134
120	0xbe126c58	-0.14299142
121	0x3d766e34	0.06016369
122	0x3dd9a064	0.10626295
123	0xbde33858	-0.11094731
124	0xbdebb57e	-0.11509226
125	0xbe01a839	-0.12661828
126	0x3dead7df	0.114669554
127	0x3daa2399	0.08307571
