dapg/examples/model/no_relocate-v0/model_discriminator.pt (torch, 143224 bytes, 7 tensors)

in_shift f4 [128]
0.0 0.0 0.0 0.0 0.0 0.0 0.0 0.0
0.0 0.0 0.0 0.0 0.0 0.0 0.0 0.0
0.0 0.0 0.0 0.0 0.0 0.0 0.0 0.0
0.0 0.0 0.0 0.0 0.0 0.0 0.0 0.0
0.0 0.0 0.0 0.0 0.0 0.0 0.0 0.0
0.0 0.0 0.0 0.0 0.0 0.0 0.0 0.0
0.0 0.0 0.0 0.0 0.0 0.0 0.0 0.0
0.0 0.0 0.0 0.0 0.0 0.0 0.0 0.0
0.0 0.0 0.0 0.0 0.0 0.0 0.0 0.0
0.0 0.0 0.0 0.0 0.0 0.0 0.0 0.0
0.0 0.0 0.0 0.0 0.0 0.0 0.0 0.0
0.0 0.0 0.0 0.0 0.0 0.0 0.0 0.0
0.0 0.0 0.0 0.0 0.0 0.0 0.0 0.0
0.0 0.0 0.0 0.0 0.0 0.0 0.0 0.0
0.0 0.0 0.0 0.0 0.0 0.0 0.0 0.0
0.0 0.0 0.0 0.0 0.0 0.0 0.0 0.0
00000000: 0000 0000 0000 0000 0000 0000 0000 0000
00000010: 0000 0000 0000 0000 0000 0000 0000 0000
00000020: 0000 0000 0000 0000 0000 0000 0000 0000
00000030: 0000 0000 0000 0000 0000 0000 0000 0000
00000040: 0000 0000 0000 0000 0000 0000 0000 0000
00000050: 0000 0000 0000 0000 0000 0000 0000 0000
00000060: 0000 0000 0000 0000 0000 0000 0000 0000
00000070: 0000 0000 0000 0000 0000 0000 0000 0000
00000080: 0000 0000 0000 0000 0000 0000 0000 0000
00000090: 0000 0000 0000 0000 0000 0000 0000 0000
000000a0: 0000 0000 0000 0000 0000 0000 0000 0000
000000b0: 0000 0000 0000 0000 0000 0000 0000 0000
000000c0: 0000 0000 0000 0000 0000 0000 0000 0000
000000d0: 0000 0000 0000 0000 0000 0000 0000 0000
000000e0: 0000 0000 0000 0000 0000 0000 0000 0000
000000f0: 0000 0000 0000 0000 0000 0000 0000 0000
00000100: 0000 0000 0000 0000 0000 0000 0000 0000
00000110: 0000 0000 0000 0000 0000 0000 0000 0000
00000120: 0000 0000 0000 0000 0000 0000 0000 0000
00000130: 0000 0000 0000 0000 0000 0000 0000 0000
00000140: 0000 0000 0000 0000 0000 0000 0000 0000
00000150: 0000 0000 0000 0000 0000 0000 0000 0000
00000160: 0000 0000 0000 0000 0000 0000 0000 0000
00000170: 0000 0000 0000 0000 0000 0000 0000 0000
00000180: 0000 0000 0000 0000 0000 0000 0000 0000
00000190: 0000 0000 0000 0000 0000 0000 0000 0000
000001a0: 0000 0000 0000 0000 0000 0000 0000 0000
000001b0: 0000 0000 0000 0000 0000 0000 0000 0000
000001c0: 0000 0000 0000 0000 0000 0000 0000 0000
000001d0: 0000 0000 0000 0000 0000 0000 0000 0000
000001e0: 0000 0000 0000 0000 0000 0000 0000 0000
000001f0: 0000 0000 0000 0000 0000 0000 0000 0000

in_scale f4 [128]
1.0 1.0 1.0 1.0 1.0 1.0 1.0 1.0
1.0 1.0 1.0 1.0 1.0 1.0 1.0 1.0
1.0 1.0 1.0 1.0 1.0 1.0 1.0 1.0
1.0 1.0 1.0 1.0 1.0 1.0 1.0 1.0
1.0 1.0 1.0 1.0 1.0 1.0 1.0 1.0
1.0 1.0 1.0 1.0 1.0 1.0 1.0 1.0
1.0 1.0 1.0 1.0 1.0 1.0 1.0 1.0
1.0 1.0 1.0 1.0 1.0 1.0 1.0 1.0
1.0 1.0 1.0 1.0 1.0 1.0 1.0 1.0
1.0 1.0 1.0 1.0 1.0 1.0 1.0 1.0
1.0 1.0 1.0 1.0 1.0 1.0 1.0 1.0
1.0 1.0 1.0 1.0 1.0 1.0 1.0 1.0
1.0 1.0 1.0 1.0 1.0 1.0 1.0 1.0
1.0 1.0 1.0 1.0 1.0 1.0 1.0 1.0
1.0 1.0 1.0 1.0 1.0 1.0 1.0 1.0
1.0 1.0 1.0 1.0 1.0 1.0 1.0 1.0
00000000: 0000 803f 0000 803f 0000 803f 0000 803f
00000010: 0000 803f 0000 803f 0000 803f 0000 803f
00000020: 0000 803f 0000 803f 0000 803f 0000 803f
00000030: 0000 803f 0000 803f 0000 803f 0000 803f
00000040: 0000 803f 0000 803f 0000 803f 0000 803f
00000050: 0000 803f 0000 803f 0000 803f 0000 803f
00000060: 0000 803f 0000 803f 0000 803f 0000 803f
00000070: 0000 803f 0000 803f 0000 803f 0000 803f
00000080: 0000 803f 0000 803f 0000 803f 0000 803f
00000090: 0000 803f 0000 803f 0000 803f 0000 803f
000000a0: 0000 803f 0000 803f 0000 803f 0000 803f
000000b0: 0000 803f 0000 803f 0000 803f 0000 803f
000000c0: 0000 803f 0000 803f 0000 803f 0000 803f
000000d0: 0000 803f 0000 803f 0000 803f 0000 803f
000000e0: 0000 803f 0000 803f 0000 803f 0000 803f
000000f0: 0000 803f 0000 803f 0000 803f 0000 803f
00000100: 0000 803f 0000 803f 0000 803f 0000 803f
00000110: 0000 803f 0000 803f 0000 803f 0000 803f
00000120: 0000 803f 0000 803f 0000 803f 0000 803f
00000130: 0000 803f 0000 803f 0000 803f 0000 803f
00000140: 0000 803f 0000 803f 0000 803f 0000 803f
00000150: 0000 803f 0000 803f 0000 803f 0000 803f
00000160: 0000 803f 0000 803f 0000 803f 0000 803f
00000170: 0000 803f 0000 803f 0000 803f 0000 803f
00000180: 0000 803f 0000 803f 0000 803f 0000 803f
00000190: 0000 803f 0000 803f 0000 803f 0000 803f
000001a0: 0000 803f 0000 803f 0000 803f 0000 803f
000001b0: 0000 803f 0000 803f 0000 803f 0000 803f
000001c0: 0000 803f 0000 803f 0000 803f 0000 803f
000001d0: 0000 803f 0000 803f 0000 803f 0000 803f
000001e0: 0000 803f 0000 803f 0000 803f 0000 803f
000001f0: 0000 803f 0000 803f 0000 803f 0000 803f

weight f4 [128, 128]
-0.019304823 -0.030239789 0.031757817 0.06246732 0.013957374 -0.0394738 -0.11728412 -0.046925344
0.08395542 -0.043985754 0.03699722 0.109703235 0.082799256 -0.09390327 -0.0023282468 -0.08271192
-0.08908254 -0.09781327 0.09811574 -0.0357129 0.0011784396 0.04160044 0.039808996 -0.020389237
-0.047771968 -0.02724251 0.03566262 0.023726907 -0.037563603 -0.09152249 0.04681592 0.025574906
-0.02028014 -0.0881044 0.028267786 -0.09371224 -0.09812901 -0.010194212 0.023387646 -0.02865156
-0.02566061 0.013705347 0.026782284 -0.07074802 0.04707616 0.05899755 0.115054764 -0.019288508
0.05222539 -0.09595728 0.028304316 0.07181773 0.053033236 0.04361806 -0.014567288 -0.025984624
-0.063347496 -0.1290618 0.026569555 0.0019083153 0.026591236 -0.026535645 -0.07872789 -0.033060003
-0.021799088 -0.041023877 0.01819039 -0.05471497 0.05613495 0.07432024 0.05917206 0.003861181
-0.06508768 0.10363662 0.093860894 -0.07832012 0.008203631 -0.035813797 0.022709832 0.008385849
-0.09119715 0.058631904 0.0001398391 0.056562986 -0.0685977 -0.02727834 0.088933416 -0.0259403
0.018239774 -0.00048059603 -0.08231759 0.056412335 0.03165554 0.02353636 -0.060106114 0.06108556
-0.042480025 0.055046774 0.055065885 0.032162786 -0.0604723 -0.009537329 0.06346873 -0.03636985
0.03555824 -0.039202143 -0.06292088 -0.019152842 0.021621222 0.112019636 -0.113527104 -0.09944424
0.022418668 0.01714159 -0.018250352 0.036828924 -0.0016284767 0.08878195 0.044397414 0.0461728
-0.031093052 0.022257186 -0.055487633 0.08739005 0.081483215 0.13310152 -0.02316624 0.05969016
0.0793928 0.04923856 0.08412409 -0.042812105 -0.030173767 0.100998454 -0.02338446 0.027412578
0.007499788 -0.0020141015 -0.02553676 0.027431525 0.0667611 0.110275954 -0.09216055 -0.05557322
0.062416542 -0.030107038 -0.007675432 -0.014814768 -0.09760058 -0.012661227 0.062428042 -0.048260942
0.006157985 -0.02710001 -0.066805966 0.026429007 0.010599037 0.07618942 0.09793652 -0.040383272
0.094836995 0.019999979 -0.07593165 -0.005712228 0.008297822 -0.043550536 -0.008902273 0.039823007
0.012807603 0.037279435 0.07128233 0.07564172 0.0019557618 0.037428863 -0.061741676 0.06774929
0.060644902 0.055840194 -0.011029684 -0.0019785701 0.05275016 -0.08877853 -0.06870953 0.047584917
0.031874534 0.121111475 -0.0023480167 0.060765263 0.02152783 -0.0029665136 0.035519496 -0.095634446
-0.029954955 0.0010328153 0.04488444 0.06302656 -0.09760043 -0.0046816515 -0.045585036 -0.11556543
0.1066726 -0.09710897 -0.048896454 -0.056879703 -0.029642906 0.058179487 0.054607995 0.105078265
0.01955994 -0.071245566 0.0059574153 -0.077094644 -0.011016467 -0.03287664 -0.019573182 0.018645853
0.047243375 -0.11563436 0.059010316 -0.09791945 0.05190756 -0.020959543 0.04048996 0.016535096
-0.007191684 0.11888841 -0.05905059 0.07169111 -0.100731395 0.009605962 0.025212659 0.038483735
-0.05008572 -0.04568094 -0.0051119314 -0.058436755 0.09887833 -0.03292927 0.11512118 0.07294246
0.077026084 -0.1124736 -0.011707834 -0.12129527 0.11355949 -0.05398779 -0.0029189403 0.022348693
-0.0384883 -0.019843165 0.05150724 0.00965712 -0.0010248083 -0.03405866 0.061834477 -0.020810034
00000000: 2625 9ebc 6fb9 f7bc 7c14 023d bcdd 7f3d
00000010: 78ad 643c 48af 21bd a832 f0bd ca34 40bd
00000020: d2f0 ab3d 682a 34bd 668a 173d 17ac e03d
00000030: a892 a93d 5c50 c0bd 8095 18bb de64 a9bd
00000040: e870 b6bd 5352 c8bd e8f0 c83d b147 12bd
00000050: df75 9a3a 3965 2a3d c20e 233d 5407 a7bc
00000060: 8aac 43bd af2b dfbc f812 123d ee5e c23c
00000070: 4bdc 19bd 2570 bbbd 0dc2 3f3d 7782 d13c
00000080: 8922 a6bc 1470 b4bd d891 e73c 34ec bfbd
00000090: ddf7 c8bd a005 27bc 7397 bf3c adb6 eabc
000000a0: 3336 d2bc 648c 603c 8566 db3c 57e4 90bd
000000b0: eed2 403d 6aa7 713d d5a1 eb3d ef02 9ebc
000000c0: 4aea 553d 4085 c4bd 74de e73c 2d15 933d
000000d0: 6139 593d daa8 323d a2ab 6ebc b5dd d4bc
000000e0: 55bc 81bd c728 04be 65a8 d93c 7020 fa3a
000000f0: ddd5 d93c 4861 d9bc 173c a1bd ed69 07bd
00000100: 0094 b2bc a708 28bd 0304 953c ce1c 60bd
00000110: c3ed 653d 3635 983d 675e 723d de0b 7d3b
00000120: b14c 85bd 703f d43d 243a c03d 4d66 a0bd
00000130: 8668 063c 7db1 12bd f809 ba3c cd64 093c
00000140: 92c5 babd 0228 703d c6a1 1239 97ae 673d
00000150: f37c 8cbd d376 dfbc b922 b63d c180 d4bc
00000160: 946b 953c 82f8 fbb9 2096 a8bd 9f10 673d
00000170: 3da9 013d 53cf c03c d431 76bd da34 7a3d
00000180: 89ff 2dbd ba78 613d c48c 613d 20bd 033d
00000190: cdb1 77bd 7542 1cbc e5fb 813d 8df8 14bd
000001a0: 84a5 113d 6d92 20bd aadc 80bd 6ce6 9cbc
000001b0: fd1e b13c 8d6a e53d e680 e8bd 6ca9 cbbd
000001c0: 5ba7 b73c 856c 8c3c c381 95bc edd9 163d
000001d0: 9c72 d5ba 50d3 b53d 10da 353d b11f 3d3d
000001e0: dbb6 febc b454 b63c 0047 63bd 8ef9 b23d
000001f0: ace0 a63d c44b 083e 20c7 bdbc ab7d 743d
00000200: b198 a23d 5fae 493d 4049 ac3d bf5b 2fbd
00000210: fa2e f7bc 47d8 ce3d c490 bfbc 5890 e03c
00000220: c8c0 f53b 04ff 03bb 7832 d1bc 14b8 e03c
00000230: 0bba 883d 5cd8 e13d acbe bcbd bfa0 63bd
00000240: 7da8 7f3d 09a3 f6bc 3182 fbbb a4b9 72bc
00000250: d0e2 c7bd 0971 4fbc 8cb4 7f3d 44ad 45bd
00000260: ecc8 c93b d700 debc 91d1 88bd a581 d83c
00000270: 95a7 2d3c 3309 9c3d f192 c83d ee68 25bd
00000280: e639 c23d ffd6 a33c 0e82 9bbd a42d bbbb
00000290: 97f3 073c 0c62 32bd d7da 11bc 731d 233d
000002a0: fbd6 513c 52b2 183d 78fc 913d 0cea 9a3d
000002b0: 3d2c 003b 024f 193d d7e4 7cbd 24c0 8a3d
000002c0: ca66 783d b0b8 643d d9b5 34bc e6aa 01bb
000002d0: 8d10 583d 85d1 b5bd 95b7 8cbd 67e8 423d
000002e0: df8e 023d 4b09 f83d 2fe1 19bb ffe4 783d
000002f0: 225b b03c d769 42bb e47c 113d fedb c3bd
00000300: 1864 f5bc 885f 873a bfd8 373d 1214 813d
00000310: bce2 c7bd 8a68 99bb 60b7 3abd 91ad ecbd
00000320: 2a77 da3d 11e1 c6bd a647 48bd b1fa 68bd
00000330: aed5 f2bc 9d4d 6e3d a2ac 5f3d 4633 d73d
00000340: 2b3c a03c 32e9 91bd 6c36 c33b cce3 9dbd
00000350: 697e 34bc a8a9 06bd f057 a0bc 30bf 983c
00000360: 4582 413d b5d1 ecbd cdb4 713d fe89 c8bd
00000370: 069d 543d 59b3 abbc cdd8 253d 9c74 873c
00000380: 38a8 ebbb c47b f33d 08df 71bd cad2 923d
00000390: 434c cebd 5362 1d3c c78a ce3c 1fa1 1d3d
000003a0: af26 4dbd f01b 3bbd fd81 a7bb 615b 6fbd
000003b0: b980 ca3d d8e0 06bd a7c4 eb3d db62 953d
000003c0: dabf 9d3d 8f58 e6bd 37d2 3fbc a869 f8bd
000003d0: e191 e83d 4d22 5dbd b14b 3fbb 9b14 b73c
000003e0: e8a5 1dbd 228e a2bc 41f9 523d e638 1e3c
000003f0: dc52 86ba 1881 0bbd 2646 7d3d ce79 aabc

bias f4 [128]
0.11478534 -0.06510537 -0.028052852 -0.07988045 -0.13531049 0.11339984 0.095496394 0.14664344
0.09205083 -0.057709664 -0.19312829 -0.021706782 -0.1786954 0.06838714 -0.02427093 -0.109834276
-0.07934204 0.15132347 -0.06258193 -0.10738701 -0.020394366 0.04474365 0.11416007 0.024540203
0.16890366 0.038081788 0.033832774 -0.09775312 0.06200357 0.024945075 0.11987776 0.11460015
0.0692557 -0.15031773 0.093978554 -0.03995459 0.054371465 -0.08853584 -0.1403661 -0.11642418
-0.16818523 -0.020864883 -0.07529916 -0.06416994 -0.0731549 0.104102336 -0.08506842 0.063567616
0.1088388 -0.10166018 -0.06289294 -0.10404114 0.16998631 0.042724103 0.15287451 -0.17834085
0.062817246 0.17290065 -0.105871074 -0.14950414 -0.16218631 -0.09978777 -0.01200733 0.022849416
0.13501517 0.103246674 -0.012394021 0.16004188 0.09304594 0.08260077 0.15996167 0.14491859
0.033138186 0.04110493 -0.14927268 0.08922358 -0.1330415 -0.097098574 0.072845444 -0.025166292
-0.05146903 0.14550155 0.030436741 -0.09087126 -0.031466104 0.0083226925 0.09985949 0.07188908
0.08845752 -0.0062219324 0.15937516 -0.07759855 -0.10751791 -0.17859991 0.075211115 -0.056586202
-0.06523975 0.13781661 0.03556924 0.15702426 -0.10581122 -0.11767416 0.09866346 -0.13395411
-0.049268838 0.15079522 -0.0070564286 0.110721685 0.06983225 -0.06982432 -0.13936004 -0.0043947557
-0.10839754 0.009496043 0.049116924 -0.16782883 0.083356865 -0.0892712 0.091123804 0.0747302
-0.05576736 -0.032999936 -0.11412887 0.105408914 -0.12646598 0.03538637 0.08899924 0.12661427
00000000: 9414 eb3d f755 85bd 18cf e5bc 5d98 a3bd
00000010: d58e 0abe 2d3e e83d 9d93 c33d b329 163e
00000020: 2585 bc3d f860 6cbd 6cc3 45be 6cd2 b1bc
00000030: edfb 36be 8f0e 8c3d d4d3 c6bc cbf0 e0bd
00000040: 147e a2bd 8af4 1a3e f42a 80bd b8ed dbbd
00000050: 1612 a7bc 1e45 373d c1cc e93d 8908 c93c
00000060: 15f5 2c3e a6fb 1b3d 3c94 0a3d ca32 c8bd
00000070: 75f7 7d3d 9d59 cc3c 7982 f53d 7cb3 ea3d
00000080: efd5 8d3d e4ec 19be d477 c03d 6da7 23bd
00000090: 9db4 5e3d 4752 b5bd 22bc 0fbe cd6f eebd
000000a0: c038 2cbe d5ec aabc 7236 9abd 886b 83bd
000000b0: 3cd2 95bd 9b33 d53d 5a38 aebd bd2f 823d
000000c0: e0e6 de3d 3633 d0bd 04ce 80bd 8513 d5bd
000000d0: e410 2e3e 78ff 2e3d 238b 1c3e fc9e 36be
000000e0: 54a6 803d de0c 313e efd2 d8bd 9d17 19be
000000f0: 2b14 26be 885d ccbd 64ba 44bc b32e bb3c
00000100: 6b41 0a3e fe72 d33d 4b10 4bbc 05e2 233e
00000110: df8e be3d 982a a93d fecc 233e 8a65 143e
00000120: e8bb 073d a55d 283d f0da 18be daba b63d
00000130: 083c 08be 9edb c6bd fe2f 953d 8a29 cebc
00000140: 31d1 52bd 5cfe 143e 7956 f93c b61a babd
00000150: 9ae2 00bd e75b 083c 2283 cc3d 953a 933d
00000160: 3729 b53d 5ae1 cbbb 3e33 233e fdeb 9ebd
00000170: 5a32 dcbd e5e2 36be 4908 9a3d efc6 67bd
00000180: 6b9c 85bd cc1f 0d3e 0db1 113d f8ca 203e
00000190: 8eb3 d8bd 26ff f0bd 1110 ca3d 442b 09be
000001a0: 1fce 49bd 106a 1a3e 9d39 e7bb 0dc2 e23d
000001b0: 3604 8f3d 0e00 8fbd 66b4 0ebe e201 90bb
000001c0: 88ff ddbd 4b95 1b3c d42e 493d 52db 2bbe
000001d0: 01b7 aa3d d2d3 b6bd 1e9f ba3d 260c 993d
000001e0: 516c 64bd f12a 07bd 66bc e9bd a1e0 d73d
000001f0: 4c80 01be 4cf1 103d 3c45 b63d 2ca7 013e

weight f4 [128, 128]
-0.0493339 -0.0051565883 0.0064609675 -0.07350977 -0.04189019 0.11632333 -0.024757165 0.10705914
0.143726 -0.104151204 -0.04177356 -0.07761368 -0.10201843 -0.0048468695 -0.06138757 -0.16116053
-0.0519932 0.02089195 -0.057009023 -0.057782583 -0.09160859 0.04240804 -0.015292885 0.07541189
0.05379546 0.0022440737 0.10589287 -0.024987215 0.07582215 -0.013984424 -0.024413317 0.04702326
0.094109565 -0.11052772 0.08006812 -0.019887837 0.08598663 -0.08274998 -0.021021781 -0.12809096
-0.0091746105 0.0063265883 -0.08829984 -0.064331606 -0.023017943 0.09708346 -0.06658969 0.057967674
0.11542583 -0.09324152 -0.06325512 -0.07232884 0.02249139 -0.022627156 0.09386192 -0.118651696
0.028048435 0.0177598 -0.054549273 -0.15930238 -0.02023713 -0.18616627 -0.08557583 -0.011254367
0.06844585 0.10831683 0.009054924 0.030696228 0.06076945 0.08988268 0.029731035 -0.017827721
0.11645227 0.083433606 -0.11285658 0.040970955 -0.035794113 0.065391906 0.023843259 -0.10331422
-0.1239424 0.095051974 -0.028719012 0.014485607 -0.07814987 -0.011574406 0.011680692 0.055350933
0.0104627535 0.020161849 0.11599218 0.05679569 -0.006225067 -0.20644994 0.13616253 -0.07507492
-0.06779384 0.10410297 -0.014541895 0.05073134 -0.050379243 -0.023458626 -0.013604884 -0.11386929
-0.09946051 0.16042109 -0.06461599 0.028497627 -0.045651067 -0.11017583 -0.056591433 -0.06991994
-0.049551353 0.005809409 0.09932811 -0.11832773 0.049322817 -0.07382286 0.05728715 0.05050377
-0.05608068 -0.082838364 -0.17333579 0.060561087 0.03470546 0.09292446 0.077627905 0.0712379
-0.02865731 0.09060815 0.047323577 0.121013395 0.040227406 0.007428945 0.013989143 0.030876419
-0.095965125 0.057653036 -0.023037752 0.048959743 0.13269342 -0.08937026 -0.061719686 0.14331725
0.12002693 -0.094581544 0.045151778 -0.013390605 -0.012692204 -0.008850489 0.012237047 -0.00089808094
-0.026690774 -0.0073219016 -0.10056809 0.13778894 -0.120815955 -0.037384544 -0.098106846 -0.1377301
-0.008112169 0.029281972 0.0073681036 0.012356376 -0.0993986 -0.025538657 0.0779251 0.01528768
0.03629112 0.10605482 0.06818357 0.104149975 -0.027048247 -0.09577451 0.13532318 -0.083957046
-0.13734446 0.001531464 0.049236976 0.02529317 -0.013589742 0.018578155 -0.12723674 0.06997488
-0.15615976 -0.052850846 0.08713452 0.02653584 0.059771065 0.052728996 0.062170215 0.016204245
-0.06345168 0.02922137 0.113488875 -0.023620032 0.041283008 -0.026491536 -0.027099846 -0.11223159
-0.0085892435 -0.04149972 0.083547324 -0.102936916 0.015857596 0.031901423 -0.09651357 0.049567915
0.08452708 0.014713845 -0.08023428 0.021106929 0.02599188 0.06738319 -0.103872634 -0.002336846
0.024799142 -0.0012634584 -0.06942215 0.10647756 0.028724525 0.059176974 0.0071692835 0.010935948
-0.013537104 -0.039224833 -0.088666014 -0.021897934 0.0058429446 0.12106769 -0.07635984 0.026707197
0.1367806 -0.15277417 0.08517708 0.009053599 0.009778182 -0.02915924 -0.010795409 -0.019125931
0.103730045 -0.0014726673 -0.13835634 -0.00053665094 -0.12555152 0.05108038 0.029690713 -0.07918349
0.051707912 0.11251207 0.16280326 -0.042641133 0.033679534 -0.009017549 -0.023182563 0.029756151
00000000: 5812 4abd 99f8 a8bb 86b6 d33b 4a8c 96bd
00000010: 0c95 2bbd ed3a ee3d 8acf cabc d341 db3d
00000020: e92c 133e 3a4d d5bd c11a 2bbd ecf3 9ebd
00000030: 0aef d0bd 7dd2 9ebb 8871 7bbd 4407 25be
00000040: d2f6 54bd 9825 ab3c 4b82 69bd 6ead 6cbd
00000050: 499d bbbd 0eb4 2d3d 028f 7abc 8d71 9a3d
00000060: a158 5c3d 4f11 133b 5cde d83d fdb1 ccbc
00000070: a548 9b3d ed1e 65bc 70fe c7bc 769b 403d
00000080: 84bc c03d 5b5c e2bd c1fa a33d d1eb a2bc
00000090: c219 b03d d278 a9bd df35 acbc 472a 03be
000000a0: 1b51 16bc 454f cf3b 8cd6 b4bd 4ac0 83bd
000000b0: 2090 bcbc b1d3 c63d 2d60 88bd 836f 6d3d
000000c0: 6164 ec3d 69f5 bebd e68b 81bd 2521 94bd
000000d0: dd3f b83c 965c b9bc ae3a c03d a9ff f2bd
000000e0: d5c5 e53c 007d 913c 0f6f 5fbd 2a20 23be
000000f0: 56c8 a5bc 5fa2 3ebe 6142 afbd 3d64 38bc
00000100: 562d 8c3d 37d5 dd3d 1b5b 143c a876 fb3c
00000110: 63e9 783d 6914 b83d 808e f33c 710b 92bc
00000120: 877e ee3d 3ddf aa3d 5a21 e7bd 29d1 273d
00000130: d99c 12bd 31ec 853d f052 c33c 6896 d3bd
00000140: 83d5 fdbd 9caa c23d 2244 ebbc 0a55 6d3c
00000150: 0a0d a0bd 94a2 3dbc 6060 3f3c a9b7 623d
00000160: f86b 2b3c 762a a53c 4f8d ed3d 99a2 683d
00000170: a6fb cbbb 9d67 53be 316e 0b3e e1c0 99bd
00000180: 7fd7 8abd f033 d53d 2141 6ebc aacb 4f3d
00000190: 775a 4ebd 4e2c c0bc 05e7 5ebc 4d34 e9bd
000001a0: f4b1 cbbd 6d45 243e 6355 84bd db73 e93c
000001b0: 9dfc 3abd dea3 e1bd 6bcc 67bd 2f32 8fbd
000001c0: 5cf6 4abd db5c be3b 896c cb3d cf55 f2bd
000001d0: b906 4a3d 7130 97bd eea5 6a3d 0bdd 4e3d
000001e0: dbb4 65bd 29a7 a9bd f07e 31be e70e 783d
000001f0: 5027 0e3d 2e4f be3d 61fb 9e3d 2de5 913d
00000200: bcc2 eabc c490 b93d 5ed6 413d dfd5 f73d
00000210: 7ec5 243d 826e f33b b832 653c 8bf0 fc3c
00000220: 5d89 c4bd 9725 6c3d abb9 bcbc 038a 483d
00000230: c9e0 073e c107 b7bd c8cd 7cbd c2c1 123e
00000240: aed0 f53d f8b3 c1bd 12f1 383d 4564 5bbc
00000250: f6f2 4fbc a401 11bc e57d 483c 316d 6bba
00000260: 9ca6 dabc 90ec efbb a5f6 cdbd 8b18 0d3e
00000270: 5b6e f7bd 8920 19bd 3eec c8bd 1f09 0dbe
00000280: e7e8 04bc bfe0 ef3c 2270 f13b 6672 4a3c
00000290: 7e91 cbbd 7236 d1bc 3297 9f3d 2d79 7a3c
000002a0: ffa5 143d 4533 d93d d4a3 8b3d 954c d53d
000002b0: 4994 ddbc 6d25 c4bd 2992 0a3e acf1 abbd
000002c0: 07a4 0cbe 68bb c83a b6ac 493d 9f33 cf3c
000002d0: 82a7 5ebc 3731 983c 594a 02be fd4e 8f3d
000002e0: 58e8 1fbe 217a 58bd 9573 b23d b161 d93c
000002f0: 81d2 743d 5cfa 573d 32a6 7e3d c4be 843c
00000300: f4f2 81bd a861 ef3c db6c e83d cc7e c1bc
00000310: 5f18 293d c704 d9bc 7f00 debc add9 e5bd
00000320: e6b9 0cbc 9cfb 29bd dc1a ab3d 97d0 d2bd
00000330: cae7 813c 11ab 023d e8a8 c5bd ba07 4b3d
00000340: 891c ad3d 5712 713c df51 a4bd 70e8 ac3c
00000350: ecec d43c 3300 8a3d 2dbb d4bd c525 19bb
00000360: 9227 cb3c a19a a5ba 332d 8ebd e810 da3d
00000370: b24f eb3c 8e63 723d 4fec ea3b b12c 333c
00000380: bbca 5dbc 38aa 20bd 8796 b5bd 4c63 b3bc
00000390: 2c76 bf3b 56f2 f73d 8c62 9cbd 0dc9 da3c
000003a0: 3710 0c3e d570 1cbe 5271 ae3d 8c55 143c
000003b0: ab34 203c 5cdf eebc 3adf 30bc fcad 9cbc
000003c0: 6b70 d43d 8406 c1ba 49ad 0dbe 09ae 0cba
000003d0: 9490 00be a939 513d f039 f33c f42a a2bd
000003e0: adcb 533d ba6c e63d e6b5 263e 78a8 2ebd
000003f0: 8df3 093d 58be 13bc 5ce9 bdbc 2cc3 f33c

bias f4 [128]
0.1003522 -0.067340575 -0.027768582 0.12114521 -0.05375843 0.10895725 0.09706302 -0.12249921
0.032822195 -0.09810266 0.08105231 -0.10645047 0.058865607 -0.08368516 -0.020925647 -0.054704763
-0.06807662 0.1349074 0.119895816 -0.07238857 -0.00076485815 0.055831056 0.14712456 -0.0737778
0.117935 0.117704354 -0.07377873 -0.09285323 -0.11206739 0.11845946 0.020253943 -0.0989545
0.13346109 0.036060844 0.10121366 -0.15342079 0.013539049 0.093850456 0.054241605 -0.13154525
0.022154821 0.026104664 0.1342201 -0.0055227517 0.05981393 0.016169995 -0.007558912 0.02675255
-0.016752005 0.026122516 -0.07341142 -0.09403564 -0.04862078 0.13313635 0.0062747723 -0.1055989
-0.09005334 -0.024751883 -0.0031871237 0.014769944 -0.0012658201 -0.13232337 0.08394096 0.08559062
0.03432507 -0.10811088 0.06472272 -0.076154955 0.0063719875 -0.039344914 -0.02062347 -0.10523948
-0.11133821 0.11379984 0.039448384 -0.055782657 0.02021941 0.0016553751 0.008640545 0.039810713
-0.04932646 -0.011741879 -0.12539403 -0.0075739366 -0.025690118 0.11344434 0.06025376 -0.12205278
0.0027404581 -0.06555838 0.007280602 0.0054517374 0.0034094108 0.02450276 -0.109582365 -0.10015826
-0.0058381483 -0.00020479679 -0.108520724 -0.03189543 0.009267854 -0.12763937 0.026257282 -0.16050643
-0.012095957 -0.06664382 0.114896774 -0.07357556 0.09419466 0.12772614 -0.094251364 0.15981416
-0.0013226722 -0.09148609 0.14145927 0.10799466 0.010947208 0.04358025 0.030209677 0.0029480394
-0.019214496 0.11745477 0.012919799 0.019136308 -0.08994204 -0.111734726 0.072182335 -0.04094316
00000000: 7485 cd3d dbe9 89bd f07a e3bc fb1a f83d
00000010: cd31 5cbd fb24 df3d fac8 c63d dee0 fabd
00000020: 9170 063d 0cea c8bd c1fe a53d b402 dabd
00000030: 101d 713d 2063 abbd 436c abbc 1a12 60bd
00000040: c16b 8bbd 2a25 0a3e f08b f53d 7540 94bd
00000050: c380 48ba 1baf 643d d2a7 163e d118 97bd
00000060: e887 f13d fb0e f13d 4e19 97bd d629 bebd
00000070: 9683 e5bd e09a f23d 99eb a53c a8a8 cabd
00000080: 06aa 083e 89b4 133d 1b49 cf3d 571a 1dbe
00000090: e3d2 5d3c ab34 c03d 722c 5e3d ccb3 06be
000000a0: 077e b53c 73d9 d53c fe70 093e 33f8 b4bb
000000b0: 74ff 743d f076 843c c0b0 f7bb 2a28 db3c
000000c0: 803b 89bc e3fe d53c ba58 96bd c295 c0bd
000000d0: 9526 47bd e554 083e 9b9c cd3b 3c44 d8bd
000000e0: e36d b8bd 76c4 cabc 10df 50bb a3fd 713c
000000f0: e0e9 a5ba c77f 07be 3de9 ab3d 234a af3d
00000100: 7298 0c3d 3d69 ddbd 588d 843d 21f7 9bbd
00000110: 1bcc d03b 2228 21bd 8df2 a8bc cc87 d7bd
00000120: 4a05 e4bd e40f e93d a194 213d 5b7c 64bd
00000130: 2da3 a53c 2cf9 d83a 1391 0d3c 8f10 233d
00000140: 8b0a 4abd 0361 40bc 4b67 00be c92e f8bb
00000150: 1574 d2bc 8255 e83d a6cc 763d cff6 f9bd
00000160: 4299 333b 7943 86bd 1e92 ee3b 7da4 b23b
00000170: 6c70 5f3b 03ba c83c b86c e0bd c61f cdbd
00000180: f04d bfbb b8be 56b9 1d40 debd c8a4 02bd
00000190: 32d8 173c e5b3 02be 8319 d73c cc5b 24be
000001a0: 1f2e 46bc 8e7c 88bd 004f eb3d c8ae 96bd
000001b0: 21e9 c03d a4ca 023e dc06 c1bd 53a6 233e
000001c0: 845d adba 0f5d bbbd b3da 103e 4e2c dd3d
000001d0: eb5b 333c 3481 323d 497a f73c e533 413b
000001e0: b867 9dbc 208c f03d 91ad 533c bfc3 9c3c
000001f0: 8833 b8bd 2dd5 e4bd 55d4 933d 04b4 27bd

weight f4 [1, 128]
-0.04854697 0.13233094 -0.15871432 -0.12273751 0.095061935 -0.119985074 -0.092087284 0.10155058
-0.10066167 0.120550886 -0.10449719 0.11827126 -0.06249579 0.14504081 0.14008506 0.060722955
0.118611604 -0.100366496 -0.115400836 0.12265032 -0.12791388 -0.10559301 -0.060799424 0.13141337
-0.10878559 -0.12981284 0.14405529 0.108059585 0.118116595 -0.12846921 0.09859227 0.123172626
-0.11639765 -0.12507358 -0.13728064 0.07348473 -0.10704162 -0.11743795 -0.07893404 0.087920524
-0.12356335 0.12365815 -0.11831718 -0.1581895 -0.09799062 -0.10438184 0.14851621 -0.11884618
0.13255757 -0.12305445 0.11356747 0.10952298 0.088346526 -0.089578524 0.13262294 0.11496549
0.096773796 0.12707335 -0.09649044 0.13637035 -0.14192088 0.07260588 -0.10024279 -0.08971003
-0.12242713 0.1504804 -0.07837454 0.11033897 -0.13079816 0.14627011 -0.13350505 0.11162893
0.13341051 -0.090004236 -0.08445016 0.10611294 -0.12682454 -0.10773277 0.09318981 -0.12456665
0.1151817 -0.12690547 0.08235635 0.06192536 0.076682806 -0.13355176 -0.14908256 0.09742531
-0.17170611 0.12420046 -0.08830984 0.07655363 -0.09673544 0.13584243 0.1259931 0.092667356
0.12396324 -0.053243823 0.103880405 -0.13377658 -0.1333289 0.11899923 0.12904397 0.093773365
-0.13297497 0.10071004 -0.14205751 0.11086617 -0.07938091 -0.1714318 0.13832135 -0.13247563
0.10586585 0.10022952 -0.12994277 -0.12904406 0.1561393 -0.078432076 -0.13504742 0.116771385
-0.14439087 -0.111132585 0.15036176 -0.16953017 0.11443923 0.12366727 -0.13749807 0.13138382
00000000: 30d9 46bd c381 073e 0286 22be ce5d fbbd
00000010: d5af c23d bcba f5bd 4298 bcbd c0f9 cf3d
00000020: b527 cebd 62e3 f63d 9f02 d6bd 3438 f23d
00000030: 96fb 7fbd 9485 143e 7572 0f3e a2b8 783d
00000040: a4ea f23d f38c cdbd 4657 ecbd 1730 fb3d
00000050: dbfb 02be 2641 d8bd d108 79bd 3a91 063e
00000060: fbca debd a8ed 04be 3b83 133e 584e dd3d
00000070: 1de7 f13d 6f8d 03be beea c93d ee41 fc3d
00000080: e461 eebd 4a13 00be 4c93 0cbe 2a7f 963d
00000090: a338 dbbd 4f83 f0bd 2ca8 a1bd ad0f b43d
000000a0: c80e fdbd 7c40 fd3d 4750 f2bd 6efc 21be
000000b0: 4eaf c8bd 25c6 d5bd a214 183e a065 f3bd
000000c0: 2cbd 073e f903 fcbd 1096 e83d 964d e03d
000000d0: 06ef b43d f274 b7bd 4fce 073e 0773 eb3d
000000e0: 5731 c63d 841f 023e c89c c5bd aba4 0b3e
000000f0: b553 11be 64b2 943d 184c cdbd e4b9 b7bd
00000100: 13bb fabd 8917 1a3e d582 a0bd 66f9 e13d
00000110: f4ef 05be d5c7 153e 8cb5 08be b59d e43d
00000120: c49c 083e 2454 b8bd 35f4 acbd be51 d93d
00000130: 4bde 01be 00a3 dcbd 4dda be3d cd1c ffbd
00000140: 62e4 eb3d 82f3 01be 72aa a83d 72a5 7d3d
00000150: e00b 9d3d cbc1 08be 19a9 18be ec86 c73d
00000160: bad3 2fbe d05c fe3d cadb b4bd 26c8 9c3d
00000170: 3b1d c6bd 471a 0b3e 5604 013e 62c8 bd3d
00000180: 70e0 fd3d 3216 5abd 40bf d43d bafc 08be
00000190: 5f87 08be deb5 f33d 1a24 043e 400c c03d
000001a0: 972a 08be 1141 ce3d 8677 11be cd0d e33d
000001b0: 7592 a2bd d18b 2fbe 1da4 0d3e b1a7 07be
000001c0: 32d0 d83d 2245 cd3d b80f 05be 2024 04be
000001d0: fbe2 1f3e ffa0 a0bd df49 0abe d625 ef3d
000001e0: 33db 13be 7b99 e3bd 6ff8 193e 5199 2dbe
000001f0: 1d5f ea3d 4445 fd3d 4bcc 0cbe 7b89 063e
