dapg/examples/model/no_relocate-v0/model_feature.pt (torch, 179982 bytes, 10 tensors)

in_shift f4 [72]
0	0x00000000	0.0
1	0x00000000	0.0
2	0x00000000	0.0
3	0x00000000	0.0
4	0x00000000	0.0
5	0x00000000	0.0
6	0x00000000	0.0
7	0x00000000	0.0
8	0x00000000	0.0
9	0x00000000	0.0
10	0x00000000	0.0
11	0x00000000	0.0
12	0x00000000	0.0
13	0x00000000	0.0
14	0x00000000	0.0
15	0x00000000	0.0
16	0x00000000	0.0
17	0x00000000	0.0
18	0x00000000	0.0
19	0x00000000	0.0
20	0x00000000	0.0
21	0x00000000	0.0
22	0x00000000	0.0
23	0x00000000	0.0
24	0x00000000	0.0
25	0x00000000	0.0
26	0x00000000	0.0
27	0x00000000	0.0
28	0x00000000	0.0
29	0x00000000	0.0
30	0x00000000	0.0
31	0x00000000	0.0
32	0x00000000	0.0
33	0x00000000	0.0
34	0x00000000	0.0
35	0x00000000	0.0
36	0x00000000	0.0
37	0x00000000	0.0
38	0x00000000	0.0
39	0x00000000	0.0
40	0x00000000	0.0
41	0x00000000	0.0
42	0x00000000	0.0
43	0x00000000	0.0
44	0x00000000	0.0
45	0x00000000	0.0
46	0x00000000	0.0
47	0x00000000	0.0
48	0x00000000	0.0
49	0x00000000	0.0
50	0x00000000	0.0
51	0x00000000	0.0
52	0x00000000	0.0
53	0x00000000	0.0
54	0x00000000	0.0
55	0x00000000	0.0
56	0x00000000	0.0
57	0x00000000	0.0
58	0x00000000	0.0
59	0x00000000	0.0
60	0x00000000	0.0
61	0x00000000	0.0
62	0x00000000	0.0
63	0x00000000	0.0
64	0x00000000	0.0
65	0x00000000	0.0
66	0x00000000	0.0
67	0x00000000	0.0
68	0x00000000	0.0
69	0x00000000	0.0
70	0x00000000	0.0
71	0x00000000	0.0

in_scale f4 [72]
0	0x3f800000	1.0
1	0x3f800000	1.0
2	0x3f800000	1.0
3	0x3f800000	1.0
4	0x3f800000	1.0
5	0x3f800000	1.0
6	0x3f800000	1.0
7	0x3f800000	1.0
8	0x3f800000	1.0
9	0x3f800000	1.0
10	0x3f800000	1.0
11	0x3f800000	1.0
12	0x3f800000	1.0
13	0x3f800000	1.0
14	0x3f800000	1.0
15	0x3f800000	1.0
16	0x3f800000	1.0
17	0x3f800000	1.0
18	0x3f800000	1.0
19	0x3f800000	1.0
20	0x3f800000	1.0
21	0x3f800000	1.0
22	0x3f800000	1.0
23	0x3f800000	1.0
24	0x3f800000	1.0
25	0x3f800000	1.0
26	0x3f800000	1.0
27	0x3f800000	1.0
28	0x3f800000	1.0
29	0x3f800000	1.0
30	0x3f800000	1.0
31	0x3f800000	1.0
32	0x3f800000	1.0
33	0x3f800000	1.0
34	0x3f800000	1.0
35	0x3f800000	1.0
36	0x3f800000	1.0
37	0x3f800000	1.0
38	0x3f800000	1.0
39	0x3f800000	1.0
40	0x3f800000	1.0
41	0x3f800000	1.0
42	0x3f800000	1.0
43	0x3f800000	1.0
44	0x3f800000	1.0
45	0x3f800000	1.0
46	0x3f800000	1.0
47	0x3f800000	1.0
48	0x3f800000	1.0
49	0x3f800000	1.0
50	0x3f800000	1.0
51	0x3f800000	1.0
52	0x3f800000	1.0
53	0x3f800000	1.0
54	0x3f800000	1.0
55	0x3f800000	1.0
56	0x3f800000	1.0
57	0x3f800000	1.0
58	0x3f800000	1.0
59	0x3f800000	1.0
60	0x3f800000	1.0
61	0x3f800000	1.0
62	0x3f800000	1.0
63	0x3f800000	1.0
64	0x3f800000	1.0
65	0x3f800000	1.0
66	0x3f800000	1.0
67	0x3f800000	1.0
68	0x3f800000	1.0
69	0x3f800000	1.0
70	0x3f800000	1.0
71	0x3f800000	1.0

out_shift f4 [128]
0	0x00000000	0.0
1	0x00000000	0.0
2	0x00000000	0.0
3	0x00000000	0.0
4	0x00000000	0.0
5	0x00000000	0.0
6	0x00000000	0.0
7	0x00000000	0.0
8	0x00000000	0.0
9	0x00000000	0.0
10	0x00000000	0.0
11	0x00000000	0.0
12	0x00000000	0.0
13	0x00000000	0.0
14	0x00000000	0.0
15	0x00000000	0.0
16	0x00000000	0.0
17	0x00000000	0.0
18	0x00000000	0.0
19	0x00000000	0.0
20	0x00000000	0.0
21	0x00000000	0.0
22	0x00000000	0.0
23	0x00000000	0.0
24	0x00000000	0.0
25	0x00000000	0.0
26	0x00000000	0.0
27	0x00000000	0.0
28	0x00000000	0.0
29	0x00000000	0.0
30	0x00000000	0.0
31	0x00000000	0.0
32	0x00000000	0.0
33	0x00000000	0.0
34	0x00000000	0.0
35	0x00000000	0.0
36	0x00000000	0.0
37	0x00000000	0.0
38	0x00000000	0.0
39	0x00000000	0.0
40	0x00000000	0.0
41	0x00000000	0.0
42	0x00000000	0.0
43	0x00000000	0.0
44	0x00000000	0.0
45	0x00000000	0.0
46	0x00000000	0.0
47	0x00000000	0.0
48	0x00000000	0.0
49	0x00000000	0.0
50	0x00000000	0.0
51	0x00000000	0.0
52	0x00000000	0.0
53	0x00000000	0.0
54	0x00000000	0.0
55	0x00000000	0.0
56	0x00000000	0.0
57	0x00000000	0.0
58	0x00000000	0.0
59	0x00000000	0.0
60	0x00000000	0.0
61	0x00000000	0.0
62	0x00000000	0.0
63	0x00000000	0.0
64	0x00000000	0.0
65	0x00000000	0.0
66	0x00000000	0.0
67	0x00000000	0.0
68	0x00000000	0.0
69	0x00000000	0.0
70	0x00000000	0.0
71	0x00000000	0.0
72	0x00000000	0.0
73	0x00000000	0.0
74	0x00000000	0.0
75	0x00000000	0.0
76	0x00000000	0.0
77	0x00000000	0.0
78	0x00000000	0.0
79	0x00000000	0.0
80	0x00000000	0.0
81	0x00000000	0.0
82	0x00000000	0.0
83	0x00000000	0.0
84	0x00000000	0.0
85	0x00000000	0.0
86	0x00000000	0.0
87	0x00000000	0.0
88	0x00000000	0.0
89	0x00000000	0.0
90	0x00000000	0.0
91	0x00000000	0.0
92	0x00000000	0.0
93	0x00000000	0.0
94	0x00000000	0.0
95	0x00000000	0.0
96	0x00000000	0.0
97	0x00000000	0.0
98	0x00000000	0.0
99	0x00000000	0.0
100	0x00000000	0.0
101	0x00000000	0.0
102	0x00000000	0.0
103	0x00000000	0.0
104	0x00000000	0.0
105	0x00000000	0.0
106	0x00000000	0.0
107	0x00000000	0.0
108	0x00000000	0.0
109	0x00000000	0.0
110	0x00000000	0.0
111	0x00000000	0.0
112	0x00000000	0.0
113	0x00000000	0.0
114	0x00000000	0.0
115	0x00000000	0.0
116	0x00000000	0.0
117	0x00000000	0.0
118	0x00000000	0.0
119	0x00000000	0.0
120	0x00000000	0.0
121	0x00000000	0.0
122	0x00000000	0.0
123	0x00000000	0.0
124	0x00000000	0.0
125	0x00000000	0.0
126	0x00000000	0.0
127	0x00000000	0.0

out_scale f4 [128]
0	0x3f800000	1.0
1	0x3f800000	1.0
2	0x3f800000	1.0
3	0x3f800000	1.0
4	0x3f800000	1.0
5	0x3f800000	1.0
6	0x3f800000	1.0
7	0x3f800000	1.0
8	0x3f800000	1.0
9	0x3f800000	1.0
10	0x3f800000	1.0
11	0x3f800000	1.0
12	0x3f800000	1.0
13	0x3f800000	1.0
14	0x3f800000	1.0
15	0x3f800000	1.0
16	0x3f800000	1.0
17	0x3f800000	1.0
18	0x3f800000	1.0
19	0x3f800000	1.0
20	0x3f800000	1.0
21	0x3f800000	1.0
22	0x3f800000	1.0
23	0x3f800000	1.0
24	0x3f800000	1.0
25	0x3f800000	1.0
26	0x3f800000	1.0
27	0x3f800000	1.0
28	0x3f800000	1.0
29	0x3f800000	1.0
30	0x3f800000	1.0
31	0x3f800000	1.0
32	0x3f800000	1.0
33	0x3f800000	1.0
34	0x3f800000	1.0
35	0x3f800000	1.0
36	0x3f800000	1.0
37	0x3f800000	1.0
38	0x3f800000	1.0
39	0x3f800000	1.0
40	0x3f800000	1.0
41	0x3f800000	1.0
42	0x3f800000	1.0
43	0x3f800000	1.0
44	0x3f800000	1.0
45	0x3f800000	1.0
46	0x3f800000	1.0
47	0x3f800000	1.0
48	0x3f800000	1.0
49	0x3f800000	1.0
50	0x3f800000	1.0
51	0x3f800000	1.0
52	0x3f800000	1.0
53	0x3f800000	1.0
54	0x3f800000	1.0
55	0x3f800000	1.0
56	0x3f800000	1.0
57	0x3f800000	1.0
58	0x3f800000	1.0
59	0x3f800000	1.0
60	0x3f800000	1.0
61	0x3f800000	1.0
62	0x3f800000	1.0
63	0x3f800000	1.0
64	0x3f800000	1.0
65	0x3f800000	1.0
66	0x3f800000	1.0
67	0x3f800000	1.0
68	0x3f800000	1.0
69	0x3f800000	1.0
70	0x3f800000	1.0
71	0x3f800000	1.0
72	0x3f800000	1.0
73	0x3f800000	1.0
74	0x3f800000	1.0
75	0x3f800000	1.0
76	0x3f800000	1.0
77	0x3f800000	1.0
78	0x3f800000	1.0
79	0x3f800000	1.0
80	0x3f800000	1.0
81	0x3f800000	1.0
82	0x3f800000	1.0
83	0x3f800000	1.0
84	0x3f800000	1.0
85	0x3f800000	1.0
86	0x3f800000	1.0
87	0x3f800000	1.0
88	0x3f800000	1.0
89	0x3f800000	1.0
90	0x3f800000	1.0
91	0x3f800000	1.0
92	0x3f800000	1.0
93	0x3f800000	1.0
94	0x3f800000	1.0
95	0x3f800000	1.0
96	0x3f800000	1.0
97	0x3f800000	1.0
98	0x3f800000	1.0
99	0x3f800000	1.0
100	0x3f800000	1.0
101	0x3f800000	1.0
102	0x3f800000	1.0
103	0x3f800000	1.0
104	0x3f800000	1.0
105	0x3f800000	1.0
106	0x3f800000	1.0
107	0x3f800000	1.0
108	0x3f800000	1.0
109	0x3f800000	1.0
110	0x3f800000	1.0
111	0x3f800000	1.0
112	0x3f800000	1.0
113	0x3f800000	1.0
114	0x3f800000	1.0
115	0x3f800000	1.0
116	0x3f800000	1.0
117	0x3f800000	1.0
118	0x3f800000	1.0
119	0x3f800000	1.0
120	0x3f800000	1.0
121	0x3f800000	1.0
122	0x3f800000	1.0
123	0x3f800000	1.0
124	0x3f800000	1.0
125	0x3f800000	1.0
126	0x3f800000	1.0
127	0x3f800000	1.0

weight f4 [128, 72]
0	0xbe06222e	-0.13098976
1	0x3de9fcca	0.11425169
2	0xbde0b4e7	-0.109720044
3	0x3cd08ab6	0.025456768
4	0xbd895110	-0.067049146
5	0xbc9bf911	-0.019039663
6	0xbde803b2	-0.1132883
7	0xbde4bcbc	-0.11168811
8	0xbd79ad98	-0.060956568
9	0x3d930e73	0.0718049
10	0xbb81faa7	-0.0039666477
11	0xbcd49488	-0.025949731
12	0xbd0ffc10	-0.035152495
13	0xbd49e0ca	-0.04928664
14	0x3d45eb62	0.04832018
15	0x3ce24979	0.027622925
16	0x3df8c2da	0.1214654
17	0x3d62f19d	0.0554062
18	0x3cff0402	0.03112984
19	0x3d7b4ac6	0.061350606
20	0xbc5e7ab9	-0.013579064
21	0xbd02f040	-0.0319674
22	0xbd02304a	-0.031784333
23	0xbb96592a	-0.004588266
24	0xbe00173b	-0.12508862
25	0xbde17275	-0.11008159
26	0x3da89cb7	0.08233016
27	0xbdbe9b2f	-0.09306943
28	0x3db04264	0.08606413
29	0xbd569164	-0.05238475
30	0x3c120330	0.008911893
31	0xbd8d8cd4	-0.069116265
32	0xbd6829a2	-0.05668033
33	0xbd5a1e78	-0.053251714
34	0x3df234eb	0.118264996
35	0x3d069226	0.03285422
36	0xbd96d1ea	-0.07364257
37	0xbd98bb7c	-0.07457635
38	0x3db07d60	0.086176634
39	0xbda0e5b0	-0.078563094
40	0x3b402a83	0.0029322214
41	0x3d21dcd6	0.039517246
42	0x3b8ca705	0.004292371
43	0xbbbe35e9	-0.0058047664
44	0x39f50c66	0.0004673928
45	0x3dc895f7	0.097942285
46	0x3dc3f13c	0.09567496
47	0x3d8279b6	0.06370871
48	0xbd23edee	-0.04002183
49	0xbd5217c5	-0.0512922
50	0x3d063231	0.03276271
51	0x3d5991c3	0.053117525
52	0x3c53c137	0.012924484
53	0xbcce7d53	-0.025206244
54	0x3c952120	0.018204272
55	0x3e05f9e7	0.13083611
56	0xbdc18c91	-0.09450639
57	0x3da02071	0.07818688
58	0x3d640952	0.05567295
59	0x3df127ee	0.11775194
60	0xbdb22aab	-0.086995445
61	0x3da098d0	0.07841647
62	0x3de22b67	0.110434346
63	0x3dad59ab	0.084643684
64	0xbd8a89f2	-0.06764592
65	0x3e0964a7	0.13417302
66	0xbc67a3f0	-0.014138207
67	0x3e131d24	0.14366585
68	0x3cef9506	0.029245865
69	0x3ce868cb	0.028370282
70	0x3e0756c1	0.13216688
71	0xbd9c283a	-0.0762486
72	0xbe0ccfa9	-0.13751091
73	0xbcfb7748	-0.030696526
74	0x3b93c719	0.0045098183
75	0xbe0fa06b	-0.14026038
76	0xbcf96044	-0.03044141
77	0x3dc0dbe5	0.094169416
78	0x3e236462	0.15956262
79	0xbd66a656	-0.056310974
80	0xbe067e21	-0.13134052
81	0x3d5c6c9c	0.053814515
82	0x3e36f717	0.17867695
83	0x3d902c05	0.07039646
84	0xbdd37ec4	-0.10326913
85	0xbdd447f2	-0.10365285
86	0xbccafb10	-0.024777919
87	0xbdb026b0	-0.08601129
88	0x3d2f8bc3	0.042857897
89	0xbdf8c110	-0.12146199
90	0x3d9b51fe	0.07583998
91	0xbd6f771c	-0.0584632
92	0x3c77d6b9	0.015126877
93	0xbe3b374e	-0.18282816
94	0xbe133e0b	-0.14379136
95	0x3de87b88	0.11351687
96	0xbe4c9c8c	-0.19981593
97	0x3cdc269a	0.026873875
98	0x3d2725fe	0.040807717
99	0xbe00afe4	-0.12567097
100	0xbdecdbe4	-0.11565378
101	0xbd9f121e	-0.077671275
102	0x3cd514bd	0.026010865
103	0x3da682ff	0.08130454
104	0xbdb33af1	-0.087514766
105	0x3d8d5b21	0.06902147
106	0x3daab607	0.083355
107	0xbd27dc73	-0.04098172
108	0xbcfb73e7	-0.030694915
109	0x3dd144b2	0.10218181
110	0x3d24217c	0.040070996
111	0x3dcb2fab	0.09921201
112	0xbe08b368	-0.13349688
113	0x3d825a26	0.06364851
114	0x3b1c0c30	0.0023810975
115	0xbdb8d755	-0.09025446
116	0xbddbcacb	-0.10732039
117	0xbe2456da	-0.16048756
118	0xbdc4c1ed	-0.09607301
119	0x3c099b50	0.008398846
120	0xbd62c2ca	-0.055361547
121	0x3d47cd9f	0.04878008
122	0x3ddb6b96	0.1071388
123	0xbddca87d	-0.10774324
124	0xbd322c6d	-0.0434994
125	0x3dc1ae9f	0.094571345
126	0xbcb7dd21	-0.02244431
127	0x3d52af72	0.05143685
128	0x3d25fee6	0.040526293
129	0x3dc7a2de	0.09747861
130	0x3db04151	0.08606208
131	0x3def5e41	0.116878994
132	0x3da8fa7f	0.08250903
133	0x3cc1fcd3	0.023680126
134	0x3df5d99f	0.120043986
135	0x3d2556a9	0.04036585
136	0xbd692d95	-0.056928236
137	0xbce9ad3a	-0.028524984
138	0xbd6445be	-0.055730574
139	0xbbf09594	-0.00734205
140	0xbd03deee	-0.032195024
141	0xbe2d4bbc	-0.16923422
142	0xbdfe05dc	-0.12403461
143	0x3cac76a8	0.021052673
144	0x3e011f4e	0.12609598
145	0x3e0b45f7	0.13600908
146	0xba595ac1	-0.00082914165
147	0xbd1de72d	-0.038550545
148	0xbccab7ab	-0.024745783
149	0x3d01c27a	0.031679608
150	0x3e0f213a	0.13977519
151	0x3dda61c3	0.10663178
152	0x3deee362	0.116644636
153	0x3d9fe79c	0.07807848
154	0xbd5ddd61	-0.0541662
155	0xbe3f20a8	-0.18664801
156	0xbe1d6c4c	-0.15373343
157	0xbcbd6899	-0.023121165
158	0xbdde1743	-0.108442806
159	0x3d18a1f9	0.037263844
160	0xbe2a4a59	-0.16629924
161	0xbcbf0f4f	-0.02332273
162	0xbd0e0e68	-0.034681708
163	0x3ddd6b36	0.108114645
164	0xbd8dfd6f	-0.06933104
165	0xba9f1338	-0.0012136465
166	0xbd91a053	-0.071106575
167	0x3d086e03	0.03330804
168	0x3dcd4f4b	0.100248896
169	0xbda7aeed	-0.08187661
170	0x3bdfa3dc	0.0068249535
171	0xbc4be76f	-0.012445315
172	0x3d6e1fd3	0.05813582
173	0xbd88aa7b	-0.066731416
174	0x3d35bba4	0.0443684
175	0xbdee60cf	-0.116395585
176	0xbdcd0fcb	-0.10012778
177	0xbda28e49	-0.07937295
178	0xbda034a5	-0.07822541
179	0xbdb77b73	-0.08959093
180	0xbdcca918	-0.099931896
181	0xbdcbe774	-0.099562556
182	0xbe279a94	-0.1636756
183	0xbd90b0e8	-0.07064992
184	0x3d439dd1	0.047757927
185	0x3cd0a5ff	0.025469778
186	0xbd6bc6a2	-0.057562478
187	0x3ccd91c9	0.02509393
188	0x3dd018cc	0.1016098
189	0xbddb5bb6	-0.10710852
190	0xbca8f500	-0.020624638
191	0x3dac7387	0.084204726
192	0xbda10812	-0.078628674
193	0x3d91b5d9	0.07114763
194	0x3d76d7a0	0.06026423
195	0x3d5daf24	0.054122105
196	0xb9c40e7d	-0.00037394828
197	0xbd85ad35	-0.06527177
198	0xbc885379	-0.016641365
199	0x3d41ccc9	0.04731444
200	0x3ce60daa	0.028082687
201	0xbc83af9b	-0.016074946
202	0xbe4398e1	-0.19101287
203	0xbd28c762	-0.04120577
204	0x3d637ead	0.05554073
205	0x3db49d76	0.08819096
206	0xbe004045	-0.12524517
207	0xbb9eed0b	-0.004850035
208	0xbe27f5bf	-0.16402338
209	0xbaf15ee1	-0.0018415117
210	0x3bac5cd7	0.005260091
211	0xbc2f52a8	-0.010700859
212	0xbdc6fd23	-0.09716251
213	0x3da22757	0.0791766
214	0x3d80713a	0.06271596
215	0x3e3e4b08	0.1858331
216	0xbd42f92a	-0.047600903
217	0xbdd5ef98	-0.104460895
218	0xbde4a8bb	-0.11164995
219	0x3cdb0756	0.026736896
220	0xbd19a014	-0.037506178
221	0xbd59dda7	-0.0531899
222	0x397c48ff	0.00024059786
223	0x3dbcc486	0.09217171
224	0x3dbcf2fe	0.092260346
225	0xbd73f350	-0.059558213
226	0xbe1b0411	-0.1513827
227	0x3c710242	0.014710011
228	0xbc4a173d	-0.012334642
229	0x3d208f0e	0.039198928
230	0xbdbd798e	-0.092517
231	0x3d91a40d	0.07111368
232	0x3c8bf70b	0.017085573
233	0xb9d98c44	-0.0004149397
234	0xbcc6e38a	-0.024278421
235	0xbda0db54	-0.078543335
236	0x3e08f9f9	0.13376607
237	0xbd448cd7	-0.047985878
238	0xbd8d6d68	-0.06905633
239	0x3dc9b2a1	0.09848524
240	0x3d58c69f	0.052923795
241	0xbd409dfb	-0.047025662
242	0x3d8b9776	0.06815998
243	0xbdd46e2e	-0.103725776
244	0x3da4d82b	0.08049043
245	0x3decc13e	0.115602955
246	0x3d84315a	0.064547256
247	0xbd411484	-0.047138706
248	0xbdb9d24e	-0.090733156
249	0x3d079b7c	0.033107266
250	0xbced37f5	-0.028957346
251	0x3b260ff7	0.0025339106
252	0xbd82e89b	-0.06392022
253	0xbd3e1659	-0.04640803
254	0x3c31d7a2	0.0108546335
255	0xbdceb055	-0.100922264

bias f4 [128]
0	0x3d400bc7	0.04688623
1	0xbd8580f0	-0.065187335
2	0x3d8d3d7d	0.068964936
3	0xbdbd2e71	-0.092373736
4	0xbd6089fc	-0.054819092
5	0x3cac3092	0.021019254
6	0x3d6e0d39	0.05811808
7	0x3d05847a	0.032597043
8	0xbdd86470	-0.10566032
9	0x3d9fa924	0.07795933
10	0x3d19f4e3	0.037587058
11	0x3c0bb90f	0.008528008
12	0x3d511546	0.05104568
13	0xbe14ad13	-0.14519148
14	0x3d7a2f3f	0.061080214
15	0x3db99407	0.09061437
16	0xbba2ecbb	-0.004972068
17	0xbdd22e8f	-0.102627866
18	0x3dd43845	0.10362295
19	0x3d2493aa	0.040179886
20	0xbd1b2b16	-0.037882887
21	0xbdfa901b	-0.12234517
22	0xbd7451bc	-0.05964826
23	0xbd9226b9	-0.07136292
24	0xbdc7f073	-0.09762659
25	0x3de0fbff	0.109855644
26	0xbda3e504	-0.08002666
27	0xbde6075a	-0.11231871
28	0xbd1061c6	-0.035249494
29	0x3c9e0e2a	0.019293863
30	0x3c2e4b30	0.010638043
31	0xbbb35f56	-0.0054740114
32	0xbdb0ecb6	-0.08638899
33	0x3dc199ce	0.09453164
34	0xbdeb6eb3	-0.114957236
35	0x3d7c44b7	0.06158897
36	0x3c0f00ec	0.008728247
37	0xbd161171	-0.036637727
38	0x3d8afd3a	0.067865804
39	0xbce74f05	-0.028235922
40	0x3e05912c	0.1304366
41	0xbd2c32fc	-0.04204081
42	0x3d0cab81	0.034343246
43	0x3bd5afa8	0.006521184
44	0xbdb74da1	-0.089503534
45	0xbdfa8707	-0.12232786
46	0xbd208fcf	-0.039199647
47	0xbda99db9	-0.08282036
48	0xbdcbb931	-0.09947432
49	0xbd9f32ac	-0.07773337
50	0x3dbc5393	0.09195628
51	0xbd446dae	-0.04795616
52	0xbd82cdbb	-0.06386896
53	0x3de72a41	0.11287356
54	0x3d19d2b6	0.037554465
55	0xbd87c2bf	-0.06628942
56	0x3d5f3432	0.054493137
57	0xbd7dcc00	-0.061962128
58	0xbc30b379	-0.010784977
59	0x3da59648	0.080853045
60	0xbd6f1c0a	-0.05837635
61	0xbdcc972f	-0.099897735
62	0x3b57423c	0.0032845875
63	0x3d277396	0.040881716
64	0x3d330b4b	0.04371194
65	0xbcf32566	-0.029680919
66	0xbd609b18	-0.05483541
67	0x3cd5ec2c	0.026113592
68	0x3d20dcd9	0.039273117
69	0xbdbbc1b3	-0.091678046
70	0x3db81528	0.0898841
71	0xbd262bf3	-0.040569257
72	0xbdba128c	-0.09085569
73	0xbd41bbc7	-0.04729822
74	0xbd840c22	-0.06447627
75	0xbdc8eefa	-0.09811206
76	0x3db75480	0.08951664
77	0xbdac4a0a	-0.08412559
78	0x3d28043a	0.041019656
79	0x3de68b6f	0.112570636
80	0xbde6a7ca	-0.11262472
81	0x3d0e8f3c	0.034804568
82	0xbcece6da	-0.028918672
83	0xbd5dfd1c	-0.054196462
84	0xbdad52c3	-0.08463051
85	0xbb95e312	-0.004574188
86	0xbaf7eae5	-0.0018914609
87	0x3d855d79	0.06511969
88	0xbd583cd7	-0.052792396
89	0xbd99a66c	-0.075024456
90	0xbd6d3653	-0.057913136
91	0x3dd334ba	0.10312791
92	0xbc93b38c	-0.01802995
93	0xbd952a0b	-0.0728341
94	0xbcb17cc5	-0.02166594
95	0xbbe958f5	-0.0071212
96	0x3c9011fc	0.0175867
97	0xbd2c8580	-0.042119503
98	0xbdde782f	-0.10862767
99	0x3b99ee05	0.0046975636
100	0xbd962fee	-0.073333606
101	0xbdab3eb3	-0.08361568
102	0xbc62e3ac	-0.0138482265
103	0x3c6602d5	0.014038761
104	0xbd8e2439	-0.06940503
105	0x3e05b663	0.13057856
106	0xbd568a42	-0.052377947
107	0x3ce7ef9f	0.028312502
108	0x3c191f59	0.009345853
109	0xbd799e62	-0.06094206
110	0xbdd16ea9	-0.10226185
111	0x3d9ad8eb	0.07560905
112	0x3c2d4958	0.010576569
113	0xbd3610e2	-0.044449694
114	0xbd2e1785	-0.0425029
115	0xbd324563	-0.043523204
116	0x3de59c26	0.112114236
117	0xbd161451	-0.03664047
118	0xbcb8eb63	-0.022573179
119	0x3ba5ec9c	0.0050636064
120	0xbc96d711	-0.018413099
121	0x3d5b17bc	0.05348943
122	0xbe06d618	-0.13167608
123	0x3c57f4f7	0.013180963
124	0xbd978cc3	-0.07399895
125	0xbd20547d	-0.039143074
126	0x3e092e49	0.13396563
127	0x3df0c90b	0.11757096

weight f4 [128, 128]
0	0xbbf6021e	-0.0075075766
1	0x3da7f0da	0.08200236
2	0x3b803aa6	0.0039132414
3	0x3d288c74	0.04114957
4	0x3d178bcb	0.03699855
5	0xbd828cab	-0.063744865
6	0x3d581b60	0.05276048
7	0x3db628e9	0.08894522
8	0x3d77c128	0.060486943
9	0xbcbb5305	-0.022866735
10	0xbd87a437	-0.06623118
11	0x3d4d5d4a	0.050137796
12	0x3d8127d3	0.06306424
13	0xbd2dda90	-0.042444766
14	0x3cf3c5ee	0.029757466
15	0xbc111206	-0.008854395
16	0x3cf812e7	0.03028245
17	0x3dc7a537	0.09748309
18	0x3ba836ba	0.005133477
19	0xbc89801d	-0.016784722
20	0x3d7bb161	0.06144846
21	0xbca39352	-0.019967709
22	0x3c4a010c	0.012329351
23	0xbd1afcf4	-0.03783889
24	0xbcb94b19	-0.022618817
25	0xbd4d0d85	-0.05006172
26	0xbc0949d2	-0.008379417
27	0xbd1e4fd3	-0.038650345
28	0xbb3dcaea	-0.0028960058
29	0x3d762fea	0.06010429
30	0x3db6aaba	0.08919282
31	0x3d3c936b	0.046039026
32	0x3d318f0a	0.043349303
33	0x3d8a069a	0.067395404
34	0xbdb1279d	-0.08650134
35	0x3b6d4685	0.0036205363
36	0xbd1e4269	-0.038637552
37	0xbda85d9c	-0.082209796
38	0xbd48a090	-0.04898125
39	0xbd76bc8b	-0.060238402
40	0x3d321660	0.04347837
41	0x3cb0a1ac	0.021561466
42	0xbd4aec9a	-0.049542047
43	0xbd07206e	-0.03298991
44	0xbac1138b	-0.0014730556
45	0x3d1bdcbd	0.03805231
46	0x3c85fdd4	0.016356386
47	0x3d595203	0.053056728
48	0x3dc34926	0.09535436
49	0x3da1a72d	0.078932144
50	0xbd857135	-0.06515733
51	0xbba805f1	-0.0051276614
52	0x3d3e2b79	0.046428178
53	0x3d5cbf13	0.05389316
54	0x3d9d2618	0.076732814
55	0xbca8913d	-0.020577068
56	0x3dac2545	0.08405546
57	0xbd4f2daf	-0.050580677
58	0x3d3d4ffa	0.04621885
59	0x3d45c061	0.04827917
60	0x3c1f6831	0.009729431
61	0xbd4efbd7	-0.050533142
62	0xbd59051c	-0.05298339
63	0x3c3053ce	0.010762168
64	0x3d98705d	0.074433066
65	0xbc286d0d	-0.010279906
66	0x3d9a9d9b	0.07549592
67	0xbc19fe17	-0.009398959
68	0xbc6a85d8	-0.014314137
69	0x3d0fe57d	0.035130966
70	0x3d3a09cb	0.045419496
71	0xbce692fb	-0.028146258
72	0xbd0d9f66	-0.034575842
73	0xbdab79db	-0.083728515
74	0xbcc574cb	-0.024103543
75	0xbd0104a8	-0.03149858
76	0x3bbbcda6	0.0057313023
77	0x3d54dc7e	0.05196809
78	0x3d228498	0.039677233
79	0x3d95fe60	0.07323909
80	0xbb4111af	-0.0029460003
81	0xbdf8ee53	-0.12154832
82	0x3dcbfd3d	0.09960411
83	0x3c6cae03	0.0144457845
84	0x3c972431	0.018449875
85	0x3dc107a1	0.09425283
86	0xbc8ecaa5	-0.017430613
87	0xbcbb3eae	-0.022857036
88	0xbd580c93	-0.052746367
89	0x3da24563	0.07923391
90	0x3dd1fd04	0.10253337
91	0xbda7dae2	-0.081960455
92	0xbd85a66c	-0.06525883
93	0xbcee669c	-0.029101662
94	0x3cb5a20c	0.022171997
95	0xbd21236d	-0.039340425
96	0x3e1eff9c	0.15527195
97	0x3c07cbdf	0.008288353
98	0x3a507519	0.0007952019
99	0x3cd5ff3b	0.02612268
100	0x3cdc7599	0.026911544
101	0xbd83da97	-0.06438177
102	0x3d98187c	0.07426545
103	0xb8ad4584	-8.262231e-05
104	0x3d9d99ab	0.076953255
105	0xbc0af3e7	-0.008481002
106	0xba9ba0de	-0.0011873504
107	0x3d01ae3b	0.0316603
108	0xbdb31b33	-0.08745422
109	0xbd12ed7e	-0.03587102
110	0x3d84b162	0.064791456
111	0xbd126db4	-0.035749152
112	0xb92c3921	-0.0001642448
113	0x3dad920a	0.0847512
114	0xbc115058	-0.008869253
115	0xbd2b2007	-0.04177859
116	0xbd80758a	-0.06272419
117	0x3d3ddeb3	0.04635496
118	0xbd64938b	-0.05580477
119	0xbb228125	-0.0024796214
120	0xbcc81dee	-0.024428334
121	0xbd61aa77	-0.05509421
122	0xba3c6427	-0.0007186555
123	0x3d098bde	0.033580653
124	0x3db9f69a	0.09080239
125	0x3d41d0c7	0.047318246
126	0xbbe892c4	-0.007097574
127	0x3d637fc1	0.055541757
128	0x3d3e3058	0.046432823
129	0x3d73c3be	0.059512846
130	0x3d35b070	0.044357717
131	0x3cda08d5	0.02661554
132	0x3d2d2d5c	0.042279586
133	0x3d2cd6dd	0.042197097
134	0x3d8bdcdd	0.06829236
135	0x3d3cc37f	0.046084877
136	0xbda528d2	-0.080644265
137	0xbd8833cb	-0.06650504
138	0x3d49512f	0.04914969
139	0xbdc74a64	-0.09730986
140	0xbd708411	-0.0587197
141	0xbde5c2cf	-0.112187974
142	0xba28219d	-0.00064137
143	0x3cc332ea	0.023827989
144	0xbd388f4a	-0.045058526
145	0x3c85cbca	0.016332526
146	0x3d40f705	0.047110576
147	0x3c82e142	0.015976552
148	0xbd17e864	-0.03708686
149	0xbdd00043	-0.101563
150	0xbd0232d5	-0.03178676
151	0xbd70827d	-0.058718193
152	0xbdb16bcb	-0.08663138
153	0x3d5a2177	0.05325457
154	0x3c9324be	0.017961856
155	0xbd4eefdb	-0.050521713
156	0x3db36f56	0.0876147
157	0xbe0d301c	-0.13787884
158	0xba8e02c1	-0.0010834561
159	0x3d099449	0.03358868
160	0xbd2f47da	-0.042793132
161	0x3c61bd60	0.013778061
162	0x3d511859	0.05104861
163	0xbd898613	-0.06715026
164	0x3ced8fd3	0.028999245
165	0x3d6abcb9	0.057308886
166	0x3c0917cc	0.00836749
167	0xbd2095d4	-0.039205387
168	0x3c63c3bb	0.013901646
169	0xbdb69cdb	-0.089166366
170	0x3d36d23e	0.044634096
171	0x3d23cb05	0.039988536
172	0x3d0fa046	0.035064958
173	0x3cb6b9b9	0.022305356
174	0x3d71b0ed	0.05900662
175	0x3d8602a9	0.06543476
176	0xbce3aea9	-0.027793245
177	0x3dca9c3a	0.09893079
178	0x3b212b08	0.00245923
179	0x3dcbdc51	0.099541314
180	0x3d98a803	0.07453921
181	0xbc7c5bc4	-0.015402738
182	0xbdaf1a14	-0.08549896
183	0xbbf4c61d	-0.007469906
184	0xbc9c9708	-0.019114986
185	0x3d3834c5	0.0449722
186	0x3c05b28e	0.008160247
187	0xbc8337ef	-0.016017882
188	0xbd0aa9c6	-0.033853315
189	0x3d3e82f2	0.046511598
190	0xbe0a1e02	-0.1348801
191	0x3d390c54	0.045177773
192	0x3cb896d0	0.02253285
193	0xbcc634c2	-0.024195079
194	0x3dbccfce	0.09219323
195	0xbb8b2aa8	-0.0042470284
196	0x3cbc8002	0.023010258
197	0x3d33d2e8	0.043902308
198	0xbc6894ac	-0.014195602
199	0xbba5a691	-0.0050552567
200	0x3cf50e39	0.029914008
201	0xbc8d959b	-0.017283252
202	0xbb7bd8af	-0.0038428714
203	0xbd1634a0	-0.03667128
204	0xbcc8041e	-0.024416026
205	0xbb6991fa	-0.0035639987
206	0x3d255ef5	0.04037376
207	0xbd160b26	-0.036631726
208	0x3c9c2951	0.01906267
209	0x3d06b0d0	0.032883465
210	0x3d105af9	0.03524301
211	0x3d912a78	0.070881784
212	0x3b712805	0.0036797535
213	0xbddbc2bb	-0.10730501
214	0xbd87254c	-0.06598911
215	0xbdaa8dd4	-0.08327833
216	0x39db1479	0.00041786188
217	0xbd88a523	-0.06672122
218	0xbd2ce9aa	-0.042215027
219	0xbde87385	-0.113501586
220	0xbd61da84	-0.055140033
221	0x3db6cc7d	0.08925722
222	0x3cdc7eaf	0.026915876
223	0x3d99084b	0.07472285
224	0x3ced438a	0.02896287
225	0x3c123142	0.008922877
226	0xbcff4576	-0.031161051
227	0xbd194f7d	-0.03742932
228	0xbc42ad65	-0.011882161
229	0xbd132e13	-0.03593261
230	0x3d079048	0.03309658
231	0xbe147b4e	-0.14500162
232	0xbc2e783e	-0.010648785
233	0xbd4ba1d7	-0.04971489
234	0xbd5ab7d3	-0.053397965
235	0x3c1a3c66	0.009413814
236	0xbb1969a5	-0.0023408916
237	0x3cbabbb0	0.022794574
238	0xbd573457	-0.05254015
239	0x3c7ade6f	0.015311821
240	0xbd972fbd	-0.07382152
241	0xbd8ad4fa	-0.06778903
242	0xbca766e9	-0.020434814
243	0xbb50b880	-0.0031848252
244	0xbc5b5313	-0.013386506
245	0xbd85eddd	-0.065395094
246	0x3c0c510a	0.008564243
247	0x3d87b5c5	0.06626467
248	0xbcb504ab	-0.022096952
249	0xbc2a781f	-0.010404616
250	0xbda8ecc7	-0.08248287
251	0xba9d4e5b	-0.0012001501
252	0xba68b1ce	-0.00088765926
253	0xbdaa885d	-0.083267905
254	0x3d9be38e	0.07611762
255	0x3d811840	0.063034534

bias f4 [128]
0	0x3c915bfe	0.01774406
1	0x3cc86826	0.024463724
2	0x3d0bcc47	0.03413036
3	0xba036127	-0.000501173
4	0x3d870f51	0.06594718
5	0x3d31502c	0.04328935
6	0x3d443c47	0.047909047
7	0x3d76668b	0.060156386
8	0xbd2c08ed	-0.0420007
9	0x3d283d48	0.041074067
10	0xbda690c7	-0.08133083
11	0x3ccabbeb	0.02474781
12	0x3d5bdde1	0.053678397
13	0xbc936965	-0.017994592
14	0xbc49e2fe	-0.012322186
15	0x3cc671dd	0.024224216
16	0xbd426e07	-0.04746821
17	0x3b88501b	0.00415994
18	0x3bf581c0	0.007492274
19	0xbdc81cf3	-0.097711466
20	0xbd0a3d23	-0.03374971
21	0xbdd8a596	-0.10578458
22	0xbda6a46c	-0.0813683
23	0xbd07ce15	-0.03315552
24	0xbc146f2c	-0.009059709
25	0xbd9ec2e9	-0.0775202
26	0x3d012d19	0.03153715
27	0x3aa6c731	0.0012724159
28	0xbce883a1	-0.028383078
29	0x3dddc80e	0.10829173
30	0x3d4ffcad	0.05077808
31	0x3d88ee05	0.066860236
32	0xbca0454b	-0.019564291
33	0x3bddada8	0.006765086
34	0x3dc557c2	0.09635879
35	0xbd1354c9	-0.03596953
36	0xba265fdb	-0.0006346681
37	0xbd5e450d	-0.05426507
38	0xbd697513	-0.056996416
39	0x3d22defc	0.039763436
40	0x3d8b98f1	0.06816281
41	0xbce63e59	-0.028105902
42	0xbd813823	-0.06309535
43	0xbd5e2f06	-0.054244064
44	0x3d302de7	0.043012526
45	0xbc8954d2	-0.016764078
46	0xbc376a89	-0.011194834
47	0xbd84c8cb	-0.06483611
48	0xbd85c9a9	-0.06532604
49	0x3d61fe25	0.05517401
50	0xbd296564	-0.04135646
51	0xbd36610a	-0.044526137
52	0x3da8b96f	0.08238494
53	0xbd7b80ea	-0.06140224
54	0xbdb4e7c1	-0.08833266
55	0xbc18f0b2	-0.00933473
56	0xbc38e25b	-0.011284436
57	0xbbd7a429	-0.0065808487
58	0x3d4eb241	0.050462965
59	0x3c658781	0.014009357
60	0x3d755f11	0.059905116
61	0x3c76fcc6	0.015074914
62	0xbd34551a	-0.04402647
63	0x3d317888	0.04332784
64	0xbda84448	-0.082161486
65	0x3d0ccfd8	0.034377903
66	0xbc6b2353	-0.014351684
67	0xbab03463	-0.0013443347
68	0x3d4f72f9	0.050646756
69	0x3caf0dfd	0.021368975
70	0xbd8f5b41	-0.06999827
71	0xbd797b60	-0.060908675
72	0xbcdbace8	-0.026815847
73	0x3be04351	0.0068439622
74	0x3d06dfc3	0.03292824
75	0xbcc4da9f	-0.024030028
76	0x3d5c357c	0.053761944
77	0xbd170985	-0.036874313
78	0x3ce374e1	0.027765693
79	0x3d49144c	0.049091622
80	0x3cf3c4c7	0.029756917
81	0x3da6eb42	0.081503406
82	0xbd28fbda	-0.04125581
83	0xbd0361b5	-0.032075603
84	0xbc16d661	-0.009206385
85	0x3dde3d29	0.10851509
86	0x3c758221	0.014984638
87	0xbcd87344	-0.02642215
88	0x3ce62dc6	0.028097998
89	0xbc8692f4	-0.016427495
90	0x3d95b9a9	0.073108025
91	0x3b82b4d3	0.003988841
92	0x3dd73b9c	0.105094165
93	0xbdea150f	-0.11429798
94	0x3d970eb3	0.073758505
95	0x3dcbb032	0.09945716
96	0xbc872e64	-0.016501613
97	0x3bbe3642	0.005804808
98	0xbc51a8de	-0.012796609
99	0x3d0c228b	0.03421263
100	0xbd536d23	-0.051617753
101	0xbd1f6426	-0.03891387
102	0x3be574bf	0.0070024426
103	0xbd8a6daa	-0.06759198
104	0x3caeafdd	0.021324093
105	0xbd3ee0c5	-0.046601076
106	0x3dd9d5af	0.1063646
107	0x3cd32a5f	0.02577704
108	0xbd85e094	-0.065369755
109	0xbca3663d	-0.019946212
110	0x3d9eb326	0.077490136
111	0x3d3ab1fc	0.045579895
112	0xbd4e53ee	-0.05037301
113	0xbd5e0720	-0.054206014
114	0xbd3114cf	-0.043232735
115	0x3cf0fd8a	0.029417772
116	0xbd8b2a42	-0.067951694
117	0xbd758f8b	-0.059951346
118	0x3d8d084a	0.06886347
119	0xbd889dc3	-0.06670716
120	0xbd27923f	-0.040910956
121	0x3d70fe7b	0.05883644
122	0x3d0642ef	0.032778677
123	0xbc4a51a7	-0.012348569
124	0xbda7e8f5	-0.0819873
125	0xbca0e7b9	-0.019641744
126	0x3db8f1e7	0.09030514
127	0x3bc91f88	0.006137792

weight f4 [128, 128]
0	0xbd29c0e3	-0.041443717
1	0xbd1cf4e4	-0.038319483
2	0x3d540090	0.05175835
3	0xbdbaa011	-0.091125615
4	0xbc8afe54	-0.016966976
5	0x3cbb0d25	0.022833416
6	0x3e0ed673	0.13948993
7	0x3d5e0712	0.05420596
8	0x3cac75da	0.02105229
9	0xbd6ed745	-0.058310766
10	0xbc705837	-0.01466947
11	0xbcf994dd	-0.030466491
12	0xbc10b11a	-0.008831287
13	0x3ce19d8d	0.027540946
14	0x3c11d888	0.008901723
15	0xbc8e229b	-0.017350486
16	0xbcca7431	-0.024713608
17	0xbdaddb85	-0.08489136
18	0x3b649948	0.0034881402
19	0xbd011bae	-0.031520538
20	0x3cce7415	0.025201837
21	0x3d914cb2	0.070947066
22	0xbba825f2	-0.0051314766
23	0xbd040664	-0.032232657
24	0x3d9468c4	0.07246545
25	0xbbe0047f	-0.0068364735
26	0x3ddcc95e	0.10780595
27	0xbc9c14be	-0.01905286
28	0xbc0607cc	-0.00818057
29	0x3d78048f	0.060551222
30	0xbd807a43	-0.062733196
31	0xbd1c6244	-0.03817965
32	0xbcc48180	-0.023987532
33	0xbd27174e	-0.04079371
34	0x3cab739a	0.020929147
35	0xbd332eff	-0.04374599
36	0x3b8fb3ef	0.0043854634
37	0x3bb19531	0.0054193963
38	0xbc490573	-0.012269366
39	0x3d184ace	0.037180714
40	0x3d4f1c4d	0.0505641
41	0xbd0c3a91	-0.03423554
42	0xbc8dc839	-0.017307388
43	0xbc2ce29a	-0.010552073
44	0xbd75d762	-0.06001986
45	0xbcc303e1	-0.02380556
46	0x3d5fa98d	0.054605056
47	0x3dae7eb7	0.08520263
48	0x3d7186e9	0.05896655
49	0xbd3dd3d3	-0.04634459
50	0x3cf9615c	0.030441932
51	0x3d4ad162	0.04951609
52	0x3db63985	0.0889769
53	0x3dc8a70b	0.09797486
54	0x3c5d69d1	0.013513998
55	0xbd192158	-0.037385315
56	0xbe099602	-0.1343613
57	0xbd1fe98f	-0.0390411
58	0xbc88860d	-0.016665483
59	0x3d2a7d6a	0.04162351
60	0x3ce72135	0.028214077
61	0x3cf472f9	0.02983998
62	0xbd3dc51a	-0.04633055
63	0x3d0961fd	0.033540715
64	0xbd9988a3	-0.074967645
65	0xbddaba7c	-0.106801
66	0xbcdafee3	-0.026732868
67	0x3d32a608	0.04361537
68	0xbdabd5d2	-0.08390392
69	0xbcd70a84	-0.026250131
70	0x3c9d8d04	0.01923228
71	0x3c84607e	0.016159292
72	0x3d49b54a	0.049245156
73	0xbd2f3f2c	-0.042784855
74	0x3d52c065	0.051453013
75	0xbd0cf8ec	-0.034417078
76	0x3dc630a0	0.09677243
77	0x3b3b3386	0.0028564646
78	0xbdd1d07a	-0.10244842
79	0xbd215b80	-0.0393939
80	0xbd8c251c	-0.068430156
81	0x3c8fb063	0.017540162
82	0xbd88a9d2	-0.06673016
83	0x3c5119c5	0.012762492
84	0xbbf1461d	-0.0073630945
85	0xbc95f4b2	-0.018305156
86	0x3d1fda68	0.039026648
87	0x3ceaa21e	0.028641757
88	0x3c8976be	0.016780253
89	0x3dd13b1e	0.10216354
90	0xbcfaafed	-0.030601466
91	0x3d87850d	0.06617174
92	0xbd64843b	-0.055790167
93	0xbd9caac0	-0.076497555
94	0x3da15fff	0.07879638
95	0xbbe7d78e	-0.0070752567
96	0x3c614453	0.0137492
97	0x3bd9855f	0.0066382135
98	0x3d0407b9	0.032233927
99	0x3a4a64d7	0.0007720715
100	0x3d2483cd	0.040164758
101	0x3d86a360	0.0657413
102	0x3d70cddc	0.058790073
103	0x3d868028	0.065674126
104	0xbc6637d0	-0.014051393
105	0x3cc89073	0.024482941
106	0xbcf3bf56	-0.029754322
107	0xbd255f4a	-0.040374078
108	0xbda3af55	-0.07992426
109	0x3c3ce94c	0.011530232
110	0xbdda8fc8	-0.10671955
111	0x3d29d407	0.04146197
112	0x3da49cac	0.08037695
113	0xbd95d3b0	-0.07315767
114	0x3c8e3cec	0.017363034
115	0xbc5705b5	-0.013123919
116	0x3c55c70b	0.013047944
117	0x3d91f81f	0.071274035
118	0xbc18e701	-0.009332419
119	0x3d953f0d	0.072874166
120	0xbd8694e8	-0.0657137
121	0xbce4f95f	-0.02795094
122	0xbafd284b	-0.0019314376
123	0xbaeef1c4	-0.0018230011
124	0x3b852ee4	0.0040644277
125	0xbd6d7ab9	-0.057978366
126	0xbdc78f18	-0.0974409
127	0x3d66aece	0.05631905
128	0xbd9afb0c	-0.07567415
129	0x3b4b87b5	0.003105623
130	0x3dc60285	0.09668449
131	0x3c50bcfe	0.012740372
132	0xbdb2e2a6	-0.08734636
133	0xbd8b3282	-0.06796743
134	0xbd2eee91	-0.042707983
135	0xbd986057	-0.0744025
136	0xbbf1c318	-0.0073779933
137	0xbacff3a0	-0.0015865453
138	0xbe02a7d8	-0.1275934
139	0x3e0ea353	0.13929491
140	0x3cfc2501	0.030779364
141	0x3c65c8e6	0.014024949
142	0xbda1bb21	-0.0789702
143	0x3daf4919	0.08558864
144	0xbd9f84d6	-0.07789008
145	0xbd7e9c47	-0.062160756
146	0x3cd7178d	0.026256347
147	0x3dddfc0f	0.10839092
148	0xbd41166f	-0.047140535
149	0xbc40d464	-0.011769388
150	0x3d1a3f37	0.037657943
151	0x3ddf52e5	0.10904483
152	0xbd145ded	-0.036222387
153	0xbb0993fd	-0.002099275
154	0xbdc3c81b	-0.095596515
155	0x3c8a9b67	0.016919805
156	0x3c4978a7	0.012296832
157	0xbbef7a19	-0.0073082563
158	0x3dbac04c	0.09118709
159	0x3d23685c	0.039894447
160	0x3caaef75	0.020866135
161	0xbdad92f8	-0.08475298
162	0x3da0c30b	0.078497015
163	0x3d578e0a	0.052625693
164	0xbda17da1	-0.0788529
165	0x3c81d8e5	0.015850494
166	0xbcb316ca	-0.021861453
167	0xbcb3788e	-0.02190807
168	0xbce6db92	-0.028180871
169	0xbcbd165d	-0.023081953
170	0xbd0f4a54	-0.034982994
171	0x3cc6be6a	0.024260718
172	0x3d84a1e9	0.064761944
173	0xbd9124c3	-0.0708709
174	0x3c074381	0.00825584
175	0xbd55f1f0	-0.052232683
176	0xbd31d591	-0.043416563
177	0x3c107ac5	0.008818333
178	0x3d9b7c3b	0.075920545
179	0x3c4070b6	0.011745622
180	0xbb25a28a	-0.0025273883
181	0xbc7543fe	-0.014969824
182	0x3cb36308	0.021897808
183	0xbd1c0548	-0.038090974
184	0xbd0320d2	-0.03201372
185	0x3d811599	0.063029476
186	0x3dad4a10	0.08461392
187	0x3d8038e3	0.0626085
188	0xbdcb63e6	-0.099311635
189	0xba4d872f	-0.00078402733
190	0x3d90bb02	0.07066919
191	0x3dea2a34	0.11433831
192	0x3bbb064e	0.0057075387
193	0x3ce39841	0.027782561
194	0x3e0cef44	0.13763148
195	0x3c745781	0.014913441
196	0xbdca3b39	-0.09874577
197	0xbd077946	-0.03307464
198	0x3dac65f0	0.084178805
199	0x3de25afa	0.11052509
200	0x3e3283c1	0.17433073
201	0xbdbe74ff	-0.09299659
202	0xbdafaabe	-0.08577488
203	0x3d115f29	0.035491142
204	0x3de316c3	0.11088326
205	0x3df29627	0.118450455
206	0x3d78786d	0.060661722
207	0x3ce0dad4	0.027448095
208	0xbd690933	-0.05689354
209	0x3d0a6641	0.033788923
210	0xbcbc7694	-0.023005761
211	0xbc41ff83	-0.011840704
212	0xbc333613	-0.010938185
213	0x3da844c7	0.08216243
214	0x3d2eab20	0.042643666
215	0x3d0df992	0.034661837
216	0xbdb88ed8	-0.0901162
217	0x3d2cc26d	0.042177606
218	0xbb931274	-0.004488284
219	0xbd64d32c	-0.05586545
220	0xbb47410e	-0.0030403766
221	0x3d8856db	0.06657191
222	0xba6f12fb	-0.0009119955
223	0xbd16ea70	-0.03684467
224	0xbce75002	-0.028236393
225	0xbce29699	-0.027659701
226	0x3d277743	0.04088522
227	0xbddb9ab3	-0.10722866
228	0xbb2a877d	-0.0026020699
229	0x3dc0ab56	0.0940768
230	0x3d9a1f89	0.07525546
231	0x3dbbc096	0.09167592
232	0xbc95fe5b	-0.018309763
233	0xbd27ed53	-0.040997814
234	0xbcde853d	-0.027163142
235	0xbd623d97	-0.055234518
236	0xbcb48203	-0.02203465
237	0x3e00f5e0	0.12593794
238	0xbbef1bbf	-0.0072970088
239	0x3d1253b4	0.035724357
240	0xbc0fad40	-0.008769333
241	0xbd385321	-0.045001153
242	0x3dc35ba6	0.09538965
243	0xbcb1c140	-0.021698594
244	0x3db2f56c	0.08738217
245	0x3e32283e	0.17398164
246	0x3d19157e	0.037374012
247	0x3d6d5ffb	0.057952862
248	0x3c823aa6	0.015897106
249	0xbddd3f19	-0.108030505
250	0xbc53f2b6	-0.012936285
251	0x3bb52233	0.0055277585
252	0x3dbb3035	0.09140054
253	0x3d30fdc0	0.043210745
254	0x3c80ecab	0.015737852
255	0xbb3282f6	-0.0027238703

bias f4 [128]
0	0xbd488328	-0.048953205
1	0xbd819e0f	-0.063289754
2	0xbdafcd1a	-0.08584042
3	0x3c00e95c	0.007868137
4	0x3aedac57	0.0018133026
5	0x3d9f04c5	0.077645816
6	0xbd6aae92	-0.05729539
7	0xbc12ad76	-0.008952489
8	0xbd3b03c3	-0.045657884
9	0xbc068b12	-0.008211868
10	0x3d914894	0.07093921
11	0x3d9c7e6f	0.07641303
12	0x3d380268	0.04492417
13	0x3d623d11	0.05523402
14	0x3daca660	0.08430171
15	0xbd969b04	-0.07353786
16	0xbd30095f	-0.042977687
17	0x3c2dea2f	0.010614916
18	0xbb7f1cc7	-0.0038927065
19	0xbd017e54	-0.031614617
20	0xbd12c250	-0.035829842
21	0xbd2120aa	-0.03933779
22	0x3d22fb91	0.039790694
23	0x3cf0858d	0.029360557
24	0x3c27ab75	0.01023375
25	0xbd3d7ef0	-0.046263635
26	0x3d4886c9	0.048956666
27	0x3b9e2eec	0.004827371
28	0xbabd3781	-0.0014436097
29	0xbd3d3cd7	-0.0462006
30	0xbd9f076a	-0.07765086
31	0xbd4ab4a3	-0.049488675
32	0x3cf6d483	0.03013063
33	0xbd97eff0	-0.07418811
34	0xbbd48ebb	-0.0064867414
35	0xbd6d0e2c	-0.057874843
36	0x3c5c1315	0.013432284
37	0x3b287291	0.0025703053
38	0x3d94ec7c	0.07271668
39	0x3d51bce2	0.051205523
40	0xbca8aa45	-0.020589003
41	0x3b663335	0.0035125737
42	0xbc2e3414	-0.010632534
43	0x3d440542	0.047856577
44	0x3cd95aa8	0.026532486
45	0xbd0bd441	-0.034137968
46	0x3da84b41	0.082174785
47	0x3a94470d	0.0011312679
48	0xbc06eab9	-0.008234673
49	0xbd0fa1d6	-0.03506645
50	0xbcba14d2	-0.022715006
51	0x3babdc1d	0.0052447454
52	0x3cefadcb	0.029257676
53	0x3cf41d98	0.029799268
54	0xbd3e1b69	-0.04641286
55	0xbc877260	-0.01653403
56	0x3c86f7c1	0.01647556
57	0xbc8854b7	-0.016641958
58	0x3daae213	0.083439015
59	0xbd06917d	-0.032853592
60	0x3cc85c6a	0.024458129
61	0xbd96699d	-0.07344363
62	0x3daa354e	0.08310948
63	0xba4e8726	-0.0007878415
64	0xbbd76ab8	-0.006574001
65	0x3950b3d7	0.00019903421
66	0x3d7ca9b3	0.061685275
67	0xbd5c3ed2	-0.053770848
68	0xbd03a091	-0.03213555
69	0x3d878b6b	0.06618389
70	0xbd944b87	-0.07240968
71	0x3d9e817d	0.07739542
72	0xbcab5c63	-0.020918077
73	0xbdb805c1	-0.089854725
74	0xbd339e7f	-0.043852326
75	0xbd8fb60a	-0.07017143
76	0x3ae0e584	0.0017158245
77	0x3d18615e	0.03720223
78	0xbc404c6d	-0.011736971
79	0xbd0e38a8	-0.034722
80	0x3c219f03	0.0098645715
81	0xbd986661	-0.07441402
82	0xbc455baa	-0.01204578
83	0xbdb4a5af	-0.08820664
84	0xbb667e5d	-0.0035170533
85	0x3d808019	0.06274433
86	0x3dcef743	0.10105755
87	0xbd23973a	-0.039939143
88	0x3d1a3058	0.03764376
89	0xbc8c8ff1	-0.01715848
90	0xbcd5736a	-0.02605601
91	0xbd720bc3	-0.059093248
92	0xbda40988	-0.080096304
93	0x3da5190a	0.080614164
94	0xbd7e7f32	-0.06213302
95	0x3d26afd4	0.040695027
96	0xbdc909bf	-0.09816312
97	0x3ca972a2	0.020684544
98	0xbbff927b	-0.0077994443
99	0xbd2586bc	-0.040411696
100	0x3c1b4795	0.009477516
101	0xbd26b4c9	-0.040699754
102	0x3b5e4b8b	0.003391954
103	0x3ad09c99	0.001591581
104	0xbdc442bc	-0.09583041
105	0x3cdee145	0.027207026
106	0x3d4d1458	0.05006823
107	0xbd80c8bd	-0.06288288
108	0x3d742d02	0.059613235
109	0xbb190f70	-0.0023355149
110	0x3d1159a4	0.03548588
111	0x3c3e6a63	0.011622044
112	0x3cca4ae5	0.024693916
113	0xbd6602ab	-0.056154888
114	0x3d1fa344	0.03897406
115	0x3cf42224	0.029801436
116	0x3b6d7185	0.0036230993
117	0x3b885435	0.004160429
118	0x3d9bde72	0.076107875
119	0xbd22e2df	-0.039767142
120	0xbd9d1147	-0.07669311
121	0x3ceee682	0.029162649
122	0x3d5329a0	0.05155337
123	0x3d21d2c1	0.03950763
124	0x3c8cfe1a	0.017211009
125	0x3d315484	0.04329349
126	0xbcd03154	-0.025414146
127	0x3d5ad8ee	0.053429537
