dapg/examples/jit_model/no_pen-v0/model_discriminator.pt (torch, 143224 bytes, 7 tensors)

in_shift f4 [128]
000000 00 00 00 00 00 00 00 00 00 00 00 00 00 00 00 00
       0.0 0.0 0.0 0.0
000010 00 00 00 00 00 00 00 00 00 00 00 00 00 00 00 00
       0.0 0.0 0.0 0.0
000020 00 00 00 00 00 00 00 00 00 00 00 00 00 00 00 00
       0.0 0.0 0.0 0.0
000030 00 00 00 00 00 00 00 00 00 00 00 00 00 00 00 00
       0.0 0.0 0.0 0.0
000040 00 00 00 00 00 00 00 00 00 00 00 00 00 00 00 00
       0.0 0.0 0.0 0.0
000050 00 00 00 00 00 00 00 00 00 00 00 00 00 00 00 00
       0.0 0.0 0.0 0.0
000060 00 00 00 00 00 00 00 00 00 00 00 00 00 00 00 00
       0.0 0.0 0.0 0.0
000070 00 00 00 00 00 00 00 00 00 00 00 00 00 00 00 00
       0.0 0.0 0.0 0.0
000080 00 00 00 00 00 00 00 00 00 00 00 00 00 00 00 00
       0.0 0.0 0.0 0.0
000090 00 00 00 00 00 00 00 00 00 00 00 00 00 00 00 00
       0.0 0.0 0.0 0.0
0000a0 00 00 00 00 00 00 00 00 00 00 00 00 00 00 00 00
       0.0 0.0 0.0 0.0
0000b0 00 00 00 00 00 00 00 00 00 00 00 00 00 00 00 00
       0.0 0.0 0.0 0.0
0000c0 00 00 00 00 00 00 00 00 00 00 00 00 00 00 00 00
       0.0 0.0 0.0 0.0
0000d0 00 00 00 00 00 00 00 00 00 00 00 00 00 00 00 00
       0.0 0.0 0.0 0.0
0000e0 00 00 00 00 00 00 00 00 00 00 00 00 00 00 00 00
       0.0 0.0 0.0 0.0
0000f0 00 00 00 00 00 00 00 00 00 00 00 00 00 00 00 00
       0.0 0.0 0.0 0.0
000100 00 00 00 00 00 00 00 00 00 00 00 00 00 00 00 00
       0.0 0.0 0.0 0.0
000110 00 00 00 00 00 00 00 00 00 00 00 00 00 00 00 00
       0.0 0.0 0.0 0.0
000120 00 00 00 00 00 00 00 00 00 00 00 00 00 00 00 00
       0.0 0.0 0.0 0.0
000130 00 00 00 00 00 00 00 00 00 00 00 00 00 00 00 00
       0.0 0.0 0.0 0.0
000140 00 00 00 00 00 00 00 00 00 00 00 00 00 00 00 00
       0.0 0.0 0.0 0.0
000150 00 00 00 00 00 00 00 00 00 00 00 00 00 00 00 00
       0.0 0.0 0.0 0.0
000160 00 00 00 00 00 00 00 00 00 00 00 00 00 00 00 00
       0.0 0.0 0.0 0.0
000170 00 00 00 00 00 00 00 00 00 00 00 00 00 00 00 00
       0.0 0.0 0.0 0.0
000180 00 00 00 00 00 00 00 00 00 00 00 00 00 00 00 00
       0.0 0.0 0.0 0.0
000190 00 00 00 00 00 00 00 00 00 00 00 00 00 00 00 00
       0.0 0.0 0.0 0.0
0001a0 00 00 00 00 00 00 00 00 00 00 00 00 00 00 00 00
       0.0 0.0 0.0 0.0
0001b0 00 00 00 00 00 00 00 00 00 00 00 00 00 00 00 00
       0.0 0.0 0.0 0.0
0001c0 00 00 00 00 00 00 00 00 00 00 00 00 00 00 00 00
       0.0 0.0 0.0 0.0
0001d0 00 00 00 00 00 00 00 00 00 00 00 00 00 00 00 00
       0.0 0.0 0.0 0.0
0001e0 00 00 00 00 00 00 00 00 00 00 00 00 00 00 00 00
       0.0 0.0 0.0 0.0
0001f0 00 00 00 00 00 00 00 00 00 00 00 00 00 00 00 00
       0.0 0.0 0.0 0.0

in_scale f4 [128]
000000 00 00 80 3f 00 00 80 3f 00 00 80 3f 00 00 80 3f
       1.0 1.0 1.0 1.0
000010 00 00 80 3f 00 00 80 3f 00 00 80 3f 00 00 80 3f
       1.0 1.0 1.0 1.0
000020 00 00 80 3f 00 00 80 3f 00 00 80 3f 00 00 80 3f
       1.0 1.0 1.0 1.0
000030 00 00 80 3f 00 00 80 3f 00 00 80 3f 00 00 80 3f
       1.0 1.0 1.0 1.0
000040 00 00 80 3f 00 00 80 3f 00 00 80 3f 00 00 80 3f
       1.0 1.0 1.0 1.0
000050 00 00 80 3f 00 00 80 3f 00 00 80 3f 00 00 80 3f
       1.0 1.0 1.0 1.0
000060 00 00 80 3f 00 00 80 3f 00 00 80 3f 00 00 80 3f
       1.0 1.0 1.0 1.0
000070 00 00 80 3f 00 00 80 3f 00 00 80 3f 00 00 80 3f
       1.0 1.0 1.0 1.0
000080 00 00 80 3f 00 00 80 3f 00 00 80 3f 00 00 80 3f
       1.0 1.0 1.0 1.0
000090 00 00 80 3f 00 00 80 3f 00 00 80 3f 00 00 80 3f
       1.0 1.0 1.0 1.0
0000a0 00 00 80 3f 00 00 80 3f 00 00 80 3f 00 00 80 3f
       1.0 1.0 1.0 1.0
0000b0 00 00 80 3f 00 00 80 3f 00 00 80 3f 00 00 80 3f
       1.0 1.0 1.0 1.0
0000c0 00 00 80 3f 00 00 80 3f 00 00 80 3f 00 00 80 3f
       1.0 1.0 1.0 1.0
0000d0 00 00 80 3f 00 00 80 3f 00 00 80 3f 00 00 80 3f
       1.0 1.0 1.0 1.0
0000e0 00 00 80 3f 00 00 80 3f 00 00 80 3f 00 00 80 3f
       1.0 1.0 1.0 1.0
0000f0 00 00 80 3f 00 00 80 3f 00 00 80 3f 00 00 80 3f
       1.0 1.0 1.0 1.0
000100 00 00 80 3f 00 00 80 3f 00 00 80 3f 00 00 80 3f
       1.0 1.0 1.0 1.0
000110 00 00 80 3f 00 00 80 3f 00 00 80 3f 00 00 80 3f
       1.0 1.0 1.0 1.0
000120 00 00 80 3f 00 00 80 3f 00 00 80 3f 00 00 80 3f
       1.0 1.0 1.0 1.0
000130 00 00 80 3f 00 00 80 3f 00 00 80 3f 00 00 80 3f
       1.0 1.0 1.0 1.0
000140 00 00 80 3f 00 00 80 3f 00 00 80 3f 00 00 80 3f
       1.0 1.0 1.0 1.0
000150 00 00 80 3f 00 00 80 3f 00 00 80 3f 00 00 80 3f
       1.0 1.0 1.0 1.0
000160 00 00 80 3f 00 00 80 3f 00 00 80 3f 00 00 80 3f
       1.0 1.0 1.0 1.0
000170 00 00 80 3f 00 00 80 3f 00 00 80 3f 00 00 80 3f
       1.0 1.0 1.0 1.0
000180 00 00 80 3f 00 00 80 3f 00 00 80 3f 00 00 80 3f
       1.0 1.0 1.0 1.0
000190 00 00 80 3f 00 00 80 3f 00 00 80 3f 00 00 80 3f
       1.0 1.0 1.0 1.0
0001a0 00 00 80 3f 00 00 80 3f 00 00 80 3f 00 00 80 3f
       1.0 1.0 1.0 1.0
0001b0 00 00 80 3f 00 00 80 3f 00 00 80 3f 00 00 80 3f
       1.0 1.0 1.0 1.0
0001c0 00 00 80 3f 00 00 80 3f 00 00 80 3f 00 00 80 3f
       1.0 1.0 1.0 1.0
0001d0 00 00 80 3f 00 00 80 3f 00 00 80 3f 00 00 80 3f
       1.0 1.0 1.0 1.0
0001e0 00 00 80 3f 00 00 80 3f 00 00 80 3f 00 00 80 3f
       1.0 1.0 1.0 1.0
0001f0 00 00 80 3f 00 00 80 3f 00 00 80 3f 00 00 80 3f
       1.0 1.0 1.0 1.0

weight f4 [128, 128]
000000 ab b5 ba bd 8d 50 43 bc f0 4b 05 bd a0 e7 41 bd
       -0.09116682 -0.01192106 -0.032543123 -0.047340035
000010 ce 3b af 3d 13 fb 8f 3d bf 1b d4 bc f0 d4 83 bd
       0.08556329 0.070303105 -0.025892137 -0.06437099
000020 54 96 a1 3d b6 cc 2d bd 65 9c 7b bc 6c 1b 16 3d
       0.07890001 -0.042431556 -0.015357112 0.036647245
000030 ed 25 29 bc 83 85 81 3d d5 1c 86 bd 0e 7b 00 bd
       -0.010323984 0.063242935 -0.06548468 -0.031367354
000040 ee bb 3e 3d f5 da d9 bc 80 84 e3 3d 22 2e e4 bb
       0.046565942 -0.026593665 0.11109257 -0.0069635073
000050 e6 c9 86 bd 3a 3a e8 bd 78 c5 34 3d 08 d2 b3 3d
       -0.06581478 -0.11339231 0.044133633 0.08780295
000060 33 03 8a 3d ff 65 d9 bc 98 28 16 3d 9f 32 52 3d
       0.067388915 -0.026537893 0.036659807 0.051317807
000070 6e ed cc 3d 14 6a 0f 3e 06 92 c1 bc c3 60 a4 3c
       0.100062236 0.1400531 -0.0236292 0.02006567
000080 4f c1 2f bd 3a 18 0b bd 6b c6 04 bc f0 26 b1 3d
       -0.042908963 -0.03395865 -0.008103947 0.08650005
000090 34 e0 80 bd 93 a5 19 3d 1d 3e 75 3d 13 4f 02 bd
       -0.06292763 0.03751142 0.05987369 -0.031813692
0000a0 4c fe a3 bd a2 ff a1 3d 72 94 96 bd 6f 39 55 3d
       -0.08007488 0.07910086 -0.073525324 0.052056726
0000b0 c4 d0 e2 3d 6f f1 c4 bc 06 88 04 3d 17 5b 99 bd
       0.11074975 -0.024040906 0.032356285 -0.07488077
0000c0 43 7c 32 3c 55 a1 93 bc 26 53 83 3d 86 9a 19 3d
       0.010893884 -0.018021265 0.06412344 0.03750088
0000d0 2d 0a a2 3d 10 93 37 3d ed c2 a6 3d cf 3b a7 bc
       0.07912097 0.044817984 0.08142648 -0.020414261
0000e0 27 b0 ab 3d 6c 37 8b 3d a6 e0 86 3b bd b8 a1 bd
       0.08383208 0.0679768 0.0041161356 -0.07896564
0000f0 cf f8 55 bd e0 da a3 3c 9d b1 02 3d b6 00 67 3d
       -0.052239235 0.020001829 0.031907666 0.056397162
000100 09 66 0d be 9d 4b 8a bd 20 88 ab bc 92 30 41 bd
       -0.13808455 -0.06752703 -0.020938933 -0.04716546
000110 6c a4 99 3c e1 80 c6 bc 47 53 3b 3d 43 2e 8f bc
       0.01875516 -0.024231376 0.045733716 -0.017478114
000120 8a ce 84 3c 08 85 ea 3d 70 3a 9c bd 48 e7 e5 3c
       0.016211767 0.11451155 -0.076283336 0.028064385
000130 78 1f b4 3c 10 67 c5 bc 4e 2d c0 3d d3 0f a2 bb
       0.021987662 -0.024096996 0.09383641 -0.004945734
000140 e7 99 ae bd 3f 05 66 bc ac a6 70 bc d4 32 c8 3d
       -0.08525448 -0.014039337 -0.014688175 0.0977532
000150 df 57 c2 3c 42 0b 09 bd f0 75 63 3c fe dc a7 3d
       0.02372354 -0.033458002 0.013883099 0.08196448
000160 d4 99 21 bc 02 c7 85 bd 59 ed aa bd ea db fa 3c
       -0.009863336 -0.06532098 -0.08346052 0.030622441
000170 a0 41 f8 bc d3 d0 bb 3d d2 aa 52 3d aa 77 c1 3d
       -0.03030473 0.091706894 0.05143244 0.09446652
000180 05 3d 7e bd b3 5e 30 bd 4b 1b 1d bd ab 7e 5d bc
       -0.06206991 -0.043059062 -0.038356107 -0.0135189695
000190 85 f7 94 3d c0 ee e5 3d 5c 39 a8 bd fb a2 95 3d
       0.07273773 0.112271786 -0.082140654 0.07306477
0001a0 2f bc 7e bd bb a4 17 3d ef 43 1f bd 6e 56 60 3d
       -0.062191185 0.037022334 -0.038883146 0.054769926
0001b0 cd f9 20 bd 65 08 8a bc 6a 70 ca bc 01 ee 89 bc
       -0.03930073 -0.016849706 -0.024711806 -0.016837122
0001c0 de a3 d1 3c 3f 5c 89 3c 30 0f 47 bd 84 f5 3d bd
       0.025590833 0.01676762 -0.04859847 -0.04637672
0001d0 3d b1 3d bc b3 69 b6 bd d3 e5 7e 3d a4 17 58 bc
       -0.011577901 -0.08906879 0.062230896 -0.01318923
0001e0 69 7b 89 3d 2e 01 e1 3d 5a 02 91 3d 71 47 ac bd
       0.06712992 0.10986553 0.07080527 -0.08412064
0001f0 d3 73 dc 3d 2b 5c 38 3d 0d 7c 0c be a7 60 b2 bb
       0.10764279 0.045009773 -0.13719197 -0.0054436508
000200 67 4d 13 3d 3b b8 05 3c 4d 78 91 bd 00 28 ba bc
       0.03596249 0.0081616 -0.07103024 -0.022724152
000210 67 2c 85 3d a4 67 2c bd 68 49 c1 3d a8 c7 bc bc
       0.0650261 -0.042091027 0.09437829 -0.023044422
000220 62 b2 a3 3d fa 90 7a bd 68 41 97 bd 82 ef d4 bc
       0.07993008 -0.061173417 -0.07385522 -0.025993112
000230 db 0d dc 3c 36 7c 20 3d 57 84 5b 3c 87 3d d3 3b
       0.026862076 0.039180957 0.0133982515 0.0064465436
000240 f3 fc 4b 3d d6 d1 14 3d 40 68 b5 3d 60 fb 16 3d
       0.049801778 0.036332928 0.08857775 0.036860824
000250 56 13 80 bd 81 9f c6 bd b8 51 45 bd 44 68 fa bc
       -0.06253688 -0.09698392 -0.048173636 -0.030567296
000260 a1 6d 20 bd 56 32 57 3d 8b 33 7b 3d 68 ea e6 3d
       -0.03916705 0.05253824 0.061328452 0.11275178
000270 ef 62 34 bd 02 a8 a6 3d 10 45 bd bb 52 d4 30 bd
       -0.044039663 0.08137514 -0.005776055 -0.043171234
000280 4b 05 1f bd 34 33 4c 3d 3f ab b2 bd c7 cc ee 3d
       -0.038823407 0.04985352 -0.08724069 0.11660152
000290 20 70 e9 bd 96 c5 bc bc 61 10 70 bc 02 3a ec 3c
       -0.11398339 -0.023043435 -0.014652343 0.028836254
0002a0 d5 30 a7 bd 79 57 07 3d ec f6 31 bd cf e2 af 3a
       -0.08163611 0.033042405 -0.043448374 0.0013419035
0002b0 18 a2 e5 3d fa ad 88 bd c2 c2 a6 3d 76 21 9c bd
       0.112125576 -0.066738084 0.08142616 -0.0762357
0002c0 2e 5f 83 bc 41 4b 73 bd cc ea 53 bc 29 73 97 3d
       -0.016036596 -0.05939794 -0.012934398 0.07395012
0002d0 0b e9 cd ba 36 68 74 3d 7f 40 aa 3d 9e 3b c5 bc
       -0.0015709711 0.059669696 0.08313083 -0.02407628
0002e0 33 60 12 bc 65 0f a3 3c f9 82 15 bc 76 e5 01 be
       -0.0089340685 0.019904802 -0.009125465 -0.12685189
0002f0 24 92 ac bc f6 00 2f 3d 9f de 64 bd 59 c3 3f bc
       -0.021065779 0.042725526 -0.05587637 -0.011704289
000300 77 1e 5a bd a2 26 ee bc 76 e3 e5 3b b9 08 c3 bd
       -0.05325171 -0.029071156 0.007015641 -0.09523148
000310 6a 90 c6 3d 7f f0 e7 bd b3 99 85 3d 4a b5 c3 bd
       0.096955135 -0.11325168 0.065234564 -0.095560625
000320 77 9c ea 3d c1 12 d0 bc cb 7c 4a bd a7 1d 94 bd
       0.114556246 -0.025399568 -0.049435418 -0.07232218
000330 5d a9 8a 3c 70 30 88 3d 9c 6e 40 bc 6b b1 b1 3c
       0.016926462 0.06649864 -0.011745121 0.021691045
000340 f0 37 db bc b0 fd 9d 3d 5e 2b 83 bd 63 c6 9b 3c
       -0.026760072 0.07714403 -0.06404756 0.019015497
000350 c4 85 c1 3c a7 b5 92 bd a1 b0 a9 3d 26 9e d1 3d
       0.023623355 -0.07163554 0.082856424 0.102352425
000360 ff ad af 3d 7e 1b 30 bd 80 88 b1 3b 96 8c 89 bd
       0.08578109 -0.04299497 0.0054178834 -0.06716268
000370 0b ae c3 bd d2 64 23 bd b9 2b 53 bd 0d 8b d1 3d
       -0.095546804 -0.03989107 -0.05155537 0.102316
000380 39 56 d2 3c 1f f8 e5 3c 54 a2 01 3c 12 d5 28 3d
       0.02567588 0.028072415 0.007912237 0.041218825
000390 f1 c2 ea bb a7 69 d3 3d 8c 4b da bd 54 11 0a bd
       -0.007164352 0.10322886 -0.10658941 -0.03370793
0003a0 6f b7 94 3d 91 c7 9b bc 5a b2 a9 3d 8b f1 81 3c
       0.0726155 -0.01901606 0.08285971 0.015862247
0003b0 7c e1 80 bd ff 11 53 bd 07 64 36 bd 41 64 fd bc
       -0.06293008 -0.051530834 -0.044528987 -0.030931594
0003c0 fa 1f 34 3d b3 16 21 bd f0 08 7f 3d ea 54 a8 3d
       0.043975808 -0.03932829 0.062264383 0.08219321
0003d0 5a 2e 3e bd a5 03 eb bd 47 c8 38 3d cb 65 5b bd
       -0.046430923 -0.114753045 0.045112874 -0.053563874
0003e0 49 65 3e 3d f4 1f 3b 3b b2 87 2f bc 8d b5 cf bd
       0.04648331 0.002855298 -0.010713505 -0.1014205
0003f0 18 ac 02 3e f1 e4 81 3d 97 4b 01 be 21 f2 d1 3c
       0.12760961 0.06342495 -0.12626491 0.025628151

bias f4 [128]
000000 bd c1 0c be 97 ca 5c bd 31 bb c9 bb 81 9b a8 3b
       -0.1374578 -0.053904142 -0.006156348 0.0051454906
000010 b6 26 8a 3d fe 7d 13 be ea 23 0b 3e ed 17 1a 3e
       0.06745665 -0.14403531 0.13587919 0.1504819
000020 d0 5f 0a bd e0 5b 98 3b 0e 7b 6d bd f8 45 e2 3b
       -0.03378278 0.004649624 -0.057978682 0.0069053136
000030 59 42 b9 bd 2e e7 06 3e 71 4b 19 3e b3 fc 13 be
       -0.09045858 0.13174126 0.14970185 -0.14451866
000040 3b 7e 2d bd 78 5d 08 3e ce ab 45 bc c5 47 8d 3d
       -0.04235671 0.13316905 -0.012064887 0.068984546
000050 ff 06 76 3d da 03 a9 3d cf 74 5d bd 47 df 16 bc
       0.060065266 0.08252688 -0.054066475 -0.009208507
000060 13 4a 89 3d 09 72 bd bd ff cb 75 3d 8c e1 6b 3d
       0.06703582 -0.09250266 0.060009 0.057588145
000070 3e 05 27 be b6 55 19 be 09 bc 58 bc 27 b8 c7 bd
       -0.16310593 -0.14974102 -0.013228425 -0.09751921
000080 81 e0 ac 3d f6 bd ac 3d 83 9e f3 3c ef 31 88 3d
       0.08441258 0.0843467 0.02973867 0.06650149
000090 9b 6c 28 3e 98 63 d1 3d 45 2f 1e 3d ce 9c 99 3c
       0.1644768 0.10224074 0.0386193 0.018751528
0000a0 9f d3 b1 3c 85 52 61 bd e1 3d c8 bd b2 71 3e be
       0.021707354 -0.055010337 -0.097774275 -0.18598059
0000b0 1c 5e 1d 3e 5b 0c 38 3d 01 97 18 be 23 ce 20 be
       0.15367931 0.044933658 -0.14901353 -0.15703635
0000c0 aa 2d c1 bd f1 4e e2 3d f8 bf 71 bd ae 05 b8 3d
       -0.09432538 0.11050213 -0.059020966 0.08985458
0000d0 40 5e 1a be cd 83 13 be 77 a7 67 bd eb 2e 05 3e
       -0.15075016 -0.14405747 -0.05655619 0.13006179
0000e0 c2 16 84 3d 2b ed f4 bd b3 b7 60 3c 63 70 9c 3d
       0.06449653 -0.11959299 0.013715672 0.076386236
0000f0 48 dd 7b 3d ba 91 c5 3d bc a9 15 bd 81 71 2a 3e
       0.061490327 0.09646936 -0.036538824 0.16644861
000100 bb ed 2d 3d 7e 17 0b 3e b3 4e ea bd 76 b9 98 bd
       0.042463046 0.1358318 -0.11440792 -0.07457249
000110 38 55 a5 bd 88 04 6d 3d 3d b7 eb 3c c1 76 a5 3c
       -0.08072895 0.05786565 0.028773898 0.020198228
000120 74 57 2b be e1 ed 2f be bb f2 1c be 24 8e 0b 3e
       -0.1673258 -0.17180587 -0.1532697 0.13628441
000130 57 ad 66 3d ca e5 b7 3d b0 6e 0c be 9d dc f4 3c
       0.056317654 0.08979376 -0.13714099 0.029890353
000140 2e 62 10 be d1 c1 41 3e be d2 02 bd 86 76 3c 3d
       -0.14099953 0.18921591 -0.03193926 0.04601147
000150 45 c4 0d bd 45 2b b4 bc bf ae 2b bd 06 07 98 3c
       -0.034611005 -0.021993289 -0.041914698 0.018558037
000160 c3 13 ca bc 70 4e 8c bc 38 68 ab 3c d9 e7 d9 bd
       -0.024667626 -0.017127246 0.020923719 -0.106399246
000170 ad 18 a7 bd 0b ac 92 3b 5e c8 df bd c3 c0 31 3d
       -0.081590034 0.0044760755 -0.10926889 0.043396723
000180 ba 45 d0 3d fe a7 2a 3e 4c 0e 07 bc c1 ef c5 3d
       0.10169549 0.16665646 -0.008243155 0.0966487
000190 2c 67 9e bc dd f7 30 3e ca 93 e6 3c 73 e5 e7 3d
       -0.019336306 0.17282052 0.028146643 0.11323061
0001a0 67 67 25 be 9a 65 32 3e 47 77 23 be 3a bb 2e be
       -0.16152726 0.1742157 -0.1596347 -0.17063609
0001b0 57 f0 59 3d 07 30 18 3e 4c 08 e5 bc 5c c4 10 be
       0.05320772 0.14862071 -0.027958058 -0.14137405
0001c0 1c 5f ee bd 19 e0 17 3e ec e1 ad 3d b0 eb 42 3b
       -0.116392344 0.1483158 0.08490357 0.0029742531
0001d0 ef 48 6b 3c ec af 3e 3d 01 63 a5 bc 87 d4 18 be
       0.01436065 0.04655449 -0.02018881 -0.14924823
0001e0 b8 dd 12 3d eb 13 ef bd 20 c7 7a 3c c6 fe df 3d
       0.03585598 -0.11673721 0.015306264 0.10937266
0001f0 c7 54 08 3e 0e 4d f3 3d a9 06 6b 3d e2 42 26 3d
       0.1331359 0.118799314 0.0573794 0.04059113

weight f4 [128, 128]
000000 3a 8e 3f 3d e8 a9 ea 3b 5f 81 96 3d 38 c6 88 bd
       0.046766497 0.0071613677 0.07348894 -0.06678432
000010 47 cc 7a bc 7d cd a6 3d 46 85 b8 bb 2d 2f 41 3c
       -0.015307493 0.081446625 -0.005631122 0.011791033
000020 3c c0 d2 3d f2 c7 1a 3d b1 ab 0b 3d 07 a4 20 bd
       0.10290572 0.03778834 0.034099285 -0.03921893
000030 df 7b 8a bd e4 0e e7 bc a8 fa fa bd 7b af ee 3d
       -0.06761908 -0.028205343 -0.1225484 0.11654564
000040 b2 e1 b1 3d cd 9b 7b bd 98 df b2 bc ab 09 6b 3d
       0.08685626 -0.06142788 -0.021835133 0.057382267
000050 0b ae a6 bd 13 07 40 bd e7 51 74 3b 9f 04 a9 3d
       -0.08138665 -0.046881747 0.0037280263 0.082528345
000060 73 36 e9 bc c7 36 92 3c 97 fd 20 3d 3a 0b 21 3d
       -0.028468346 0.017848385 0.039304342 0.039317347
000070 2b ac f8 3d 45 06 c3 3d 9a 20 d2 bc 52 b6 39 bd
       0.121422134 0.0952268 -0.025650311 -0.04533989
000080 f2 c3 26 3d cb 13 f0 3b 38 c8 d5 bd c6 5c 81 bd
       0.04071421 0.0073265783 -0.10438579 -0.06316523
000090 79 61 44 3d 2a fc 0c 3d fb 87 74 bd 68 93 24 bd
       0.04794452 0.03442017 -0.059699994 -0.04017964
0000a0 e5 b6 15 3c 19 7c 18 bc cf 23 a3 3d 85 ef c6 bc
       0.009137844 -0.009306931 0.07965814 -0.024284134
0000b0 e2 b3 80 ba 5e 2b 13 3d 18 b5 e0 bc f6 d6 7a 3d
       -0.0009819234 0.03593003 -0.027430102 0.06124016
0000c0 8e b3 b2 ba 9b 38 ac bd da a5 b6 bc 4d b7 b0 bd
       -0.0013633834 -0.08409234 -0.022295881 -0.08628712
0000d0 b3 ea 9d 3d 71 f3 3f 3e 88 e0 a1 3d 0e 4c 0b 3d
       0.07710781 0.1874521 0.07904154 0.03400808
0000e0 b0 a1 01 be 2d cd 33 bd b7 e3 4e 3d 50 a1 b8 3b
       -0.12659335 -0.043896843 0.050510135 0.0056344643
0000f0 55 6e 1d bd 4c 42 94 bc 12 19 24 bc 22 53 b9 3c
       -0.0384353 -0.018098019 -0.010015743 0.022622649
000100 c7 4f 07 be 33 b2 52 bd 58 4c 00 3e 99 be 40 3d
       -0.13214026 -0.051439475 0.12529123 0.047056768
000110 8a e0 d1 3d 77 68 66 3d f9 1c 4e bd b1 82 3d bd
       0.102479056 0.05625197 -0.0503206 -0.046267215
000120 1d 73 ab 3c fa 71 6d 3d 57 d2 ec 3c 9a 40 e6 3c
       0.020928914 0.057970025 0.028908892 0.028106976
000130 b1 3c 97 bd 38 9a ac 3c ad 17 89 3d ae ae 8e 3c
       -0.07384623 0.021069631 0.06693969 0.017417278
000140 de 46 00 3e 32 34 2d bd 8c 80 84 bd 7f 54 68 ba
       0.12527034 -0.042286105 -0.06469831 -0.00088626886
000150 92 11 e4 3d d7 66 b2 bd 13 8d e9 bc 46 d1 7e bd
       0.11136164 -0.087110214 -0.028509652 -0.062211297
000160 56 11 01 3d 0b 46 89 ba 7a f9 c1 bd b7 2a 04 3e
       0.031510673 -0.0010473145 -0.09471412 0.1290692
000170 86 5b 6b 3d 26 6c 18 3d dd 40 06 3e d3 6c 8c bc
       0.05746033 0.037212513 0.13110681 -0.017141735
000180 39 23 01 bc 35 b2 8b 3c 1e a9 ce 3d 2b 5c b0 bd
       -0.007881933 0.01705275 0.1009085 -0.0861133
000190 5e 2c 29 bc 36 c0 ec bd 9c 01 19 3d d2 b7 6a bd
       -0.010325519 -0.11560099 0.03735505 -0.05730421
0001a0 f9 ff 8c 3d f4 1b d4 bd 29 85 45 bb f7 e2 f5 3c
       0.068847604 -0.10356894 -0.0030139184 0.030015452
0001b0 39 4b 07 be 76 31 90 ba 80 41 e0 3c 75 f2 07 3e
       -0.13212289 -0.0011001069 0.027374983 0.13276084
0001c0 b5 4f 3e bd c3 1a d2 bd 02 cc 49 3b 92 e4 e3 3d
       -0.046462733 -0.10259011 0.0030791764 0.11127581
0001d0 14 74 d0 3b 66 1a 32 bd bf 52 d7 3d 5d 22 ec 3c
       0.006361494 -0.043482207 0.105138294 0.02882498
0001e0 f8 8c b6 bd ac 18 0c 3e 52 b8 1b 3d 6d 21 06 be
       -0.089136064 0.13681287 0.03801758 -0.13098688
0001f0 23 15 83 bc fc c9 e7 bd 77 28 25 bd a9 c6 4e bd
       -0.01600129 -0.11317822 -0.040321793 -0.050482426
000200 0a 6b a5 3d e7 a1 bc 3d 10 53 28 bd 1a 6c 58 bd
       0.08077057 0.09210568 -0.04109484 -0.05283747
000210 5d 47 33 be ed 09 02 bc 23 ca 98 3b fd b6 cb bc
       -0.17507692 -0.007936937 0.0046627684 -0.024867529
000220 f1 39 4a bd d1 56 72 bd 1b 4a 61 3d cd 84 91 3b
       -0.049371663 -0.059164826 0.055002313 0.00444088
000230 80 8e 86 bc 75 00 a6 bd 35 ea f4 bd d1 76 30 3d
       -0.016425371 -0.08105556 -0.11958734 0.043082062
000240 bd db 3b bc 36 1d f0 bc 79 6e 6f 3c 9d 1f 36 bd
       -0.011465964 -0.029310804 0.014613741 -0.044463743
000250 5b 6d 19 be 91 0a d2 bd 54 01 da 3c a8 9b 14 bd
       -0.14983122 -0.10255922 0.026611961 -0.036281258
000260 66 d5 ee bd 60 11 37 bd 66 9b e7 bc 4f e1 72 bd
       -0.11661796 -0.044694304 -0.028272342 -0.059296902
000270 d5 84 72 3d b3 04 a5 bb 24 32 81 3b a9 ff 59 3d
       0.05920871 -0.0050359606 0.003942745 0.053222332
000280 26 64 8c 3c eb 10 b1 bc 80 81 e3 bd 2c c5 a6 bd
       0.017137598 -0.021614512 -0.111086845 -0.08143076
000290 c1 31 08 3d 0b 8c 97 3b 84 56 ff bd 4f d5 cc 3d
       0.033250574 0.0046248487 -0.124676734 0.10001623
0002a0 7b 08 36 3d 83 2e f8 bc 46 a4 e9 ba d1 13 9a 3d
       0.04444168 -0.030295616 -0.0017825447 0.07523311
0002b0 ed 76 06 bd 1a cf 7d 3b c6 b2 be 3d 90 7b 32 3d
       -0.03282826 0.0038728178 0.09311442 0.04357487
0002c0 2d 43 2f bd 77 08 74 3c a0 47 91 3d 76 5c 21 be
       -0.042788673 0.014894596 0.070937395 -0.15757927
0002d0 0a 02 1b bd bf ce 54 3e 1d 6c ba 3d d4 86 3b bd
       -0.03784374 0.20781992 0.09102652 -0.04578288
0002e0 35 7d 8c bd 28 4e 10 bd f2 a5 8c bd 18 b2 4d bd
       -0.06859819 -0.035230786 -0.06867589 -0.05021867
0002f0 07 73 d8 bd 48 b5 7e bd 12 47 81 bc 8e 16 08 3d
       -0.10568815 -0.062184602 -0.01578096 0.033224635
000300 96 97 c2 3c 7e 12 72 bd a7 c2 a2 3d 91 54 99 3d
       0.023753922 -0.059099667 0.07947283 0.07486833
000310 28 81 ba 3d 44 ad c6 bd 23 c9 cd bc f6 07 e1 bd
       0.09106666 -0.097010165 -0.025120324 -0.109878466
000320 25 27 bf 3d 7f e9 8f 3d a2 7f d3 3c 63 33 0b bd
       0.09333638 0.07026958 0.025817696 -0.033984553
000330 20 d2 43 3d 77 32 27 3d db d4 5a 3d 29 fa 80 bd
       0.047807813 0.04081961 0.05342565 -0.06297714
000340 2d c2 22 bd 1f f9 e0 bd 6b 0f 06 37 9c 28 38 bd
       -0.03973596 -0.10985016 7.990612e-06 -0.044960603
000350 9e 77 20 3d 5c 70 d7 bd f0 1c d3 3d 2f e0 c0 3c
       0.039176576 -0.10519478 0.10308254 0.023544399
000360 e3 22 10 3e dc 7e d5 3d 9a 0d 3f bc ec c1 c1 3d
       0.14075808 0.10424587 -0.011660958 0.09460816
000370 bf 49 a3 bc 3a 65 e3 3c e4 b5 c3 3d c7 2f 52 3d
       -0.019932626 0.02775823 0.09556177 0.051315095
000380 6c b5 c9 bd af 4d 8a bc be 7e 1d bd 24 6d b4 bd
       -0.098490566 -0.016882746 -0.03845095 -0.088098794
000390 8e ec cc 3c 3b 36 70 3c 23 80 77 3d fa 52 e1 bd
       0.025015142 0.014661367 0.060424935 -0.11002155
0003a0 3b ad e4 3c 08 c8 d3 bd 37 5b ff bb e2 2e 97 bc
       0.027914634 -0.10340887 -0.007792856 -0.018454973
0003b0 38 23 fb bc 15 fc e0 bd f2 5f 3e bd 55 18 21 3d
       -0.030656442 -0.10985581 -0.04647822 0.039329845
0003c0 99 2a 71 bd 3d 14 e6 3c e0 f7 13 bd ba 61 09 3c
       -0.058878515 0.028085822 -0.036125064 0.008385116
0003d0 9b 90 76 bc 71 13 f6 bc 73 8b c6 3d c2 4a 6e 3d
       -0.015049125 -0.030038567 0.096945666 0.058176763
0003e0 10 39 d3 bd 33 b0 a3 3a eb 24 46 3d b1 07 fa bc
       -0.10313618 0.0012488425 0.04837505 -0.030521246
0003f0 c3 9d 0f 3c 1d 64 4b bd ed b8 28 3c 7e 0f 15 3d
       0.008765641 -0.049656022 0.010297996 0.036391728

bias f4 [128]
000000 ed c7 22 bd cd 74 2c bd 3d 8b 85 bc 21 23 32 bd
       -0.039741445 -0.042103577 -0.016301746 -0.043490533
000010 1c f5 3d bc 29 64 60 bd b4 f8 91 bb 9b fd b1 3d
       -0.011594083 -0.05478302 -0.0044546966 0.086909495
000020 3e 8c df bc 66 9b 8d 3d 69 92 c1 bd 0c cc 38 3c
       -0.027288552 0.069144055 -0.09451754 0.011279117
000030 69 ba da b9 35 8a 66 3d 02 ab dd bc 17 b5 f1 3c
       -0.00041719087 0.05628415 -0.027059082 0.029505296
000040 e4 30 42 3d ff 65 d0 3c 99 3a d6 3d ac 99 bf 3b
       0.047409907 0.02543926 0.10460395 0.0058471765
000050 b9 81 fd 3d f9 b4 c8 bc 73 90 08 3d 57 a0 5f 3c
       0.12378258 -0.024500357 0.033340883 0.013649068
000060 8b c7 62 bd ec 42 c6 3c 5b c9 72 bd 41 0c 0f bc
       -0.05536608 0.024201833 -0.05927406 -0.008730949
000070 66 e1 03 bd 72 46 e3 3c 2e 3f ab bd 77 6b 9c bd
       -0.03219738 0.027743552 -0.0836166 -0.07637685
000080 70 9d ed bc 4c 63 4d 3d 9a 21 cd 3c 17 bc 39 3d
       -0.029005736 0.050143525 0.025040437 0.045345392
000090 8d d5 fb 3d f5 0b 31 bb 93 a1 45 3d 1e be 9c 3d
       0.12296591 -0.0027015184 0.048249792 0.076534495
0000a0 d1 7c f3 bc a7 70 04 3e 05 d5 80 bd 9f a9 82 3d
       -0.029722603 0.12933598 -0.0629063 0.06380009
0000b0 13 61 9e 3c 51 f9 ec 3d d7 60 dd bd 36 f3 ba 3c
       0.019333398 0.11570991 -0.10809486 0.02282105
0000c0 c2 7d 24 3b 53 bb 20 3d 8e 2e 21 3d 5a bf 1b bd
       0.0025099372 0.039241146 0.03935104 -0.038024284
0000d0 8a 09 d2 3c f1 ab 93 3d 0f 32 31 3c f8 72 44 be
       0.025639314 0.072105296 0.010815158 -0.19184482
0000e0 55 1e 0a be 6d 23 a5 3b 0c d0 04 3e 97 5e 8a bd
       -0.13488133 0.0050396235 0.12969989 -0.06756323
0000f0 aa a4 7b bd 2f 8a 4b 3d 51 c5 b0 bb 70 bc 05 bd
       -0.061436333 0.04969233 -0.0053946157 -0.03265041
000100 7c 46 e8 3d 26 3e 7b 3d 6f bd d0 bd c5 dc 48 3d
       0.11341569 0.061338566 -0.101923816 0.049038667
000110 63 b8 e5 3d 40 b1 0f 3d eb 5f 8e 3d 07 05 2b bd
       0.112168096 0.03508115 0.06951889 -0.04175284
000120 d9 fd 36 3d 4a 8d 47 3d e9 e8 a9 3c d0 41 99 bd
       0.04467568 0.048718728 0.020740943 -0.07483256
000130 88 da 8f bc 73 39 38 ba 33 c0 26 bc 81 50 26 3d
       -0.017560259 -0.00070276036 -0.01017766 0.04060412
000140 3f 7e c7 3c 00 91 b6 3d 31 d6 d6 bc a5 55 cd bd
       0.024352191 0.08914375 -0.026225181 -0.10026101
000150 bc a2 06 bd 96 5a 81 3d 95 cb b9 bd 26 ce df 3d
       -0.03287004 0.06316106 -0.09072033 0.109279916
000160 9a e5 29 bd d6 2a d3 bb 01 13 71 bd 35 1c ad bd
       -0.04147873 -0.0064443154 -0.058856014 -0.08452646
000170 51 90 96 3c d5 9b eb 3d 79 62 32 3c c7 82 86 3d
       0.018379362 0.11504332 0.0108877355 0.065679125
000180 44 0c 88 bd cb dd e5 3c a5 b6 d4 bd 01 be 98 bd
       -0.066429645 0.02805986 -0.10386399 -0.07458115
000190 83 fd 73 3c a3 bd e0 bd 92 93 13 3d 0b 20 46 bc
       0.014891985 -0.1097367 0.036029406 -0.012092601
0001a0 b7 b4 c0 bd ee b2 fd 3d 63 91 03 bd c3 46 ee bd
       -0.094094686 0.12387644 -0.032121073 -0.116345905
0001b0 2e 7d 95 bc cf ac 8c 3c 26 e0 b2 bd e5 34 61 3c
       -0.018248167 0.017172245 -0.08734159 0.013745521
0001c0 20 30 ba 3d 94 6a 6d bc ed f1 e6 3b b8 32 be 3c
       0.0909121 -0.014490742 0.007047883 0.023217544
0001d0 b2 f5 00 bd 22 e7 8c bd 87 64 9b bd aa 14 3c bd
       -0.031484313 -0.068800226 -0.075875334 -0.045918144
0001e0 82 cc d5 3c f2 70 09 3d ba 36 d1 bd 69 14 f7 bd
       0.026098493 0.03355498 -0.102155164 -0.1206444
0001f0 0b b9 1d 3d 7b 9c 39 bd c9 dd d9 3a 1c de f5 bc
       0.03850655 -0.045315247 0.0016621883 -0.030013137

weight f4 [1, 128]
000000 b2 f6 17 3e 15 eb a3 3d 40 91 fe 3d 88 e3 05 3e
       0.148402 0.08003823 0.12430048 0.13075078
000010 00 71 d3 bd ec a3 cd 3d 01 3b f3 3d 59 38 db bd
       -0.103242874 0.10041031 0.118764885 -0.10704107
000020 e3 96 ca 3d 07 a0 09 be 38 17 0a 3e 39 85 41 be
       0.098920606 -0.13439952 0.1348542 -0.18898477
000030 b9 ef 86 bd 11 78 fd bd 39 15 01 be 71 12 d7 bd
       -0.06588692 -0.123764165 -0.12605752 -0.10501564
000040 bb 31 20 be b2 9a c3 3d d8 e1 9d bd f7 93 fd bd
       -0.1564397 0.0955099 -0.07709092 -0.12381738
000050 28 19 a3 bd a2 c8 1a 3e b7 a6 10 3e c0 cd d1 3d
       -0.079637825 0.15115598 0.14126097 0.10244322
000060 83 9e a1 3d 27 b4 3e be a4 b1 e2 3d d4 3e 9b bd
       0.07891562 -0.1862341 0.110690385 -0.07580343
000070 ad a1 b0 3d be 5d a4 bd c3 b0 cf 3d 73 29 fd 3d
       0.08624587 -0.080256924 0.101411365 0.123614214
000080 3d 04 0a be 3f 37 00 be 71 6f fc 3d e4 c3 c6 bd
       -0.1347818 -0.12521075 0.12325943 -0.09705332
000090 95 c1 c1 bd 31 30 d8 3d 11 9e 00 bc d8 81 0e be
       -0.09460751 0.10556067 -0.007850186 -0.13916719
0000a0 bd a4 e5 3d 6c d8 8c bd b6 73 98 3d 08 fb b4 bd
       0.11213062 -0.06877217 0.07443945 -0.08836943
0000b0 73 b9 f5 bd 54 44 c9 bd 31 f6 34 3e e2 f1 f6 3d
       -0.11998262 -0.09827486 0.1767204 0.12057854
0000c0 08 97 00 be e1 ce 11 be 0b 0d 0a be fa 7c 02 3e
       -0.12557614 -0.14239074 -0.13481538 0.12742987
0000d0 fe 94 ce 3d 97 42 1e be d5 fc 27 3e 52 49 23 3e
       0.10087012 -0.1545509 0.16405042 0.15945938
0000e0 fb 4a b3 3d ed 94 e8 3d 6f bb 1b be e3 bd 2c 3e
       0.08754536 0.1135653 -0.15208219 0.16869311
0000f0 3b 2b da 3d f2 5e 4b be 7d 70 00 be b2 c1 a7 3d
       0.10652777 -0.19860438 -0.12542911 0.08191241
000100 d4 2f de bd ca 75 df bd 28 d4 8f 3d a7 ff a0 bd
       -0.10848966 -0.10911138 0.070228875 -0.07861262
000110 5a ec ca bd bb 5c f9 bd cd dd 19 be 08 dd 1a 3e
       -0.09908362 -0.1217589 -0.15026017 0.15123379
000120 b7 d1 1b be f0 2c fb 3c 82 66 ed 3d c3 a1 f2 3d
       -0.15216719 0.030661076 0.115918174 0.1184726
000130 57 1b 24 be 73 6e 01 3e 4c 1d f8 bd 62 bd c8 bd
       -0.16026054 0.1263979 -0.12114963 -0.09801747
000140 d4 66 ee 3d 42 55 0a be 56 a9 ab bd 44 22 d0 3d
       0.11640707 -0.13509086 -0.08381908 0.10162786
000150 07 95 e3 bd 73 f5 da bd e6 a1 23 3e d6 96 9e bd
       -0.11112409 -0.10691347 0.15979728 -0.077436134
000160 62 ba 0a 3e ef b5 fa 3d db 4a d3 3d cd 3c f1 3d
       0.13547662 0.12241732 0.10317012 0.11779175
000170 8b 37 14 be 2a 8d ae bd 08 65 bc 3d 4b ad 0c be
       -0.14474313 -0.08523019 0.09198958 -0.13737981
000180 9c c9 02 3e 20 c0 cd 3d 2c f7 3e 3e 9c 50 1a 3e
       0.1277222 0.100464106 0.18648976 0.15069813
000190 9d d1 fc bd 0e 25 02 3e ab 3b 07 3e 52 2b ad bd
       -0.12344668 0.12709448 0.13206355 -0.08455528
0001a0 17 e8 04 3e 40 80 d2 bd 4b 17 8e bd fe 04 09 3e
       0.1297916 -0.10278368 -0.069380365 0.1338081
0001b0 c8 03 32 be 07 1a 27 be e5 23 f8 3d dd 23 cc 3d
       -0.17384255 -0.16318522 0.12116221 0.09967778
0001c0 11 bc 02 be fd 4e ac bd 32 4c aa bd 93 38 fc bd
       -0.12767054 -0.08413503 -0.08315314 -0.12315478
0001d0 3e e9 ee 3d 72 de e4 3d 70 b2 f0 3d 51 ce fa bd
       0.11665581 0.111752406 0.11752784 -0.12246383
0001e0 d4 e1 07 be 39 72 b0 bd a1 4b 1f 3e 06 19 ad 3d
       -0.1326974 -0.08615536 0.15556194 0.084520385
0001f0 ec fe e4 bd d5 f6 fc bd b3 28 fb bd d1 34 9a 3d
       -0.11181435 -0.12351767 -0.12263622 0.07529605
