dapg/examples/jit_model/no_door-v0/model_feature.pt (torch, 179982 bytes, 10 tensors)

in_shift f4 [72]
000000 00 00 00 00 00 00 00 00 00 00 00 00 00 00 00 00
       0.0 0.0 0.0 0.0
000010 00 00 00 00 00 00 00 00 00 00 00 00 00 00 00 00
       0.0 0.0 0.0 0.0
000020 00 00 00 00 00 00 00 00 00 00 00 00 00 00 00 00
       0.0 0.0 0.0 0.0
000030 00 00 00 00 00 00 00 00 00 00 00 00 00 00 00 00
       0.0 0.0 0.0 0.0
000040 00 00 00 00 00 00 00 00 00 00 00 00 00 00 00 00
       0.0 0.0 0.0 0.0
000050 00 00 00 00 00 00 00 00 00 00 00 00 00 00 00 00
       0.0 0.0 0.0 0.0
000060 00 00 00 00 00 00 00 00 00 00 00 00 00 00 00 00
       0.0 0.0 0.0 0.0
000070 00 00 00 00 00 00 00 00 00 00 00 00 00 00 00 00
       0.0 0.0 0.0 0.0
000080 00 00 00 00 00 00 00 00 00 00 00 00 00 00 00 00
       0.0 0.0 0.0 0.0
000090 00 00 00 00 00 00 00 00 00 00 00 00 00 00 00 00
       0.0 0.0 0.0 0.0
0000a0 00 00 00 00 00 00 00 00 00 00 00 00 00 00 00 00
       0.0 0.0 0.0 0.0
0000b0 00 00 00 00 00 00 00 00 00 00 00 00 00 00 00 00
       0.0 0.0 0.0 0.0
0000c0 00 00 00 00 00 00 00 00 00 00 00 00 00 00 00 00
       0.0 0.0 0.0 0.0
0000d0 00 00 00 00 00 00 00 00 00 00 00 00 00 00 00 00
       0.0 0.0 0.0 0.0
0000e0 00 00 00 00 00 00 00 00 00 00 00 00 00 00 00 00
       0.0 0.0 0.0 0.0
0000f0 00 00 00 00 00 00 00 00 00 00 00 00 00 00 00 00
       0.0 0.0 0.0 0.0
000100 00 00 00 00 00 00 00 00 00 00 00 00 00 00 00 00
       0.0 0.0 0.0 0.0
000110 00 00 00 00 00 00 00 00 00 00 00 00 00 00 00 00
       0.0 0.0 0.0 0.0

in_scale f4 [72]
000000 00 00 80 3f 00 00 80 3f 00 00 80 3f 00 00 80 3f
       1.0 1.0 1.0 1.0
000010 00 00 80 3f 00 00 80 3f 00 00 80 3f 00 00 80 3f
       1.0 1.0 1.0 1.0
000020 00 00 80 3f 00 00 80 3f 00 00 80 3f 00 00 80 3f
       1.0 1.0 1.0 1.0
000030 00 00 80 3f 00 00 80 3f 00 00 80 3f 00 00 80 3f
       1.0 1.0 1.0 1.0
000040 00 00 80 3f 00 00 80 3f 00 00 80 3f 00 00 80 3f
       1.0 1.0 1.0 1.0
000050 00 00 80 3f 00 00 80 3f 00 00 80 3f 00 00 80 3f
       1.0 1.0 1.0 1.0
000060 00 00 80 3f 00 00 80 3f 00 00 80 3f 00 00 80 3f
       1.0 1.0 1.0 1.0
000070 00 00 80 3f 00 00 80 3f 00 00 80 3f 00 00 80 3f
       1.0 1.0 1.0 1.0
000080 00 00 80 3f 00 00 80 3f 00 00 80 3f 00 00 80 3f
       1.0 1.0 1.0 1.0
000090 00 00 80 3f 00 00 80 3f 00 00 80 3f 00 00 80 3f
       1.0 1.0 1.0 1.0
0000a0 00 00 80 3f 00 00 80 3f 00 00 80 3f 00 00 80 3f
       1.0 1.0 1.0 1.0
0000b0 00 00 80 3f 00 00 80 3f 00 00 80 3f 00 00 80 3f
       1.0 1.0 1.0 1.0
0000c0 00 00 80 3f 00 00 80 3f 00 00 80 3f 00 00 80 3f
       1.0 1.0 1.0 1.0
0000d0 00 00 80 3f 00 00 80 3f 00 00 80 3f 00 00 80 3f
       1.0 1.0 1.0 1.0
0000e0 00 00 80 3f 00 00 80 3f 00 00 80 3f 00 00 80 3f
       1.0 1.0 1.0 1.0
0000f0 00 00 80 3f 00 00 80 3f 00 00 80 3f 00 00 80 3f
       1.0 1.0 1.0 1.0
000100 00 00 80 3f 00 00 80 3f 00 00 80 3f 00 00 80 3f
       1.0 1.0 1.0 1.0
000110 00 00 80 3f 00 00 80 3f 00 00 80 3f 00 00 80 3f
       1.0 1.0 1.0 1.0

out_shift f4 [128]
000000 00 00 00 00 00 00 00 00 00 00 00 00 00 00 00 00
       0.0 0.0 0.0 0.0
000010 00 00 00 00 00 00 00 00 00 00 00 00 00 00 00 00
       0.0 0.0 0.0 0.0
000020 00 00 00 00 00 00 00 00 00 00 00 00 00 00 00 00
       0.0 0.0 0.0 0.0
000030 00 00 00 00 00 00 00 00 00 00 00 00 00 00 00 00
       0.0 0.0 0.0 0.0
000040 00 00 00 00 00 00 00 00 00 00 00 00 00 00 00 00
       0.0 0.0 0.0 0.0
000050 00 00 00 00 00 00 00 00 00 00 00 00 00 00 00 00
       0.0 0.0 0.0 0.0
000060 00 00 00 00 00 00 00 00 00 00 00 00 00 00 00 00
       0.0 0.0 0.0 0.0
000070 00 00 00 00 00 00 00 00 00 00 00 00 00 00 00 00
       0.0 0.0 0.0 0.0
000080 00 00 00 00 00 00 00 00 00 00 00 00 00 00 00 00
       0.0 0.0 0.0 0.0
000090 00 00 00 00 00 00 00 00 00 00 00 00 00 00 00 00
       0.0 0.0 0.0 0.0
0000a0 00 00 00 00 00 00 00 00 00 00 00 00 00 00 00 00
       0.0 0.0 0.0 0.0
0000b0 00 00 00 00 00 00 00 00 00 00 00 00 00 00 00 00
       0.0 0.0 0.0 0.0
0000c0 00 00 00 00 00 00 00 00 00 00 00 00 00 00 00 00
       0.0 0.0 0.0 0.0
0000d0 00 00 00 00 00 00 00 00 00 00 00 00 00 00 00 00
       0.0 0.0 0.0 0.0
0000e0 00 00 00 00 00 00 00 00 00 00 00 00 00 00 00 00
       0.0 0.0 0.0 0.0
0000f0 00 00 00 00 00 00 00 00 00 00 00 00 00 00 00 00
       0.0 0.0 0.0 0.0
000100 00 00 00 00 00 00 00 00 00 00 00 00 00 00 00 00
       0.0 0.0 0.0 0.0
000110 00 00 00 00 00 00 00 00 00 00 00 00 00 00 00 00
       0.0 0.0 0.0 0.0
000120 00 00 00 00 00 00 00 00 00 00 00 00 00 00 00 00
       0.0 0.0 0.0 0.0
000130 00 00 00 00 00 00 00 00 00 00 00 00 00 00 00 00
       0.0 0.0 0.0 0.0
000140 00 00 00 00 00 00 00 00 00 00 00 00 00 00 00 00
       0.0 0.0 0.0 0.0
000150 00 00 00 00 00 00 00 00 00 00 00 00 00 00 00 00
       0.0 0.0 0.0 0.0
000160 00 00 00 00 00 00 00 00 00 00 00 00 00 00 00 00
       0.0 0.0 0.0 0.0
000170 00 00 00 00 00 00 00 00 00 00 00 00 00 00 00 00
       0.0 0.0 0.0 0.0
000180 00 00 00 00 00 00 00 00 00 00 00 00 00 00 00 00
       0.0 0.0 0.0 0.0
000190 00 00 00 00 00 00 00 00 00 00 00 00 00 00 00 00
       0.0 0.0 0.0 0.0
0001a0 00 00 00 00 00 00 00 00 00 00 00 00 00 00 00 00
       0.0 0.0 0.0 0.0
0001b0 00 00 00 00 00 00 00 00 00 00 00 00 00 00 00 00
       0.0 0.0 0.0 0.0
0001c0 00 00 00 00 00 00 00 00 00 00 00 00 00 00 00 00
       0.0 0.0 0.0 0.0
0001d0 00 00 00 00 00 00 00 00 00 00 00 00 00 00 00 00
       0.0 0.0 0.0 0.0
0001e0 00 00 00 00 00 00 00 00 00 00 00 00 00 00 00 00
       0.0 0.0 0.0 0.0
0001f0 00 00 00 00 00 00 00 00 00 00 00 00 00 00 00 00
       0.0 0.0 0.0 0.0

out_scale f4 [128]
000000 00 00 80 3f 00 00 80 3f 00 00 80 3f 00 00 80 3f
       1.0 1.0 1.0 1.0
000010 00 00 80 3f 00 00 80 3f 00 00 80 3f 00 00 80 3f
       1.0 1.0 1.0 1.0
000020 00 00 80 3f 00 00 80 3f 00 00 80 3f 00 00 80 3f
       1.0 1.0 1.0 1.0
000030 00 00 80 3f 00 00 80 3f 00 00 80 3f 00 00 80 3f
       1.0 1.0 1.0 1.0
000040 00 00 80 3f 00 00 80 3f 00 00 80 3f 00 00 80 3f
       1.0 1.0 1.0 1.0
000050 00 00 80 3f 00 00 80 3f 00 00 80 3f 00 00 80 3f
       1.0 1.0 1.0 1.0
000060 00 00 80 3f 00 00 80 3f 00 00 80 3f 00 00 80 3f
       1.0 1.0 1.0 1.0
000070 00 00 80 3f 00 00 80 3f 00 00 80 3f 00 00 80 3f
       1.0 1.0 1.0 1.0
000080 00 00 80 3f 00 00 80 3f 00 00 80 3f 00 00 80 3f
       1.0 1.0 1.0 1.0
000090 00 00 80 3f 00 00 80 3f 00 00 80 3f 00 00 80 3f
       1.0 1.0 1.0 1.0
0000a0 00 00 80 3f 00 00 80 3f 00 00 80 3f 00 00 80 3f
       1.0 1.0 1.0 1.0
0000b0 00 00 80 3f 00 00 80 3f 00 00 80 3f 00 00 80 3f
       1.0 1.0 1.0 1.0
0000c0 00 00 80 3f 00 00 80 3f 00 00 80 3f 00 00 80 3f
       1.0 1.0 1.0 1.0
0000d0 00 00 80 3f 00 00 80 3f 00 00 80 3f 00 00 80 3f
       1.0 1.0 1.0 1.0
0000e0 00 00 80 3f 00 00 80 3f 00 00 80 3f 00 00 80 3f
       1.0 1.0 1.0 1.0
0000f0 00 00 80 3f 00 00 80 3f 00 00 80 3f 00 00 80 3f
       1.0 1.0 1.0 1.0
000100 00 00 80 3f 00 00 80 3f 00 00 80 3f 00 00 80 3f
       1.0 1.0 1.0 1.0
000110 00 00 80 3f 00 00 80 3f 00 00 80 3f 00 00 80 3f
       1.0 1.0 1.0 1.0
000120 00 00 80 3f 00 00 80 3f 00 00 80 3f 00 00 80 3f
       1.0 1.0 1.0 1.0
000130 00 00 80 3f 00 00 80 3f 00 00 80 3f 00 00 80 3f
       1.0 1.0 1.0 1.0
000140 00 00 80 3f 00 00 80 3f 00 00 80 3f 00 00 80 3f
       1.0 1.0 1.0 1.0
000150 00 00 80 3f 00 00 80 3f 00 00 80 3f 00 00 80 3f
       1.0 1.0 1.0 1.0
000160 00 00 80 3f 00 00 80 3f 00 00 80 3f 00 00 80 3f
       1.0 1.0 1.0 1.0
000170 00 00 80 3f 00 00 80 3f 00 00 80 3f 00 00 80 3f
       1.0 1.0 1.0 1.0
000180 00 00 80 3f 00 00 80 3f 00 00 80 3f 00 00 80 3f
       1.0 1.0 1.0 1.0
000190 00 00 80 3f 00 00 80 3f 00 00 80 3f 00 00 80 3f
       1.0 1.0 1.0 1.0
0001a0 00 00 80 3f 00 00 80 3f 00 00 80 3f 00 00 80 3f
       1.0 1.0 1.0 1.0
0001b0 00 00 80 3f 00 00 80 3f 00 00 80 3f 00 00 80 3f
       1.0 1.0 1.0 1.0
0001c0 00 00 80 3f 00 00 80 3f 00 00 80 3f 00 00 80 3f
       1.0 1.0 1.0 1.0
0001d0 00 00 80 3f 00 00 80 3f 00 00 80 3f 00 00 80 3f
       1.0 1.0 1.0 1.0
0001e0 00 00 80 3f 00 00 80 3f 00 00 80 3f 00 00 80 3f
       1.0 1.0 1.0 1.0
0001f0 00 00 80 3f 00 00 80 3f 00 00 80 3f 00 00 80 3f
       1.0 1.0 1.0 1.0

weight f4 [128, 72]
000000 33 fb 03 3d 80 75 d6 bd b2 31 8c 3d e2 cd 32 bd
       0.032221984 -0.1047163 0.06845416 -0.043653376
000010 a3 b6 06 3d 9c 46 87 bd 37 d8 32 3d 46 61 4c 3e
       0.03288902 -0.066052645 0.04366323 0.19958982
000020 9b 04 e0 3d a0 04 ae bd a3 a3 f7 bd df ca ba bd
       0.109383784 -0.08496976 -0.12091758 -0.09120726
000030 83 ff 8d 3d da 47 cc 3d d5 f3 a3 bd f5 96 13 be
       0.069335006 0.09974642 -0.08005492 -0.14413054
000040 d2 28 0a bd b0 de 2c 3c 2b 18 49 3d 00 75 3f be
       -0.033730336 0.01055114 0.049095314 -0.18696976
000050 64 88 7e ba c9 4e ee 3c a8 a7 39 3d c3 6c c8 3c
       -0.0009709655 0.029090302 0.045325905 0.024465924
000060 7d 15 c7 bd 9a 2e b9 bd 37 20 1f 3c cf a1 8e 3d
       -0.097208954 -0.09042092 0.00971227 0.06964456
000070 13 61 54 bd df 6e c5 bc 1d 35 1f 3d a9 00 66 3d
       -0.05185039 -0.024100719 0.038869012 0.056152973
000080 8c 19 0c 3e 23 6d 0b 3d d5 20 17 be 65 b9 7d 39
       0.1368162 0.034039628 -0.14758618 0.00024197025
000090 de 88 29 bd 1e 4c ce bc 91 23 8d bd e5 32 01 be
       -0.041390292 -0.02518278 -0.068915494 -0.12617071
0000a0 1d 02 c6 3d 61 43 e7 3d 9f c4 12 3d 6e 23 fa bd
       0.09668372 0.112921484 0.035832044 -0.12213789
0000b0 66 8f 0b bc be e4 9c bd 27 a1 15 bc 65 bb 41 3d
       -0.008518076 -0.076608166 -0.00913266 0.047297854
0000c0 ef 8a 63 3d 15 32 59 3d 5e 7b 37 3d 28 5d 1f bc
       0.05555242 0.053026278 0.044795386 -0.0097268
0000d0 25 04 8c 3d 7a 39 71 3d 85 cb d5 bc 64 6b d7 3d
       0.06836728 0.058892705 -0.026098022 0.1051853
0000e0 a8 59 8f 3a 5c 6f 02 3d 57 64 1e be fd b5 ad bd
       0.0010936754 0.03184448 -0.15467964 -0.08481977
0000f0 6d eb a4 3d c0 c7 03 3e 9e b4 26 3d 36 ee f7 bc
       0.080527164 0.12869167 0.040699594 -0.030264955
000100 e1 aa 8b bc d3 1d 15 3d 7e b2 8a bd d4 e2 c7 bd
       -0.017049255 0.036405396 -0.06772326 -0.09760061
000110 fe 54 a2 bc f2 15 c3 3c c4 36 18 be 4e 86 ce bd
       -0.019815918 0.023814175 -0.14864641 -0.1008421
000120 dc 9e 8c bd 7d 2e e1 3d 82 8a 0c be cf 05 0b bd
       -0.068662375 0.10995195 -0.13724712 -0.033941086
000130 30 46 52 3c ea b3 2a bd 42 e6 68 3b 5c 29 4b 3d
       0.012834117 -0.041675486 0.0035537635 0.04959999
000140 59 7e 3d 3c ed 2d 07 3d 69 3f e2 3d 27 5e c5 3c
       0.011565768 0.033002783 0.11047251 0.024092747
000150 1d d4 6e 3c 73 8b 5b bd 5c 7e 13 3e d6 d4 97 bc
       0.014576939 -0.053599786 0.14403671 -0.018534105
000160 e9 fd f2 bc 32 c4 38 bd ce 57 c9 3c d4 bb f9 bd
       -0.02966209 -0.04510898 0.024578001 -0.121940285
000170 fd 8d 9e 3d fb 80 2d 3e 7b cf c7 bd 39 9b b8 bc
       0.07741926 0.16943733 -0.09756371 -0.022534953
000180 6d 6d bb bc 24 e9 a7 bc 64 03 bf bd b2 20 16 bd
       -0.022879327 -0.020496912 -0.093268186 -0.036652274
000190 d3 f3 0e 3e 9f 28 f3 bc 31 bd 4c 3d 22 61 0b 3e
       0.13960199 -0.029682456 0.049985114 0.13611272
0001a0 7d 39 c6 3d 09 01 c3 bc 9e 0f cf 3d ea 20 0e 3d
       0.09678934 -0.023804205 0.101104006 0.034699358
0001b0 77 a5 31 3e 16 98 ce 3c fc 6f 1d 3d 5c a4 04 bd
       0.17348276 0.025219005 0.038436875 -0.032383308
0001c0 0e 84 41 bb 39 23 99 3d 30 b2 90 bc ee a8 50 bd
       -0.0029528174 0.07477421 -0.017663091 -0.050942354
0001d0 d8 ef 82 3d 83 11 09 3e 13 c1 de bd 1d f6 c1 bd
       0.06393403 0.13385586 -0.1087667 -0.094707705
0001e0 d5 e2 2b bd b0 6d 92 3c 88 b7 5c bc 6c 2e 92 3d
       -0.04196437 0.017874569 -0.013471492 0.071377605
0001f0 79 c2 f4 3b bb 16 f2 bc d1 17 b9 3d 5e f2 08 3e
       0.007469472 -0.029551854 0.09037746 0.13373706
000200 79 ce a4 3d 5b e4 91 3d 64 ef 68 bc 69 9e 2e 3d
       0.08047194 0.071236335 -0.014217231 0.04263154
000210 0b 9c 31 3e bc d5 bb 3d 1a 6e f7 3c c0 2a 34 3d
       0.17344682 0.09171626 0.030203868 0.043986082
000220 49 e5 80 bd 8e a8 ee 3c 34 ba 07 bd c3 28 70 3d
       -0.06293733 0.029133108 -0.03313656 0.058632623
000230 49 48 2a 3c 2d 7c fd 3d 41 35 22 bd c4 98 52 3d
       0.010393211 0.123772 -0.039601568 0.05141522
000240 15 a7 2d bd 09 82 f9 bd 31 97 8e bd 5e 52 a1 3b
       -0.04239567 -0.12183005 -0.06962431 0.004923149
000250 25 7d 93 3d 52 24 0d bd fc c5 1d bd ca 4d 62 3d
       0.07201604 -0.034458466 -0.03851889 0.055249967
000260 e1 16 25 3d 1a 24 ff 3d 67 ae 60 3d 1e 67 86 3d
       0.040305022 0.12458058 0.054853823 0.06562637
000270 24 a7 29 3e 7f df 27 3e 34 6f c6 3d e2 d6 06 3e
       0.16567665 0.1639385 0.09689179 0.13167909
000280 f5 0d c2 bc 9e da 82 bc 26 37 ad 3d a9 a3 02 3d
       -0.023688296 -0.015973385 0.08457784 0.03189436
000290 ef 3c 18 3e e2 e5 e5 3d c7 f6 45 3d ec 81 34 be
       0.14866994 0.11225487 0.04833105 -0.17627686
0002a0 d9 bc 81 3d 33 db 09 bd 7b a8 01 be f1 e5 8f 3d
       0.06334848 -0.03365631 -0.12661926 0.0702628
0002b0 2d 2b 83 3d 2d e5 1f bc 80 52 16 be c3 26 75 3c
       0.064047195 -0.00975923 -0.14679909 0.014962855
0002c0 8a 60 87 3d 2a 65 6c 3d 37 57 33 3d 77 63 79 bd
       0.0661021 0.057713665 0.043784346 -0.060885873
0002d0 db 19 3e bd 15 d5 5e 3d e1 67 c8 bd 59 75 b9 3d
       -0.046411376 0.05440243 -0.09785438 0.090555854
0002e0 09 94 5f bd 9f 0b 31 3d 07 e2 64 3c d7 fd fb 3d
       -0.054584537 0.043223973 0.013969905 0.123042755
0002f0 0f 88 b2 3d 2b 65 a5 3d 2b 41 ed 3c 01 a6 bd bd
       0.08717357 0.08075937 0.028961739 -0.09260178
000300 78 cd 19 be 3d 58 e9 bd a3 98 3a bd 24 5a db bc
       -0.15019786 -0.11393783 -0.045555722 -0.02677638
000310 24 1f af 3d 56 04 77 bd 60 5a f8 b9 7a 58 4a bd
       0.085508615 -0.06030687 -0.0004736958 -0.049400784
000320 39 89 c7 3d 3d 3d c8 3c 48 89 27 bd 2b 42 32 3d
       0.0974297 0.024443263 -0.040902406 0.043520134
000330 97 4f 90 3d 28 67 0a 3e 81 7b 89 3b 7c c0 9a 3d
       0.070464306 0.13515913 0.004195631 0.07556245
000340 4b 56 f1 bd 8d da d0 bb 78 ab f8 bc cf 82 56 3d
       -0.11784037 -0.0063737095 -0.0303552 0.052370843
000350 59 db 3f 3d 42 79 b5 3d ef 7a 57 3d d2 79 12 bd
       0.046840046 0.08861019 0.052607473 -0.03576071
000360 00 07 3d 3c 45 1b b4 3d ba 34 22 bd 2e 0e 0d bd
       0.011537313 0.08794264 -0.039601065 -0.03443735
000370 4c 2f a7 3b 35 1e e8 bc 31 93 5d 3d df 8c c8 bd
       0.005102074 -0.028334716 0.05409545 -0.09792494
000380 bd fd 8e bd b1 4b 6c bd c9 c3 2d bd f0 85 d8 3a
       -0.069819905 -0.057689372 -0.042423043 0.0016519409
000390 f4 ff 82 3d 90 9f f6 bd fc f1 49 be 53 e6 97 3c
       0.063964754 -0.12042153 -0.19721216 0.018542444
0003a0 50 e7 0e be 8f ee 75 bd a6 99 a7 3d db ce 8d 3c
       -0.13955426 -0.06004196 0.08183603 0.01731055
0003b0 82 21 18 3c d9 e8 54 bd a4 a2 29 3d f0 7c 0f 3d
       0.009285333 -0.051979873 0.04141487 0.03503126
0003c0 b3 ee 06 3c f7 22 1c 3d 1c 99 8d bd 4e cc 3b 3d
       0.008235621 0.038119283 -0.06913969 0.045849137
0003d0 42 88 a3 bd 03 80 ba bd 23 d9 ad 3b 1f 83 34 3c
       -0.079849735 -0.091064475 0.0053054257 0.01101759
0003e0 17 31 bd bd cf 9b 8a bb 55 58 13 3d 99 09 00 3d
       -0.09237879 -0.0042299996 0.035972912 0.031259153
0003f0 cb df 3b bd 20 8a c1 3c 11 0e 55 bd 7d 2d d8 bb
       -0.045867722 0.023625433 -0.052015368 -0.0065972195

bias f4 [128]
000000 9d 5d ff 3d 32 dd 85 bd 6d aa 19 3d 95 8b 7f bd
       0.12469027 -0.0653633 0.037516046 -0.062388975
000010 29 04 54 bd 28 78 0e 3e 87 70 be 3d 14 e7 44 bd
       -0.05176178 0.13913023 0.09298807 -0.048071936
000020 0a 4d 14 3e 5e ed b2 bd f5 85 af bd f3 60 45 3b
       0.14482513 -0.087366804 -0.08570472 0.00301176
000030 08 de 33 3d 5a 8b 23 3e 04 12 83 3d 13 1c 1b bc
       0.043912917 0.15971127 0.063999206 -0.009467143
000040 7e 56 e6 3d d3 04 df bd eb 1a 2d 3c ac 7e 4e bd
       0.11246966 -0.10889592 0.0105655 -0.050413772
000050 49 ea 04 3e 5a 53 9d bc cc 46 97 3d 90 b3 9a 3d
       0.12979998 -0.019204784 0.0738655 0.0755378
000060 c7 13 01 bd 4d 6d 34 3d ac 11 71 3d 6e ea 15 3d
       -0.031513 0.04404955 0.058854744 0.036600523
000070 44 e6 db bd 4a 3d c0 3d 8c ca 95 3d ea a4 e7 bc
       -0.10737279 0.0938669 0.073140234 -0.02827688
000080 85 12 51 bd 3c ca cd 3d 34 bc 46 3c cc 0c db bd
       -0.051043052 0.10048339 0.012129832 -0.106958
000090 5f 74 01 be 90 06 87 3d 76 e6 28 bd 95 99 00 3d
       -0.12642048 0.065930486 -0.04123541 0.031396467
0000a0 6d d9 9a bd af c8 20 bd eb a1 dc 3c 8f 27 19 3c
       -0.07561002 -0.039253887 0.026932677 0.00934781
0000b0 c1 5c c5 bc 7a 86 e4 3c 08 6c 5c 3d cb 31 99 bd
       -0.02409208 0.027896155 0.053813964 -0.074802004
0000c0 29 ba 34 3e 97 16 3a 3c 63 d5 b6 3d 73 e7 47 bd
       0.1764914 0.011357925 0.08927419 -0.04880471
0000d0 c7 d9 89 3d 99 40 11 3c 08 30 da 3d 85 5a a1 3d
       0.06730991 0.008865499 0.106536925 0.07878593
0000e0 88 e6 4d bc 63 51 06 bd eb 5f 9d 3d d2 9a bb 3d
       -0.01256717 -0.03279246 0.076843105 0.09160389
0000f0 26 18 f6 3d 3f 15 f4 bd 55 9f 17 3e ce 3b 2d 3b
       0.12016325 -0.11918115 0.14806874 0.0026433351
000100 e1 57 27 bd fd fd 32 3c cb 04 05 be 6e fc 91 3c
       -0.040855292 0.010924813 -0.1299011 0.017820563
000110 60 af 73 bd 9f 3f db bc 2e ab 34 bd 42 e2 ee bc
       -0.059493423 -0.026763735 -0.044108562 -0.029160623
000120 54 5f 21 3e be 40 d6 3d 43 42 3f bd d6 0d a4 3d
       0.15759021 0.10461567 -0.04669405 0.080104515
000130 d8 54 1b 3e 5a f1 83 3d 20 3f 66 bd 13 6d 79 bd
       0.15169084 0.064425185 -0.056212544 -0.060895037
000140 6c 91 9d bd 02 19 55 3c 86 5b bd bd d7 9e 1d bd
       -0.07693753 0.013006451 -0.09245972 -0.03848156
000150 27 e4 4c 3d 82 52 26 bd da 35 e1 3d 21 8d cd bd
       0.05002227 -0.04060603 0.109965995 -0.10036684
000160 62 7d 69 3c e6 60 cc bd f4 6e a4 bd ae 29 2c 3c
       0.014251085 -0.099794194 -0.08028975 0.010507984
000170 c5 6b ee 3d a9 32 83 3d 40 9f 28 3d fe 1e e2 bd
       0.11641649 0.06406147 0.041167498 -0.110410675
000180 e3 a6 86 bd c9 98 95 bc a3 a5 f8 3b c5 21 0e 3c
       -0.065748 -0.01826133 0.007588105 0.0086750435
000190 d9 bd c8 3d 60 1a 0f 3d d0 f3 b9 b9 7a d6 a5 bc
       0.098018356 0.034937263 -0.00035467604 -0.020243872
0001a0 48 84 92 bd d9 ff f2 bd f5 5c 90 3d 68 60 93 3d
       -0.07154137 -0.11865205 0.0704898 0.071961224
0001b0 d0 54 d1 3d 8a d9 1b bd ef 02 68 bd 31 28 08 3e
       0.10221255 -0.03804926 -0.056643423 0.13296582
0001c0 3c 80 db 3c ea 52 b0 bc fc 83 00 be 1d e8 8b bc
       0.026794545 -0.021523912 -0.12550348 -0.017078454
0001d0 3b 32 69 bd c7 2f 22 3e 06 6e bd bd 64 b2 02 be
       -0.05693267 0.15838538 -0.09249501 -0.12763363
0001e0 e2 90 a3 3d 5d d9 af bd 6c b8 8d bd 30 96 20 bc
       0.079866186 -0.08586381 -0.06919941 -0.0098014325
0001f0 11 84 87 3c 0e d1 e1 3c ee 81 6e 3d 26 1b f9 bd
       0.016542466 0.027565505 0.05822938 -0.12163381

weight f4 [128, 128]
000000 34 e6 07 3d 71 fe 96 bc f0 3a 29 3d 68 ae 64 bd
       0.033178523 -0.018431874 0.041315973 -0.05583039
000010 8a 1e eb 3c a8 43 07 3e af 9d 9a 3d 46 f3 0d 3c
       0.028701086 0.13209403 0.07549607 0.008663958
000020 e0 2d 18 3c da f4 bc bd eb f0 80 3d dd 60 c3 bd
       0.009288281 -0.09226389 0.062959515 -0.095399596
000030 8c 4b 32 3d 19 4c d4 bc 5a 37 0d 3d 56 e3 8b 3c
       0.04352908 -0.025915192 0.034476615 0.017076176
000040 34 b2 50 bc 86 cc 62 3d ad f1 18 bd 29 bd 89 3d
       -0.012737799 0.05537083 -0.037339855 0.067255326
000050 64 d4 88 3c 98 1a 72 bd 77 e6 18 bc 0b 64 81 bd
       0.016702838 -0.059107393 -0.009332291 -0.0631791
000060 33 4b f9 3c 6a eb 76 3d b1 6a b4 bd 12 6e c9 3d
       0.030431366 0.060283102 -0.08809412 0.09835447
000070 e9 eb 0f 3d 6b 03 6e bd 61 2a dc bd bf 25 33 bd
       0.03513709 -0.05810873 -0.10750271 -0.04373717
000080 bf 49 0d bd df 71 43 3d 64 1c 03 3e 31 79 e5 bd
       -0.034494158 0.047716018 0.12803799 -0.11204756
000090 1c de 86 bd 05 d3 70 3d f8 fe cd bc f0 24 b1 3b
       -0.06585333 0.058794994 -0.025145993 0.0054060146
0000a0 b2 51 32 bd c8 9e 42 3d d2 08 81 bc 6b 4c d5 3d
       -0.043534942 0.047514707 -0.015751276 0.10414966
0000b0 6b f4 06 3d 85 41 89 ba 43 23 9f bc 3a 2d 25 3d
       0.03294794 -0.0010471797 -0.019425994 0.040326335
0000c0 99 ab ab bd 54 68 29 3d 65 b5 8b 3d f9 09 b3 3c
       -0.08382339 0.04135926 0.06821708 0.021855341
0000d0 7f f0 9b bc 08 48 89 bd 74 63 d8 3c ab 88 66 bd
       -0.019035576 -0.06703192 0.02641461 -0.05628268
0000e0 e0 b2 20 bd c0 10 9e bd ca b6 e0 bd 3e 28 52 bd
       -0.03923309 -0.077180386 -0.10972364 -0.05130791
0000f0 5e 47 ef 3d 87 4b 85 3d da 95 df bc 59 19 ca 3d
       0.11683534 0.06508546 -0.027293134 0.09868116
000100 00 3d 4a 3d d5 61 e9 bb 5c 2b 84 3d 41 3d 8e 3d
       0.04937458 -0.007122258 0.06453583 0.06945277
000110 48 7b 7a 3b bb 84 d2 3d 5d 18 8c 3c 27 55 d2 3c
       0.0038220454 0.102792226 0.017101461 0.02567537
000120 1d 7e 80 bd f5 1a 85 3d fd b3 f1 bd 17 90 30 bd
       -0.06274054 0.06499282 -0.11801908 -0.043106165
000130 ca cc a3 3d ae 9d d4 bc 67 ae 41 3d 1d 50 fb 3a
       0.07998045 -0.025954094 0.047285464 0.0019173656
000140 9c 19 62 bc 04 67 ea bd 73 eb 88 bd c1 29 53 3d
       -0.013800051 -0.1144543 -0.066855334 0.05155349
000150 0e 4e 09 3d 83 21 12 be dd c1 15 bd 30 72 91 3d
       0.033521704 -0.14270596 -0.036561836 0.07101858
000160 47 28 08 3d 42 98 18 3d 55 4a 32 3d 96 2c cd 3c
       0.033241536 0.03725458 0.04352792 0.025045674
000170 86 d0 ab bd 7e 8e 1e bc 9e 86 62 bd a4 ab 94 3d
       -0.08389382 -0.0096775275 -0.055304162 0.072593
000180 26 b1 d7 bd cf ac 46 3d 37 6d 04 3d 6f 8f 87 3d
       -0.10531835 0.048504647 0.032330718 0.06619155
000190 a3 66 c6 3d d8 4d 1b bc 45 6d 3e bd cd ce 74 bd
       0.09687545 -0.009479009 -0.046490926 -0.059767533
0001a0 34 d7 1a 3d cb 36 83 bb 84 63 dc 3d a4 db 85 3c
       0.03780289 -0.0040043346 0.107611686 0.016340084
0001b0 0b 18 6e bd 10 85 87 bd ca 56 fe 3c fc 43 a5 bc
       -0.058128398 -0.066171765 0.031047244 -0.020174019
0001c0 bd 0f a5 bc 23 fd 4a 3d d1 96 74 3c 39 9f 78 bd
       -0.020149106 0.049557816 0.014928536 -0.06069872
0001d0 e9 5c 84 3c 48 9b 81 3c c5 ac be bd a0 67 80 3d
       0.016157584 0.015821114 -0.09310297 0.06269765
0001e0 cd e6 c3 bd fb 2d d2 3d ee 08 0d 3d 28 65 02 3d
       -0.09565506 0.10262676 0.034432344 0.03183475
0001f0 4c 3e fa bc eb 25 64 3d 52 71 58 bd 56 05 d4 3d
       -0.030547284 0.055700224 -0.052842446 0.1035258
000200 98 0e ab 3d 7b 56 06 be 5b 18 aa bd 08 58 f5 bd
       0.08352393 -0.13118927 -0.08305427 -0.11979681
000210 02 dd 21 3d 94 e7 9d 3d 41 5e ab bd 05 60 3c 3c
       0.03951741 0.07710186 -0.08367587 0.011497502
000220 a5 b3 20 3c b7 2b 86 bc bc dd f3 bc 8a 52 3f bd
       0.009808456 -0.016378267 -0.029768817 -0.046709575
000230 7b 97 97 bd f3 3a c4 3c 1b 76 a1 bc ec cf b5 3d
       -0.074019395 0.02395389 -0.019709637 0.088775486
000240 58 27 e0 3c 87 b8 a7 bd ce 1f 41 bc d6 57 13 3d
       0.02736251 -0.08189493 -0.011787368 0.03597244
000250 5f 4a 25 bd e8 63 a0 3d 06 fa 31 be f3 fd 02 3b
       -0.04035413 0.078315556 -0.17380533 0.0019987791
000260 3f 88 24 be be 82 12 3d e3 41 58 3d f3 03 66 3d
       -0.16067599 0.035769217 0.05279721 0.05615611
000270 a0 06 64 3c 55 0c 9b 3d 8e 68 b0 bc a4 7b 82 3d
       0.013917595 0.075707115 -0.02153423 0.06371239
000280 61 bb ad 3a 4e 46 8c bc 2a 46 8b 3c f7 2a 57 3d
       0.0013254696 -0.017123368 0.01700123 0.05253121
000290 f2 9b 3b 3d 3e 01 ab 3b 8f 4f e0 38 52 97 25 3e
       0.045803018 0.005218654 0.00010695971 0.16171005
0002a0 ec 98 07 3d bd 53 b0 bc 07 fd 73 bd 70 0a f7 bd
       0.033104822 -0.021524305 -0.059567478 -0.12062538
0002b0 5d 05 f5 bc 43 37 84 3c 71 a1 e7 bc 6f 3a fa bc
       -0.029909784 0.016139632 -0.028275223 -0.030545441
0002c0 e6 e5 99 bd 48 34 f3 3d ef 6a c9 3c a8 57 88 bd
       -0.07514553 0.11875206 0.024587123 -0.06657344
0002d0 56 0f cf bb d4 a2 c6 3d a3 ad ea 3b 72 20 00 3d
       -0.006318967 0.09699026 0.0071618124 0.031280942
0002e0 56 05 e2 3c 22 d1 2d bd 66 7b 50 3d 47 fc c2 bb
       0.027590435 -0.042435773 0.050898932 -0.005950484
0002f0 83 85 49 3d f4 d8 0b be 34 86 00 3d 8e 06 7c 3d
       0.049199592 -0.1365698 0.031377986 0.06152969
000300 3e 5b 93 3d 56 23 17 3d 97 ba a3 bd 8d 96 d8 3c
       0.071951374 0.036898933 -0.079945736 0.026438976
000310 96 b1 5e bd 4c 5f c2 bd b7 99 92 bd 58 d3 0f 3e
       -0.054368578 -0.09490833 -0.07158225 0.14045465
000320 eb 9e c2 bc 18 22 a4 bd fc 83 65 3d 96 04 b3 3d
       -0.023757419 -0.08014315 0.056034073 0.08741109
000330 f0 d7 ac bb ec 29 24 be f0 23 86 bd 7c 9e cd 3c
       -0.005274765 -0.16031617 -0.06549823 0.025099985
000340 e1 b2 c3 3c 0b d7 39 bc 86 07 2e bd 8b 80 30 bc
       0.023889007 -0.011342774 -0.042487644 -0.0107728345
000350 d9 7f bf 3d 95 03 98 3d 73 b7 bd 3c 22 18 6b 3c
       0.09350557 0.07422558 0.023158764 0.014349015
000360 d7 2c 42 3d 74 66 8e bd 7b 43 0f 3e e4 df 1d bd
       0.047406044 -0.06953135 0.13990586 -0.038543597
000370 5e d6 ea bd 21 3d c4 bd b0 24 1f bd dd 67 ff ba
       -0.114666685 -0.09581972 -0.038853347 -0.001948591
000380 e2 e4 a3 bd 45 4b aa bc ac 43 3f 3d 4c 69 bc 3c
       -0.0800264 -0.020787844 0.046695396 0.022999428
000390 5e 75 b6 bd a1 e6 bd bd 1e a5 e6 bd e5 98 ad 3d
       -0.08909105 -0.092725046 -0.11261962 0.08476428
0003a0 61 2e 10 be d0 6f a5 bd c8 a0 82 bd a0 0e 25 3d
       -0.14080192 -0.08077967 -0.06378323 0.04029715
0003b0 ec 05 d6 bd ea 9f 08 be 4b 62 b8 bd 43 6a 30 3e
       -0.10450348 -0.13342252 -0.09003123 0.17228036
0003c0 d2 8e 77 bd ef fd 79 bd 92 13 4d bd 65 22 d7 3d
       -0.06043894 -0.061033186 -0.05006749 0.10504607
0003d0 c9 21 b5 bb 7a 75 c2 bc 50 7a e4 3d eb 84 25 3d
       -0.005527709 -0.023737658 0.11156142 0.040409964
0003e0 98 c4 e3 3d 96 cd 2d bd c5 f7 ff bc b3 80 83 bd
       0.11121482 -0.04243239 -0.031246075 -0.06421032
0003f0 7a 44 89 3d 02 02 88 bc 18 ca 28 be c4 d6 0e be
       0.06702514 -0.01660252 -0.16483343 -0.13949114

bias f4 [128]
000000 5b d0 53 3c 5a 1c e4 bc 66 bf 03 bd 55 7c d8 bc
       0.012928094 -0.02784555 -0.032164954 -0.026426474
000010 8b 20 9d bd 65 61 80 bd bf da 90 3d 32 13 94 bc
       -0.07672223 -0.062685765 0.070729725 -0.01807556
000020 5a c1 f2 3d a8 9f 61 bb 15 10 5b b8 b7 7f 88 3d
       0.11853285 -0.0034427438 -5.2228646e-05 0.06664985
000030 e0 98 a7 3d 40 56 2b 3d d8 fa 77 bd 01 39 3c 3d
       0.081834555 0.0418303 -0.060541958 0.0459528
000040 c3 f2 43 bd 5b 03 38 bc 76 e9 ad 3c 28 9c 54 3d
       -0.047838937 -0.011231269 0.021229487 0.051906735
000050 11 98 50 3d b1 71 ff 3c ba 07 e6 bd 1a ba 76 3d
       0.05092627 0.031182142 -0.112319425 0.060236074
000060 78 3a 6f 3c 0d d2 13 3d 03 17 94 bd 75 58 7a 39
       0.014601342 0.036088992 -0.07230952 0.0002387481
000070 f7 95 47 3d 5e 28 13 3d 3f 9b 15 3d 63 89 c7 bd
       0.048727002 0.03592717 0.036525007 -0.09743001
000080 46 c4 fd 3c c5 9e 6f 3d 12 9a cd 3c 2b 6d 5d 3d
       0.03097738 0.058501024 0.02509788 0.05405919
000090 b3 33 67 3d e8 9c 88 bd 02 b8 24 3d 75 f4 40 3c
       0.05644579 -0.066705525 0.040214546 0.011777033
0000a0 96 83 c0 bd 57 c8 69 3d 8e 03 02 bb db ca eb bc
       -0.09400098 0.057075825 -0.0019838545 -0.028783252
0000b0 c0 16 11 bd bc ba ea bc 54 04 6f 3c d6 a8 aa bd
       -0.035422087 -0.028653495 0.014588434 -0.08332984
0000c0 45 e4 66 3c c5 c9 c9 bc f4 ba f9 3c 95 1e b4 3d
       0.01409251 -0.024632344 0.030484654 0.087948956
0000d0 e0 81 5f 3d d2 23 cf bd 20 0a 9c 3d d8 30 8c bd
       0.054567218 -0.10114254 0.07619119 -0.06845254
0000e0 2a 46 0a be 2c 40 98 3c 55 c6 3f bc 2e 8c bf bd
       -0.13503328 0.018585287 -0.011705001 -0.09352909
0000f0 e0 e3 b7 bd 5c 6c 11 be de 8a da bb c5 7f c4 bb
       -0.089790106 -0.14201492 -0.0066693863 -0.0059966766
000100 35 0e 7a bd c4 6f 9c ba ca 1a d3 39 5f 74 cd 3b
       -0.061048705 -0.0011935164 0.00040265016 0.006269976
000110 94 d2 88 3c c1 4d 0a bd d3 e1 0c 3d 96 39 c4 ba
       0.016701974 -0.03376556 0.03439505 -0.0014970775
000120 d5 c4 b0 bd 1c 7e d6 3c ac 38 29 bd 05 79 81 bd
       -0.08631293 0.02618318 -0.041313812 -0.06321911
000130 85 3f bf bd 7d 32 97 3c b5 a8 8a bd c2 b5 93 bd
       -0.09338287 0.018456692 -0.067704596 -0.07212402
000140 b4 e6 fb bd 56 88 93 bd de 91 e0 bc 99 a3 6f bd
       -0.122998625 -0.072037384 -0.027413305 -0.05850563
000150 bc 2e ad 3b c5 1f 42 bc d6 95 dc bd 02 f3 56 bd
       0.005285112 -0.011848395 -0.107707664 -0.052477844
000160 c8 29 57 3d fa 4f c7 3d 6e 21 81 3a 8d 3d 8b 3d
       0.05253008 0.09732051 0.0009851882 0.06798849
000170 1b 78 24 bd 76 c2 5a bd 83 18 77 3d 75 f2 a7 3d
       -0.040153604 -0.05340811 0.06032611 0.08200542
000180 a4 52 e2 3c e3 8f 63 bd 7f 93 a0 bd f1 72 95 3d
       0.027627297 -0.055557143 -0.07840633 0.07297314
000190 ab a5 da bb 8a 7b 1c bd f3 d5 4b bd 4f 1b 7a bd
       -0.006672581 -0.038203754 -0.049764585 -0.0610612
0001a0 22 06 74 bd 2f fd b5 3d 2e 05 bc 3d 60 27 06 bd
       -0.05957616 0.088861816 0.091806754 -0.032752395
0001b0 19 75 74 3d aa cc e5 3b a5 03 8a 3d 9c 34 ef bc
       0.059681986 0.0070129232 0.067389764 -0.02919989
0001c0 0b ed 17 3a cc dd 40 bd fe 9d 4b bc 33 a5 97 3b
       0.0005795515 -0.047086522 -0.012427805 0.0046278476
0001d0 51 db 6a 3d 72 af c7 bc d7 a7 1e bc f6 a1 75 bd
       0.057338063 -0.024375651 -0.009683571 -0.05996891
0001e0 fc 19 86 bc 8d 8e 93 3b 67 66 fc 3c 80 d0 34 3d
       -0.016369812 0.0045030774 0.030810548 0.044144154
0001f0 61 3c ad 3d a2 dd 93 3d 6f f8 41 bc f1 fa 69 bd
       0.08458782 0.072200075 -0.011839016 -0.057124082

weight f4 [128, 128]
000000 e1 a2 59 3d 68 da 50 bd 6d c6 a4 3d d2 60 3b 3d
       0.05313385 -0.05098954 0.08045659 0.045746632
000010 f7 0c 10 3d 38 91 ee bd e8 b2 a1 bd 09 b4 16 bd
       0.035168614 -0.11648792 -0.07895452 -0.03679279
000020 fc 39 08 bd f1 1e a6 3d 43 29 b2 3d 19 4f 85 3d
       -0.033258423 0.0811137 0.08699276 0.06509227
000030 9d 06 08 bd af ea a9 bc 34 fe e6 3d e8 78 cb 3c
       -0.033209432 -0.020741789 0.11278954 0.024837926
000040 72 f6 bc bd c0 e2 86 3d e2 63 4f 3c e7 20 46 3d
       -0.09226693 0.06586218 0.012658091 0.048371222
000050 bf 10 b7 3c f7 94 b0 bd 7c c7 8a bb 1b 13 ac 3c
       0.022346852 -0.08622163 -0.004235206 0.021005204
000060 54 73 ea 3d eb 52 c0 bc de ad 71 bd f3 22 e2 bc
       0.11447778 -0.023477038 -0.059003703 -0.027604556
000070 e6 db 95 3c e2 94 83 3d a7 16 1f bc f7 a3 e8 bb
       0.018293332 0.064248815 -0.009709991 -0.0070996243
000080 fa db 83 3d f0 cd e7 ba 56 35 a7 3d cb 6a 8c bd
       0.064384416 -0.0017685276 0.0816447 -0.06856307
000090 59 b9 0c be 69 7f 1c 3d ca 8b b6 3c fa de 16 3d
       -0.1374258 0.038207445 0.022283453 0.03683374
0000a0 93 3f 94 bc 14 6e 07 3c bb 82 03 bd c7 5b 6f bc
       -0.01809672 0.008265991 -0.032107096 -0.014609284
0000b0 0b 27 e9 3d 3f bb da bc be 24 3b bd c3 8d 50 bd
       0.113844 -0.026700614 -0.045689337 -0.050916445
0000c0 c5 27 ea 3d 77 00 d5 3d 96 6d 34 bd cd 7e ff bb
       0.11433367 0.10400479 -0.04404982 -0.0077970983
0000d0 da 0e 71 3d 9e 9a d0 3c 47 0a 12 3d f0 af c1 3d
       0.058852054 0.025464352 0.035654332 0.094573855
0000e0 cc 1c 0e 3d e1 e9 33 3b 4f a2 4a 3d 3a fb c4 3c
       0.03469543 0.0027452635 0.049471196 0.024045575
0000f0 eb b0 9c 3d ce ed 84 3c 6a 33 e9 3c 8a d4 7d 3d
       0.07650932 0.016226675 0.028466899 0.06197027
000100 ca 34 77 3c be 94 63 3d 53 e8 b7 3d b9 fe 33 bd
       0.0150882695 0.055561773 0.08979859 -0.043944094
000110 7e d3 42 bd c4 c9 6b 3d f6 d8 87 39 c7 b1 9a bc
       -0.047564976 0.057565466 0.00025910855 -0.018883599
000120 7c 9f 1f 3d 37 c5 93 bc 7c eb 92 3c 58 8e 1e 3d
       0.038970456 -0.018038375 0.017934553 0.03870997
000130 5a b7 46 3d 3a 03 ce bc a6 ae e6 bd 8b bb 8c bc
       0.0485147 -0.025148023 -0.1126378 -0.017179271
000140 01 f1 ad bb f0 c5 06 3d 47 79 9e bb 77 a8 e9 bd
       -0.005308271 0.03290361 -0.0048362347 -0.11409085
000150 93 8b af 3c de dc c1 3c d0 b4 35 bd d7 ee 06 3d
       0.021428859 0.023664888 -0.04436189 0.03294262
000160 97 23 0e be fc 5c 64 bd c8 bb 94 3d e5 b1 a2 3d
       -0.13880764 -0.05575274 0.07262379 0.07944087
000170 30 88 23 3d d3 8d 86 3d 4a 59 6e 3d b0 6b ac 3d
       0.0399248 0.065700196 0.05819062 0.08418977
000180 40 be 86 3d 41 ec b7 bc c4 c7 3a 3d 82 cc 60 bd
       0.06579256 -0.022451522 0.045600668 -0.054882534
000190 8a e1 45 bd aa 28 50 bc 2f 4e dd 3b cf 4c 15 bd
       -0.048310794 -0.012705008 0.006753705 -0.036450204
0001a0 ba 66 35 3c 88 c1 c6 3c c8 d2 16 3e 5c 48 98 bc
       0.011071855 0.024262205 0.14728844 -0.018589191
0001b0 c5 5e a4 3d 90 22 b2 bd 02 7c 14 be 65 81 1a 3c
       0.08025888 -0.086979985 -0.1450043 0.009430264
0001c0 ae b7 1b 3d 6d 3f 2e 3d f7 74 91 bd fa 35 34 3d
       0.038016967 0.042540956 -0.071023874 0.04399679
0001d0 00 0b be bd 8b e0 25 3d ef 74 93 3c 45 44 54 bd
       -0.09279442 0.040497344 0.018000094 -0.05182292
0001e0 eb e7 7e 3c dc 01 15 bd 07 c5 9d bd 18 18 82 bb
       0.015558223 -0.036378726 -0.077035956 -0.0039701574
0001f0 49 c3 24 3d 62 e1 b9 3d 3f d0 2f 3d 04 b9 f9 3c
       0.0402253 0.090761915 0.04292321 0.03048373
000200 c3 b3 cf 3c fe 10 35 3c df d9 04 bc 0e c2 61 bd
       0.025354272 0.011051415 -0.008108585 -0.055116706
000210 ba c8 56 3d 21 66 95 3d f1 aa e2 3d e5 cc ca bc
       0.05243752 0.0729487 0.11067761 -0.024755904
000220 b0 46 85 3d e0 20 66 3d df 17 52 bd 48 7b 0a be
       0.06507623 0.056183696 -0.051292296 -0.1352359
000230 ff 15 33 bd e2 8d db bd e1 c0 c2 bc b3 3c 3b bd
       -0.04372215 -0.107204214 -0.023773612 -0.045712184
000240 46 f3 cb bd 47 66 8f 3d f5 2d cd 3c b8 4c 03 bd
       -0.0995851 0.0700193 0.025046328 -0.032055587
000250 3a c0 31 3b a6 5d 1b 3d 48 42 c2 bc e0 dd 00 3d
       0.0027122633 0.037931107 -0.023713246 0.031461596
000260 80 6a 4f bd 78 38 f3 bc d3 6a 1d 3d 30 6e 9c 3d
       -0.050638676 -0.029690012 0.038431954 0.07638204
000270 e2 87 2b 3c a6 21 1e bc 19 f7 33 bd b4 b7 26 bc
       0.010469409 -0.009651577 -0.043936823 -0.010175634
000280 c3 e1 f4 3c 6f 51 a7 bd 08 16 0b be f6 d4 a8 bd
       0.029892808 -0.08169829 -0.13582623 -0.08243744
000290 18 c0 c9 3d 6c 88 21 3d 0e e0 0a bd 03 e1 c3 bd
       0.09851092 0.039436743 -0.03390508 -0.09564402
0002a0 be d0 71 3d e8 25 5d 3d da e8 61 3d 92 bf 21 bb
       0.059036963 0.05399123 0.055153705 -0.0024680835
0002b0 04 83 4c 3d a0 d1 fc bd a9 87 27 bd 0e 53 02 3d
       0.049929634 -0.1234467 -0.04090086 0.03181749
0002c0 9d 5b c6 bc 4b ad 4d 3d 8a 0f 73 3d 15 0b b4 3d
       -0.024213606 0.050214093 0.05934099 0.08791176
0002d0 1b cc 1d 3d 16 91 27 3d 3e dd 84 3c 77 14 9e bd
       0.03852473 0.04090985 0.016218778 -0.07718747
0002e0 89 c8 cd bc 52 8d bb bd 28 4a 83 3d d7 19 e7 3c
       -0.025120037 -0.09157814 0.064106286 0.028210564
0002f0 3a 62 8a bd e2 3b 3d 3d eb f9 54 bd aa 86 7b bd
       -0.067570165 0.046199687 -0.051996153 -0.061407723
000300 9c e2 88 3d e8 83 54 bd 8f d6 51 bc 52 f6 d7 bd
       0.06683847 -0.051883608 -0.012807502 -0.10545029
000310 50 64 25 bd e3 8d c5 3c 5a 53 dd 3c 3d 1b 10 3d
       -0.04037887 0.024115508 0.027017284 0.035182226
000320 eb 80 b8 bd 24 1d 56 bc ec 54 69 3d c5 36 2e 3e
       -0.09008964 -0.013068471 0.056965753 0.1701308
000330 b4 71 a5 3d 63 48 ab bd 8a 10 f5 3c 9c 92 d8 3b
       0.08078328 -0.08363416 0.029915113 0.006609274
000340 a6 ad ba 3b 92 60 a3 bd 18 ff 0e 3c 8f 96 91 3a
       0.00569697 -0.07977404 0.008727811 0.0011107492
000350 ca 34 8f 3c c9 49 6c bd 9a bb 21 bc 0f 80 3b bc
       0.017481226 -0.057687555 -0.009871388 -0.011444106
000360 99 99 1f 3b 45 de 0f 3c ca 56 ae bd 84 84 8f 3d
       0.0024353026 0.0087810205 -0.085126474 0.07007697
000370 57 5b 3a 3d 90 8f c9 bc e9 c6 4f bc 78 6c df 3d
       0.045497265 -0.024604589 -0.012681701 0.10909361
000380 fa 16 14 3d 1b 5b 97 bd 55 3d 33 ba ad d1 83 3d
       0.036154725 -0.07390424 -0.0006837447 0.06436477
000390 10 1b 90 bd a6 df b0 3b 0b 7d 02 be 66 9f 84 bd
       -0.07036412 0.0053977547 -0.12743013 -0.06475715
0003a0 35 40 d2 3b 65 16 bd bb 2b 57 03 3d 06 74 40 3c
       0.0064163455 -0.005770492 0.03206555 0.011746412
0003b0 d0 b8 ca 3d 6d bb 76 bd 08 8d bd 3b a5 db 35 bd
       0.098985314 -0.060237337 0.0057846345 -0.044398922
0003c0 5a f6 93 3d b9 fc 2d 3d a3 20 ad 3d 65 1c c6 bd
       0.07224722 0.042477343 0.084534906 -0.096733846
0003d0 3e 7e 44 bc 0d e5 ad bd 25 31 58 bd b7 03 d0 bc
       -0.011992989 -0.084909536 -0.052781243 -0.025392396
0003e0 c6 b2 70 bc 37 47 0e bd e8 58 c6 bc 28 a2 a0 bd
       -0.01469106 -0.034735885 -0.024212316 -0.07843429
0003f0 0c b9 dc bd 81 9f 7a 3d 60 f9 75 3d 02 0d 6e bd
       -0.107774824 0.06118727 0.060052276 -0.058117874

bias f4 [128]
000000 33 12 a2 bc 3b 6a e7 3b fe f0 d6 3a 99 51 85 bd
       -0.019784069 0.007062224 0.0016398726 -0.06509704
000010 dc 22 20 bd 09 8b d0 bc 94 87 78 bd 0a 32 a1 3d
       -0.039095744 -0.025456922 -0.060676172 0.07870872
000020 64 a0 40 bc 88 42 22 bd 25 c2 0a 3d 35 1a bf 3c
       -0.01175699 -0.03961423 0.033876557 0.023327926
000030 f4 46 ec 3a 8c 8c 86 3d 0e 47 6b 3d 37 44 be bc
       0.0018026517 0.06569776 0.05744081 -0.023225887
000040 cb b7 9a 3d 8f 31 68 3d e4 0a c9 bc 4d e7 82 3d
       0.07554587 0.056687888 -0.024541326 0.063917734
000050 d2 66 ec bc 1b 73 78 bd 5c 39 91 3d 3b b0 2f bd
       -0.028857622 -0.060656648 0.070910186 -0.042892676
000060 f2 27 d5 3c aa 06 9b bd 9b a3 80 bd 04 bd 19 bd
       0.026020024 -0.075696304 -0.06281205 -0.037533775
000070 35 16 4a bd a9 29 85 bd 27 b5 96 3c db 27 84 3c
       -0.049337585 -0.06502087 0.018396927 0.016132286
000080 54 74 69 3d ef da 02 3c 2a 17 02 bd 19 b2 95 3d
       0.056995705 0.007986768 -0.031760372 0.0730936
000090 ec 30 b7 ba cc 0a a4 ba df 16 45 3d fe ea 8a bd
       -0.0013976372 -0.0012515425 0.048117515 -0.067831025
0000a0 40 2d 1a 3d 4f 77 5b bd 1b b3 cb bc a7 33 d1 3c
       0.03764081 -0.05358058 -0.024865678 0.025537325
0000b0 2b 77 29 bd 35 d1 db bc 3d a0 8f 3c eb 31 a6 3d
       -0.041373413 -0.026833156 0.017532462 0.0811499
0000c0 c0 c3 b3 bd 7b cb 51 bc 53 41 32 bc 32 67 d8 3d
       -0.08777571 -0.012804861 -0.010879832 0.10566558
0000d0 a8 8d 94 3d e4 74 85 bc 49 c3 68 3d 91 26 be bd
       0.07253581 -0.01629109 0.056826863 -0.092847
0000e0 1d 31 77 3d ba b3 19 3d a3 7a 3f bc 09 37 80 3a
       0.060349572 0.037524916 -0.011686954 0.0009782027
0000f0 28 eb bc 3c 32 64 1c 3d 84 7e a4 bc c9 03 45 bd
       0.02306135 0.03818149 -0.020079859 -0.048099313
000100 97 90 55 3d 8f 81 c7 3d ba 73 8b 3d dd e6 18 3c
       0.052139845 0.09741508 0.068091825 0.009332386
000110 e8 94 0f bc c4 1d 75 bd 43 5a a3 3c 71 a6 62 bc
       -0.008763529 -0.05984284 0.019940501 -0.013833628
000120 0c 1b 08 3d a6 1e 15 bd 1d af fd 3a 84 2c 66 3c
       0.03322892 -0.03640618 0.0019354556 0.014048699
000130 47 59 d2 3a e8 f3 7c bd 30 e8 ef bc 31 c2 24 bd
       0.0016048335 -0.061756045 -0.02928552 -0.040224258
000140 02 01 69 3d fe c1 a3 bd 4a 78 41 bd 24 fe 4c bc
       0.056885727 -0.079959854 -0.047233857 -0.012511764
000150 9f 8f bd bd e4 db d3 3c 7d d8 0c bb 76 5f 45 bd
       -0.09255909 0.025861688 -0.0021491342 -0.04818674
000160 88 98 ba 3b 4c 0e 9e 3d cc 15 87 3d ce 24 f0 3c
       0.0056944527 0.07717571 0.06595954 0.029314425
000170 ef 22 c0 bc 0c ef aa 3d 6f 95 91 3d 06 be 9f bc
       -0.023454158 0.08346376 0.0710858 -0.01949979
000180 94 fa 6a 3d a7 8a ad 3d c8 78 a2 3c 82 ce 70 bc
       0.057367876 0.084737115 0.019832984 -0.014697673
000190 e7 15 01 bd f7 a5 a5 3d 6c bb 51 bd b0 8d 9e 3a
       -0.03151503 0.08088296 -0.05120413 0.001209667
0001a0 98 cb 9c 3d 80 8a 83 bd 20 17 4d 3d e2 09 93 b9
       0.0765602 -0.06422901 0.05007088 -0.00028045388
0001b0 22 de 6f 3b ab 15 3b 3d 7c 5c 4d bd c6 8e 17 3d
       0.0036600907 0.04567496 -0.050137028 0.037001394
0001c0 ef ca db bb 3b e2 91 3d a9 2f 87 bb f2 4a 2c bc
       -0.006707541 0.07123228 -0.0041255546 -0.010515915
0001d0 1c 54 67 3b 39 4b 9c bd f2 1c c8 bc c0 c0 59 3c
       0.0035297936 -0.07631535 -0.024427865 0.013290584
0001e0 93 b7 07 3d ec aa c2 3c 74 a3 fe 3c 94 ff 7e 3d
       0.033134054 0.023763143 0.0310838 0.062255457
0001f0 91 3e 92 ba 51 0c 2e 3d 2d e5 9d 3d 20 a7 95 bc
       -0.0011157562 0.042492215 0.077097274 -0.018268168
