dapg/examples/model/no_pen-v0/model_feature.pt (torch, 179982 bytes, 10 tensors)

in_shift f4 [72]
000000 00 00 00 00 00 00 00 00 00 00 00 00 00 00 00 00
       0.0 0.0 0.0 0.0
000010 00 00 00 00 00 00 00 00 00 00 00 00 00 00 00 00
       0.0 0.0 0.0 0.0
000020 00 00 00 00 00 00 00 00 00 00 00 00 00 00 00 00
       0.0 0.0 0.0 0.0
000030 00 00 00 00 00 00 00 00 00 00 00 00 00 00 00 00
       0.0 0.0 0.0 0.0
000040 00 00 00 00 00 00 00 00 00 00 00 00 00 00 00 00
       0.0 0.0 0.0 0.0
000050 00 00 00 00 00 00 00 00 00 00 00 00 00 00 00 00
       0.0 0.0 0.0 0.0
000060 00 00 00 00 00 00 00 00 00 00 00 00 00 00 00 00
       0.0 0.0 0.0 0.0
000070 00 00 00 00 00 00 00 00 00 00 00 00 00 00 00 00
       0.0 0.0 0.0 0.0
000080 00 00 00 00 00 00 00 00 00 00 00 00 00 00 00 00
       0.0 0.0 0.0 0.0
000090 00 00 00 00 00 00 00 00 00 00 00 00 00 00 00 00
       0.0 0.0 0.0 0.0
0000a0 00 00 00 00 00 00 00 00 00 00 00 00 00 00 00 00
       0.0 0.0 0.0 0.0
0000b0 00 00 00 00 00 00 00 00 00 00 00 00 00 00 00 00
       0.0 0.0 0.0 0.0
0000c0 00 00 00 00 00 00 00 00 00 00 00 00 00 00 00 00
       0.0 0.0 0.0 0.0
0000d0 00 00 00 00 00 00 00 00 00 00 00 00 00 00 00 00
       0.0 0.0 0.0 0.0
0000e0 00 00 00 00 00 00 00 00 00 00 00 00 00 00 00 00
       0.0 0.0 0.0 0.0
0000f0 00 00 00 00 00 00 00 00 00 00 00 00 00 00 00 00
       0.0 0.0 0.0 0.0
000100 00 00 00 00 00 00 00 00 00 00 00 00 00 00 00 00
       0.0 0.0 0.0 0.0
000110 00 00 00 00 00 00 00 00 00 00 00 00 00 00 00 00
       0.0 0.0 0.0 0.0

in_scale f4 [72]
000000 00 00 80 3f 00 00 80 3f 00 00 80 3f 00 00 80 3f
       1.0 1.0 1.0 1.0
000010 00 00 80 3f 00 00 80 3f 00 00 80 3f 00 00 80 3f
       1.0 1.0 1.0 1.0
000020 00 00 80 3f 00 00 80 3f 00 00 80 3f 00 00 80 3f
       1.0 1.0 1.0 1.0
000030 00 00 80 3f 00 00 80 3f 00 00 80 3f 00 00 80 3f
       1.0 1.0 1.0 1.0
000040 00 00 80 3f 00 00 80 3f 00 00 80 3f 00 00 80 3f
       1.0 1.0 1.0 1.0
000050 00 00 80 3f 00 00 80 3f 00 00 80 3f 00 00 80 3f
       1.0 1.0 1.0 1.0
000060 00 00 80 3f 00 00 80 3f 00 00 80 3f 00 00 80 3f
       1.0 1.0 1.0 1.0
000070 00 00 80 3f 00 00 80 3f 00 00 80 3f 00 00 80 3f
       1.0 1.0 1.0 1.0
000080 00 00 80 3f 00 00 80 3f 00 00 80 3f 00 00 80 3f
       1.0 1.0 1.0 1.0
000090 00 00 80 3f 00 00 80 3f 00 00 80 3f 00 00 80 3f
       1.0 1.0 1.0 1.0
0000a0 00 00 80 3f 00 00 80 3f 00 00 80 3f 00 00 80 3f
       1.0 1.0 1.0 1.0
0000b0 00 00 80 3f 00 00 80 3f 00 00 80 3f 00 00 80 3f
       1.0 1.0 1.0 1.0
0000c0 00 00 80 3f 00 00 80 3f 00 00 80 3f 00 00 80 3f
       1.0 1.0 1.0 1.0
0000d0 00 00 80 3f 00 00 80 3f 00 00 80 3f 00 00 80 3f
       1.0 1.0 1.0 1.0
0000e0 00 00 80 3f 00 00 80 3f 00 00 80 3f 00 00 80 3f
       1.0 1.0 1.0 1.0
0000f0 00 00 80 3f 00 00 80 3f 00 00 80 3f 00 00 80 3f
       1.0 1.0 1.0 1.0
000100 00 00 80 3f 00 00 80 3f 00 00 80 3f 00 00 80 3f
       1.0 1.0 1.0 1.0
000110 00 00 80 3f 00 00 80 3f 00 00 80 3f 00 00 80 3f
       1.0 1.0 1.0 1.0

out_shift f4 [128]
000000 00 00 00 00 00 00 00 00 00 00 00 00 00 00 00 00
       0.0 0.0 0.0 0.0
000010 00 00 00 00 00 00 00 00 00 00 00 00 00 00 00 00
       0.0 0.0 0.0 0.0
000020 00 00 00 00 00 00 00 00 00 00 00 00 00 00 00 00
       0.0 0.0 0.0 0.0
000030 00 00 00 00 00 00 00 00 00 00 00 00 00 00 00 00
       0.0 0.0 0.0 0.0
000040 00 00 00 00 00 00 00 00 00 00 00 00 00 00 00 00
       0.0 0.0 0.0 0.0
000050 00 00 00 00 00 00 00 00 00 00 00 00 00 00 00 00
       0.0 0.0 0.0 0.0
000060 00 00 00 00 00 00 00 00 00 00 00 00 00 00 00 00
       0.0 0.0 0.0 0.0
000070 00 00 00 00 00 00 00 00 00 00 00 00 00 00 00 00
       0.0 0.0 0.0 0.0
000080 00 00 00 00 00 00 00 00 00 00 00 00 00 00 00 00
       0.0 0.0 0.0 0.0
000090 00 00 00 00 00 00 00 00 00 00 00 00 00 00 00 00
       0.0 0.0 0.0 0.0
0000a0 00 00 00 00 00 00 00 00 00 00 00 00 00 00 00 00
       0.0 0.0 0.0 0.0
0000b0 00 00 00 00 00 00 00 00 00 00 00 00 00 00 00 00
       0.0 0.0 0.0 0.0
0000c0 00 00 00 00 00 00 00 00 00 00 00 00 00 00 00 00
       0.0 0.0 0.0 0.0
0000d0 00 00 00 00 00 00 00 00 00 00 00 00 00 00 00 00
       0.0 0.0 0.0 0.0
0000e0 00 00 00 00 00 00 00 00 00 00 00 00 00 00 00 00
       0.0 0.0 0.0 0.0
0000f0 00 00 00 00 00 00 00 00 00 00 00 00 00 00 00 00
       0.0 0.0 0.0 0.0
000100 00 00 00 00 00 00 00 00 00 00 00 00 00 00 00 00
       0.0 0.0 0.0 0.0
000110 00 00 00 00 00 00 00 00 00 00 00 00 00 00 00 00
       0.0 0.0 0.0 0.0
000120 00 00 00 00 00 00 00 00 00 00 00 00 00 00 00 00
       0.0 0.0 0.0 0.0
000130 00 00 00 00 00 00 00 00 00 00 00 00 00 00 00 00
       0.0 0.0 0.0 0.0
000140 00 00 00 00 00 00 00 00 00 00 00 00 00 00 00 00
       0.0 0.0 0.0 0.0
000150 00 00 00 00 00 00 00 00 00 00 00 00 00 00 00 00
       0.0 0.0 0.0 0.0
000160 00 00 00 00 00 00 00 00 00 00 00 00 00 00 00 00
       0.0 0.0 0.0 0.0
000170 00 00 00 00 00 00 00 00 00 00 00 00 00 00 00 00
       0.0 0.0 0.0 0.0
000180 00 00 00 00 00 00 00 00 00 00 00 00 00 00 00 00
       0.0 0.0 0.0 0.0
000190 00 00 00 00 00 00 00 00 00 00 00 00 00 00 00 00
       0.0 0.0 0.0 0.0
0001a0 00 00 00 00 00 00 00 00 00 00 00 00 00 00 00 00
       0.0 0.0 0.0 0.0
0001b0 00 00 00 00 00 00 00 00 00 00 00 00 00 00 00 00
       0.0 0.0 0.0 0.0
0001c0 00 00 00 00 00 00 00 00 00 00 00 00 00 00 00 00
       0.0 0.0 0.0 0.0
0001d0 00 00 00 00 00 00 00 00 00 00 00 00 00 00 00 00
       0.0 0.0 0.0 0.0
0001e0 00 00 00 00 00 00 00 00 00 00 00 00 00 00 00 00
       0.0 0.0 0.0 0.0
0001f0 00 00 00 00 00 00 00 00 00 00 00 00 00 00 00 00
       0.0 0.0 0.0 0.0

out_scale f4 [128]
000000 00 00 80 3f 00 00 80 3f 00 00 80 3f 00 00 80 3f
       1.0 1.0 1.0 1.0
000010 00 00 80 3f 00 00 80 3f 00 00 80 3f 00 00 80 3f
       1.0 1.0 1.0 1.0
000020 00 00 80 3f 00 00 80 3f 00 00 80 3f 00 00 80 3f
       1.0 1.0 1.0 1.0
000030 00 00 80 3f 00 00 80 3f 00 00 80 3f 00 00 80 3f
       1.0 1.0 1.0 1.0
000040 00 00 80 3f 00 00 80 3f 00 00 80 3f 00 00 80 3f
       1.0 1.0 1.0 1.0
000050 00 00 80 3f 00 00 80 3f 00 00 80 3f 00 00 80 3f
       1.0 1.0 1.0 1.0
000060 00 00 80 3f 00 00 80 3f 00 00 80 3f 00 00 80 3f
       1.0 1.0 1.0 1.0
000070 00 00 80 3f 00 00 80 3f 00 00 80 3f 00 00 80 3f
       1.0 1.0 1.0 1.0
000080 00 00 80 3f 00 00 80 3f 00 00 80 3f 00 00 80 3f
       1.0 1.0 1.0 1.0
000090 00 00 80 3f 00 00 80 3f 00 00 80 3f 00 00 80 3f
       1.0 1.0 1.0 1.0
0000a0 00 00 80 3f 00 00 80 3f 00 00 80 3f 00 00 80 3f
       1.0 1.0 1.0 1.0
0000b0 00 00 80 3f 00 00 80 3f 00 00 80 3f 00 00 80 3f
       1.0 1.0 1.0 1.0
0000c0 00 00 80 3f 00 00 80 3f 00 00 80 3f 00 00 80 3f
       1.0 1.0 1.0 1.0
0000d0 00 00 80 3f 00 00 80 3f 00 00 80 3f 00 00 80 3f
       1.0 1.0 1.0 1.0
0000e0 00 00 80 3f 00 00 80 3f 00 00 80 3f 00 00 80 3f
       1.0 1.0 1.0 1.0
0000f0 00 00 80 3f 00 00 80 3f 00 00 80 3f 00 00 80 3f
       1.0 1.0 1.0 1.0
000100 00 00 80 3f 00 00 80 3f 00 00 80 3f 00 00 80 3f
       1.0 1.0 1.0 1.0
000110 00 00 80 3f 00 00 80 3f 00 00 80 3f 00 00 80 3f
       1.0 1.0 1.0 1.0
000120 00 00 80 3f 00 00 80 3f 00 00 80 3f 00 00 80 3f
       1.0 1.0 1.0 1.0
000130 00 00 80 3f 00 00 80 3f 00 00 80 3f 00 00 80 3f
       1.0 1.0 1.0 1.0
000140 00 00 80 3f 00 00 80 3f 00 00 80 3f 00 00 80 3f
       1.0 1.0 1.0 1.0
000150 00 00 80 3f 00 00 80 3f 00 00 80 3f 00 00 80 3f
       1.0 1.0 1.0 1.0
000160 00 00 80 3f 00 00 80 3f 00 00 80 3f 00 00 80 3f
       1.0 1.0 1.0 1.0
000170 00 00 80 3f 00 00 80 3f 00 00 80 3f 00 00 80 3f
       1.0 1.0 1.0 1.0
000180 00 00 80 3f 00 00 80 3f 00 00 80 3f 00 00 80 3f
       1.0 1.0 1.0 1.0
000190 00 00 80 3f 00 00 80 3f 00 00 80 3f 00 00 80 3f
       1.0 1.0 1.0 1.0
0001a0 00 00 80 3f 00 00 80 3f 00 00 80 3f 00 00 80 3f
       1.0 1.0 1.0 1.0
0001b0 00 00 80 3f 00 00 80 3f 00 00 80 3f 00 00 80 3f
       1.0 1.0 1.0 1.0
0001c0 00 00 80 3f 00 00 80 3f 00 00 80 3f 00 00 80 3f
       1.0 1.0 1.0 1.0
0001d0 00 00 80 3f 00 00 80 3f 00 00 80 3f 00 00 80 3f
       1.0 1.0 1.0 1.0
0001e0 00 00 80 3f 00 00 80 3f 00 00 80 3f 00 00 80 3f
       1.0 1.0 1.0 1.0
0001f0 00 00 80 3f 00 00 80 3f 00 00 80 3f 00 00 80 3f
       1.0 1.0 1.0 1.0

weight f4 [128, 72]
000000 83 b7 be bd b9 98 64 bd a3 3a e5 bd aa d2 c2 bc
       -0.09312346 -0.05580971 -0.11192825 -0.023782093
000010 96 44 95 3d fb 4c 2d 3e 72 1d da bd db a5 7f bd
       0.07288472 0.16923897 -0.106501475 -0.06241403
000020 d8 7d d9 3d d3 70 7e 3a 1a e3 d1 3d e8 55 fd 3d
       0.10619706 0.0009706143 0.10248394 0.12369901
000030 2d 5d 5c 3d 1a 0d aa 3d e9 30 16 3d c5 a7 a0 3b
       0.053799797 0.0830328 0.036667738 0.004902812
000040 5c d4 0e 3d d1 4a ae 3a 40 68 d0 bc 3d 32 83 bc
       0.03487049 0.0013297444 -0.025440335 -0.016015166
000050 30 b8 c1 3d 42 54 c5 3d 5b 34 1d 3d d5 76 90 3d
       0.09458959 0.096352115 0.03838001 0.070539154
000060 8a 41 8f bc 39 02 cc bc ee a2 25 bd 79 53 a1 3c
       -0.017487306 -0.024903404 -0.040438585 0.019693123
000070 e3 e0 6f 3d b4 10 1a 3e be e5 82 bd 9d f3 54 bd
       0.058564078 0.15045434 -0.06391476 -0.05199014
000080 e4 62 cf bb 13 a2 89 3d 07 b6 74 3d 13 fc e1 3c
       -0.0063289274 0.06720366 0.059743907 0.027586019
000090 c5 73 51 3d c1 aa 3a 3d 12 1e 3f bd b5 c0 40 bc
       0.051135797 0.045573 -0.046659537 -0.011764695
0000a0 7d f6 b7 bb 89 bf f5 bd 63 68 a6 3d a8 01 d1 ba
       -0.0056141005 -0.11999423 0.08125379 -0.0015945928
0000b0 8e 79 7a bd c2 4c 91 bd 71 96 e4 3d b4 55 2a bd
       -0.06115108 -0.070947185 0.11161507 -0.04158564
0000c0 40 52 bd bd 06 57 70 bd 73 7e 32 3d 51 07 0b bd
       -0.092442036 -0.058676742 0.043577623 -0.033942524
0000d0 85 2e 73 bd db c8 29 bd 44 f6 91 3d 79 3c fb 3c
       -0.059370536 -0.041451316 0.071270496 0.030668484
0000e0 51 f2 da 3b 7a 6f 98 3d 3d 1f ac bb 93 d0 3b 3d
       0.0066817184 0.074431375 -0.0052527473 0.04585321
0000f0 9e cb 75 bd 4e 61 6a 3d 96 8d ee 3d ed 96 ed 3d
       -0.060008638 0.057221703 0.11648099 0.116010524
000100 29 75 af 3d eb 05 83 bd c0 bb 35 3b f2 70 04 bd
       0.085672684 -0.06397613 0.0027730316 -0.032334276
000110 6f 99 89 3c c8 58 9a bd f9 6e 8e bd 2a 57 9c bd
       0.016796796 -0.07536465 -0.0695476 -0.07633813
000120 96 99 9e 3c a5 f5 c8 3c 0c 05 e0 3d 9e cb 1f 3d
       0.019360345 0.024531195 0.109384626 0.039012544
000130 05 f6 44 3d b2 61 cb bd f3 c6 9f bb 30 45 83 3d
       0.048086185 -0.09930743 -0.0048760115 0.06409681
000140 1d 11 34 bd 44 2a 0c 3c ca c5 81 bd a8 ba 90 3d
       -0.043961633 0.008554999 -0.063365534 0.07066852
000150 6b 87 a8 bb 30 fe ee 3c f5 bb 06 3d 89 d3 03 be
       -0.005143096 0.02917394 0.032894094 -0.12873663
000160 5f f8 09 be ed de 3f be 53 93 0a be 61 da 75 3d
       -0.13473652 -0.18737383 -0.13532762 0.060022715
000170 13 a9 ae 3c 59 df 2c bd 51 6b 6b bd 22 95 53 bb
       0.021320855 -0.04220519 -0.05747539 -0.0032284935
000180 a2 cc d0 3d e0 80 63 bd 7b fe 38 3e f0 14 a6 3d
       0.101952806 -0.055542827 0.18065827 0.08109462
000190 80 53 6a 3b 5b 99 50 3d e8 05 0d 3e 05 8f d3 bd
       0.0035755336 0.0509275 0.13771784 -0.10330013
0001a0 a6 0c 29 3c e5 7f b7 bd 9c eb 3d bd e0 0b e6 bd
       0.010317957 -0.08959941 -0.046367273 -0.11232734
0001b0 68 12 37 be 03 8f 12 bd 9b 36 b1 bd 05 da 93 bd
       -0.17878115 -0.035780918 -0.08652993 -0.07219318
0001c0 3d 2b a0 3d 5f e8 73 bd 73 d5 17 be 4b 28 f6 bd
       0.07820747 -0.05954778 -0.14827518 -0.12019404
0001d0 d0 f1 91 3c 74 bc 02 3d 67 3f 01 3d d4 50 bc 3d
       0.0178155 0.031918004 0.031554606 0.09195104
0001e0 23 03 16 3e 54 94 d6 bd 44 2d 3a 3e 8c a2 d4 bd
       0.14649634 -0.1047751 0.1818133 -0.10382566
0001f0 e5 20 c8 bc c4 84 92 bc fe 1d f9 3d d1 cc a4 bc
       -0.024429748 -0.017885573 0.12163924 -0.020117195
000200 8d 34 0b bd 4c 3d 38 be bf 5e 22 bd ef ea 50 bc
       -0.033985663 -0.17992133 -0.03964114 -0.012751325
000210 43 88 4b bd 85 41 93 bd 6d b0 46 3d 16 9e fc bd
       -0.049690496 -0.07190231 0.048508096 -0.1233484
000220 d3 9b 13 3d fc 51 98 bc 55 ef 0a bd 64 f8 ef 3c
       0.036037277 -0.01859378 -0.03391965 0.029293247
000230 ee d1 51 bd c6 5b ef 3c 84 58 a9 3d f1 d3 ee 3c
       -0.051225595 0.029218566 0.08268836 0.029153796
000240 5b 3c 11 be 95 f1 d1 3d ae 79 03 bd 19 32 54 bd
       -0.1418318 0.10251156 -0.032098465 -0.05180559
000250 0b ca fb 3d dd 68 d9 3d 91 f4 51 3d d0 d5 0d bd
       0.12294396 0.10615704 0.051258627 -0.034627736
000260 f6 e3 c2 3d c7 40 cc 3d 49 78 99 b9 ef a5 0c 3e
       0.09516136 0.09973293 -0.00029272054 0.13735174
000270 62 22 0b bd 1f 74 2f bd 6d b1 84 3d 3e 3b ab 3d
       -0.033968337 -0.04283535 0.06479154 0.08360909
000280 12 c5 b8 3d d3 3b b0 bd 80 48 91 bd b7 6d b6 bb
       0.09021963 -0.086051606 -0.070939064 -0.0055672782
000290 b7 40 08 3d 0d 12 e4 3d 73 eb 01 bc 6f 38 86 bd
       0.033264842 0.111362554 -0.007929671 -0.065537326
0002a0 fc bc a5 bd 82 67 0a 3e 0e 01 eb 3d ec 87 89 bd
       -0.080926865 0.13516048 0.114748105 -0.06715378
0002b0 ed 16 60 3d 14 46 be 3c 41 f8 eb bd 32 95 57 3d
       0.054709364 0.023226775 -0.1152196 0.052632518
0002c0 e4 2f 3e 3b 85 c3 57 bd 39 50 44 3d fa 97 a4 3d
       0.0029020244 -0.052676696 0.04792807 0.080368
0002d0 a1 29 8f 3d ca 68 01 bd c0 ae 7b bc ee 26 cd 3c
       0.06990362 -0.031594075 -0.015361488 0.025042977
0002e0 55 72 a4 bd df 77 cf 3d f6 b9 77 3d 3b c7 b8 3c
       -0.080296196 0.101302855 0.06048008 0.022555938
0002f0 3a ce d7 3d 60 8e a3 3d 06 de f2 3d a9 ff 42 3d
       0.105373815 0.0798614 0.11858754 0.047607098
000300 f5 6f 0e be bd ea 00 3d a1 55 4b 3d b9 ce 29 3d
       -0.13909896 0.031473864 0.04964221 0.04145691
000310 f9 7c b3 3c 53 3e 27 bd 4b a4 ef 3c d9 cc d2 bc
       0.021910178 -0.04083092 0.029253146 -0.025732445
000320 82 5f 91 3d 99 86 02 3e 52 ec 69 bd e1 c5 9e 3d
       0.07098295 0.12746657 -0.05711014 0.07752586
000330 43 41 87 3d a8 50 d7 bb fb eb 9d 3d 3a a1 f2 bb
       0.066042446 -0.0065708943 0.07711025 -0.0074044736
000340 8b 3a 23 bd c4 d1 3e bd 10 14 8f 3d 1b 06 b6 3c
       -0.039850753 -0.046586767 0.069862485 0.022219708
000350 b0 ca b7 bb 2e ae fb bc 0c c6 9e 3d 05 cf 9e bd
       -0.005608879 -0.030722704 0.07752618 -0.077543296
000360 68 3a 8f bd a0 07 bb 3d 4d 44 d1 bc cf 97 91 bd
       -0.06993562 0.09132314 -0.025545264 -0.07109033
000370 29 15 97 3d 0c 2a b0 3d 8f 55 b7 3d 5f 30 b7 3c
       0.07377083 0.0860177 0.08951866 0.022361932
000380 d5 ce 1c 3d 98 dc 53 3d 50 21 3a 3d b2 26 0a 3e
       0.038283188 0.051724046 0.045441926 0.13491324
000390 44 42 af 3d 25 41 2f bd 46 31 4c bd 56 1f e5 bc
       0.08557561 -0.042786736 -0.04985168 -0.027969044
0003a0 00 f6 c4 3d 48 e9 1b 3d c0 8a 59 bd cd ca 39 bd
       0.09617233 0.03806427 -0.053110838 -0.04535942
0003b0 2c 2a cf 3d aa 00 0a bd a0 bd d7 3d c8 69 99 bd
       0.101154655 -0.03369204 0.10534215 -0.07490879
0003c0 b0 41 2e 3e 41 a4 c1 bd 85 34 54 3d fa 0e ab 38
       0.17017245 -0.09455157 0.0518079 8.156705e-05
0003d0 54 20 ea bd ad a3 76 3d a5 bd 0a 3c f0 0a d3 bc
       -0.11431947 0.060214687 0.008468066 -0.025762051
0003e0 af a9 85 bd c2 02 80 bb 28 3d 08 3d 78 c6 47 bc
       -0.06526505 -0.0039065788 0.03326145 -0.012193315
0003f0 cf 4d a1 3d 5f 4c 55 bc 99 a7 72 bd 59 d1 07 3e
       0.07876169 -0.013018697 -0.059241865 0.13263454

bias f4 [128]
000000 0d ff 6a bc 34 39 8b 3c 9e 52 5e bd bf 30 19 bd
       -0.014343035 0.01699505 -0.05427801 -0.037400004
000010 50 90 c8 3d 09 80 33 3c 1b 33 7a bd 5b 57 c3 bd
       0.097931504 0.010955819 -0.061083894 -0.09538146
000020 64 a4 af 3d 85 d8 c3 3d fe 40 42 3c 27 74 13 3c
       0.08576277 0.09562782 0.011856316 0.008999861
000030 f2 93 5e 3c 22 e4 80 bd c9 38 80 3d 6d a2 2d bd
       0.013585078 -0.06293513 0.06260831 -0.04239123
000040 0e 00 8b bd af 92 8c 3d 9f 93 17 3e f3 9c 82 3c
       -0.0678712 0.06863915 0.14802407 0.01594398
000050 2e a9 fd bd 79 43 92 bd cc 99 91 bc 6e 57 c2 bd
       -0.12385784 -0.07141776 -0.017773531 -0.09489332
000060 0c 06 70 3d 7e a7 a0 bc 10 0a e2 bc 19 7d 4a bc
       0.058599517 -0.019611116 -0.027592689 -0.012358927
000070 2e f6 8d 3d 2b b9 3a bd 12 89 f6 3c 0c 22 a8 3d
       0.06931721 -0.045586746 0.030094657 0.08209619
000080 d3 cc 1b be b7 da fa 3c 18 77 03 3d f0 05 ef 3d
       -0.15214853 0.03062187 0.032096 0.11671054
000090 a8 83 00 3d 3a c9 1f bc 1e 2e 84 3d 6b 76 9f bc
       0.031375557 -0.009752566 0.06454109 -0.019465646
0000a0 b1 4c d5 3d 22 bc 95 bd 1d ae d1 3d 4c ae c3 3d
       0.10415018 -0.07311274 0.102382876 0.09554729
0000b0 65 79 97 bd 3a f7 a4 3d 8b d3 ab 3d d1 35 38 bd
       -0.07396201 0.08054967 0.08389958 -0.0449732
0000c0 bc 9e fc bd 6c 9a 25 bd dd 62 d9 bd ad e5 25 3c
       -0.12334964 -0.04043047 -0.1061456 0.01012556
0000d0 d3 5f 31 3e c8 21 74 bd 89 a1 e3 3c 3f e7 a3 3d
       0.1732171 -0.05960253 0.027786987 0.08003091
0000e0 1a d1 53 3d f1 80 b5 bd da 37 ff bc fb df 5d bd
       0.051713087 -0.08862484 -0.031154562 -0.054168683
0000f0 a4 ab dd bd 4f fb 0e 3d 20 b3 8a 3d 1d 44 ae 3c
       -0.108237535 0.034907635 0.06772447 0.021272713
000100 14 4a aa 3d 04 4e 12 bc 14 bb f2 bc ad 98 9e 3c
       0.083149105 -0.008929733 -0.029630221 0.01935991
000110 ec ac eb bd 45 c1 02 3d 75 1d 15 be 22 6c 9a bd
       -0.115075916 0.031922597 -0.14562018 -0.07540156
000120 56 33 be 3d dc 8b f1 3c 23 c9 26 bd 04 dd f4 bd
       0.09287135 0.029485635 -0.040719163 -0.11956218
000130 8a b8 0e bd 9d ff 67 3c 3b 29 ff 3c 31 1a d8 bd
       -0.03484396 0.014160064 0.03114759 -0.105518706
000140 1c 43 99 3b c0 3b a3 bd b0 63 03 3d e3 96 7a 3d
       0.0046771895 -0.07970381 0.03207749 0.061179053
000150 ba 47 77 bc e8 72 08 3d 93 96 e5 bc 7e f7 18 3c
       -0.015092785 0.03331271 -0.028025901 0.0093363505
000160 8a f1 f7 bc 85 92 70 bd 5d ab 07 3d 10 1e 04 be
       -0.030266542 -0.058733482 0.03312241 -0.12902093
000170 d3 25 87 bd cb 36 09 3e fd c7 e9 3d 28 34 60 3d
       -0.06599011 0.13399808 0.11415098 0.05473724
000180 59 89 3e bd 23 f1 4c bd 3d 9a e7 3a 78 2a 6a bc
       -0.046517704 -0.050034653 0.0017669868 -0.014292352
000190 cc 6f 45 bc 21 0e ea bd 22 7d 05 3e 06 a0 a4 3d
       -0.01205058 -0.11428476 0.13036016 0.080383345
0001a0 f0 80 23 3d 4c 55 06 be fd b4 b1 3d b5 aa f0 3c
       0.039917886 -0.13118476 0.08677099 0.029378274
0001b0 fe 20 5a bc e9 13 8a 3d b6 9c e9 3c f3 bd c5 bc
       -0.01331353 0.06742079 0.028517108 -0.024138426
0001c0 b0 a2 b9 3c b2 7c 8e 3d b8 e5 06 be 85 ed 1f 3e
       0.022660583 0.069573775 -0.13173568 0.1561795
0001d0 ff 1e 6f 3d e4 4e 33 3d 31 70 4e bd 1d 59 be bd
       0.05837917 0.043776408 -0.050399963 -0.09294341
0001e0 ba 0f d3 3d a6 4a ca bc 6a ee 7d 3d 2a 1e bd 3d
       0.10305734 -0.024693798 0.061994947 0.09234269
0001f0 d6 a0 bf 3d 11 57 5f 3d 73 14 02 3e 05 6f 93 3c
       0.09356849 0.054526392 0.12703113 0.017997274

weight f4 [128, 128]
000000 6e cb e0 3d fc 96 b6 3c 05 50 ac 3d fd a4 b8 3d
       0.10976301 0.022288792 0.084137 0.09015844
000010 47 7f 90 3d e7 20 d8 3c 1d 3e 33 3d c8 0c 78 3d
       0.07055526 0.026382877 0.043760408 0.060559064
000020 b9 f7 81 bd 70 5a b1 ba be db 61 3d 0a b0 41 bd
       -0.063460775 -0.0013530981 0.055141203 -0.047287025
000030 28 ee 5f 3c 11 1a 88 3a 5f 94 f0 bd c9 6d e6 3c
       0.013667621 0.0010383745 -0.117470495 0.028128522
000040 9d 6e d7 bd 8e ef d7 bc 3f 47 f2 39 13 c9 3a 3d
       -0.10519145 -0.026359346 0.0004621092 0.045601916
000050 28 07 97 3c 14 40 d6 bd ae 65 f6 3d 94 80 b2 3c
       0.01843603 -0.10461441 0.120311126 0.021789826
000060 22 ae b7 bd 30 c8 34 3d 3f 17 ee 3c a8 fe 86 bc
       -0.0896876 0.044136226 0.029063819 -0.016478851
000070 cd 51 76 3d 9e a8 d8 bc 99 bd 8e bc 6c b4 6e 3d
       0.060136605 -0.02644759 -0.017424392 0.058277532
000080 8d 4c c5 bd 23 a7 12 bd f7 89 d2 3c 70 b2 47 3c
       -0.096337415 -0.035803925 0.025700552 0.012188539
000090 2d c6 ba bc 73 3d 84 bc d3 09 25 3d 94 b3 d3 3c
       -0.022799576 -0.016142583 0.040292572 0.025842465
0000a0 49 84 e0 3c 55 01 00 bd e9 bb 54 bd f3 05 c3 bd
       0.027406828 -0.03125127 -0.051937018 -0.09522619
0000b0 a4 c3 d6 bc a7 f5 25 3d 57 5f 37 bc 58 a7 1f bd
       -0.026216336 0.040517475 -0.011192164 -0.03897795
0000c0 cc 78 af bc 21 a8 46 3d 3a bf 64 3c 74 97 36 bd
       -0.021419905 0.048500184 0.013961608 -0.04457803
0000d0 24 bf 8a bc b4 e3 a5 bb 50 f4 88 bd ee 21 0c be
       -0.016936846 -0.0050625447 -0.06687224 -0.13684818
0000e0 65 5d c8 bd 3c 2a f1 bd d0 6f d3 bd f1 08 1d bd
       -0.097834386 -0.11775634 -0.10324061 -0.038338605
0000f0 6b 7e 47 3d d0 bd 66 3d 11 ef 20 bc 5d 6b 87 bd
       0.048704546 0.056333363 -0.009822623 -0.06612275
000100 05 d4 37 3d 2b db 85 bd 6a 54 b3 3d 73 c9 26 3d
       0.044879932 -0.065359436 0.08756335 0.04071946
000110 37 79 09 bd 3d 96 77 bd 29 93 ca bc 7f bc 8b 3d
       -0.033562865 -0.060446013 -0.024728375 0.06823062
000120 b4 a0 0f bd 61 68 8b 3d 65 27 29 3d fe 46 07 be
       -0.035065368 0.06807018 0.041297335 -0.13210675
000130 c0 bf 89 bd a2 fe 0b 3d 46 0c 44 bd a4 74 ab bd
       -0.067260265 0.034178384 -0.047863267 -0.08371857
000140 b9 75 25 3d 9f 40 0f bd 5b 2d 3e 3d a2 38 8c bd
       0.040395472 -0.034973737 0.046429973 -0.06846739
000150 9a e5 2e 3d 7b 44 d5 3c 5e 30 89 3b aa 0c ee 3d
       0.042699434 0.02603363 0.004186674 0.11623509
000160 d2 cc af 3d b2 fd d1 bd 77 89 39 bd 6c c4 da bc
       0.08583988 -0.10253467 -0.045297112 -0.02670499
000170 d2 c7 85 3c 11 3a a8 3d 3f 60 1e 3d e1 93 39 3d
       0.016330633 0.082142 0.038666006 0.045307044
000180 3f c3 a8 3b ba 21 d5 bc 56 8c f9 3a 90 ac 8b 3d
       0.0051502283 -0.026017059 0.0019039016 0.06820023
000190 22 aa b3 3d 80 3e 8c bb 86 82 55 bd be b6 6f bd
       0.08772685 -0.0042799115 -0.05212643 -0.058523886
0001a0 52 d7 93 bd 69 06 dc bd 40 d2 84 3b 61 f6 ec bc
       -0.072188035 -0.1074341 0.004053384 -0.028926076
0001b0 5b 83 c2 3d 03 35 d0 3d 69 31 01 be 1c 8a a3 3c
       0.0949771 0.10166361 -0.12616505 0.019963317
0001c0 be 46 9e 3c b9 48 e7 bb e2 8a 84 3d da 27 fa 3d
       0.019320842 -0.0070582298 0.06471802 0.12214632
0001d0 84 c0 39 3d f4 cb a4 3c 56 50 4a bd b7 0e 80 bd
       0.045349613 0.020116784 -0.04939302 -0.06252807
0001e0 aa ea 59 3d 28 ba 64 bd 2d c7 94 3c 96 a3 5e 3c
       0.05320231 -0.055841595 0.01816138 0.013588807
0001f0 54 35 e7 3d b3 4e 98 3d b4 00 33 3e 4c 72 f8 bb
       0.112894684 0.07436886 0.17480737 -0.0075819846
000200 3f 5c 42 3d 0c 0e af bb 7d da 9e bd 0e bf bf bd
       0.047451254 -0.0053422507 -0.07756517 -0.09362613
000210 df 58 9a 3a c5 53 30 bb 67 6c 9e bd b6 12 81 3d
       0.0011775753 -0.00269054 -0.0773552 0.06302397
000220 5b c7 a0 bd da 77 04 bd b0 95 e3 bc 56 19 d7 3d
       -0.07850524 -0.03234086 -0.027781337 0.10502879
000230 b7 32 43 bd 54 32 9c bd ab ec 15 3d fa 03 c9 3c
       -0.047655787 -0.07626787 0.036602657 0.024538029
000240 a3 6a 3e bd a2 ea b5 3d 77 1d 8c 3c e7 a2 7a 3d
       -0.046488415 0.08882643 0.017103894 0.061190512
000250 a4 16 3b bd 3c 4b d2 3c 1c db 0d 3d b0 0e e5 3b
       -0.04567589 0.02567064 0.034632787 0.0069902763
000260 bb e5 2a bd 1c ab e9 bc aa a9 bd bd d8 29 9a bd
       -0.041722994 -0.028523974 -0.092608765 -0.07527512
000270 61 58 5a 3c b4 bd 9c b9 75 f9 dc 3d d0 01 3e 3d
       0.013326735 -0.00029895979 0.10789768 0.046388447
000280 2b 94 38 3d 47 59 d1 bd 32 46 fb bd 1c 3d b6 3b
       0.04506318 -0.102221064 -0.12269248 0.005561484
000290 c1 35 52 bd 59 07 38 3d ac 50 9c 3c 99 d2 19 3d
       -0.051320795 0.044928882 0.019081436 0.037554357
0002a0 26 3c cc bc f9 ec 5f 3d 48 86 6d 3d 97 cf 64 3d
       -0.024931025 0.054669354 0.05798939 0.055862036
0002b0 03 d3 b9 bd 2a 8f 7a 3d 45 ce 81 3d a5 b7 97 3d
       -0.090734504 0.06117169 0.06338171 0.07408074
0002c0 b8 94 60 bd 5c 57 93 3d ef 6e 88 bd 49 2c 08 bb
       -0.05482933 0.07194397 -0.06661784 -0.002077835
0002d0 12 d3 c0 3d 8e 3b 8b bd 51 98 5d bc 5b 36 89 bd
       0.094152585 -0.067984685 -0.013525085 -0.066998206
0002e0 86 bf 4e bd ee 67 1a bd f7 70 19 3c 2d 64 c0 3d
       -0.05047562 -0.03769677 0.009365312 0.09394107
0002f0 50 de 2e 3d b4 c5 0e bd de 6c bf bd 1b 8d 90 3c
       0.042692482 -0.034856513 -0.09346937 0.01764541
000300 66 d2 0c bd dd c0 9c bd ef 8f 2b 3d 19 94 24 3d
       -0.03438034 -0.07653973 0.041885313 0.0401803
000310 c6 c0 23 bd df df 18 bc 65 ef 2b 3d 16 e5 8e bd
       -0.039978765 -0.009330719 0.04197635 -0.069772884
000320 ee 93 c0 3d 7c 53 ad 3c 84 69 a0 3d b5 4c 49 3d
       0.09403215 0.021157973 0.078326255 0.04914542
000330 8c d0 76 bc 22 b9 64 bd 71 7f e1 bd 34 11 ee bb
       -0.01506437 -0.05584062 -0.11010636 -0.0072652344
000340 5b f3 45 bd 33 05 c5 bd 6c 5a a9 3d 34 9e c4 3d
       -0.048327785 -0.09620132 0.082692 0.09600487
000350 33 72 b9 3d 48 b0 c3 bc f9 94 e0 bc 81 ed cf bc
       0.09054985 -0.023887768 -0.027414786 -0.025381805
000360 7b 9c 2a 3d aa a3 78 bc 9a 8f 53 3c 70 7e 0d bd
       0.041653138 -0.015175739 0.012912655 -0.03454441
000370 e6 bc 24 bc 48 50 0f 3d 0d 23 0d bc 45 14 a8 bd
       -0.0100548025 0.03498867 -0.008614314 -0.08206991
000380 68 ec 3e 3d a2 15 19 3e 50 b2 65 3d 5e 65 4b 3d
       0.046612173 0.14949659 0.056078255 0.04965722
000390 92 c6 44 bd fa a0 32 bc 5d f8 c5 bc 5e 91 42 bd
       -0.048040934 -0.010902638 -0.02416628 -0.047501914
0003a0 1b 5d 96 3d b1 fe 36 bd 91 d1 06 bd 00 da e9 3b
       0.07341977 -0.044676486 -0.0329147 0.0071365833
0003b0 c9 44 ca bb d7 02 f4 3c 12 79 19 3c e2 6b 18 bd
       -0.0061727506 0.02978651 0.009367244 -0.03721226
0003c0 39 5d b7 3c 17 c6 01 bd c5 9f 4c 3d 64 7a 70 3d
       0.02238332 -0.031683054 0.049957056 0.05871047
0003d0 92 a1 8e bd 16 9b 9a bd 40 51 ec bc bd dd 8d 3b
       -0.06964411 -0.075491115 -0.028847337 0.004329412
0003e0 f4 78 9c bd 81 d8 bd 3b a0 a0 84 bd 53 77 eb bb
       -0.076402575 0.0057936315 -0.06475949 -0.0071858554
0003f0 b6 ce 71 bd 07 be b6 bc ce de dd 3d 18 3c d5 bc
       -0.059035026 -0.022307409 0.10833512 -0.026029631

bias f4 [128]
000000 ed 59 57 bd 04 18 12 3b 59 45 e1 3b d3 79 26 3d
       -0.052575994 0.0022292146 0.006874722 0.040643524
000010 c1 6a 15 bd 22 22 86 3b e5 af 9b bd 50 a7 90 3d
       -0.03647876 0.0040934244 -0.076019086 0.07063162
000020 e5 2c 19 3a 1c 9e af bc 9b 46 b3 3c ac c5 e8 bd
       0.00058431766 -0.021437697 0.021884253 -0.11365828
000030 dc 97 c9 3c 64 74 07 bd 4b 91 1e 3c 03 2c 1f bd
       0.024608545 -0.033069983 0.009678195 -0.038860332
000040 42 2c 8d bc 01 c4 49 3d ec 37 c6 bc 4b 1e 8a bd
       -0.017233018 0.04925919 -0.024196588 -0.06744059
000050 0e cd c5 3d 51 eb 2d 3d 7e 7b 19 bc 04 3c b8 bc
       0.09658252 0.042460743 -0.009367822 -0.022489555
000060 d7 6d 0e bd 31 ca 56 3d 5b 4b 9a bd 8c f1 c9 3d
       -0.03477272 0.05243892 -0.07533904 0.098605245
000070 fb 73 71 bd 84 e8 76 bd ea ab 98 bc 28 a5 c8 3d
       -0.0589485 -0.060280338 -0.018636663 0.09797126
000080 1f 07 b3 3d 90 d4 49 3c 91 72 6c bd cf 9b 4d bd
       0.087415926 0.012318745 -0.057726447 -0.05019742
000090 9c f9 c4 bc 40 98 8d 3d a9 2d 35 3d 51 8e d7 3c
       -0.024044804 0.06913805 0.044232998 0.026312979
0000a0 ce fa ad 3c 84 f6 41 3c 07 2b 36 3d 8b f6 a0 3d
       0.021237757 0.011838559 0.044474628 0.07859524
0000b0 4c 79 97 3d 8b 51 32 3c e9 db aa bd 34 14 f1 bb
       0.073961824 0.010883699 -0.08342726 -0.0073571447
0000c0 96 a4 86 3d c3 af 83 3c f1 98 da bc d3 03 d3 bc
       0.06574361 0.01607502 -0.026684256 -0.02575866
0000d0 f0 18 99 3c 97 0d 11 bd a7 39 c6 bd 63 6b b3 bd
       0.018688649 -0.03541335 -0.09678965 -0.08760717
0000e0 a2 95 8a bb 0d 4d 69 bd 62 05 a2 bd f5 62 93 bc
       -0.0042292634 -0.056958247 -0.07911183 -0.017991522
0000f0 76 e6 b3 bc be 24 90 3d 6a 2a 80 bd 6c c7 61 bd
       -0.021960478 0.07038258 -0.0625809 -0.055121824
000100 ed 9b a6 3b e2 1d a5 bc 04 e3 44 bd 16 f6 ad bd
       0.005084506 -0.02015585 -0.04806806 -0.08494203
000110 5e 07 88 3c a6 9a 48 3d ab 54 8d 3d 56 44 48 bc
       0.016605075 0.04897561 0.06900915 -0.012223324
000120 10 40 f3 3c 66 c1 41 bc 2b f7 41 bd b4 57 e5 3d
       0.029693633 -0.011825895 -0.04735486 0.11198369
000130 85 d4 e7 bb 4e a7 b6 3d fd 93 a7 bc f3 9b 8e bd
       -0.007074895 0.089186296 -0.020456308 -0.06963339
000140 bb 3b 41 3d a8 e7 75 3d c3 f4 92 3d d2 4a 90 bc
       0.047176104 0.060035378 0.07175591 -0.017613802
000150 a4 29 5f 3b 7e 1f 37 bd 41 bb 52 3c 3c e2 88 bd
       0.003405192 -0.044707768 0.012862028 -0.06683776
000160 ac 74 87 bc ba fd dc bb ba 76 cf bb 4e 84 49 bc
       -0.016535126 -0.0067441138 -0.006331292 -0.01229961
000170 1a e6 f2 bc 72 92 2d 3d dc 65 02 3c eb 4e a2 bd
       -0.029650737 0.04237599 0.0079588555 -0.07925209
000180 3f 1f 6f bd 68 9b 98 37 62 b2 92 bd 57 7a ea 3c
       -0.058379408 1.8192179e-05 -0.0716293 0.02862279
000190 a7 49 80 bc a4 1f b8 3d c0 cf d3 3d ba 0d 2f 3c
       -0.01566012 0.0899041 0.103423595 0.010684425
0001a0 17 bd 52 bc d1 e4 9d bd 8a 46 83 3c 91 65 cb 3b
       -0.012862465 -0.07709659 0.016024847 0.006207176
0001b0 71 de 4b bd a1 a2 46 bd 0e 45 2b 3d 9a 2e e7 3c
       -0.049772684 -0.04849494 0.041813903 0.028220464
0001c0 0b 8a ea bc ac 73 b3 3d 1e 53 4e bb 96 d2 c4 bb
       -0.028630277 0.08762297 -0.0031482647 -0.006006549
0001d0 6d 20 1d 3d d9 96 5c bd be 5a 41 3d 5a 41 83 bd
       0.038361 -0.053854797 0.04720568 -0.06408949
0001e0 3c f5 8f 3c a7 94 94 bd 6e e3 76 bd a9 06 12 3d
       0.017572992 -0.07254916 -0.060275488 0.035650883
0001f0 8d 20 28 bc 00 c5 66 bd 9f 94 2f bd de 3b b3 3c
       -0.010261667 -0.056340218 -0.042866345 0.021879133

weight f4 [128, 128]
000000 60 50 2e 3d 6d 3e 7b bd 48 ea 09 3d cb fa 18 3d
       0.04255712 -0.06133883 0.033670694 0.03734855
000010 6f b6 4e bd c0 8a f9 3c 3e 9f 48 3d c5 35 82 3d
       -0.05046695 0.030461669 0.04897999 0.06357912
000020 1d 5a 73 3c 76 0e 09 bd ed 94 fa bb de 30 3d 3d
       0.014853028 -0.033461057 -0.007647148 0.04618918
000030 f5 5b 93 3b e0 c5 cf bc 8c 4f 97 3d 44 f2 0e bd
       0.004497046 -0.025362909 0.07388219 -0.03489901
000040 c4 ef 9f 3c 7f 71 bd bc 6e ea 18 3d 45 e4 c3 3d
       0.019523509 -0.023125408 0.037332945 0.09565023
000050 b5 7b ae 3c 3c b5 18 bd 3f 5b 94 3d 5e e0 ae bd
       0.021299222 -0.037282214 0.07243966 -0.085388884
000060 96 4d d8 bd a7 8d 2c bd 08 ff aa 3c 19 e7 c0 3c
       -0.10561673 -0.042127278 0.020873562 0.023547696
000070 e2 24 6d bd 5a 84 c9 bd 53 e8 f6 3c 68 10 b3 3d
       -0.057896502 -0.09839697 0.030140078 0.087433636
000080 a9 ad 0a 3d 32 8e 88 3d 53 62 c0 bd e3 50 db 3d
       0.03385702 0.066677466 -0.09393754 0.10708787
000090 47 42 43 bd ac d3 ae bb 28 5d 97 bd 14 4f 17 b8
       -0.04767063 -0.005335292 -0.07390815 -3.6074853e-05
0000a0 38 f5 e9 bd 63 a3 eb 3c 8f 4f 30 3d 3b 83 7b bd
       -0.11423725 0.028764432 0.043044623 -0.061404448
0000b0 1b fd b9 3d 89 b4 68 3d ed 74 0a bd 14 ee cb 3b
       0.09081479 0.056812797 -0.033802915 0.0062234495
0000c0 8f ee 53 3d 59 d3 bb bd 12 2b ed 3c a2 6f 84 3c
       0.05174118 -0.09171171 0.028951202 0.016166512
0000d0 58 fc 29 3d 8e f6 aa 3d 46 fe c9 3c df 2d 78 3c
       0.04150042 0.08347808 0.02465738 0.015147655
0000e0 6c b1 9f 3d 56 50 a8 bd 9a 48 89 bd 0a 99 be bd
       0.077975124 -0.08218448 -0.06703301 -0.09306534
0000f0 ee dd a1 3c 5f 81 fa bd f6 a4 de 3d 43 d9 56 3c
       0.019759145 -0.12231707 0.108713076 0.013113323
000100 2b 7c a8 bd 0e 84 35 bd 07 de 84 bd d1 1e a8 bd
       -0.08226808 -0.04431539 -0.06487661 -0.08209003
000110 51 49 f3 3c c5 eb c4 bc e1 28 9b bc f8 ff 08 3d
       0.029698046 -0.024038205 -0.018940391 0.033447236
000120 2c 35 6d bd 88 c9 87 3d ad 87 a4 3c 30 97 07 be
       -0.057912037 0.06630236 0.020084227 -0.13241267
000130 90 58 ba bd ab b6 88 3d e1 92 1f bc 77 d6 f2 3d
       -0.09098923 0.06675466 -0.0097396085 0.11857312
000140 14 c2 61 3c 34 b1 9e 3d 44 b1 bb bc f9 14 18 bd
       0.013779182 0.077486426 -0.022911675 -0.037129376
000150 b9 bd b9 3d f7 47 0a 3e c6 c3 93 bc bb b1 87 3d
       0.0906939 0.13504015 -0.018037688 0.06625696
000160 51 48 15 bd 89 57 ea bd cf a6 6a 3d 5c 7d dc 3c
       -0.03644592 -0.11442477 0.057287987 0.026915245
000170 39 fe 4e 3c f4 32 a8 bc d2 3c c0 3d d6 0a 10 3a
       0.012633854 -0.020532109 0.093866006 0.0005494779
000180 b7 b4 94 bd ba 77 82 3d c9 12 38 bd 23 8a 54 3d
       -0.07261031 0.06370492 -0.04493979 0.05188955
000190 f2 d1 01 3e 09 b7 45 bd bf 7a 06 3d dd 62 58 3d
       0.12677744 -0.04827026 0.032831904 0.05282866
0001a0 e0 de f0 3a 74 19 16 3c f6 c4 eb bb d3 b2 22 3d
       0.0018376969 0.009161342 -0.0071951104 0.03972132
0001b0 66 4f 6c bd e8 81 a0 3d b8 e6 b3 3c 65 49 0d 3d
       -0.057692908 0.07837278 0.021960601 0.034493823
0001c0 f8 9f 35 3d f8 5f 8f 3d d6 1d 3d bd ac 71 bb 3d
       0.04434201 0.070007265 -0.046171032 0.091525406
0001d0 8a 8e 99 bd a5 22 47 3c 00 81 c8 bd 18 90 12 3b
       -0.0749789 0.012154256 -0.0979023 0.0022363719
0001e0 c4 6b ff bd ab ab 2a bd b7 7b 8d bc 13 fd eb bb
       -0.124717265 -0.04166762 -0.017270906 -0.0072017997
0001f0 2a 57 d0 3d 5e ab e8 3c fa cf 43 3d ab 60 96 3d
       0.10172875 0.028402027 0.047805764 0.07342657
000200 64 e3 8e 3c 21 08 ef 3c ab bf 50 bc f5 63 5b 3d
       0.017442413 0.02917868 -0.01274101 0.053562123
000210 ba 23 ab 3d 73 d1 81 3d a3 c4 5f bd 04 27 9d bb
       0.08356424 0.063387774 -0.054630887 -0.004795911
000220 34 70 c4 bc c1 c8 a4 bc c0 81 4c 3d 47 07 76 3d
       -0.023979284 -0.020115258 0.049928427 0.060065534
000230 b3 c4 65 bd 89 66 09 37 b9 e3 36 3b 51 c3 18 bd
       -0.05609579 8.18971e-06 0.002790673 -0.037295643
000240 9c 42 36 3d f3 aa b1 3d bf 33 9e bd 3b ed 32 3d
       0.044497117 0.08675184 -0.077247135 0.04368327
000250 26 9c d7 3c e6 1a a1 bc 03 44 15 3e c6 21 62 bd
       0.026319575 -0.019666146 0.14576726 -0.05520799
000260 fb 7f 1e bd cc 0d 0c 3d f1 a2 56 3d d5 13 04 be
       -0.03869627 0.034192845 0.052401487 -0.1289819
000270 15 b8 a2 3d 5a 64 ce 3d 69 9f 96 bc e0 d6 35 3d
       0.07945267 0.10077734 -0.01838656 0.044394374
000280 4d f2 0b be 25 6c 16 bd 59 46 6f 3d fc d4 2d 3c
       -0.13666649 -0.03672423 0.058416698 0.010609861
000290 5a 28 18 bd 71 f5 4b 3c fc d7 c5 3c 72 5a ae 3d
       -0.037147857 0.0124486545 0.024150841 0.08513345
0002a0 20 7b 84 3d c4 78 38 3c fd 1f 83 3d 8c 10 a1 bd
       0.06468797 0.0112592615 0.06402586 -0.07864484
0002b0 f5 d0 87 bd 00 34 dd bd 05 43 d8 bc 49 67 2e bd
       -0.06631652 -0.10800934 -0.026399145 -0.04257897
0002c0 1f e2 45 3d e4 0a 89 bd bd 4d f0 bd 73 61 42 3b
       0.04831135 -0.0669153 -0.117335774 0.0029660135
0002d0 1b 16 77 bd bd 65 5d 3d 63 7e 21 3d 63 d6 5b bd
       -0.060323816 0.054052103 0.039427172 -0.053671252
0002e0 98 43 97 bd 32 01 7e bd 9d 97 55 3d 2c 08 a8 bc
       -0.07385939 -0.06201286 0.052146543 -0.02051171
0002f0 df 13 3b 3d 68 24 e0 bc fe f8 e1 bb 1c 84 18 3d
       0.045673247 -0.02736111 -0.0068961373 0.037235364
000300 dc f8 2e bd eb 54 c6 bc c8 2f 19 bd 21 49 2d 3d
       -0.0427178 -0.024210414 -0.037399083 0.04230607
000310 31 c9 a1 bd 1a 29 c1 bd c5 fb 22 3d f9 0a 74 bd
       -0.07899702 -0.094316676 0.039790887 -0.059580777
000320 5c cf de 3d c1 d8 34 bc c1 68 9f 3d 7a 2e 56 bd
       0.108793944 -0.011038006 0.07783652 -0.052290417
000330 88 48 a2 3b 1d 21 85 bc dd 3e 49 3c 31 36 cd bc
       0.004952494 -0.016251141 0.012283054 -0.025050255
000340 12 a0 16 3d 59 a2 a2 3d 3c c6 1f bc 48 bf 07 be
       0.03677375 0.079411216 -0.009751853 -0.13256562
000350 78 1d c7 bc d3 d3 5e bd c1 0d fd 3d 5f 6a fa 3c
       -0.024306044 -0.05440123 0.12356139 0.0305683
000360 18 32 15 3e 5c d7 f6 bc 61 36 68 3d 8d 2f 9b bc
       0.1456989 -0.030131988 0.056692485 -0.018943572
000370 6b a6 f4 3b 00 40 2a bc 58 85 ad 3d 61 6f af bd
       0.0074661276 -0.010391235 0.08472699 -0.08566166
000380 35 dc 52 bd 95 2c c4 bd 94 30 77 bd ee 7a f9 bd
       -0.051479537 -0.09578816 -0.060349062 -0.1218165
000390 3c a6 c0 3d b4 3a 1d 3c 92 13 b6 bd 64 6f 38 3c
       0.09406707 0.009596515 -0.088904515 0.011257026
0003a0 e8 66 18 3c bf af fd 3d 44 5f c0 bd f2 2a 25 bd
       0.0093018785 0.123870365 -0.093931705 -0.04032416
0003b0 20 f2 28 bd ba 1f 12 3d 9e d6 92 bd 61 d0 90 bd
       -0.041246533 0.035674788 -0.07169841 -0.07070995
0003c0 f2 01 5f 3c 86 c9 7a 3d fc 73 dd 3d 10 e7 dd bc
       0.013611304 0.061227344 0.10813138 -0.027087718
0003d0 bd ba ed bb bc c2 bb 3d b8 3b 13 3d 30 5a ce 3c
       -0.007254927 0.09168002 0.035945624 0.02518949
0003e0 9d a8 55 bd 0f 19 a0 bc ba 55 1a bd 7d 7e 00 bd
       -0.052162755 -0.019543199 -0.03767941 -0.03137063
0003f0 7d e7 31 3d f1 19 e5 3c 01 ea 85 bd 2e 5b 8d bd
       0.043433655 0.027966471 -0.06538773 -0.06902157

bias f4 [128]
000000 7b aa 20 bd a5 d6 87 bd 5d ae 21 bd cc 12 87 bc
       -0.039225083 -0.06632737 -0.039472926 -0.016488455
000010 4b 9f 30 bd 78 53 3c bd d6 eb 9d 3b ac 4d 98 3b
       -0.043120664 -0.04597804 0.0048193736 0.004647931
000020 6c 13 9d bd c2 13 d6 bc 6b 00 d8 3b de 04 ad bc
       -0.0766972 -0.026132468 0.0065918467 -0.021120485
000030 40 20 fe 3c 3d 0d 48 bd 69 01 8b bc 56 4b 8c bb
       0.031021237 -0.04884075 -0.016968446 -0.0042814417
000040 39 66 99 b7 1d 4c bb 3b c3 8a 20 3d 43 9f d6 bc
       -1.8286622e-05 0.0057158605 0.039194833 -0.026198989
000050 e2 c5 0c bd d8 64 c9 3d e7 16 0f bd b6 15 39 3d
       -0.034368403 0.098336875 -0.03493395 0.04518672
000060 35 a7 2a bc 25 7d 24 bd 04 c1 ad bc 7a b4 87 bd
       -0.010415842 -0.04015841 -0.021210201 -0.0662622
000070 4b 53 97 3d 7a 90 56 bd 05 00 cc bc 4c 8c 83 3d
       0.07388934 -0.052383877 -0.024902353 0.06423244
000080 1a 93 46 3d b7 08 bc 3b 4a b0 c5 3c 51 12 25 bc
       0.04848013 0.0057383436 0.024131913 -0.010075168
000090 e8 c5 82 3d a5 36 4b bd 08 40 83 3d 9b 7e 93 bd
       0.06385404 -0.04961266 0.06408697 -0.072018825
0000a0 ac 6c 9e 3d 7d 83 c9 bc e5 80 82 3c dd d7 14 3d
       0.07735571 -0.024598831 0.015930602 0.036338676
0000b0 d9 3a 84 bc 41 15 f2 bb 9a cb 75 3b 29 c8 95 bc
       -0.016141342 -0.0073877876 0.003750539 -0.01828392
0000c0 2c 44 d5 3c 38 3a f4 bc d8 e7 c2 3d cf 80 95 bd
       0.026033483 -0.029812917 0.09516877 -0.07299959
0000d0 ec e7 86 bc c5 18 8a bd 8e 52 22 b9 e4 31 48 3d
       -0.01646801 -0.06743006 -0.00015480278 0.048875704
0000e0 04 6a 2f bd fd 66 3f bd 18 14 6f bc 49 c5 d6 3c
       -0.042825714 -0.046729077 -0.014592193 0.02621712
0000f0 2f a3 9f bc f9 e9 8d bb 1b fc 4a 3d 98 36 10 bb
       -0.019486992 -0.00433087 0.049556833 -0.0022005197
000100 c4 aa e3 3b f3 28 ea bc d3 0d e7 bd a9 bc 2c bd
       0.006947847 -0.02858398 -0.11281934 -0.042172108
000110 09 82 52 bd e3 8a 2d bd a6 70 48 bd 01 8f 11 bd
       -0.051393542 -0.04236878 -0.048935555 -0.03553677
000120 db ca 9b bd 43 3d bf bc 8a 08 98 3d 6f 92 20 3d
       -0.07607051 -0.023344642 0.07423504 0.03920215
000130 d3 29 88 3c 19 70 9e bd 46 86 2f bd 53 66 46 3d
       0.016621506 -0.07736225 -0.042852663 0.048437428
000140 47 28 06 3d 42 62 25 bb c1 b4 9b 3d ac 38 31 bd
       0.032753255 -0.0025235568 0.076028354 -0.043266937
000150 3d db 11 bc b8 fe 5f 3c 37 ac ef 3b 0a d1 f8 ba
       -0.008902368 0.0136715695 0.007314231 -0.0018983197
000160 d9 b7 cd bc 20 7c 6b 3d 58 83 7d 3b 92 5d 4a 3d
       -0.02511208 0.05749142 0.0038683023 0.04940564
000170 a9 cb d3 3d 3e 2a 9f bd 5f fe 5f 3d 9d 66 d8 3c
       0.103415795 -0.07771729 0.054685947 0.026416117
000180 c1 06 ff bc 22 1b 0b 3c 8a 88 c8 bc 5c c8 3a bd
       -0.03113115 0.008490356 -0.02447917 -0.045601234
000190 10 5b ef bc 30 9b 28 3d 43 c5 63 3c d4 9f c9 3c
       -0.029218227 0.041163623 0.013902011 0.024612345
0001a0 5d b4 9a bb c6 5c 3d 3d 25 8b d0 bb 29 0b c2 3d
       -0.004721208 0.046231054 -0.0063642436 0.09474785
0001b0 fd 24 12 3d a1 00 cb bc 2c 46 44 3d 76 cb ee bb
       0.035679806 -0.024780573 0.047918484 -0.007287438
0001c0 19 a9 4a 3d 16 f7 23 3c 44 7d c4 3d f5 d3 ca bd
       0.04947767 0.01000764 0.09594205 -0.09903709
0001d0 75 2a 07 3d 4c fe 44 3d 82 60 c4 bd 4e c0 35 3d
       0.032999475 0.04809408 -0.0958872 0.04437285
0001e0 04 73 94 3c f4 de 05 3b 21 8c 6d 3d fe 8e 3e 3d
       0.01812125 0.002042708 0.057994965 0.046523087
0001f0 86 5c 4b 3d ef ad d3 3c e1 d3 a4 3d 13 c2 80 bd
       0.049648784 0.025839774 0.08048225 -0.06287017
