dapg/examples/model/no_pen-v0/model_classifier.pt (torch, 148333 bytes, 10 tensors)

in_shift f4 [128]
0.0 0.0 0.0 0.0 0.0 0.0 0.0 0.0
0.0 0.0 0.0 0.0 0.0 0.0 0.0 0.0
0.0 0.0 0.0 0.0 0.0 0.0 0.0 0.0
0.0 0.0 0.0 0.0 0.0 0.0 0.0 0.0
0.0 0.0 0.0 0.0 0.0 0.0 0.0 0.0
0.0 0.0 0.0 0.0 0.0 0.0 0.0 0.0
0.0 0.0 0.0 0.0 0.0 0.0 0.0 0.0
0.0 0.0 0.0 0.0 0.0 0.0 0.0 0.0
0.0 0.0 0.0 0.0 0.0 0.0 0.0 0.0
0.0 0.0 0.0 0.0 0.0 0.0 0.0 0.0
0.0 0.0 0.0 0.0 0.0 0.0 0.0 0.0
0.0 0.0 0.0 0.0 0.0 0.0 0.0 0.0
0.0 0.0 0.0 0.0 0.0 0.0 0.0 0.0
0.0 0.0 0.0 0.0 0.0 0.0 0.0 0.0
0.0 0.0 0.0 0.0 0.0 0.0 0.0 0.0
0.0 0.0 0.0 0.0 0.0 0.0 0.0 0.0
00000000: 0000 0000 0000 0000 0000 0000 0000 0000
00000010: 0000 0000 0000 0000 0000 0000 0000 0000
00000020: 0000 0000 0000 0000 0000 0000 0000 0000
00000030: 0000 0000 0000 0000 0000 0000 0000 0000
00000040: 0000 0000 0000 0000 0000 0000 0000 0000
00000050: 0000 0000 0000 0000 0000 0000 0000 0000
00000060: 0000 0000 0000 0000 0000 0000 0000 0000
00000070: 0000 0000 0000 0000 0000 0000 0000 0000
00000080: 0000 0000 0000 0000 0000 0000 0000 0000
00000090: 0000 0000 0000 0000 0000 0000 0000 0000
000000a0: 0000 0000 0000 0000 0000 0000 0000 0000
000000b0: 0000 0000 0000 0000 0000 0000 0000 0000
000000c0: 0000 0000 0000 0000 0000 0000 0000 0000
000000d0: 0000 0000 0000 0000 0000 0000 0000 0000
000000e0: 0000 0000 0000 0000 0000 0000 0000 0000
000000f0: 0000 0000 0000 0000 0000 0000 0000 0000
00000100: 0000 0000 0000 0000 0000 0000 0000 0000
00000110: 0000 0000 0000 0000 0000 0000 0000 0000
00000120: 0000 0000 0000 0000 0000 0000 0000 0000
00000130: 0000 0000 0000 0000 0000 0000 0000 0000
00000140: 0000 0000 0000 0000 0000 0000 0000 0000
00000150: 0000 0000 0000 0000 0000 0000 0000 0000
00000160: 0000 0000 0000 0000 0000 0000 0000 0000
00000170: 0000 0000 0000 0000 0000 0000 0000 0000
00000180: 0000 0000 0000 0000 0000 0000 0000 0000
00000190: 0000 0000 0000 0000 0000 0000 0000 0000
000001a0: 0000 0000 0000 0000 0000 0000 0000 0000
000001b0: 0000 0000 0000 0000 0000 0000 0000 0000
000001c0: 0000 0000 0000 0000 0000 0000 0000 0000
000001d0: 0000 0000 0000 0000 0000 0000 0000 0000
000001e0: 0000 0000 0000 0000 0000 0000 0000 0000
000001f0: 0000 0000 0000 0000 0000 0000 0000 0000

in_scale f4 [128]
1.0 1.0 1.0 1.0 1.0 1.0 1.0 1.0
1.0 1.0 1.0 1.0 1.0 1.0 1.0 1.0
1.0 1.0 1.0 1.0 1.0 1.0 1.0 1.0
1.0 1.0 1.0 1.0 1.0 1.0 1.0 1.0
1.0 1.0 1.0 1.0 1.0 1.0 1.0 1.0
1.0 1.0 1.0 1.0 1.0 1.0 1.0 1.0
1.0 1.0 1.0 1.0 1.0 1.0 1.0 1.0
1.0 1.0 1.0 1.0 1.0 1.0 1.0 1.0
1.0 1.0 1.0 1.0 1.0 1.0 1.0 1.0
1.0 1.0 1.0 1.0 1.0 1.0 1.0 1.0
1.0 1.0 1.0 1.0 1.0 1.0 1.0 1.0
1.0 1.0 1.0 1.0 1.0 1.0 1.0 1.0
1.0 1.0 1.0 1.0 1.0 1.0 1.0 1.0
1.0 1.0 1.0 1.0 1.0 1.0 1.0 1.0
1.0 1.0 1.0 1.0 1.0 1.0 1.0 1.0
1.0 1.0 1.0 1.0 1.0 1.0 1.0 1.0
00000000: 0000 803f 0000 803f 0000 803f 0000 803f
00000010: 0000 803f 0000 803f 0000 803f 0000 803f
00000020: 0000 803f 0000 803f 0000 803f 0000 803f
00000030: 0000 803f 0000 803f 0000 803f 0000 803f
00000040: 0000 803f 0000 803f 0000 803f 0000 803f
00000050: 0000 803f 0000 803f 0000 803f 0000 803f
00000060: 0000 803f 0000 803f 0000 803f 0000 803f
00000070: 0000 803f 0000 803f 0000 803f 0000 803f
00000080: 0000 803f 0000 803f 0000 803f 0000 803f
00000090: 0000 803f 0000 803f 0000 803f 0000 803f
000000a0: 0000 803f 0000 803f 0000 803f 0000 803f
000000b0: 0000 803f 0000 803f 0000 803f 0000 803f
000000c0: 0000 803f 0000 803f 0000 803f 0000 803f
000000d0: 0000 803f 0000 803f 0000 803f 0000 803f
000000e0: 0000 803f 0000 803f 0000 803f 0000 803f
000000f0: 0000 803f 0000 803f 0000 803f 0000 803f
00000100: 0000 803f 0000 803f 0000 803f 0000 803f
00000110: 0000 803f 0000 803f 0000 803f 0000 803f
00000120: 0000 803f 0000 803f 0000 803f 0000 803f
00000130: 0000 803f 0000 803f 0000 803f 0000 803f
00000140: 0000 803f 0000 803f 0000 803f 0000 803f
00000150: 0000 803f 0000 803f 0000 803f 0000 803f
00000160: 0000 803f 0000 803f 0000 803f 0000 803f
00000170: 0000 803f 0000 803f 0000 803f 0000 803f
00000180: 0000 803f 0000 803f 0000 803f 0000 803f
00000190: 0000 803f 0000 803f 0000 803f 0000 803f
000001a0: 0000 803f 0000 803f 0000 803f 0000 803f
000001b0: 0000 803f 0000 803f 0000 803f 0000 803f
000001c0: 0000 803f 0000 803f 0000 803f 0000 803f
000001d0: 0000 803f 0000 803f 0000 803f 0000 803f
000001e0: 0000 803f 0000 803f 0000 803f 0000 803f
000001f0: 0000 803f 0000 803f 0000 803f 0000 803f

out_shift f4 [4]
0.0 0.0 0.0 0.0
00000000: 0000 0000 0000 0000 0000 0000 0000 0000

out_scale f4 [4]
1.0 1.0 1.0 1.0
00000000: 0000 803f 0000 803f 0000 803f 0000 803f

weight f4 [128, 128]
0.008109189 -0.0052049356 0.040125474 0.0620711 0.05478147 0.021112593 0.06054949 -0.07220422
0.098611265 -0.032635156 0.04868498 -0.06083349 -0.057985466 -0.011961067 0.017480714 -0.079548836
-0.06025764 -0.04597006 -0.019978749 0.035009097 -0.09262934 0.088922866 0.103062436 0.044397473
0.019876277 -0.03288629 -0.037809685 0.10596403 -0.006218202 0.09940857 -0.08339366 -0.03313804
-0.04761294 0.0438935 0.10776356 -0.018318418 -0.061990626 -0.06860566 0.010979866 0.065540634
-0.016596014 -0.034389958 0.0440775 0.025509205 -0.057035238 -0.0039646886 0.04128365 0.0041476684
0.12080365 0.082739435 -0.014662244 -0.015367942 -0.031535823 -0.04955309 -0.056636702 -0.043384086
-0.050014816 -0.0403159 0.021503147 -0.033684723 0.05515425 0.09664519 0.032444026 -0.02039065
-0.032442372 -0.03672474 0.06502858 0.006343018 0.03942945 0.008547403 0.039181836 0.029018704
-0.065126374 -0.024692161 -0.012293686 -0.025269268 -0.021620322 -0.001457777 -0.08800969 0.0138166435
-0.021613766 -0.024848785 0.055028148 -0.11273572 0.11054629 -0.0023180868 0.03512668 -0.018293165
0.048058704 -0.081368625 -0.080509335 0.08680698 0.09009704 0.060013585 0.063736126 0.025209704
-0.068674184 0.0089515075 -0.03686612 0.00547792 0.058160275 -0.0030676983 -0.14492339 -0.020635612
0.105284944 0.04182281 0.06673843 -0.103626326 -0.048646737 -0.11020477 0.021579446 0.0069026966
0.016215954 -0.015460971 -0.08689998 -0.03500944 -0.060555562 -0.016193606 0.1088064 -0.085222915
0.01267141 0.0016758004 -0.00018578928 0.04010542 -0.028749254 0.021759702 -0.037579868 -0.08527092
-0.046978716 0.009059248 -0.07931827 -0.062498678 0.0940332 0.06385208 0.014483733 -0.008526061
-0.08714578 0.03773114 0.08081101 -0.08346554 -0.020192046 0.07696998 0.07456323 0.08459322
0.05435971 -0.0035931792 -0.03568324 0.049571656 -0.08570125 0.051153176 -0.03253281 0.00067580945
0.05471244 0.061650373 0.03712121 0.031085316 0.012870858 0.12028615 -0.09107838 0.0029151433
-0.10952298 -0.01307292 0.047157962 -0.00023186744 0.082596704 0.04960605 0.017955871 -0.008291687
0.07357753 0.12150201 0.008519274 -0.00043784725 0.03913184 -0.043846797 0.08362716 -0.021124559
0.035605658 0.0030159163 0.053118184 -0.07831744 -0.031873427 -0.027872484 -0.012226699 -0.010849401
-0.03676336 -0.025180228 -0.06756382 0.037796434 -0.045479644 0.06631774 -0.0929024 -0.020764343
0.044482466 0.05792894 -0.009646937 0.010759061 0.14053859 -0.03709358 0.106182605 0.024729123
-0.07581717 -0.10467149 -0.05258077 -0.06620634 0.014912957 -0.0047749393 -0.03164087 -0.057915606
-0.026626797 0.10288914 0.018292239 0.05936258 0.090070486 -0.030138617 0.013568511 0.11715129
-0.10010585 -0.10533759 0.02459985 0.02960613 0.053159364 0.008483548 0.06268227 -0.07340459
-0.021561362 -0.0627111 0.03377102 -0.03566326 0.0599797 0.02489066 -0.112472944 0.04573663
0.060093842 -0.09036948 -0.035291832 -0.038052764 0.11222866 -0.02309905 -0.0109436875 0.08202275
-0.115769476 -0.047359712 -0.05690956 0.10145504 -0.05565178 -0.09176868 -0.04121132 -0.0582941
-0.05045168 0.0760963 -0.019174691 -0.109025225 -0.014463929 -0.06985016 -0.0137692075 0.057169836
00000000: 67dc 043c 2a8e aabb 9c5a 243d 443e 7e3d
00000010: 8962 603d 51f4 ac3c be02 783d cedf 93bd
00000020: b4f4 c93d 71ac 05bd e769 473d 8a2c 79bd
00000030: 2b82 6dbd 5af8 43bc b733 8f3c 80ea a2bd
00000040: b7d0 76bd 1a4b 3cbd 79aa a3bc b365 0f3d
00000050: 74b4 bdbd 311d b63d 6612 d33d 20da 353d
00000060: 93d3 a23c c6b3 06bd 54de 1abd ab03 d93d
00000070: 0fc2 cbbb b896 cb3d 4cca aabd c1bb 07bd
00000080: c905 43bd acc9 333d 24b3 dc3d 8210 96bc
00000090: e2e9 7dbd 2081 8cbd e5e4 333c 2b3a 863d
000000a0: 5df4 87bc 7cdc 0cbd 9c8a 343d aef8 d03c
000000b0: c89d 69bd 38ea 81bb 0b19 293d 2ae9 873b
000000c0: e767 f73d 4b73 a93d e939 70bc d2c9 7bbc
000000d0: b52b 01bd 2ef8 4abd e3fb 67bd 83b3 31bd
000000e0: 56dc 4cbd 4922 25bd 5e27 b03c fef8 09bd
000000f0: 6ce9 613d eaed c53d 07e4 043d 4b0a a7bc
00000100: 4be2 04bd ae6c 16bd b42d 853d 17d9 cf3b
00000110: c680 213d 680a 0c3c 227d 203d a2b8 ed3c
00000120: fa60 85bd 3747 cabc 756b 49bc 7f01 cfbc
00000130: 1a1d b1bc e112 bfba 6d3e b4bd 345f 623c
00000140: 5a0f b1bc ae8f cbbc 3265 613d fce1 e6bd
00000150: 1866 e23d 0beb 17bb fee0 0f3d 8cdb 95bc
00000160: 34d9 443d 98a4 a6bd 14e2 a4bd dcc7 b13d
00000170: cc84 b83d ced0 753d 1688 823d 9584 ce3c
00000180: 0da5 8cbd 58a9 123c ee00 17bd 2080 b33b
00000190: 7839 6e3d 700b 49bb cc66 14be 040c a9bc
000001a0: a29f d73d 654e 2b3d 28ae 883d 0a3a d4bd
000001b0: cd41 47bd 0ab3 e1bd 61c7 b03c 0430 e23b
000001c0: 52d7 843c 0350 7dbc 9ef8 b1bd 0f66 0fbd
000001d0: 1c09 78bd 74a8 84bc e4d5 de3d 5a89 aebd
000001e0: bf9b 4f3c 88a6 db3a 6ed0 42b9 9545 243d
000001f0: 8e83 ebbc 6741 b23c 59ed 19bd 85a2 aebd
00000200: c16c 40bd 3d6d 143c 9e71 a2bd 9dfe 7fbd
00000210: 7a94 c03d e1c4 823d 2e4d 6d3c e4b0 0bbc
00000220: 7d79 b2bd f88b 1a3d 3e80 a53d fbef aabd
00000230: ca69 a5bc 70a2 9d3d 9bb4 983d 363f ad3d
00000240: 4aa8 5e3d 8b7b 6bbb 9728 12bd a60b 4b3d
00000250: 2384 afbd fe85 513d 2041 05bd ce28 313a
00000260: 271a 603d 1a85 7c3d 690c 183d a2a6 fe3c
00000270: 4be0 523c 9658 f63d 4d87 babd fd0b 3f3b
00000280: 964d e0bd cd2f 56bc b528 413d 7121 73b9
00000290: 7628 a93d b72f 4b3d 3118 933c dbd9 07bc
000002a0: d1af 963d 0cd6 f83d 6d94 0b3c dd8e e5b9
000002b0: b548 203d b398 33bd b744 ab3d 690d adbc
000002c0: 3dd7 113d aea6 453b 7492 593d e564 a0bd
000002d0: b68d 02bd d654 e4bc 7e52 48bc b0c1 31bc
000002e0: 2d95 16bd c446 cebc e65e 8abd 6fd0 1a3d
000002f0: dd48 3abd 98d1 873d 9d43 bebd fc19 aabc
00000300: 3f33 363d e546 6d3d 300e 1ebc c646 303c
00000310: 59e9 0f3e 70ef 17bd 4476 d93d bb94 ca3c
00000320: 0846 9bbd 025e d6bd ef5e 57bd 3197 87bd
00000330: 7a55 743c 1877 9cbb db99 01bd ea38 6dbd
00000340: 7120 dabc 8bb7 d23d 9bd9 953c 2d26 733d
00000350: e076 b83d 43e5 f6bc 764e 5e3c 04ed ef3d
00000360: 4c04 cdbd 3cbb d7bd a085 c93c 8e88 f23c
00000370: a2bd 593d 94fe 0a3c 905f 803d 2555 96bd
00000380: 74a1 b0bc ad6e 80bd 7b53 0a3d a313 12bd
00000390: 46ad 753d 7fe7 cb3c 3758 e6bd 5556 3b3d
000003a0: f624 763d a213 b9bd 2b8e 10bd 37dd 1bbd
000003b0: 24d8 e53d 383a bdbc 274d 33bc 8bfb a73d
000003c0: 8c18 edbd 42fc 41bd 001a 69bd a9c7 cf3d
000003d0: 1ff3 63bd 38f1 bbbd 33cd 28bd cbc5 6ebd
000003e0: 6ca6 4ebd 60d8 9b3d 3e14 9dbc 9e48 dfbd
000003f0: 1efa 6cbc 9a0d 8fbd 3e98 61bc eb2a 6a3d

bias f4 [128]
0.18175703 -0.06894781 0.17564006 -0.07282572 0.111172475 -0.070587985 0.0071336296 -0.08522188
0.08881909 -0.11592075 0.028662214 0.12879567 0.00033277692 -0.07700388 0.20444162 -0.21927345
-0.151276 -0.063074365 -0.0048483955 -0.026281362 -0.10184606 -0.13361782 -0.07728653 0.12694351
-0.12927926 -0.16664132 -0.2290457 0.18979928 0.20622544 0.032849226 -0.23292287 0.007982401
-0.167929 0.07673759 0.00078505254 -0.017709943 0.17873007 -0.039366905 -0.11581581 -0.21145353
0.17413141 0.21797433 0.12064243 0.1034826 0.14580302 0.14339788 -0.025552906 0.013624631
-0.10963731 0.030108908 -0.05672592 0.13236417 -0.19211748 -0.041192822 0.039560005 0.060803596
0.19458564 -0.12961286 0.05813298 -0.15174271 0.029496439 -0.06234278 0.24257176 -0.073613726
-0.10310326 -0.1594354 0.25926086 0.03344192 0.034740124 -0.1965083 0.027780699 -0.11830716
0.012835582 0.15821569 0.15511322 -0.10711331 -0.19377062 0.05638217 0.20864265 0.2709705
0.000987247 -0.0067710937 0.0030087098 0.04218179 -0.026979782 0.22718889 0.16356002 -0.17958887
-0.14224204 0.0049046595 -0.22500558 0.0009952431 -0.12867229 -0.051492024 0.01114849 -0.26504052
-0.10443386 -0.18937635 -0.14568658 -0.0933427 0.2509475 0.08329837 -0.110255264 -0.17062168
-0.09999578 0.1354861 0.0050374116 0.11798216 -0.14444697 0.10607063 -0.012942766 0.12617858
-0.026308253 0.021157008 0.122827366 -0.018111624 -0.10317982 -0.19295768 0.116287634 -0.023346316
0.022744596 0.14900061 0.20869406 0.21742284 -0.0054259887 0.1937877 0.10317587 0.22470775
00000000: 841e 3a3e 8234 8dbd fdda 333e a725 95bd
00000010: 65ae e33d 6f90 90bd 39c1 e93b cf88 aebd
00000020: c8e6 b53d dc67 edbd 05cd ea3c 03e3 033e
00000030: 9078 ae39 36b4 9dbd 2559 513e 3889 60be
00000040: 19e8 1abe 222d 81bd 4adf 9ebb 034c d7bc
00000050: ab94 d0bd 1cd3 08be 6648 9ebd 7bfd 013e
00000060: c861 04be 06a4 2abe f58a 6abe be5a 423e
00000070: c32c 533e e98c 063d 5583 6ebe 9ec8 023c
00000080: 94f5 2bbe 9928 9d3d fccb 4d3a 7114 91bc
00000090: 0405 373e 313f 21bd d730 edbd 4687 58be
000000a0: 814f 323e aa34 5f3e 6113 f73d afee d33d
000000b0: 634d 153e e5d6 123e 5454 d1bc d839 5f3c
000000c0: 8789 e0bd f5a6 f63c 7059 68bd 798a 073e
000000d0: 72ba 44be ceb9 28bd ac09 223d 310d 793d
000000e0: 7541 473e 3cb9 04be d91c 6e3d 7162 1bbe
000000f0: 84a2 f13c 255b 7fbd bb64 783e cbc2 96bd
00000100: cd27 d3bd 0943 23be d7bd 843e 65fa 083d
00000110: a94b 0e3d 7939 49be 5994 e33c 064b f2bd
00000120: 554c 523c 4b03 223e 00d6 1e3e 395e dbbd
00000130: ce6b 46be fef0 663d 6ba6 553e a5bc 8a3e
00000140: 8366 813a 0de0 ddbb c62d 453b d0c6 2c3d
00000150: b404 ddbc 34a4 683e 477c 273e 25e6 37be
00000160: e6a7 11be 44b7 a03b dd67 66be d172 823a
00000170: abc2 03be 4de9 52bd 28a8 363c 64b3 87be
00000180: 6be1 d5bd e0eb 41be dd2e 15be 752a bfbd
00000190: 317c 803e 5698 aa3d 83cd e1bd 73b7 2ebe
000001a0: 96ca ccbd debc 0a3e df10 a53b a1a0 f13d
000001b0: e8e9 13be 8f3b d93d e50d 54bc f534 013e
000001c0: 6884 d7bc 7651 ad3c ea8c fb3d d45e 94bc
000001d0: f14f d3bd b396 45be 3628 ee3d c640 bfbc
000001e0: e052 ba3c 9e93 183e e5b3 553e 18a4 5e3e
000001f0: 7ecc b1bb 4870 463e df4d d33d ca19 663e

weight f4 [128, 128]
-0.025411056 0.014984084 -0.08400538 0.15179667 -0.06185606 -0.08869703 0.111267135 0.09487374
-0.06440868 -0.006342198 0.06902652 -0.06734951 -0.09161854 0.03633118 -0.05357026 -0.019834936
-0.03084694 0.020210695 0.04334068 0.05860814 -0.07044628 0.015451665 -0.090712495 0.050172646
0.004967292 -0.03421657 0.10666362 -0.14095786 0.053552162 -0.03425332 0.14150323 -0.06497731
-0.02409145 -0.073335305 0.05253751 0.06788558 -0.02077118 -0.063314326 0.013739252 0.034442704
-0.008610291 0.02337927 -0.09119749 -0.1180417 -0.025133535 -0.0781013 0.04390848 -0.053401265
0.012951964 0.07072137 0.08303073 -0.030892251 0.10444129 0.060436502 -0.09741151 0.020668967
0.043654617 0.019984052 0.08508888 -0.05931795 0.063580014 -0.05863897 -0.07581176 0.0632463
0.05439545 -0.034948014 -0.058064144 -0.05710854 0.011125126 0.11119382 -0.09089831 -0.00833763
0.0012286004 -0.1182189 -0.09460033 -0.004326718 0.04612004 0.06727402 -0.108801685 0.034280863
-0.06520012 0.034647044 0.05976149 -0.12386299 -0.02304325 -0.06321945 -0.05804033 0.042582456
-0.03105967 -0.057723135 -0.035564467 0.012307763 0.0016083309 -0.011610811 0.025378125 -0.045053165
-0.03757323 0.041399036 0.015764756 -0.021965098 -0.0019116043 -0.0028800084 0.05706757 0.037126243
0.10883312 -0.06052587 0.0494691 -0.015074911 -0.100598045 -0.055640504 0.02170934 -0.014238678
0.0031854324 -0.028891396 -0.025197664 0.031677388 -0.053424355 0.0363393 0.13520518 0.02527831
0.096918836 0.0075171418 -0.034482546 -0.009958654 -0.020689534 -0.09378488 -0.07764266 -0.12894264
0.07733108 -0.11782348 -0.031732008 0.02421776 -0.006971044 0.0014918934 0.053330887 -0.057090398
0.017844427 0.107065 -0.036336035 0.044247832 0.055332687 0.09954242 -0.06691367 -0.07389863
-0.08301735 -0.09550742 -0.06756385 -0.043096017 0.05761974 -0.042362772 -0.07196935 0.0058048326
-0.05202404 0.053249184 0.11988914 -0.010771441 0.016933108 0.0017475714 0.046420842 -0.0051983306
-0.0364894 0.0766 0.020873154 0.03033489 0.041774265 -0.109108485 -0.108869724 -0.08964528
-0.029346574 0.07755679 -0.043341827 0.05320538 0.0815796 0.038321648 0.054012105 -0.05621777
0.0051520313 0.066752926 0.04897794 -0.12814705 -0.016911063 -0.15191336 0.056533292 0.06518804
-0.08487212 -0.12924297 -0.018093055 0.030173166 -0.07182482 -0.020865738 -0.06324758 -0.08301489
-0.010428103 -0.060398076 0.07255602 -0.059407696 -0.0051385933 -0.06306215 0.13434294 0.052398633
0.046901762 0.014232981 0.067889795 0.058998212 0.036054775 0.003877207 0.10219334 0.051025536
-0.029458154 0.017122326 0.016239999 0.037563566 -0.11212121 0.017863493 -0.008404858 -0.03241917
-0.021720486 0.012002353 -0.03720494 -0.03667971 -0.03029964 0.020767061 -0.011485175 0.097327635
-0.014415197 -0.02412254 -0.055252343 0.04810093 0.05359125 0.011931735 0.009184897 -0.060573347
0.071033575 -0.04116648 0.12210961 -0.051626027 -0.05694386 -0.03951833 0.016971108 0.032628153
-0.059195127 0.0034191324 0.030634213 0.061526917 -0.13661769 0.13018413 0.061313376 0.0044979565
0.058515124 -0.011833389 0.09177826 -0.05094471 -0.054142248 -0.064141266 -0.014704857 0.0057504484
00000000: d92a d0bc ce7f 753c 030b acbd 9670 1b3e
00000010: c85c 7dbd caa6 b5bd 06e0 e33d 2a4d c23d
00000020: b3e8 83bd 36d2 cfbb c75d 8d3d 8aee 89bd
00000030: 80a2 bbbd 01d0 143d 7d6c 5bbd e07c a2bc
00000040: b9b2 fcbc e690 a53c ff85 313d 170f 703d
00000050: 2446 90bd fb28 7d3c 79c7 b9bd d581 4d3d
00000060: aac4 a23b ad26 0cbd 7572 da3d 4257 10be
00000070: 8359 5b3d 364d 0cbd 39e6 103e d312 85bd
00000080: 6f5b c5bc d230 96bd 9231 573d 9807 8b3d
00000090: 5228 aabc f1aa 81bd 9a1a 613c cb13 0d3d
000000a0: 2e12 0dbc e285 bf3c c0c5 babd d9bf f1bd
000000b0: d8e4 cdbc 93f3 9fbd 61d9 333d 49bb 5abd
000000c0: 7934 543c 5ed6 903d 040c aa3d bf11 fdbc
000000d0: 51e5 d53d 448c 773d b07f c7bd f751 a93c
000000e0: 2fcf 323d 98b5 a33c 1443 ae3d 61f7 72bd
000000f0: 3d36 823d 6b2f 70bd 3243 9bbd 4787 813d
00000100: c3cd 5e3d a625 0fbd abd4 6dbd a5ea 69bd
00000110: 2946 363c 96b9 e33d e528 babd 8e9a 08bc
00000120: fd08 a13a c01c f2bd d1bd c1bd 24c7 8dbb
00000130: 5ee8 3c3d f6c6 893d 6bd3 debd 176a 0c3d
00000140: a487 85bd 0fea 0d3d 77c8 743d e1ab fdbd
00000150: 33c5 bcbc 3379 81bd b2bb 6dbd f16a 2e3d
00000160: d970 febc 186f 6cbd 0cac 11bd 80a6 493c
00000170: a1ce d23a 453b 3ebc c9e5 cf3c ab89 38bd
00000180: 63e6 19bd 0992 293d 1725 813c 26f0 b3bc
00000190: cc8e faba 86be 3cbb afbf 693d b011 183d
000001a0: e6e3 de3d fae9 77bd 1ca0 4a3d c2fc 76bc
000001b0: 5906 cebd 4ce7 63bd c9d7 b13c 5849 69bc
000001c0: b0c2 503b a6ad ecbc 556b cebc 26c0 013d
000001d0: 7fd3 5abd 85d8 143d 3a73 0a3e 7514 cf3c
000001e0: 627d c63d 5b52 f63b 923d 0dbd 9f29 23bc
000001f0: 197d a9bc 4a12 c0bd 1d03 9fbd 8a09 04be
00000200: c25f 9e3d 704d f1bd 6cf9 01bd 5364 c63c
00000210: 5b6d e4bb a38b c33a 7d71 5a3d 9fd7 69bd
00000220: 7a2e 923c e544 db3d 18d5 14bd 373d 353d
00000230: 87a4 623d e5dc cb3d 090a 89bd 2a58 97bd
00000240: 0005 aabd 6599 c3bd ea5e 8abd 7385 30bd
00000250: ad02 6c3d 9684 2dbd ab64 93bd 7736 be3b
00000260: 2917 55bd d11b 5a3d 7088 f53d b37a 30bc
00000270: 4db7 8a3c c40e e53a c823 3e3d c256 aabb
00000280: e975 15bd 76e0 9c3d 2dfe aa3c e080 f83c
00000290: 7e1b 2b3d 4574 dfbd 17f7 debd f297 b7bd
000002a0: 3a68 f0bc 18d6 9e3d 3387 31bd e2ed 593d
000002b0: 3513 a73d 29f7 1c3d cc3b 5d3d 9b44 66bd
000002c0: 5fd2 a83b c2b5 883d 189d 483d fb38 03be
000002d0: 1289 8abc 2d8f 1bbe 748f 673d 4f81 853d
000002e0: 6fd1 adbd 4558 04be e337 94bc b72d f73c
000002f0: e418 93bd a0ee aabc f287 81bd b603 aabd
00000300: a2da 2abc f963 77bd 4098 943d 7c55 73bd
00000310: a561 a8bb ba26 81bd 3291 093e f39f 563d
00000320: 101c 403d 7331 693c ce09 8b3d 1ca8 713d
00000330: 2cae 133d bd18 7e3b be4a d13d 2700 513d
00000340: 3a52 f1bc 1f44 8c3c bf09 853c 41dc 193d
00000350: ce9f e5bd 7656 923c 88b4 09bc f7c9 04bd
00000360: 29ef b1bc 84a5 443c 3564 18bd 773d 16bd
00000370: f336 f8bc af1f aa3c 512c 3cbc b653 c73d
00000380: b82d 6cbc a29c c5bc 4850 62bd 7b05 453d
00000390: 8082 5b3d 537d 433c 407c 163c c21b 78bd
000003a0: 0d7a 913d 2f9e 28bd 9a14 fa3d d075 53bd
000003b0: f73d 69bd f9dd 21bd fe06 8b3c 19a5 053d
000003c0: 9776 72bd 8613 603b 9af4 fa3c a603 7c3d
000003d0: 82e5 0bbe fd4e 053e bc23 7b3d 9863 933b
000003e0: 8ead 6f3d d5e0 41bc 3ef6 bb3d 66ab 50bd
000003f0: 43c4 5dbd 7f5c 83bd a4ec 70bc 426e bc3b

bias f4 [128]
-0.033831447 0.18679565 0.14336313 0.074007966 -0.06680029 -0.0037960985 0.13150784 -0.16806398
0.093172014 -0.06042936 -0.16587774 -0.009679607 0.14486173 -0.20740859 -0.19947225 0.14142881
-0.103552766 0.1165841 -0.02314142 -0.151071 0.10418578 -0.16863005 0.030442737 0.17111953
-0.14126728 0.2685379 -0.17823063 -0.14032109 -0.237617 -0.2434272 0.15513246 0.16735816
0.16845433 -0.034346733 -0.053040642 0.077019244 -0.20529614 0.17879714 -0.06277237 -0.079862796
0.14108558 -0.0011387496 0.007167051 -0.059186734 -0.11677188 -0.024718996 0.08940145 -0.17419289
-0.24959186 0.02171034 -0.1397494 0.049349908 -0.064816296 -0.09976487 0.086801626 -0.20134598
-0.04529918 -0.18771935 -0.17789192 0.238761 -0.050650574 -0.029647743 0.1839066 -0.25104794
-0.040140744 -0.19092 0.14612372 0.13190027 0.16316257 -0.042285047 -0.18024625 0.13328163
-0.16698991 0.15116869 0.085501045 0.20351806 0.20917608 0.19287296 -0.24080318 0.055986844
-0.08180713 0.19124627 -0.1491548 -0.0212359 0.0057344777 0.1507601 -0.08533405 -0.13482764
0.09088718 -0.0552945 -0.16977659 0.2808841 -0.04886448 -0.20289326 0.13465698 0.10951249
0.12113323 -0.23754005 0.07184404 -0.09083751 -0.065838635 -0.0006560482 0.014207834 -0.015046266
0.1415962 0.025601136 0.0050348816 0.09037 0.28126135 0.016659558 0.107891485 0.18272862
0.22916898 -0.12324397 0.2166745 -0.2181556 -0.20856243 0.23139988 0.15161425 0.07483655
-0.019716011 -0.061843 0.13444464 -0.16021349 0.22977744 0.15705533 0.07964705 -0.22954616
00000000: d892 0abd 5c47 3f3e c9cd 123e 7d91 973d
00000010: 97ce 88bd f7c7 78bb fea9 063e f718 2cbe
00000020: f8d0 be3d c784 77bd dbdb 29be 3797 1ebc
00000030: a256 143e eb62 54be 7442 4cbe b7d2 103e
00000040: 7913 d4bd a5c3 ee3d 1393 bdbc 5bb2 1abe
00000050: 5b5f d53d 5bad 2cbe 0c63 f93c f539 2f3e
00000060: 5fa8 10be cd7d 893e 1782 36be 55b0 0fbe
00000070: df51 73be fb44 79be 0bdb 1e3e f05f 2b3e
00000080: 4b7f 2c3e 29af 0cbd 2541 59bd 44bc 9d3d
00000090: 2739 52be 9916 373e cd8e 80bd 1b8f a3bd
000000a0: bd78 103e 1942 95ba 95d9 ea3b ca6d 72bd
000000b0: 1826 efbd 7e7f cabc 1b18 b73d 9f5f 32be
000000c0: 0295 7fbe e2d9 b13c 771a 0fbe 2123 4a3d
000000d0: 68be 84bd 8651 ccbd 0dc5 b13d a42d 4ebe
000000e0: a28b 39bd 8039 40be 4d29 36be c37d 743e
000000f0: fa76 4fbd d3df f2bc 0352 3c3e 5b89 80be
00000100: 9f6a 24bd 8880 43be 75a1 153e dd10 073e
00000110: 1714 273e 1633 2dbd 7992 38be fb7a 083e
00000120: 67ff 2abe f7cb 1a3e 2c1b af3d 0a67 503e
00000130: 4132 563e 7d80 453e 1c95 76be 7652 653d
00000140: 7f8a a7bd 10d6 433e 09bc 18be e9f6 adbc
00000150: 49e8 bb3b db60 1a3e 9ec3 aebd 4210 0abe
00000160: 0f23 ba3d 7c7c 62bd ead9 2dbe 0ad0 8f3e
00000170: 1f26 48bd 40c3 4fbe 85e3 093e 1648 e03d
00000180: b314 f83d b33d 73be f822 933d 0409 babd
00000190: 68d6 86bd a6fa 2bba fac7 683c 9d84 76bc
000001a0: 98fe 103e 79b9 d13c a6fb a43b e813 b93d
000001b0: 7d01 903e a079 883c 36f6 dc3d 361d 3b3e
000001c0: 46ab 6a3e 5667 fcbd ecdf 5d3e 2e64 5fbe
000001d0: 6491 55be 17f4 6c3e c440 1b3e e843 993d
000001e0: 7983 a1bc 164f 7dbd dbab 093e 010f 24be
000001f0: c74a 6b3e 1dd3 203e fe1d a33d 260e 6bbe

weight f4 [4, 128]
0.0099386815 0.026027406 -0.039534274 -0.019843616 -0.0020912862 -0.0047686864 -0.009108752 -0.117136426
0.0467533 0.026198747 0.032961044 -0.0073121553 -0.024370382 0.013259241 -0.1060309 0.108982235
-0.10961416 -0.021189595 0.035171695 -0.07474383 0.0036837286 -0.04388766 0.02248845 0.04431831
-0.013817637 0.0986912 -0.009411251 0.000999804 0.04793353 -0.08983874 -0.019841038 -0.037363585
-0.014205522 -0.06050259 -0.04553564 0.09837605 -0.009485171 0.019764313 -0.0020593032 0.027338682
0.037274547 0.0010967706 0.011906475 0.086958036 0.053777102 0.016595207 0.037238736 0.02265514
-0.049216352 -0.040587135 -0.028813902 0.022625066 0.023892282 -0.042030297 0.0398282 -0.035875868
0.07036592 0.0029213915 0.03332679 0.034886505 0.08467613 -0.07302194 0.025603065 -0.03920975
-0.07249356 -0.077956416 0.0006647535 0.0060896995 0.019235872 0.01059807 -0.05308196 0.015605693
0.04574823 0.0025260411 -0.062489443 -0.031522337 -0.05556832 0.07417711 0.07091336 -0.027198471
-0.071926504 0.047656033 -0.029690247 -0.043629967 0.051709127 -0.085115425 -0.008347491 -0.06599674
-0.03841503 0.0088928975 0.0249344 0.03964639 -0.022570923 0.056622796 0.060041614 -0.055465396
-0.0049384204 -0.018060591 -0.12734292 -0.026620623 0.029842943 0.017765375 0.07827204 -0.040872116
-0.009818754 -0.04138717 -0.01420108 -0.030748192 0.08230341 0.045241416 -0.008589083 -0.021980025
0.04858808 0.0754281 0.009254215 -0.027647372 -0.05757958 -0.011570837 0.07391264 0.08205029
-0.02308866 0.062483653 -0.0075680953 0.028179402 0.03630994 -0.04712195 0.09453783 -0.053276647
0.040794052 -0.103036776 -0.067690164 -0.07791168 0.0012027578 0.022409765 -0.13105902 0.09139836
-0.12281496 0.079405 0.0885731 0.036823634 -0.042567145 0.11390523 0.03601403 -0.022686236
0.007956737 -0.042208973 0.032154422 0.031642035 -0.097357534 -0.011125893 -0.035784904 -0.02729353
-0.0050405776 -0.07752778 0.11897781 0.083022796 0.11037534 0.09575071 -0.112937346 -0.094595015
-0.11298489 0.09628945 0.027221242 0.027043695 0.042348295 -0.09749125 0.046793647 -0.016028352
-0.105440795 0.060300957 0.031432573 0.05850483 0.1662083 0.11765593 -0.031918403 0.050713614
0.09446359 0.043082003 0.079669565 -0.030864298 0.06557649 0.026877055 -0.023950234 0.04735241
0.010041757 0.108759336 0.09320876 -0.17213605 -0.06774014 -0.09787438 0.010074702 0.08506685
0.0034628834 0.037643004 -0.018045863 -0.0005168263 -0.086857736 0.017896948 0.011305064 -0.08357549
0.07447931 -0.10765335 -0.09236359 -0.030237418 -0.11826351 -0.10477636 0.10592984 -0.046651356
0.028139217 -0.0912094 0.012581964 0.028953956 0.045997843 -0.09002972 0.021517059 0.10570824
0.0026678974 0.015257489 0.09157091 -0.10546621 0.057741538 0.11784909 -0.103693426 -0.113387965
-0.11263281 0.10137963 -0.027893852 0.069507375 0.114188924 -0.0013622728 0.055884607 0.017603789
-0.13379605 -0.01604925 -0.10331108 -0.0920269 -0.07620207 0.08772707 -0.08892756 -0.080059774
-0.07464162 0.10471535 -0.122565545 0.14907975 0.08599598 -0.098825626 -0.120354734 -0.04818203
0.0043097693 0.11191469 -0.06304218 0.093861386 -0.0048748264 -0.15821996 -0.11383623 0.06765474
00000000: dad5 223c 6d37 d53c b1ee 21bd 148f a2bc
00000010: f60d 09bb a442 9cbb e03c 15bc 39e5 efbd
00000020: 6380 3f3d c19e d63c 2902 073d ce9a efbb
00000030: 65a4 c7bc 4a3d 593c ba26 d9bd 1432 df3d
00000040: 647d e0bd cd95 adbc 3210 103d 4b13 99bd
00000050: b66a 713b 8cc3 33bd b339 b83c 1e87 353d
00000060: 5f63 62bc 9d1e ca3d a631 1abc db0b 833a
00000070: f355 443d 60fd b7bd ac89 a2bc 8f0a 19bd
00000080: 47be 68bc 90d1 77bd 9483 3abd 6279 c93d
00000090: b167 1bbc c5e8 a13c 60f5 06bb 5ff5 df3c
000000a0: 32ad 183d 84c1 8f3a 6013 433c 0e17 b23d
000000b0: 6145 5c3d acf2 873c a587 183d 4697 b93c
000000c0: 1697 49bd b23e 26bd 220b ecbc 3458 b93c
000000d0: bfb9 c33c f627 2cbd e522 233d 93f2 12bd
000000e0: 021c 903d d174 3f3b ac81 083d 27e5 0e3d
000000f0: ae6a ad3d 878c 95bd 85bd d13c 679a 20bd
00000100: 8177 94bd 9da7 9fbd da42 2e3a 1a8c c73b
00000110: 8c94 9d3c 87a3 2d3c 786c 59bd 05af 7f3c
00000120: 7f62 3b3d f08b 253b eef4 7fbd 911d 01bd
00000130: 9b9b 63bd 2bea 973d 063b 913d 54cf debc
00000140: 344e 93bd f932 433d f638 f3bc 56b5 32bd
00000150: f3cc 533d ff50 aebd eac3 08bc 4c29 87bd
00000160: 1459 1dbd 84b3 113c 3a43 cc3c 4164 223d
00000170: a8e6 b8bc 4eed 673d 32ee 753d af2f 63bd
00000180: 79d2 a1bb cef3 93bc 2f66 02be 7e13 dabc
00000190: 3079 f43c b188 913c 174d a03d 8569 27bd
000001a0: d7de 20bc 9885 29bd a6ab 68bc a2e3 fbbc
000001b0: b18e a83d 104f 393d 3ab9 0cbc 740f b4bc
000001c0: 4b04 473d 0c7a 9a3d fe9e 173c be7c e2bc
000001d0: 91d8 6bbd 9c93 3dbc 835f 973d fc09 a83d
000001e0: 6e24 bdbc dcee 7f3d c9fd f7bb 7dd8 e63c
000001f0: bbb9 143d f202 41bd 0d9d c13d 9d38 5abd
00000200: aa17 273d f204 d3bd 24a1 8abd 2990 9fbd
00000210: dba5 9d3a af94 b73c 5634 06be 102f bb3d
00000220: 6986 fbbd 179f a23d d065 b53d 61d4 163d
00000230: e35a 2ebd 2547 e93d 7383 133d 7cd8 b9bc
00000240: f95c 023c 51e3 2cbd 5bb4 033d 149b 013d
00000250: 6363 c7bd 6149 36bc 3193 12bd ae96 dfbc
00000260: 6e2b a5bb e2c6 9ebd a3aa f33d db07 aa3d
00000270: 770c e23d f318 c43d b24b e7bd 08bb c1bd
00000280: 9f64 e7bd 6733 c53d 15ff de3c bd8a dd3c
00000290: 6875 2d3d 7ea9 c7bd b2aa 3f3d e44d 83bc
000002a0: 58f1 d7bd 23fe 763d 71bf 003d c3a2 6f3d
000002b0: 8232 2a3e 98f5 f03d dfbc 02bd 14b9 4f3d
000002c0: 2076 c13d c176 303d cc29 a33d 20d7 fcbc
000002d0: f74c 863d 452d dc3c 4833 c4bc 9af4 413d
000002e0: 2e86 243c 37bd de3d 3ce4 be3d 6f44 30be
000002f0: 58bb 8abd 5d72 c8bd 5d10 253c 8737 ae3d
00000300: 8bf1 623b 8d2f 1a3d ebd4 93bc a07b 07ba
00000310: 78e2 b1bd 9f9c 923c e038 393c a029 abbd
00000320: 9c88 983d 5c79 dcbd 1f29 bdbd 76b4 f7bc
00000330: 2434 f2bd fd94 d6bd bef1 d83d 7e15 3fbd
00000340: 3784 e63c fecb babd 9524 4e3c d930 ed3c
00000350: 3c68 3c3d 8061 b8bd 8b44 b03c 907d d83d
00000360: e4d7 2e3b 8cfa 793c 8789 bb3d abfe d7bd
00000370: 6482 6c3d dd5a f13d 385d d4bd f337 e8bd
00000380: 08ac e6bd 20a0 cf3d a681 e4bc e259 8e3d
00000390: e2db e93d 4a8e b2ba 42e7 643d d235 903c
000003a0: d501 09be b779 83bc c294 d3bd 9978 bcbd
000003b0: d50f 9cbd 40aa b33d a71f b6bd 61f6 a3bd
000003c0: b5dd 98bd 0075 d63d a503 fbbd 5da8 183e
000003d0: a91e b03d 1765 cabd 8b7c f6bd 855a 45bd
000003e0: f738 8d3b 8733 e53d 421c 81bd 663a c03d
000003f0: 02bd 9fbb 6a04 22be f822 e9bd 918e 8a3d

bias f4 [4]
0.15045482 -0.13373429 0.04760508 0.18368873
00000000: d410 1a3e a4f1 08be 8bfd 423d e618 3c3e
