dapg/examples/model/no_pen-v0/test_model_discriminator.pt (torch, 143393 bytes, 7 tensors)

in_shift f4 [128]
0.0 0.0 0.0 0.0 0.0 0.0 0.0 0.0
0.0 0.0 0.0 0.0 0.0 0.0 0.0 0.0
0.0 0.0 0.0 0.0 0.0 0.0 0.0 0.0
0.0 0.0 0.0 0.0 0.0 0.0 0.0 0.0
0.0 0.0 0.0 0.0 0.0 0.0 0.0 0.0
0.0 0.0 0.0 0.0 0.0 0.0 0.0 0.0
0.0 0.0 0.0 0.0 0.0 0.0 0.0 0.0
0.0 0.0 0.0 0.0 0.0 0.0 0.0 0.0
0.0 0.0 0.0 0.0 0.0 0.0 0.0 0.0
0.0 0.0 0.0 0.0 0.0 0.0 0.0 0.0
0.0 0.0 0.0 0.0 0.0 0.0 0.0 0.0
0.0 0.0 0.0 0.0 0.0 0.0 0.0 0.0
0.0 0.0 0.0 0.0 0.0 0.0 0.0 0.0
0.0 0.0 0.0 0.0 0.0 0.0 0.0 0.0
0.0 0.0 0.0 0.0 0.0 0.0 0.0 0.0
0.0 0.0 0.0 0.0 0.0 0.0 0.0 0.0
00000000: 0000 0000 0000 0000 0000 0000 0000 0000
00000010: 0000 0000 0000 0000 0000 0000 0000 0000
00000020: 0000 0000 0000 0000 0000 0000 0000 0000
00000030: 0000 0000 0000 0000 0000 0000 0000 0000
00000040: 0000 0000 0000 0000 0000 0000 0000 0000
00000050: 0000 0000 0000 0000 0000 0000 0000 0000
00000060: 0000 0000 0000 0000 0000 0000 0000 0000
00000070: 0000 0000 0000 0000 0000 0000 0000 0000
00000080: 0000 0000 0000 0000 0000 0000 0000 0000
00000090: 0000 0000 0000 0000 0000 0000 0000 0000
000000a0: 0000 0000 0000 0000 0000 0000 0000 0000
000000b0: 0000 0000 0000 0000 0000 0000 0000 0000
000000c0: 0000 0000 0000 0000 0000 0000 0000 0000
000000d0: 0000 0000 0000 0000 0000 0000 0000 0000
000000e0: 0000 0000 0000 0000 0000 0000 0000 0000
000000f0: 0000 0000 0000 0000 0000 0000 0000 0000
00000100: 0000 0000 0000 0000 0000 0000 0000 0000
00000110: 0000 0000 0000 0000 0000 0000 0000 0000
00000120: 0000 0000 0000 0000 0000 0000 0000 0000
00000130: 0000 0000 0000 0000 0000 0000 0000 0000
00000140: 0000 0000 0000 0000 0000 0000 0000 0000
00000150: 0000 0000 0000 0000 0000 0000 0000 0000
00000160: 0000 0000 0000 0000 0000 0000 0000 0000
00000170: 0000 0000 0000 0000 0000 0000 0000 0000
00000180: 0000 0000 0000 0000 0000 0000 0000 0000
00000190: 0000 0000 0000 0000 0000 0000 0000 0000
000001a0: 0000 0000 0000 0000 0000 0000 0000 0000
000001b0: 0000 0000 0000 0000 0000 0000 0000 0000
000001c0: 0000 0000 0000 0000 0000 0000 0000 0000
000001d0: 0000 0000 0000 0000 0000 0000 0000 0000
000001e0: 0000 0000 0000 0000 0000 0000 0000 0000
000001f0: 0000 0000 0000 0000 0000 0000 0000 0000

in_scale f4 [128]
1.0 1.0 1.0 1.0 1.0 1.0 1.0 1.0
1.0 1.0 1.0 1.0 1.0 1.0 1.0 1.0
1.0 1.0 1.0 1.0 1.0 1.0 1.0 1.0
1.0 1.0 1.0 1.0 1.0 1.0 1.0 1.0
1.0 1.0 1.0 1.0 1.0 1.0 1.0 1.0
1.0 1.0 1.0 1.0 1.0 1.0 1.0 1.0
1.0 1.0 1.0 1.0 1.0 1.0 1.0 1.0
1.0 1.0 1.0 1.0 1.0 1.0 1.0 1.0
1.0 1.0 1.0 1.0 1.0 1.0 1.0 1.0
1.0 1.0 1.0 1.0 1.0 1.0 1.0 1.0
1.0 1.0 1.0 1.0 1.0 1.0 1.0 1.0
1.0 1.0 1.0 1.0 1.0 1.0 1.0 1.0
1.0 1.0 1.0 1.0 1.0 1.0 1.0 1.0
1.0 1.0 1.0 1.0 1.0 1.0 1.0 1.0
1.0 1.0 1.0 1.0 1.0 1.0 1.0 1.0
1.0 1.0 1.0 1.0 1.0 1.0 1.0 1.0
00000000: 0000 803f 0000 803f 0000 803f 0000 803f
00000010: 0000 803f 0000 803f 0000 803f 0000 803f
00000020: 0000 803f 0000 803f 0000 803f 0000 803f
00000030: 0000 803f 0000 803f 0000 803f 0000 803f
00000040: 0000 803f 0000 803f 0000 803f 0000 803f
00000050: 0000 803f 0000 803f 0000 803f 0000 803f
00000060: 0000 803f 0000 803f 0000 803f 0000 803f
00000070: 0000 803f 0000 803f 0000 803f 0000 803f
00000080: 0000 803f 0000 803f 0000 803f 0000 803f
00000090: 0000 803f 0000 803f 0000 803f 0000 803f
000000a0: 0000 803f 0000 803f 0000 803f 0000 803f
000000b0: 0000 803f 0000 803f 0000 803f 0000 803f
000000c0: 0000 803f 0000 803f 0000 803f 0000 803f
000000d0: 0000 803f 0000 803f 0000 803f 0000 803f
000000e0: 0000 803f 0000 803f 0000 803f 0000 803f
000000f0: 0000 803f 0000 803f 0000 803f 0000 803f
00000100: 0000 803f 0000 803f 0000 803f 0000 803f
00000110: 0000 803f 0000 803f 0000 803f 0000 803f
00000120: 0000 803f 0000 803f 0000 803f 0000 803f
00000130: 0000 803f 0000 803f 0000 803f 0000 803f
00000140: 0000 803f 0000 803f 0000 803f 0000 803f
00000150: 0000 803f 0000 803f 0000 803f 0000 803f
00000160: 0000 803f 0000 803f 0000 803f 0000 803f
00000170: 0000 803f 0000 803f 0000 803f 0000 803f
00000180: 0000 803f 0000 803f 0000 803f 0000 803f
00000190: 0000 803f 0000 803f 0000 803f 0000 803f
000001a0: 0000 803f 0000 803f 0000 803f 0000 803f
000001b0: 0000 803f 0000 803f 0000 803f 0000 803f
000001c0: 0000 803f 0000 803f 0000 803f 0000 803f
000001d0: 0000 803f 0000 803f 0000 803f 0000 803f
000001e0: 0000 803f 0000 803f 0000 803f 0000 803f
000001f0: 0000 803f 0000 803f 0000 803f 0000 803f

weight f4 [128, 128]
0.07774752 0.028800592 -0.034594577 0.052107506 -0.04781496 0.03436264 -0.0721666 0.029178075
0.0007614942 -0.04365468 -0.057440486 0.0021225167 0.07938777 0.028440008 0.0036481267 -0.028013868
-0.04228742 0.09467198 0.0122933965 -0.048139103 0.09577804 0.056675583 0.07241281 0.019883519
-0.043240547 0.009296526 -0.053953968 0.066280216 0.08613177 0.00938899 -0.024644287 -0.004862435
-0.06397625 -0.08275467 -0.0597115 0.021913743 -0.04640006 0.026378436 -0.021670505 -0.057373557
-0.04953728 -0.044950094 0.08584103 0.016408935 -0.027770229 0.03078542 0.05484112 0.05854717
0.027050115 -0.06291053 -0.01568772 0.01770708 -0.05807575 -0.045521572 0.021621585 0.01811876
0.048798118 0.016451541 -0.0356411 0.00869726 0.030661736 0.058492456 0.046378568 0.027144626
-0.028061504 -0.07271983 0.056373425 0.044142783 0.0745879 0.03793639 0.027836366 0.08811432
-0.06764863 0.03218903 -0.033407472 -0.0078042108 0.03299409 0.066915564 -0.06236212 0.017004825
-0.07081372 0.06526226 0.059728246 0.03977614 -0.09558596 -0.07818695 -0.03515816 0.0071388157
-0.010040692 0.09739345 0.06877659 0.048291378 -0.08761658 -0.05161647 -0.0926423 -0.021060752
-0.021797076 -0.086204946 -0.018757246 -0.055250347 0.0504627 -0.042096682 -0.08575967 0.07656576
0.024327025 0.0742642 0.017159564 0.081351526 0.036793467 0.04082295 -0.06978955 -0.07074855
0.058578797 -0.055941153 0.026725635 0.035221003 0.05159457 -0.014459811 -0.07262836 0.025658187
-0.018012874 -0.052563943 -0.06315077 0.0034508784 0.07306112 -0.04796222 -0.09156054 -0.076960124
-0.013044785 -0.07393441 -0.073762044 0.042232297 0.0649032 -0.09355107 0.017734367 0.021135338
-0.004973703 0.037460048 0.027449181 0.055082113 0.02234026 0.039007794 0.09048791 0.057060003
-0.00977121 0.05107872 0.009669143 0.08921398 0.047714565 0.05524122 -0.0470164 0.032819383
-0.05615778 0.08044005 0.0939123 0.043323733 -0.049845755 0.018876327 -0.060342457 0.002976989
-0.04130742 -0.005915007 0.0023327027 0.064739816 -0.028287837 0.07432026 -0.039103203 0.0063737
-0.030508598 -0.007795863 0.07002029 0.0515095 0.06225226 0.06090436 0.06881794 0.039999526
0.07413115 -0.064339235 0.045483578 -0.06909038 -0.05134522 -0.036375217 -0.02725096 -0.0014566861
0.0006100307 -0.05525515 0.023853408 0.06375649 0.0036453851 0.066840954 0.009951587 -0.063553065
0.028971696 0.0054712333 -0.052642763 -0.06670215 -0.046935044 0.037525997 -0.037697196 -0.022096181
-0.04853801 0.07689736 0.06705157 -0.031575225 0.053404953 -0.025950924 -0.07291133 0.012297492
-0.05826265 0.02178172 0.08551848 -0.042601667 0.09344982 -0.03241238 0.012643877 0.05405632
-0.06496005 0.035426594 0.07657883 0.07003468 0.033133663 0.05906429 -0.013291107 0.08528012
-0.050129846 0.011358239 0.04387961 0.093062915 -0.07447563 -0.03907498 -0.014117558 -0.047144745
0.09452822 -0.059330728 0.06350268 0.009414904 0.06955202 -0.03703842 0.004671675 -0.08063191
0.026417693 0.0455021 0.05020905 0.020460337 0.0099051995 0.06064616 0.0015888041 -0.07455574
-0.05029493 0.06502225 -0.033241987 -0.05024702 -0.05508072 0.024942547 -0.0074518416 0.039320637
00000000: 173a 9f3d 38ef eb3c 0bb3 0dbd ae6e 553d
00000010: 9fd9 43bd d7bf 0c3d 15cc 93bd dc06 ef3c
00000020: 039f 473a 40cf 32bd b746 6bbd ec19 0b3b
00000030: 0e96 a23d 05fb e83c 6915 6f3b 577d e5bc
00000040: 9335 2dbd 62e3 c13d 3e6a 493c 822d 45bd
00000050: 4727 c43d a824 683d 2b4d 943d c3e2 a23c
00000060: 001d 31bd 7550 183c d6fe 5cbd ecbd 873d
00000070: da65 b03d 47d4 193c d1e2 c9bc 1055 9fbb
00000080: fb05 83bd 487b a9bd 0c94 74bd 7384 b33c
00000090: fd0d 3ebd 9717 d83c 5886 b1bc 8900 6bbd
000000a0: 9ae7 4abd 971d 38bd 6ccd af3d 086c 863c
000000b0: 647e e3bc b531 fc3c 15a1 603d 28cf 6f3d
000000c0: 3498 dd3c 3cd7 80bd 8983 80bc 700e 913c
000000d0: d6e0 6dbd d474 3abd c01f b13c cb6d 943c
000000e0: 89e0 473d 62c5 863c 67fc 11bd f47e 0e3c
000000f0: 522e fb3c c995 6f3d 74f7 3d3d 685e de3c
00000100: 3de1 e5bc 22ee 94bd d2e7 663d 10cf 343d
00000110: 8ac1 983d 3063 1b3d 1709 e43c 4875 b43d
00000120: 5d8b 8abd a5d8 033d 46d6 08bd 77ba ffbb
00000130: d024 073d 070b 893d 6c6f 7fbd b44d 8b3c
00000140: c906 91bd 38a8 853d 9ba5 743d 4eec 223d
00000150: 92c2 c3bd 7b20 a0bd 0102 10bd baec e93b
00000160: b781 24bc 3876 c73d beda 8c3d 2ecd 453d
00000170: 5270 b3bd cb6b 53bd 3fbb bdbd 9987 acbc
00000180: c88f b2bc 388c b0bd cca8 99bc 304e 62bd
00000190: fab1 4e3d 926d 2cbd c4a2 afbd 82ce 9c3d
000001a0: 7849 c73c d417 983d 3792 8c3c a19b a63d
000001b0: bfb4 163d f735 273d d3ed 8ebd 9ee4 90bd
000001c0: 52f0 6f3d 8d22 65bd b8ef da3c e643 103d
000001d0: d454 533d d8e8 6cbc 2dbe 94bd 1e31 d23c
000001e0: bc8f 93bc 4a4d 57bd 3155 81bd 2228 623b
000001f0: 12a1 953d 0874 44bd 1884 bbbd 459d 9dbd
00000200: cbb9 55bc ed6a 97bd 8e10 97bd c6fb 2c3d
00000210: f8eb 843d b497 bfbd aa47 913c 0424 ad3c
00000220: 72fa a2bb b56f 193d 1bdd e03c c89d 613d
00000230: ec02 b73c a3c6 1f3d ba51 b93d c0b7 693d
00000240: 6d17 20bc eb37 513d 536b 1e3c d2b5 b63d
00000250: 5970 433d 9e44 623d 4594 40bd 9e6d 063d
00000260: b305 66bd c1bd a43d 1855 c03d 3a74 313d
00000270: 102b 4cbd 87a2 9a3c a729 77bd 9619 433b
00000280: f831 29bd add2 c1bb 42e0 183b 4f96 843d
00000290: e5bb e7bc 3835 983d ae2a 20bd 79da d03b
000002a0: 2bed f9bc 7074 ffbb cc66 8f3d a0fb 523d
000002b0: 3afc 7e3d da76 793d 6cf0 8c3d 8bd6 233d
000002c0: 13d2 973d 4ac4 83bd fd4c 3a3d 427f 8dbd
000002d0: 5e4f 52bd 2efe 14bd 683d dfbc 46ee beba
000002e0: 78ea 1f3a 3953 62bd 3968 c33c c392 823d
000002f0: 6ae7 6e3b e9e3 883d fb0b 233c 1c28 82bd
00000300: 0d56 ed3c 0848 b33b f09f 57bd 239b 88bd
00000310: f63e 40bd dcb4 193d 6068 1abd 0d03 b5bc
00000320: cbcf 46bd 5d7c 9d3d 5552 893d 0655 01bd
00000330: 27bf 5a3d 0897 d4bc 8952 95bd 6b7b 493c
00000340: d1a4 6ebd 946f b23c 5024 af3d 167f 2ebd
00000350: 9f62 bf3d d8c2 04bd 4428 4f3c 296a 5d3d
00000360: c609 85bd 7a1b 113d 5dd5 9c3d 586e 8f3d
00000370: 2ab7 073d 66ed 713d f1c2 59bc 58a7 ae3d
00000380: f454 4dbd e817 3a3c 1bbb 333d c597 be3d
00000390: ae86 98bd 160d 20bd 544d 67bc d91a 41bd
000003a0: 0398 c13d c704 73bd b10d 823d f840 1a3c
000003b0: 4a71 8e3d 99b5 17bd da14 993b 5822 a5bd
000003c0: eb69 d83c 6960 3a3d 01a8 4d3d 709c a73c
000003d0: 6b49 223c 1c68 783d 6b3f d03a aeb0 98bd
000003e0: 0e02 4ebd 632a 853d c028 08bd d2cf 4dbd
000003f0: 529c 61bd 5054 cc3c 942e f4bb ad0e 213d

bias f4 [128]
-0.0478011 0.030903824 0.0030437037 -0.022084182 -0.07450777 0.055570494 0.015729941 -0.001488576
0.09168143 -0.09294959 -0.05870273 -0.05922454 0.07806903 0.0057177506 0.07191356 -0.026007265
0.015340676 0.005439486 0.032296073 0.020772796 0.02897452 -0.005501095 -0.076765604 0.017840436
0.07451618 -0.024440615 0.060540237 0.019981194 -0.07564163 0.07219588 -0.051640507 0.03867871
0.02847179 0.0035590292 -0.010138386 -0.05469256 -0.04798157 -0.0490714 0.022512577 -0.07146457
0.02382662 -0.044196226 -0.08382348 0.057314415 0.0815548 0.023548974 -0.058008563 0.04662039
0.08117852 0.027431374 0.04132328 0.04625657 0.08900024 -0.07425583 0.0035873044 -0.07625155
0.0025651073 -0.04882374 -0.012430911 0.050546944 0.032684553 -0.076322086 -0.030731268 0.024905143
-0.073193334 -0.020604255 0.013672829 0.05335186 0.07597895 0.061693177 -0.034164656 -0.0021588625
-0.05451991 0.044799305 0.014369003 -0.0034891847 0.07109383 -0.084962904 -0.0059989146 -0.030159486
0.0038880452 0.03530147 -0.039886415 -0.06606063 0.012619813 -0.03250226 0.039816298 0.021604825
-0.083927654 -0.005255535 -0.02351629 -0.066606134 -0.09022296 0.08012136 -0.010667359 -0.033083204
-0.022844613 -0.050018057 -0.07546902 -0.08781952 -0.058639027 -0.060286466 -0.09354986 0.05128554
-0.090366 -0.02620532 0.051356632 -0.038924918 -0.03743711 0.0016944571 -0.076699354 -0.0359407
0.056770768 0.0028480708 0.026824676 0.08465838 0.07541149 0.038641844 -0.06998023 0.0044310787
0.01608408 0.025256949 0.041247096 0.04804315 -0.06193299 0.06196699 0.068469286 -0.053476457
00000000: 16cb 43bd 042a fd3c e078 473b e3e9 b4bc
00000010: 8897 98bd e39d 633d 14dc 803c 521c c3ba
00000020: 79c3 bb3d 5b5c bebd 4672 70bd 6e95 72bd
00000030: a8e2 9f3d f85b bb3b 6b47 933d 300d d5bc
00000040: 7557 7b3c b73d b23b e348 043d b62b aa3c
00000050: f95b ed3c 8842 b4bb 4937 9dbd 1b26 923c
00000060: f09b 983d af37 c8bc 0af9 773d 9aaf a33c
00000070: 00ea 9abd 6fdb 933d ff84 53bd 916d 1e3d
00000080: ac3d e93c 9a3e 693b 791b 26bc 4e05 60bd
00000090: 5388 44bd 18ff 48bd 4c6c b83c 045c 92bd
000000a0: 0b30 c33c 1a07 35bd a5ab abbd 85c2 6a3d
000000b0: 3406 a73d c7e9 c03c 639a 6dbd 06f5 3e3d
000000c0: ed40 a63d c3b7 e03c 9a42 293d 8777 3d3d
000000d0: c245 b63d 7113 98bd fb18 6b3b c629 9cbd
000000e0: 5c1b 283b 67fb 47bd 05ab 4bbc 500a 4f3d
000000f0: 3de0 053d c14e 9cbd 24c0 fbbc df05 cc3c
00000100: 63e6 95bd 41ca a8bc 0004 603c 7b87 5a3d
00000110: da9a 9b3d fcb1 7c3d 3df0 0bbd b47b 0dbb
00000120: 4550 5fbd 7a7f 373d f76b 6b3c ceaa 64bb
00000130: a499 913d 0801 aebd 8b92 c4bb 0711 f7bc
00000140: 93ce 7e3b 4698 103d f05f 23bd cc4a 87bd
00000150: 55c3 4e3c 1721 05bd 6a16 233d 9afc b03c
00000160: 43e2 abbd 9f36 acbb 3ca5 c0bc cc68 88bd
00000170: d1c6 b8bd ab16 a43d 26c6 2ebc 4182 07bd
00000180: a024 bbbc bcdf 4cbd 808f 9abd b8da b3bd
00000190: 7a2f 70bd f1ee 76bd 1297 bfbd c910 523d
000001a0: cf11 b9bd 8aac d6bc 555b 523d bc6f 1fbd
000001b0: a857 19bd 8c18 de3a 8d14 9dbd 8e36 13bd
000001c0: 7788 683d b3a6 3a3b 6cbf db3c 5f61 ad3d
000001d0: 5771 9a3d e946 1e3d cb51 8fbd 9532 913b
000001e0: c3c2 833c a9e7 ce3c b7f2 283d e5c8 443d
000001f0: 72ad 7dbd 19d1 7d3d a039 8c3d 210a 5bbd

weight f4 [128, 128]
-0.023665037 0.09558034 -0.017792815 -0.09525623 0.07856455 0.083190925 -0.0026632356 0.076273404
-0.06846284 -0.04570205 0.018859912 -0.047249917 0.082538895 0.020934787 -0.039599337 -0.06116399
-0.06788435 0.028778749 0.03962274 -0.03388977 -0.063492864 0.004597091 0.06503093 -0.08392337
0.014297172 0.06568037 -0.035792958 0.009368495 -0.018960444 0.039228737 -0.083145864 0.038861547
0.039683267 0.071527526 0.04869296 0.07704621 -0.008697002 0.048290234 0.017985206 -0.08294611
0.0053559146 0.021036362 0.0067588487 -0.077576414 0.006343831 0.073349506 0.04210835 -0.028848518
-0.05180345 -0.0046014087 0.034920983 0.004618898 0.066251606 -0.03713971 0.0056760237 -0.06725578
0.07197478 -0.023230912 0.04250774 -0.07580881 -0.01763509 0.043230068 -0.07573157 0.009543333
0.0458084 0.015889196 0.025253866 -0.042015422 -0.090680465 -0.0065958584 -0.03894059 -0.011371025
0.045337256 -0.066060245 0.08574347 -0.075388364 0.024546448 0.09203335 0.03564142 -0.08228492
-0.010619643 -0.07993972 0.024172826 0.071903534 0.0609779 -0.035484474 0.08056514 0.02191156
0.062198047 -0.012824361 -0.04230496 0.059846997 0.07777983 0.054279793 0.006315063 -0.062484793
0.06761467 -0.005791102 -0.09690856 -0.023048233 0.001566272 0.026830617 -0.04857431 -0.03426518
0.0397463 0.08117781 0.039487377 -0.098636955 -0.045689154 -0.07623473 0.021484932 -0.09260263
-0.01899193 0.094708 -0.012181408 -0.07141776 0.031951442 0.02682548 -0.016220357 -0.0027256352
0.023675485 -0.025504896 0.016661607 -0.031805374 0.054561697 -0.03742033 -0.022384439 0.058830123
0.06424399 0.069931306 0.09227751 -0.024989625 -0.07949645 -0.08749741 0.00022724639 -0.071302295
-0.072415315 0.010407009 0.07765991 -0.019224588 0.049173724 -0.027308278 -0.034223482 -0.060252406
0.09124725 -0.05562233 -0.04163394 0.0917055 0.014795882 0.021413118 0.016085068 0.012599272
0.077347904 0.05270866 -0.06454181 0.04339048 -0.043916706 0.08256243 0.051213544 0.002007871
-0.057579283 -0.04392715 0.059627697 0.02425465 -0.057178613 0.03102383 -0.07834553 -0.05654104
0.011177999 -0.007945741 0.048675627 0.056736413 0.028858218 -0.028556012 -0.03480399 0.020561973
0.028152611 -0.035552252 -0.07648183 -0.0016178008 0.06418641 0.035431597 0.001376329 -0.034443837
0.060024466 -0.036636665 -0.021347417 -0.07233703 -0.08209809 0.025605913 -0.0724468 0.058447164
0.050841674 -0.009151526 -0.09497004 0.0118482495 -0.058606856 -0.05232419 0.08957617 0.034362134
-0.0072502787 0.077425584 0.06996588 -0.08590251 0.068098634 -0.06254035 0.08043848 -0.06843369
0.0661698 0.04105004 0.06445455 -0.07146286 -0.005317518 0.04058962 -0.07001988 0.033638995
0.020033032 0.065152265 -0.061639972 -0.009831401 -0.048659835 0.06844273 -0.051492017 -0.017938731
-0.018784847 0.064248845 -0.06645658 0.07039387 -0.07911703 -0.047745325 -0.08683397 -0.06876432
0.07609224 -0.08455465 0.016641825 0.08760483 0.0560421 0.06918101 0.017612293 0.027854193
-0.048626453 0.0058890716 0.058913432 0.061574705 -0.038152516 0.013790803 -0.036980476 0.091196395
-0.051553473 -0.014923358 0.0066206628 -0.033402838 -0.075437225 0.0010250369 0.09088788 -0.03939823
00000000: 2edd c1bc a0bf c33d 3dc2 91bc b315 c3bd
00000010: 73e6 a03d 0160 aa3d ae89 2ebb 3b35 9c3d
00000020: 3f36 8cbd 1332 3bbd 1a80 9a3c 2189 41bd
00000030: 270a a93d 6e7f ab3c ea32 22bd 1887 7abd
00000040: f306 8bbd 69c1 eb3c 744b 223d 00d0 0abd
00000050: 8c08 82bd 32a3 963b f02e 853d 04e0 abbd
00000060: b03e 6a3c 6e83 863d a39b 12bd 517e 193c
00000070: ef52 9bbc 50ae 203d 6148 aabd 492d 1f3d
00000080: ec8a 223d 067d 923d 4572 473d 67ca 9d3d
00000090: df7d 0ebc fbcb 453d b655 933c a6df a9bd
000000a0: ab80 af3b 7354 ac3c 5579 dd3b 62e0 9ebd
000000b0: e9df cf3b 4438 963d ce79 2c3d ba53 ecbc
000000c0: db2f 54bd 6ac7 96bb 4e09 0f3d 205a 973b
000000d0: ecae 873d cf1f 18bd f0fd b93b 66bd 89bd
000000e0: 8367 933d c14e bebc 991c 2e3d a641 9bbd
000000f0: 7777 90bc 0312 313d 2719 9bbd a45b 1c3c
00000100: 97a1 3b3d 0f2a 823c 32e1 ce3c 5d18 2cbd
00000110: aeb6 b9bd 1222 d8bb 2b80 1fbd 894d 3abc
00000120: 8fb3 393d 984a 87bd 469a af3d 3765 9abd
00000130: a215 c93c fb7b bc3d bdfc 113d ff84 a8bd
00000140: 03fe 2dbc 70b7 a3bd 1706 c63c 2942 933d
00000150: f6c3 793d 2b58 11bd 56ff a43d df7f b33c
00000160: 61c3 7e3d 451d 52bc f747 2dbd 2022 753d
00000170: 084b 9f3d 7d54 5e3d 97ee ce3b 0ef0 7fbd
00000180: 8f79 8a3d 49c3 bdbb ff77 c6bd a6cf bcbc
00000190: 5e4b cd3a e2cb db3c dbf5 46bd a559 0cbd
000001a0: 04cd 223d 8d40 a63d 84bd 213d 2c02 cabd
000001b0: 8d24 3bbd f420 9cbd 2b01 b03c 73a6 bdbd
000001c0: f794 9bbc 45f6 c13d 8794 47bc 7943 92bd
000001d0: 84df 023d 1cc1 db3c 8ee0 84bc 92a0 32bb
000001e0: 17f3 c13c a5ef d0bc ec7d 883c 5a46 02bd
000001f0: 167c 5f3d 0f46 19bd 925f b7bc dbf7 703d
00000200: 5a92 833d 2538 8f3d fefb bc3d 0bb7 ccbc
00000210: 09cf a2bd d831 b3bd fd48 6e39 f006 92bd
00000220: 7b4e 94bd 2982 2a3c 290c 9f3d e27c 9dbc
00000230: 636a 493d 9cb5 dfbc ec2d 0cbd 3acb 76bd
00000240: d7df ba3d 3ed4 63bd 5a88 2abd 18d0 bb3d
00000250: 6d6a 723c 906a af3c d5c4 833c 2d6d 4e3c
00000260: 9468 9e3d 09e5 573d 7f2e 84bd 37ba 313d
00000270: 01e2 33bd 7e16 a93d 4bc5 513d 7c96 033b
00000280: 41d8 6bbd f5ec 33bd 2c3c 743d b0b1 c63c
00000290: 1f34 6abd b025 fe3c 9f73 a0bd 9497 67bd
000002a0: ed23 373c da2e 02bc 1860 473d 7164 683d
000002b0: 1268 ec3c 4cee e9bc a18e 0ebd 9571 a83c
000002c0: 4ea0 e63c 3d9f 11bd 81a2 9cbd 630c d4ba
000002d0: 2a74 833d b920 113d f065 b43a fb14 0dbd
000002e0: 37dc 753d 5410 16bd c7e0 aebc 7025 94bd
000002f0: 0b23 a8bd 7ec3 d13c fd5e 94bd 4b66 6f3d
00000300: 5c3f 503d 48f0 15bc a77f c2bd 291f 423c
00000310: be0d 70bd e451 56bd b673 b73d 4fbf 0c3d
00000320: bf93 edbb 4e91 9e3d 454a 8f3d a8ed afbd
00000330: 4c77 8b3d 2815 80bd eebc a43d f626 8cbd
00000340: 0884 873d 1624 283d bf00 843d 1f5b 92bd
00000350: 933e aebb 4d41 263d 9566 8fbd 0bc9 093d
00000360: 501c a43c 8d6e 853d 327a 7cbd e213 21bc
00000370: 894f 47bd b42b 8c3d 4be9 52bd 3ff4 92bc
00000380: aee2 99bc e694 833d 631a 88bd a92a 903d
00000390: 1c08 a2bd 9a90 43bd 02d6 b1bd 4fd4 8cbd
000003a0: 40d6 9b3d fd2a adbd 7054 883c 296a b33d
000003b0: 678c 653d c6ae 8d3d a847 903c 7a2e e43c
000003c0: 882c 47bd 1df9 c03b 364f 713d c235 7c3d
000003d0: d045 1cbd d2f2 613c d778 17bd 2dc5 ba3d
000003e0: bc29 53bd 1a81 74bc 25f2 d83b 6ad1 08bd
000003f0: d57e 9abd 885a 863a 6d23 ba3d 0a60 21bd

bias f4 [128]
0.0018018808 0.017741514 -0.071621716 0.07237021 -0.015018008 0.08123374 0.07976757 0.068789795
0.028390229 0.056046918 0.023652589 0.0831853 -0.013572875 0.022410076 -0.034226734 -0.07247268
-0.002545958 -0.0016498019 0.035207354 -0.06396081 -0.0780514 0.052917566 0.06607916 0.032216422
-0.07859407 -0.09023707 0.09578771 -0.060716085 0.027785728 0.021383207 -0.041552294 -0.06625224
0.078141265 -0.015166483 -0.07223583 -0.079522 0.015124358 -0.044037566 -0.054169156 0.015592889
0.07802905 -0.043757744 -0.00089961366 0.037985038 0.013629943 0.06774855 0.037113708 -0.09365618
-0.03634213 0.026644535 -0.09145215 0.009546317 -0.01204561 0.00732648 0.0474722 0.08028792
-0.02103372 -0.054054447 -0.07917205 0.077584855 0.004717149 0.05784829 0.051579956 0.071196705
-0.062829986 -0.09090078 0.028601702 -0.021914437 -0.049894437 0.073281944 0.021283565 0.028452195
-0.009396441 0.006937729 0.04013076 -0.059056062 0.080685034 -0.053876672 0.033756442 0.04197177
-0.058272507 -0.039534077 -0.06075719 -0.06256184 0.027318599 0.07090898 -0.046927117 -0.09351072
0.019351128 0.0021686265 0.03646384 -0.016156025 -0.077444665 0.07954078 -0.05279826 0.07819018
0.08058784 -0.006875178 0.06595397 0.07548951 0.019025812 -0.020683108 0.0072654053 -0.016579943
-0.058206033 -0.0008497487 0.070614696 -0.022475097 -0.08879612 -0.020010527 0.06458423 0.04528689
0.0063702087 -0.00960167 -0.086472996 -0.021310303 0.03401578 0.022048399 -0.047270432 0.081444174
-0.09429396 0.00018475695 0.06889215 0.004284851 -0.06303547 0.07808834 -0.06673326 0.07033137
00000000: 162d ec3a a756 913c 68ae 92bd d536 943d
00000010: 170e 76bc e05d a63d 2e5d a33d aae1 8c3d
00000020: a092 e83c 7491 653d 13c3 c13c 0e5d aa3d
00000030: c460 5ebc 5695 b73c 5531 0cbd 8e6c 94bd
00000040: 16da 26bb 2a3e d8ba 9635 103d e3fd 82bd
00000050: 6ad9 9fbd 17c0 583d 8354 873d 5ef5 033d
00000060: eef5 a0bd 37ce b8bd 592c c43d 6eb1 78bd
00000070: e59e e33c d62b af3c bd32 2abd 41af 87bd
00000080: 8708 a03d d77c 78bc 61f0 93bd 6edc a2bd
00000090: 28cc 773c bc60 34bd 7ae0 5dbd 5179 7f3c
000000a0: b2cd 9f3d 523b 33bd 0dd4 6bba 3396 1b3d
000000b0: 2050 5f3c c0bf 8a3d 8b04 183d d0ce bfbd
000000c0: 7cdb 14bd a445 da3c 444b bbbd 2868 1c3c
000000d0: f35a 45bc f812 f03b 3672 423d fe6d a43d
000000e0: e84e acbc 3268 5dbd f524 a2bd cfe4 9e3d
000000f0: 5092 9a3b 54f2 6c3d 8145 533d 94cf 913d
00000100: 02ad 80bd 302a babd 1e4e ea3c e885 b3bc
00000110: 1c5e 4cbd d814 963d df5a ae3c 9414 e93c
00000120: 88f3 19bc e455 e33b 2760 243d c5e4 71bd
00000130: 323e a53d c9ad 5cbd 3244 0a3d 97ea 2b3d
00000140: 27af 6ebd 7cee 21bd 88dc 78bd 6c20 80bd
00000150: 41cb df3c ba38 913d a636 40bd 8c82 bfbd
00000160: 4286 9e3c 841f 0e3b 1c5b 153d a459 84bc
00000170: 4f9b 9ebd 47e6 a23d fd42 58bd 2c22 a03d
00000180: 3d0b a53d 2c49 e1bb e012 873d 3f9a 9a3d
00000190: 05dc 9b3c 9f6f a9bc a312 ee3b a9d2 87bc
000001a0: 7369 6ebd acc1 5eba 709e 903d b21d b8bc
000001b0: bdda b5bd 1eed a3bc bd44 843d bf7e 393d
000001c0: 2fbd d03b 5350 1dbc c118 b1bd f292 aebc
000001d0: 2154 0b3d d89e b43c a49e 41bd 34cc a63d
000001e0: 311d c1bd 51bb 4139 5417 8d3d ef67 8c3b
000001f0: be18 81bd c8ec 9f3d 73ab 88bd e509 903d

weight f4 [1, 128]
0.013139068 -0.036614243 0.039143704 -0.026788112 -0.08356727 -0.06742315 0.068989545 0.06497112
-0.03859735 0.05834176 -0.08674809 -0.038174372 0.030658342 0.034858186 0.09564816 -0.087449044
0.034715947 -0.008314794 -0.092149004 -0.05644355 0.057831325 -0.047267 0.03373444 -0.095506445
-0.07381378 0.09355198 -0.02843491 0.0064332564 -0.07578858 0.030058688 0.017431919 0.057945997
-0.042464025 0.083284415 0.026637178 0.048443925 -0.054716744 -0.052469682 0.07481909 -0.014114825
0.016362583 -0.09019462 0.073789045 -0.06696248 -0.090340726 0.034143448 -0.098051526 0.010854532
-0.075590685 -0.080223195 0.065920465 -0.043664545 -0.08475663 0.069243595 -0.02096708 0.066221364
0.06798413 0.080790445 0.063961364 0.03622436 0.02917621 -0.05129987 -0.057152703 -0.01071927
0.008095318 0.066131026 0.09887909 -0.07550995 -0.042981207 0.056562103 -0.04287587 -0.07521855
-0.016385894 -0.013229666 0.08461386 -0.057464857 -0.02634121 -0.06148109 0.019512504 0.06366364
-0.085993886 -0.049438305 -0.032384723 0.07962877 0.0024357787 -0.08265792 -0.0965541 0.031546783
0.07485247 0.00090484973 0.043846212 -0.049468216 -0.041978944 0.075702675 0.04038557 -0.09332092
0.03038555 0.019038672 -0.022942835 -0.041992523 0.011521419 -0.082535565 -0.04328471 0.04692079
-0.08800398 -0.06964266 -0.022578387 0.025586916 0.059633814 0.044615198 0.09712959 0.016351476
0.051408518 -0.09376806 0.09725152 0.01437494 -0.015877735 0.047969624 0.051109526 -0.03529617
0.07306344 -0.015085455 0.052567117 -0.014784355 -0.08445379 -0.011091151 -0.04231092 -0.03118781
00000000: 3f45 573c d1f8 15bd 2655 203d be72 dbbc
00000010: 5125 abbd 2615 8abd 644a 8d3d 940f 853d
00000020: 4118 1ebd c5f7 6e3d fca8 b1bd bb5c 1cbd
00000030: 3427 fb3c 75c7 0e3d 2fe3 c33d 7c18 b3bd
00000040: 4f32 0e3d c63a 08bc 9eb8 bcbd 5a31 67bd
00000050: 8ae0 6c3d 0b9b 41bd 202d 0a3d e298 c3bd
00000060: ae2b 97bd 2e98 bf3d 54f0 e8bc 11ce d23b
00000070: 0b37 9bbd a33d f63c 62cd 8e3c c858 6d3d
00000080: c2ee 2dbd 0591 aa3d 3636 da3c 236d 463d
00000090: aa1e 60bd 73ea 56bd c03a 993d de41 67bc
000000a0: d30a 863c f5b7 b8bd b61e 973d a023 89bd
000000b0: 8f04 b9bd 00da 0b3d 3dcf c8bd 35d7 313c
000000c0: 4acf 9abd 0f4c a4bd 4f01 873d 98d9 32bd
000000d0: e294 adbd 96cf 8d3d 27c3 abbc 119f 873d
000000e0: 433b 8b3d 7675 a53d 2dfe 823d ff5f 143d
000000f0: f202 ef3c d01f 52bd f418 6abd e19f 2fbc
00000100: 3aa2 043c b46f 873d 1f81 ca3d f6a4 9abd
00000110: 100d 30bd aaad 673d 9c9e 2fbd 2f0c 9abd
00000120: b63b 86bc 3ec1 58bc 084a ad3d 4560 6bbd
00000130: 85c9 d7bc 98d3 7bbd b0d8 9f3c 1562 823d
00000140: 901d b0bd d27f 4abd d8a5 04bd 6914 a33d
00000150: 96a1 1f3b 8e48 a9bd 28be c5bd 3337 013d
00000160: 404c 993d 7033 6d3a 1698 333d 2f9f 4abd
00000170: 1df2 2bbd 010a 9b3d 576b 253d 0a1f bfbd
00000180: 1eeb f83c fdf6 9b3c 9df2 bbbc 5a00 2cbd
00000190: 55c4 3c3c 6808 a9bd 4f4b 31bd 0430 403d
000001a0: 6e3b b4bd d0a0 8ebd 4ff6 b8bc a79b d13c
000001b0: 9642 743d 6dbe 363d e1eb c63d 88f3 853c
000001c0: bd91 523d 7809 c0bd ce2b c73d de84 6b3c
000001d0: 0612 82bc cc7b 443d 3958 513d b792 10bd
000001e0: 49a2 953d fc28 77bc 9e50 573d 143a 72bc
000001f0: 1cf6 acbd a9b7 35bc 374e 2dbd 947d ffbc
