dapg/examples/model/no_pen-v0/test_model_feature.pt (torch, 180215 bytes, 10 tensors)

in_shift f4 [72]
0	0x00000000	0.0
1	0x00000000	0.0
2	0x00000000	0.0
3	0x00000000	0.0
4	0x00000000	0.0
5	0x00000000	0.0
6	0x00000000	0.0
7	0x00000000	0.0
8	0x00000000	0.0
9	0x00000000	0.0
10	0x00000000	0.0
11	0x00000000	0.0
12	0x00000000	0.0
13	0x00000000	0.0
14	0x00000000	0.0
15	0x00000000	0.0
16	0x00000000	0.0
17	0x00000000	0.0
18	0x00000000	0.0
19	0x00000000	0.0
20	0x00000000	0.0
21	0x00000000	0.0
22	0x00000000	0.0
23	0x00000000	0.0
24	0x00000000	0.0
25	0x00000000	0.0
26	0x00000000	0.0
27	0x00000000	0.0
28	0x00000000	0.0
29	0x00000000	0.0
30	0x00000000	0.0
31	0x00000000	0.0
32	0x00000000	0.0
33	0x00000000	0.0
34	0x00000000	0.0
35	0x00000000	0.0
36	0x00000000	0.0
37	0x00000000	0.0
38	0x00000000	0.0
39	0x00000000	0.0
40	0x00000000	0.0
41	0x00000000	0.0
42	0x00000000	0.0
43	0x00000000	0.0
44	0x00000000	0.0
45	0x00000000	0.0
46	0x00000000	0.0
47	0x00000000	0.0
48	0x00000000	0.0
49	0x00000000	0.0
50	0x00000000	0.0
51	0x00000000	0.0
52	0x00000000	0.0
53	0x00000000	0.0
54	0x00000000	0.0
55	0x00000000	0.0
56	0x00000000	0.0
57	0x00000000	0.0
58	0x00000000	0.0
59	0x00000000	0.0
60	0x00000000	0.0
61	0x00000000	0.0
62	0x00000000	0.0
63	0x00000000	0.0
64	0x00000000	0.0
65	0x00000000	0.0
66	0x00000000	0.0
67	0x00000000	0.0
68	0x00000000	0.0
69	0x00000000	0.0
70	0x00000000	0.0
71	0x00000000	0.0

in_scale f4 [72]
0	0x3f800000	1.0
1	0x3f800000	1.0
2	0x3f800000	1.0
3	0x3f800000	1.0
4	0x3f800000	1.0
5	0x3f800000	1.0
6	0x3f800000	1.0
7	0x3f800000	1.0
8	0x3f800000	1.0
9	0x3f800000	1.0
10	0x3f800000	1.0
11	0x3f800000	1.0
12	0x3f800000	1.0
13	0x3f800000	1.0
14	0x3f800000	1.0
15	0x3f800000	1.0
16	0x3f800000	1.0
17	0x3f800000	1.0
18	0x3f800000	1.0
19	0x3f800000	1.0
20	0x3f800000	1.0
21	0x3f800000	1.0
22	0x3f800000	1.0
23	0x3f800000	1.0
24	0x3f800000	1.0
25	0x3f800000	1.0
26	0x3f800000	1.0
27	0x3f800000	1.0
28	0x3f800000	1.0
29	0x3f800000	1.0
30	0x3f800000	1.0
31	0x3f800000	1.0
32	0x3f800000	1.0
33	0x3f800000	1.0
34	0x3f800000	1.0
35	0x3f800000	1.0
36	0x3f800000	1.0
37	0x3f800000	1.0
38	0x3f800000	1.0
39	0x3f800000	1.0
40	0x3f800000	1.0
41	0x3f800000	1.0
42	0x3f800000	1.0
43	0x3f800000	1.0
44	0x3f800000	1.0
45	0x3f800000	1.0
46	0x3f800000	1.0
47	0x3f800000	1.0
48	0x3f800000	1.0
49	0x3f800000	1.0
50	0x3f800000	1.0
51	0x3f800000	1.0
52	0x3f800000	1.0
53	0x3f800000	1.0
54	0x3f800000	1.0
55	0x3f800000	1.0
56	0x3f800000	1.0
57	0x3f800000	1.0
58	0x3f800000	1.0
59	0x3f800000	1.0
60	0x3f800000	1.0
61	0x3f800000	1.0
62	0x3f800000	1.0
63	0x3f800000	1.0
64	0x3f800000	1.0
65	0x3f800000	1.0
66	0x3f800000	1.0
67	0x3f800000	1.0
68	0x3f800000	1.0
69	0x3f800000	1.0
70	0x3f800000	1.0
71	0x3f800000	1.0

out_shift f4 [128]
0	0x00000000	0.0
1	0x00000000	0.0
2	0x00000000	0.0
3	0x00000000	0.0
4	0x00000000	0.0
5	0x00000000	0.0
6	0x00000000	0.0
7	0x00000000	0.0
8	0x00000000	0.0
9	0x00000000	0.0
10	0x00000000	0.0
11	0x00000000	0.0
12	0x00000000	0.0
13	0x00000000	0.0
14	0x00000000	0.0
15	0x00000000	0.0
16	0x00000000	0.0
17	0x00000000	0.0
18	0x00000000	0.0
19	0x00000000	0.0
20	0x00000000	0.0
21	0x00000000	0.0
22	0x00000000	0.0
23	0x00000000	0.0
24	0x00000000	0.0
25	0x00000000	0.0
26	0x00000000	0.0
27	0x00000000	0.0
28	0x00000000	0.0
29	0x00000000	0.0
30	0x00000000	0.0
31	0x00000000	0.0
32	0x00000000	0.0
33	0x00000000	0.0
34	0x00000000	0.0
35	0x00000000	0.0
36	0x00000000	0.0
37	0x00000000	0.0
38	0x00000000	0.0
39	0x00000000	0.0
40	0x00000000	0.0
41	0x00000000	0.0
42	0x00000000	0.0
43	0x00000000	0.0
44	0x00000000	0.0
45	0x00000000	0.0
46	0x00000000	0.0
47	0x00000000	0.0
48	0x00000000	0.0
49	0x00000000	0.0
50	0x00000000	0.0
51	0x00000000	0.0
52	0x00000000	0.0
53	0x00000000	0.0
54	0x00000000	0.0
55	0x00000000	0.0
56	0x00000000	0.0
57	0x00000000	0.0
58	0x00000000	0.0
59	0x00000000	0.0
60	0x00000000	0.0
61	0x00000000	0.0
62	0x00000000	0.0
63	0x00000000	0.0
64	0x00000000	0.0
65	0x00000000	0.0
66	0x00000000	0.0
67	0x00000000	0.0
68	0x00000000	0.0
69	0x00000000	0.0
70	0x00000000	0.0
71	0x00000000	0.0
72	0x00000000	0.0
73	0x00000000	0.0
74	0x00000000	0.0
75	0x00000000	0.0
76	0x00000000	0.0
77	0x00000000	0.0
78	0x00000000	0.0
79	0x00000000	0.0
80	0x00000000	0.0
81	0x00000000	0.0
82	0x00000000	0.0
83	0x00000000	0.0
84	0x00000000	0.0
85	0x00000000	0.0
86	0x00000000	0.0
87	0x00000000	0.0
88	0x00000000	0.0
89	0x00000000	0.0
90	0x00000000	0.0
91	0x00000000	0.0
92	0x00000000	0.0
93	0x00000000	0.0
94	0x00000000	0.0
95	0x00000000	0.0
96	0x00000000	0.0
97	0x00000000	0.0
98	0x00000000	0.0
99	0x00000000	0.0
100	0x00000000	0.0
101	0x00000000	0.0
102	0x00000000	0.0
103	0x00000000	0.0
104	0x00000000	0.0
105	0x00000000	0.0
106	0x00000000	0.0
107	0x00000000	0.0
108	0x00000000	0.0
109	0x00000000	0.0
110	0x00000000	0.0
111	0x00000000	0.0
112	0x00000000	0.0
113	0x00000000	0.0
114	0x00000000	0.0
115	0x00000000	0.0
116	0x00000000	0.0
117	0x00000000	0.0
118	0x00000000	0.0
119	0x00000000	0.0
120	0x00000000	0.0
121	0x00000000	0.0
122	0x00000000	0.0
123	0x00000000	0.0
124	0x00000000	0.0
125	0x00000000	0.0
126	0x00000000	0.0
127	0x00000000	0.0

out_scale f4 [128]
0	0x3f800000	1.0
1	0x3f800000	1.0
2	0x3f800000	1.0
3	0x3f800000	1.0
4	0x3f800000	1.0
5	0x3f800000	1.0
6	0x3f800000	1.0
7	0x3f800000	1.0
8	0x3f800000	1.0
9	0x3f800000	1.0
10	0x3f800000	1.0
11	0x3f800000	1.0
12	0x3f800000	1.0
13	0x3f800000	1.0
14	0x3f800000	1.0
15	0x3f800000	1.0
16	0x3f800000	1.0
17	0x3f800000	1.0
18	0x3f800000	1.0
19	0x3f800000	1.0
20	0x3f800000	1.0
21	0x3f800000	1.0
22	0x3f800000	1.0
23	0x3f800000	1.0
24	0x3f800000	1.0
25	0x3f800000	1.0
26	0x3f800000	1.0
27	0x3f800000	1.0
28	0x3f800000	1.0
29	0x3f800000	1.0
30	0x3f800000	1.0
31	0x3f800000	1.0
32	0x3f800000	1.0
33	0x3f800000	1.0
34	0x3f800000	1.0
35	0x3f800000	1.0
36	0x3f800000	1.0
37	0x3f800000	1.0
38	0x3f800000	1.0
39	0x3f800000	1.0
40	0x3f800000	1.0
41	0x3f800000	1.0
42	0x3f800000	1.0
43	0x3f800000	1.0
44	0x3f800000	1.0
45	0x3f800000	1.0
46	0x3f800000	1.0
47	0x3f800000	1.0
48	0x3f800000	1.0
49	0x3f800000	1.0
50	0x3f800000	1.0
51	0x3f800000	1.0
52	0x3f800000	1.0
53	0x3f800000	1.0
54	0x3f800000	1.0
55	0x3f800000	1.0
56	0x3f800000	1.0
57	0x3f800000	1.0
58	0x3f800000	1.0
59	0x3f800000	1.0
60	0x3f800000	1.0
61	0x3f800000	1.0
62	0x3f800000	1.0
63	0x3f800000	1.0
64	0x3f800000	1.0
65	0x3f800000	1.0
66	0x3f800000	1.0
67	0x3f800000	1.0
68	0x3f800000	1.0
69	0x3f800000	1.0
70	0x3f800000	1.0
71	0x3f800000	1.0
72	0x3f800000	1.0
73	0x3f800000	1.0
74	0x3f800000	1.0
75	0x3f800000	1.0
76	0x3f800000	1.0
77	0x3f800000	1.0
78	0x3f800000	1.0
79	0x3f800000	1.0
80	0x3f800000	1.0
81	0x3f800000	1.0
82	0x3f800000	1.0
83	0x3f800000	1.0
84	0x3f800000	1.0
85	0x3f800000	1.0
86	0x3f800000	1.0
87	0x3f800000	1.0
88	0x3f800000	1.0
89	0x3f800000	1.0
90	0x3f800000	1.0
91	0x3f800000	1.0
92	0x3f800000	1.0
93	0x3f800000	1.0
94	0x3f800000	1.0
95	0x3f800000	1.0
96	0x3f800000	1.0
97	0x3f800000	1.0
98	0x3f800000	1.0
99	0x3f800000	1.0
100	0x3f800000	1.0
101	0x3f800000	1.0
102	0x3f800000	1.0
103	0x3f800000	1.0
104	0x3f800000	1.0
105	0x3f800000	1.0
106	0x3f800000	1.0
107	0x3f800000	1.0
108	0x3f800000	1.0
109	0x3f800000	1.0
110	0x3f800000	1.0
111	0x3f800000	1.0
112	0x3f800000	1.0
113	0x3f800000	1.0
114	0x3f800000	1.0
115	0x3f800000	1.0
116	0x3f800000	1.0
117	0x3f800000	1.0
118	0x3f800000	1.0
119	0x3f800000	1.0
120	0x3f800000	1.0
121	0x3f800000	1.0
122	0x3f800000	1.0
123	0x3f800000	1.0
124	0x3f800000	1.0
125	0x3f800000	1.0
126	0x3f800000	1.0
127	0x3f800000	1.0

weight f4 [128, 72]
0	0x3d040ea7	0.032240536
1	0x3ce66863	0.028125947
2	0xbda745c2	-0.08167602
3	0x3d683235	0.056688506
4	0x3d3bbfc9	0.045837197
5	0x3d8b8c41	0.06813861
6	0xbb0e436e	-0.0021707672
7	0x3de4e7af	0.11177003
8	0x3b7f2272	0.0038930443
9	0xbda5097c	-0.080584496
10	0xbd50c952	-0.050973244
11	0xbdcc00d9	-0.09961099
12	0x3c3e6203	0.0116200475
13	0x3d9c9b89	0.076468535
14	0xbd36cb68	-0.044627577
15	0xbb2114c9	-0.002457904
16	0xbd5f863b	-0.05457137
17	0xbd989316	-0.074499294
18	0x3c6c6828	0.01442913
19	0xbde78e91	-0.11306489
20	0xbdb53b0e	-0.088491544
21	0xbdb744cd	-0.089486696
22	0x3d59dc16	0.053188406
23	0xbdac8033	-0.084228896
24	0x3d53201a	0.051544286
25	0xbc8a0094	-0.016845979
26	0x3db1c488	0.086800635
27	0x3dd063d7	0.10175293
28	0xbd908b3b	-0.07057806
29	0xbc6889fc	-0.014193054
30	0xbd453610	-0.04814726
31	0xbd3f0d60	-0.046643615
32	0x3d5c7622	0.053823598
33	0xbd6e3ff2	-0.05816645
34	0xbdc79c79	-0.09746642
35	0xbc5fdde6	-0.013663745
36	0xbd1414e5	-0.03615274
37	0x3d87d7a5	0.06632928
38	0x3d6f6f1b	0.058455568
39	0x3cc94314	0.024568118
40	0xbdb1157c	-0.08646676
41	0xbc5abe22	-0.013350995
42	0xbd58c5ad	-0.052922893
43	0x3d390270	0.04516834
44	0x3c9d3276	0.0191891
45	0xbbfb2ea6	-0.007665473
46	0xbdee125b	-0.11624595
47	0xbd51c865	-0.0512165
48	0x3e056391	0.13026263
49	0xbced0675	-0.028933743
50	0x3d59682d	0.053077865
51	0xbca773c0	-0.020440936
52	0x3bcb450e	0.0062033003
53	0x3d382a99	0.0449625
54	0x3d3a66b8	0.045508116
55	0xbc24558a	-0.01003016
56	0xbdb17799	-0.086653896
57	0x3d6ddca0	0.058071733
58	0x3d000d44	0.03126265
59	0xbd821223	-0.063511156
60	0x3d420a26	0.04737296
61	0xbcf7f84c	-0.030269764
62	0xbccdeed8	-0.025138304
63	0xbde341a4	-0.11096504
64	0x3c8f678b	0.017505428
65	0xbde6b2fb	-0.112646066
66	0xbc22273a	-0.009897048
67	0xbd1220ea	-0.03567592
68	0xbdd35b9f	-0.1032021
69	0x3de9556a	0.113932446
70	0xbd0b977a	-0.034080006
71	0x3ddaafc6	0.106780574
72	0x3d58113e	0.05275082
73	0x3c456664	0.012048338
74	0x3d9f0a08	0.07765585
75	0xbde2b527	-0.11069708
76	0xbdd25577	-0.102702074
77	0x3e076dd9	0.13225497
78	0xbddd5660	-0.1080749
79	0x3c69a064	0.0142594315
80	0x3d044e1e	0.03230106
81	0xbc096cb8	-0.008387737
82	0xbd71a670	-0.058996618
83	0x3e0190f9	0.12652959
84	0xbc0b27bc	-0.00849336
85	0xbd82c53c	-0.06385276
86	0xbd2ef011	-0.042709414
87	0x3dbcd5a6	0.09220438
88	0x3db87476	0.09006588
89	0xbd8d8693	-0.069104336
90	0x3cc4224b	0.023942133
91	0x3c2390ca	0.009983251
92	0xbb38d82f	-0.0028205027
93	0x3d19b8b1	0.03752965
94	0xbd4e2805	-0.050331134
95	0xbda3a4f6	-0.07990448
96	0xbd977f42	-0.073973194
97	0xbc4af346	-0.0123871025
98	0x3d5314c8	0.05153349
99	0xbdcacd64	-0.099024564
100	0xbd45e9df	-0.04831874
101	0xbd3ff5e2	-0.04686535
102	0x3ce9745a	0.028497864
103	0x3ce6d80c	0.028179191
104	0xbc4039ec	-0.01173256
105	0xb88258a8	-6.2153966e-05
106	0xbd30283c	-0.04300712
107	0xbd5fb09e	-0.054611795
108	0x3dac1576	0.08402531
109	0x3dd711ae	0.10501419
110	0xbda266ee	-0.079297885
111	0x3de67bf2	0.112541094
112	0xbdcd50e0	-0.10025191
113	0xbc8d14e6	-0.01722188
114	0xbc4f8810	-0.012666717
115	0x3d1a8eb3	0.037733745
116	0xbdead025	-0.11465482
117	0xbd98a197	-0.07452696
118	0x3daa2b15	0.083089985
119	0xbcccf5a5	-0.025019476
120	0x3d3d1ad8	0.04616818
121	0x3cfa21dc	0.030533724
122	0x3ce72d96	0.02821998
123	0xbd7d42bd	-0.061831225
124	0xbdda9ce6	-0.10674457
125	0xbdbcf974	-0.09227267
126	0xbdc0a4ad	-0.094064094
127	0xbd3638a1	-0.0444876
128	0x3d52f8a9	0.051506672
129	0x3cb4a4e7	0.022051288
130	0x3bc11da7	0.0058934274
131	0x3dfe50b3	0.12417736
132	0x3c4813ec	0.012211781
133	0x3d1ea512	0.038731642
134	0xbdaf2623	-0.08552196
135	0x3cd44540	0.025911927
136	0xb89a6c70	-7.36349e-05
137	0x3a489594	0.00076516834
138	0xbca941f6	-0.020661335
139	0xb7d0dca0	-2.4898269e-05
140	0x3d09c734	0.03363724
141	0xbe026851	-0.12735106
142	0x3d4b6dab	0.049665134
143	0x3cd127cc	0.025531672
144	0x3dc75d18	0.09734553
145	0xbda4da02	-0.08049394
146	0xbdad9fda	-0.08477755
147	0x3dab499e	0.08363651
148	0xbda72ba5	-0.081626214
149	0x3d914e62	0.070950285
150	0x3da48fd9	0.08035249
151	0xbd4dd5e8	-0.050252825
152	0xbd33b4be	-0.04387354
153	0x3d2b8957	0.041879024
154	0xbdb141f2	-0.08655156
155	0x3d486431	0.048923675
156	0x3dea92db	0.11453792
157	0xbcb25b7c	-0.021772139
158	0xbddc1fb9	-0.10748238
159	0xbd32c192	-0.043641634
160	0x3b442106	0.002992691
161	0x3dc306df	0.09522795
162	0x3d1b5f8c	0.037932917
163	0x3d65d6d5	0.056113083
164	0xbd4437bb	-0.04790471
165	0x3d652427	0.05594268
166	0x3da63435	0.081154265
167	0x3da323fa	0.07965846
168	0x3dae4fe0	0.08511329
169	0x3cbd860d	0.02313521
170	0x3dc2c600	0.09510422
171	0xbdb70d86	-0.08938126
172	0xbd0fc458	-0.035099357
173	0xbdca9d35	-0.09893266
174	0xbddbbf8c	-0.10729894
175	0xbd9c89bc	-0.07643458
176	0x3da92503	0.082590126
177	0x3c1c2a73	0.009531605
178	0xbd0c58fe	-0.034264557
179	0x3cb6c2f3	0.022309756
180	0x3cab1c21	0.020887436
181	0x3daff6a8	0.08591968
182	0xbddad0d1	-0.1068436
183	0xbddb2666	-0.10700683
184	0xbdc6bd79	-0.09704108
185	0x3b849e04	0.0040471572
186	0xbd57f17b	-0.052720528
187	0x3dac0b9f	0.08400654
188	0x3ad11433	0.0015951454
189	0x3bcd57ac	0.006266555
190	0xbd40724f	-0.046984013
191	0xbd7842e1	-0.060610656
192	0xbdbb47cb	-0.09144553
193	0x3c842d34	0.016134836
194	0xbd988111	-0.074464925
195	0x3be20483	0.0068975105
196	0xbd9b8914	-0.07594505
197	0xbc37276e	-0.011178834
198	0x3d015612	0.031576224
199	0x3dd41430	0.10355413
200	0xbda4dd47	-0.08050018
201	0xbceceb10	-0.02892068
202	0x3b26dbfd	0.0025460713
203	0x3bdc2473	0.0067182123
204	0x3debacda	0.11507578
205	0x3d21f590	0.039540827
206	0x3dd42c4a	0.1036001
207	0xbcbb82ce	-0.022889521
208	0x3cc9f7c5	0.024654279
209	0x3cad82bf	0.021180509
210	0x3beaa643	0.007160933
211	0x3d99c65d	0.07508538
212	0x3dd4e598	0.10395354
213	0x3d930b51	0.07179893
214	0xbb7d67fe	-0.003866672
215	0xbdc03522	-0.09385134
216	0x3df69656	0.12040393
217	0x3dd25382	0.10269834
218	0xbd8b154c	-0.067911714
219	0x3cfab576	0.030604105
220	0xbd02dcb8	-0.031948775
221	0xbc22358a	-0.00990046
222	0xbd8a3e3f	-0.06750154
223	0x3d65d177	0.056107964
224	0xbd22a376	-0.03970667
225	0xbc8fbc81	-0.01754594
226	0xbd996582	-0.07490064
227	0x3bcb1b4a	0.0061983215
228	0xbd913bb6	-0.07091467
229	0x3d3d7a3d	0.046259154
230	0xbdaab682	-0.08335592
231	0xbd25531f	-0.040362474
232	0x3dae300a	0.085052565
233	0x3d36fde6	0.04467573
234	0x3ac9d301	0.0015397967
235	0xbd04a204	-0.032381073
236	0x3daba535	0.0838112
237	0xbdbe819b	-0.09302064
238	0x3cdf2d00	0.027243137
239	0x3da78f5e	0.08181642
240	0xbc766244	-0.015038077
241	0x3d84108a	0.06448467
242	0x3d800897	0.062516384
243	0x3dc258f5	0.094896235
244	0x3b86a0c7	0.0041085216
245	0xbda99d65	-0.08281974
246	0xbd058b63	-0.032603633
247	0x3cbab958	0.022793457
248	0xbd966af0	-0.073446155
249	0xbdcc7aeb	-0.09984382
250	0x3cd47e03	0.025938993
251	0x3d9fc29d	0.078007914
252	0xbc0cdd51	-0.008597688
253	0x3c302c41	0.010752738
254	0xbddcf3a2	-0.10788657
255	0xbdb3d453	-0.08780732

bias f4 [128]
0	0x3de41542	0.11136867
1	0xbcbce9b2	-0.023060653
2	0x3db2c60f	0.08729183
3	0xbd4813be	-0.048846953
4	0xbd206550	-0.03915912
5	0x3c984557	0.018587751
6	0xbdb7e600	-0.08979416
7	0x3b92d0a8	0.00448044
8	0xbdaf0ed8	-0.08547753
9	0xbc5f5d5d	-0.013633099
10	0x3cb671df	0.022271095
11	0xbdd4f5cd	-0.10398445
12	0xbd6ca7f0	-0.057777345
13	0xbcbf553b	-0.02335607
14	0xbdb45495	-0.08805195
15	0x3d76c60a	0.06024746
16	0xbdd2ceb8	-0.10293335
17	0x3cbe2c97	0.023214621
18	0xbd398076	-0.045288526
19	0xbdc0dd1a	-0.09417172
20	0x3d1d5fa4	0.038421288
21	0x3d11edef	0.0356273
22	0xbdb3fb47	-0.08788162
23	0x3c8e2b1c	0.01735454
24	0xbd53c510	-0.051701605
25	0xbc798ca5	-0.015231286
26	0xbd446f07	-0.047957446
27	0x3d6f680f	0.058448847
28	0x3dd4ab12	0.103841916
29	0x3de36fa1	0.11105276
30	0xbcfb866a	-0.030703742
31	0x3d37f33a	0.044909693
32	0xbd3967e2	-0.045265086
33	0xbdaff480	-0.085915565
34	0x3d0228df	0.03177726
35	0x3d8497d6	0.06474273
36	0xbccbb06b	-0.024864396
37	0xbccf8b50	-0.025334984
38	0xbc9de6d8	-0.019275114
39	0xbcff5086	-0.031166326
40	0x3d97a31a	0.07404156
41	0x3c094a2a	0.0083794985
42	0xbd7348f7	-0.059395757
43	0x3c99eed7	0.018790646
44	0x3dbcfa58	0.09227437
45	0xbd6645f8	-0.05621907
46	0x3cd532a9	0.026025133
47	0x3d644a9c	0.055735216
48	0xbd821e54	-0.06353441
49	0x3dde4628	0.10853225
50	0xbd91db8e	-0.07121955
51	0xbded619f	-0.11590885
52	0x3d7e9ab1	0.062159244
53	0xbd5668f5	-0.05234619
54	0x3da67c77	0.081292085
55	0xbda6d797	-0.08146589
56	0xbd67ac4b	-0.056560796
57	0x3dcddef2	0.10052289
58	0xbccab754	-0.02474562
59	0xbcca0d76	-0.024664622
60	0xbca04d99	-0.019568251
61	0xbc818f1e	-0.015815314
62	0xbd4972d1	-0.049181763
63	0xbdb9608c	-0.09051618
64	0xbdee2839	-0.116287656
65	0x3dd61773	0.10453691
66	0x3c5593bb	0.01303571
67	0x3d34ea21	0.044168595
68	0xbd14dda0	-0.03634417
69	0x3de42d32	0.11141433
70	0xbdb80971	-0.08986176
71	0xbd05c209	-0.03265575
72	0x3c1798f2	0.009252774
73	0x3bd522ed	0.0065044076
74	0xbd8599f8	-0.06523508
75	0xbd8d33f9	-0.068946786
76	0xbd931ce2	-0.07183243
77	0xbcd10bb0	-0.025518268
78	0xbd6cef9e	-0.057845704
79	0xbb4b6661	-0.0031036364
80	0x3bc2af52	0.00594131
81	0x3b95519d	0.004556848
82	0x3d447d78	0.04797122
83	0x3cae7d78	0.021300063
84	0x3de1a76b	0.110182606
85	0xbd157dfe	-0.03649711
86	0xbcc1e00d	-0.023666406
87	0x3a8721b4	0.0010309727
88	0xbc9b789c	-0.01897841
89	0xbdc0f5be	-0.094218716
90	0x3d09237c	0.033481106
91	0x3c88598e	0.016644266
92	0xbce73a77	-0.02822612
93	0x3d2ba35f	0.04190385
94	0x3d0dfbec	0.03466408
95	0x3dd4d074	0.10391322
96	0xbcf6fccb	-0.030149838
97	0xbdf0a51f	-0.11750244
98	0xbd3b9c99	-0.04580364
99	0x3df93f92	0.12170328
100	0xbd8df223	-0.069309495
101	0x3d8da221	0.06915689
102	0xbcefb07c	-0.029258959
103	0xbb9fcc8c	-0.004876679
104	0x3d1c998e	0.03823238
105	0x3d5f91f6	0.05458256
106	0x3d05c305	0.03265669
107	0x3d76451b	0.060124498
108	0x3da47707	0.08030515
109	0x3d54bf29	0.051940117
110	0x3cd0470a	0.025424499
111	0x3dd42bc8	0.10359913
112	0xbe0d2940	-0.13785267
113	0x3dc3817d	0.09546182
114	0xbdadec3d	-0.084923245
115	0xbd8fdec8	-0.07024914
116	0x3d5cde56	0.053922974
117	0xbd032387	-0.032016303
118	0x3dbde3d1	0.09271968
119	0xbe028232	-0.12744978
120	0xbddce75e	-0.10786317
121	0x3d3f606c	0.046722814
122	0x3cbeda6d	0.023297513
123	0xbdd62257	-0.104557686
124	0x3d9f2c0a	0.07772072
125	0xbdc863b7	-0.09784644
126	0xbb42d465	-0.0029728648
127	0x3be1fc22	0.0068965117

weight f4 [128, 128]
0	0x3d230ff2	0.03981013
1	0x3db89a97	0.09013861
2	0xbd223ed2	-0.03961069
3	0xbd8cae36	-0.068691656
4	0xbcd8b8fd	-0.026455397
5	0xbccc2c53	-0.02492348
6	0x3dcac8f0	0.09901607
7	0xbccdf40e	-0.025140788
8	0x3d09cb5a	0.033641197
9	0xbd318d32	-0.043347545
10	0xbd0d4f7f	-0.03449964
11	0x3c40d0f4	0.011768568
12	0x3d93b4bc	0.07212207
13	0x3b611b2a	0.0034348466
14	0x3d01b071	0.03166241
15	0x3d9faf3f	0.077970974
16	0x3d5f571a	0.054526426
17	0xbcd48bf9	-0.02594565
18	0x3d9196ae	0.07108818
19	0xbd9fa691	-0.07795442
20	0x3d96e71e	0.07368301
21	0xbdb7ca17	-0.089740925
22	0x3d304f9e	0.04304468
23	0x3d51686c	0.051124975
24	0x3daa1387	0.08304506
25	0xbcae5711	-0.02128175
26	0xbd8bcfdc	-0.068267554
27	0xbccb5fc3	-0.024825936
28	0x3c7f650d	0.015588057
29	0xbd9f2616	-0.07770936
30	0xbdc9c227	-0.09851485
31	0xbcdd0875	-0.026981572
32	0x3d338c45	0.043834943
33	0x3d0933b6	0.03349658
34	0x3db45c3b	0.08806654
35	0xbcb4f14e	-0.02208772
36	0xbd83d487	-0.06437021
37	0xbd7fd5e6	-0.06245985
38	0x3da07d42	0.07836391
39	0x3d1230aa	0.03569094
40	0x3da031e3	0.07822015
41	0xbda477a2	-0.08030631
42	0x3db24e3f	0.087063305
43	0xbcd4391c	-0.025906138
44	0x3d8c57b9	0.06852669
45	0x3d761353	0.060077023
46	0x3d8c5ba1	0.06853414
47	0xbd1075b4	-0.0352685
48	0x3d38facf	0.045161065
49	0xbd5c66e8	-0.053809077
50	0xbd9bf18d	-0.076144315
51	0xbbb04028	-0.005378742
52	0x3da18a68	0.07887727
53	0xbd2f61cd	-0.04281788
54	0xbd54780c	-0.051872298
55	0x3da65486	0.0812159
56	0xbd8d68aa	-0.06904729
57	0x3c9f5121	0.019447865
58	0xbce66852	-0.028125916
59	0xbd833b50	-0.06407797
60	0xbcc5fa38	-0.024167165
61	0xbd07eea0	-0.033186555
62	0x3c97cce4	0.018530317
63	0x3d57d814	0.052696303
64	0x3d2c5422	0.042072423
65	0xbd5870ff	-0.052842136
66	0x3ce64331	0.028108211
67	0x3d2a1d2e	0.041531734
68	0x3d6e009a	0.058106042
69	0x3d84ec33	0.06490364
70	0x3cb0e430	0.021593183
71	0xba26b2cb	-0.00063590397
72	0xbd94b6a0	-0.072613955
73	0x3d7f7a11	0.06237227
74	0x3bdcb7ed	0.006735793
75	0xbd64f34e	-0.055896096
76	0xbcc8d583	-0.024515873
77	0xbda5cc92	-0.08095659
78	0x3c95cd87	0.01828648
79	0x3baffd05	0.0053707385
80	0xbd4bf76a	-0.0497965
81	0xbd2c192a	-0.042016186
82	0xbda4ee72	-0.08053292
83	0xbd5371e5	-0.05162229
84	0x3d8594e6	0.06522541
85	0xbcb4fd8c	-0.022093557
86	0xbd0586a0	-0.03259909
87	0x3cfd9b0b	0.03095772
88	0xbb2c4dea	-0.0026291558
89	0x3aebe6e1	0.0017997884
90	0xbd11d716	-0.035605513
91	0x3dc49c1f	0.0960009
92	0x3cea08ce	0.028568652
93	0xbbab2ddd	-0.005223973
94	0x3d8da689	0.0691653
95	0x3d2a3e2d	0.0415632
96	0x3da0fbb6	0.0786051
97	0xbcb7cccc	-0.022436522
98	0xbcacf65e	-0.02111357
99	0x3d81f32b	0.06345209
100	0xbdafb718	-0.08579844
101	0xbd8a40e8	-0.06750661
102	0xbd8feb57	-0.070273094
103	0x3c965e54	0.018355526
104	0x3dcda94c	0.100420564
105	0x3da9557a	0.082682565
106	0xbd4cbf6e	-0.04998725
107	0xbd413107	-0.047165897
108	0x3d9b00c1	0.07568503
109	0xbdc1dc32	-0.09465827
110	0x3d59c0bd	0.053162325
111	0x3d6160e6	0.05502405
112	0xbd722a9c	-0.059122667
113	0x3cd82b89	0.026387947
114	0xbd80da19	-0.06291599
115	0x3d842ed3	0.064542435
116	0xbd28d3d8	-0.041217655
117	0xbb962b08	-0.0045827664
118	0xbcd4a59e	-0.025957879
119	0xbd2344b9	-0.03986046
120	0xbd6af780	-0.05736494
121	0x3b3420c0	0.002748534
122	0xbca9d1cd	-0.020729924
123	0x3d643d13	0.055722307
124	0xbd8273cc	-0.06369743
125	0xbd657506	-0.056019805
126	0xbd82e720	-0.0639174
127	0x3d9900ad	0.07470832
128	0xbd91bc0e	-0.07115947
129	0xbd761dde	-0.060087077
130	0xbd82609f	-0.06366085
131	0xbdbfbc4a	-0.09362085
132	0xbd8720af	-0.06598031
133	0xbd58a05e	-0.052887313
134	0x3d88f94b	0.06688174
135	0x3c77ea62	0.015131565
136	0x3c177648	0.009244509
137	0xbd721ab6	-0.059107505
138	0x3b5e2348	0.003389554
139	0xbd8f0034	-0.069824606
140	0xbda1223c	-0.07867858
141	0x3a9ca44e	0.0011950822
142	0x3dc85481	0.09781743
143	0xbbe2f7ae	-0.0069264984
144	0x3db3b61c	0.08774969
145	0x3c537970	0.012907371
146	0x3d9a9a60	0.07548976
147	0xbd6e6bba	-0.058208205
148	0xbdbf1d86	-0.09331803
149	0x3c5b5e9e	0.013389258
150	0x3d7b41be	0.061341994
151	0xbd237155	-0.039903004
152	0xbc66f13d	-0.014095602
153	0xbd8d9b74	-0.06914416
154	0x3d57e4cb	0.05270843
155	0xbd259140	-0.040421724
156	0xbdab1384	-0.08353332
157	0x3d9aa01f	0.07550072
158	0xbdad5bef	-0.084648006
159	0x3d4689ba	0.04847119
160	0xbd453c1e	-0.048153035
161	0x3be99a4d	0.00712899
162	0xbc97b3cb	-0.01851835
163	0x3d126ae4	0.03574647
164	0x3c708242	0.014679493
165	0xba4c55fe	-0.0007794796
166	0xbbbcb638	-0.005759027
167	0x3dc928b4	0.09822217
168	0xbd90c64a	-0.07069071
169	0xbd300318	-0.0429717
170	0xbd7ba818	-0.061439604
171	0x3cb0aa79	0.021565663
172	0x3b25204d	0.0025196255
173	0xbd9d2a7d	-0.076741196
174	0xbc29ea14	-0.01037075
175	0x3d0bb85a	0.03411136
176	0xbd2b20b4	-0.041779235
177	0xbd947e64	-0.072506696
178	0xbcd5ac32	-0.026083086
179	0x3da840ba	0.082154706
180	0x3c98034a	0.018556256
181	0x3a6f7727	0.00091348815
182	0xbd34c40f	-0.04413229
183	0xbd1641fe	-0.03668403
184	0x3daba84a	0.08381708
185	0xbd9efc71	-0.07762993
186	0x3d67b753	0.056571316
187	0x3cc98c5a	0.024603058
188	0xbd1ac794	-0.03778799
189	0x3cb848f3	0.022495722
190	0x3d62d37a	0.05537746
191	0xbca841c6	-0.020539176
192	0xbccf6e02	-0.02532101
193	0x3d7b53b2	0.061359115
194	0x3c0595a4	0.008153353
195	0xbd4cd279	-0.05000541
196	0xbbe822ba	-0.007084218
197	0x3b18b03c	0.0023298403
198	0x3a320f45	0.00067924365
199	0x3cd422a1	0.025895419
200	0xbd0d86ef	-0.03455251
201	0x3d2fa2fa	0.042880036
202	0x3d1bdfa0	0.038055062
203	0xbc676ab4	-0.014124561
204	0x3d18835c	0.03723465
205	0xbd9ef6a2	-0.07761885
206	0xbdd1cc4e	-0.10244046
207	0x3dabb610	0.08384335
208	0x3dcaa0ce	0.09893952
209	0xbd68dd04	-0.056851402
210	0xbd25d1c4	-0.04048325
211	0xbcb61405	-0.022226343
212	0xbd4d165d	-0.050070155
213	0xbbbbfdee	-0.005737058
214	0xbd68f6f0	-0.056876123
215	0x3caac7f3	0.020847296
216	0xbd8fa36d	-0.07013593
217	0xbd93c3de	-0.07215093
218	0x3ce59a94	0.02802781
219	0x3d72bfef	0.059265073
220	0xbd458a38	-0.04822752
221	0xbd879e53	-0.06621995
222	0xbac32aa7	-0.0014890031
223	0x3d84d257	0.06485432
224	0x3d930f82	0.07180692
225	0x3db2fdf4	0.08739844
226	0x3d82a950	0.0637995
227	0xbd24b998	-0.04021606
228	0x3d60a093	0.054840636
229	0x3da00aba	0.07814546
230	0xbd899cee	-0.06719385
231	0xbd97735e	-0.073950514
232	0xbcb4bd06	-0.02206279
233	0x3d2130e2	0.03935326
234	0xbd91ecb8	-0.07125229
235	0xbd861e94	-0.06548801
236	0x3cbe65f3	0.023241973
237	0xbcc71b8c	-0.024305128
238	0xbda5e975	-0.08101169
239	0x3c0b6d17	0.008509896
240	0x3c4e3078	0.012584798
241	0x3d920868	0.071305096
242	0x3d74c771	0.059760515
243	0x3d1f3e0f	0.038877543
244	0x3bab4852	0.005227127
245	0xbd0bc0dd	-0.034119476
246	0x3d66687c	0.056251988
247	0xbcf8bdf7	-0.03036402
248	0xbd9a0faf	-0.07522523
249	0xbcd8bff6	-0.026458722
250	0xbc9b45f5	-0.018954257
251	0xbd97a8c4	-0.07405236
252	0x3d960ce2	0.07326676
253	0x3d12ed01	0.035870556
254	0x3c6316e1	0.013860435
255	0xbd5ca9ee	-0.053872995

bias f4 [128]
0	0xbb08f683	-0.0020898886
1	0xbd37a6f6	-0.04483696
2	0x3da0342f	0.07822453
3	0x3db75e3a	0.08953519
4	0xbcfbb9f6	-0.030728322
5	0x3da84ec0	0.08218145
6	0x3daa5076	0.08316128
7	0x3d826b5c	0.063681334
8	0xbd4301a3	-0.047608983
9	0xbcd6341c	-0.026147895
10	0x3beca51c	0.007221831
11	0xbd74d4ef	-0.05977338
12	0x3cc80904	0.024418361
13	0x3d76df6a	0.060271658
14	0xbd926904	-0.071489364
15	0x3d7dd3db	0.06196962
16	0xbd29ab89	-0.041423354
17	0x3d10ae17	0.035322275
18	0xbdc2ad90	-0.09505761
19	0xbc3d74af	-0.011563464
20	0x3dbf7c0d	0.09349833
21	0xba476f6e	-0.0007607852
22	0x3bebab56	0.0071920557
23	0xbd6799dd	-0.05654322
24	0x3d5838c5	0.052788515
25	0x3d421b09	0.047389064
26	0x3cca7636	0.02471457
27	0xbceac2bc	-0.02865731
28	0xbc83317d	-0.016014809
29	0xbd923e34	-0.071407706
30	0xbd6db198	-0.058030695
31	0xbd8cda34	-0.068775564
32	0xbcfb1998	-0.030651852
33	0x3bcaa4ef	0.0061842124
34	0x3d95ac3b	0.07308241
35	0xbd89c981	-0.06727887
36	0xbd774a28	-0.060373455
37	0xbd955e55	-0.07293383
38	0xbd7f2019	-0.06228647
39	0xbd83bb2c	-0.064321846
40	0xbd8e1778	-0.0693807
41	0x3db719ba	0.08940454
42	0x3ccf0dc4	0.025275119
43	0x3da3ef56	0.08004634
44	0x3c830104	0.015991695
45	0xbd5874ed	-0.052845884
46	0xbcb80bcf	-0.022466568
47	0x3dad7ac4	0.08470681
48	0xbd1e88de	-0.038704745
49	0x3d736a88	0.059427768
50	0xbc6fb520	-0.014630586
51	0xbcee9f2a	-0.02912863
52	0xbcd2e5e7	-0.025744392
53	0x3d56ff37	0.052489486
54	0xbd2cc1cc	-0.042177007
55	0x3da46039	0.080261655
56	0xbd4f4e00	-0.050611496
57	0x3c4d25e3	0.01252124
58	0xbd267468	-0.040638357
59	0x3d88e6f2	0.06684674
60	0xbdb2dcc8	-0.08733517
61	0xbce4bcb7	-0.027922017
62	0x3b1d07c3	0.0023960925
63	0x3d4e0e45	0.050306577
64	0xbd4a41fb	-0.04937933
65	0x3cd50c8c	0.02600696
66	0x3d05b792	0.03264577
67	0xbbbd33ad	-0.0057739825
68	0x3c42514d	0.011860204
69	0x3d177856	0.036979996
70	0xbd38c279	-0.04510734
71	0xbda87a27	-0.08226424
72	0x3d6bc591	0.05756146
73	0xbd67215c	-0.0564283
74	0xbd35ad42	-0.044354685
75	0x3db8f0fb	0.090303384
76	0xbdce1b50	-0.10063803
77	0x3bf33293	0.0074218004
78	0xbd236ff6	-0.039901696
79	0xbd365e9c	-0.04452382
80	0x3d9377ac	0.0720056
81	0x3d8f2ce9	0.06990988
82	0xbd4d5c72	-0.05013699
83	0xbd96e6c8	-0.07368237
84	0x3db233b0	0.08701265
85	0x3c9fc776	0.01950429
86	0x3dc6dcd7	0.097100906
87	0xbd50674a	-0.050879754
88	0xbd0b0146	-0.03393676
89	0x3dc79964	0.09746054
90	0x3d402f74	0.046920255
91	0x3d8b4274	0.06799784
92	0x3d823f57	0.06359737
93	0x3cf6eb05	0.030141363
94	0x3d8b7b53	0.068106316
95	0x3d624e25	0.055250306
96	0x3d0af266	0.033922575
97	0x3d84c629	0.064831086
98	0x3d2bd6d4	0.041952923
99	0x3d087a6e	0.033319883
100	0xbd9fea54	-0.078083664
101	0xbca17cda	-0.019712854
102	0x3bceb751	0.006308474
103	0x3db1ca7c	0.08681199
104	0xbc9cf1f3	-0.01915834
105	0xbd5701d7	-0.05249199
106	0xbbccf429	-0.006254692
107	0x3ce15a1c	0.027508788
108	0x3d081b6b	0.033229273
109	0xbdace6d3	-0.08442464
110	0x3d070cbe	0.032971136
111	0xbd0f42c4	-0.034975782
112	0xbd07c84f	-0.033150014
113	0xbc97df9e	-0.018539246
114	0xbd8c236f	-0.06842696
115	0x3d5d289e	0.053993814
116	0x3d9d5b7e	0.076834664
117	0xbd33216f	-0.043733057
118	0x3d87103d	0.06594894
119	0x3c1fcb0d	0.009753001
120	0xbd6af368	-0.057361037
121	0x3d73e888	0.05954793
122	0xbcf13436	-0.029443841
123	0xbd57cfe8	-0.05268851
124	0x3d92aa8f	0.07161438
125	0x3d523cf2	0.051327653
126	0xbd501a45	-0.050806303
127	0x3b0170e1	0.001975112

weight f4 [128, 128]
0	0xbcf009a8	-0.02930148
1	0xbdb30100	-0.08740425
2	0x3dac1212	0.08401884
3	0xbd1b2565	-0.03787746
4	0xbd670fd7	-0.05641159
5	0xbb92b71d	-0.004477395
6	0x3d436a65	0.047708888
7	0x3d91be19	0.071163364
8	0xbdc7d436	-0.09757273
9	0xbda6bb31	-0.08141173
10	0xbb9ec020	-0.0048446804
11	0xbdd001ce	-0.10156594
12	0x3d420624	0.047369137
13	0x3d942876	0.0723428
14	0x3c6fab8b	0.014628301
15	0x3d86acfc	0.06575963
16	0x3c1e5e09	0.009665974
17	0xbca46f60	-0.020072639
18	0x3c5c65cd	0.013452006
19	0xbd6ab712	-0.057303496
20	0x3cf2b18f	0.029625682
21	0x3b57e8cf	0.0032945161
22	0xbd77fcab	-0.060543697
23	0x3cdeb332	0.027185056
24	0xbc86ae7f	-0.016440628
25	0xbd57cd68	-0.052686125
26	0xbd626a7c	-0.055277333
27	0xbcf5accf	-0.029989628
28	0x3d133975	0.035943467
29	0x3d7fa6eb	0.062415045
30	0xbdcdab12	-0.10042395
31	0x3d96bb10	0.07359898
32	0xbdbeb69a	-0.09312172
33	0x3d91ad34	0.07113114
34	0x3c152932	0.00910406
35	0xbd5a64f2	-0.053318925
36	0xbda36606	-0.07978444
37	0xbd258cd4	-0.040417507
38	0xbcf1cd6e	-0.029516902
39	0x3cdef5e7	0.027216865
40	0x3b914507	0.0044332775
41	0x3cf5d8c2	0.030010585
42	0x3d9f32f9	0.07773394
43	0xbdc44766	-0.09583931
44	0xbba6abf4	-0.0050864164
45	0x3d92a753	0.07160821
46	0xbd4261db	-0.047456603
47	0x3ca4c897	0.02011518
48	0x3c8ee43b	0.017442813
49	0x3d4f399a	0.050592043
50	0xbd6748ed	-0.05646603
51	0xbd8b6cd1	-0.068078645
52	0xbd8cbe1e	-0.068721995
53	0xbd820aae	-0.06349693
54	0xbdd34175	-0.10315219
55	0xbd7755dc	-0.060384616
56	0x3cdb320c	0.026757263
57	0x3d010b30	0.03150481
58	0xbdc27714	-0.094953686
59	0xbca71d73	-0.020399785
60	0x3ca02328	0.019548014
61	0xbd92b34d	-0.07163105
62	0x3d787d71	0.060666505
63	0xbd2d6bc0	-0.042339087
64	0x3d14a72f	0.03629225
65	0x3ce16d94	0.027518071
66	0xbd82a01f	-0.06378197
67	0xbd661a76	-0.05617758
68	0x3d612d03	0.054974567
69	0x3d8b2e33	0.06795921
70	0x3d6a513b	0.057206374
71	0xbc0d0bc9	-0.008608767
72	0xbb892c0f	-0.0041861604
73	0xbd2f6edd	-0.042830337
74	0x3daaf5f5	0.08347694
75	0x3d0b5751	0.03401882
76	0xbd694aa8	-0.056955963
77	0x3b9b858a	0.0047461437
78	0xbd2beda2	-0.04197467
79	0x3d85a665	0.06525878
80	0xbb765d5a	-0.0037592263
81	0x3d1244eb	0.035710257
82	0xbd899596	-0.067179844
83	0xb94385d5	-0.00018646505
84	0xbd4ae4d7	-0.049534645
85	0xbdbc9f5b	-0.09210082
86	0xbdcf8bf3	-0.10134115
87	0xbd3591ba	-0.04432843
88	0xbce9657f	-0.02849078
89	0x3cdedec0	0.027205825
90	0x3d63bbaa	0.055598892
91	0xbd37b6c6	-0.04485204
92	0xbd74e2f6	-0.05978676
93	0x3db0de10	0.08636105
94	0xbd8b26a6	-0.06794481
95	0x3cc2028b	0.023682853
96	0xbd25b751	-0.040458027
97	0x3d855845	0.06510977
98	0x3d950069	0.07275469
99	0xbd840185	-0.06445602
100	0xbd7e31ac	-0.06205909
101	0xbd409e03	-0.04702569
102	0xbda56948	-0.080767214
103	0xbcbb5877	-0.022869332
104	0xbc5fa3ab	-0.013649861
105	0x3d4d9b0f	0.050196704
106	0xbd9e90d0	-0.077424645
107	0xbdb1d883	-0.086838745
108	0x3b4fc49a	0.0031702877
109	0x3d955cc7	0.072930865
110	0x3bbefc76	0.0058284355
111	0xbd3853a7	-0.045001652
112	0x3cb5cce6	0.02219243
113	0xbd4330b5	-0.047653873
114	0xbcddbb20	-0.027066767
115	0x3d3dddd1	0.04635412
116	0x3d1e262b	0.03861062
117	0xbd808d48	-0.06276947
118	0x3c50140c	0.012700092
119	0xbd8db0e0	-0.06918502
120	0x3d0daa34	0.034586146
121	0xbd490fa9	-0.0490872
122	0x3bd48ced	0.006486526
123	0x3d15f497	0.036610212
124	0x3d39c371	0.045352403
125	0xbca2e35b	-0.019883802
126	0x3acf6d6f	0.001582546
127	0x3d47d808	0.048790008
128	0x3d7f03c3	0.062259447
129	0xbcd6d55a	-0.02622478
130	0xbd8805a1	-0.06641699
131	0x3da15b2c	0.07878718
132	0xbafeeb3c	-0.0019448767
133	0xbd1b750f	-0.037953433
134	0x3d99b00d	0.07504282
135	0x3d51e488	0.051243335
136	0x3da049cb	0.07826575
137	0xbd879fad	-0.066222526
138	0x3da5a8ef	0.08088862
139	0x3cebb225	0.02877147
140	0xbdc5278f	-0.09626686
141	0x3d2b5abc	0.041834578
142	0x3cbeb766	0.02328081
143	0x3c33bee7	0.010970808
144	0x3d91e8d2	0.07124485
145	0x3bcda0f7	0.006275292
146	0xbd4bb77a	-0.049735524
147	0xbc79c689	-0.015245088
148	0xbd201f6f	-0.039092477
149	0xbc040b76	-0.008059373
150	0xbd506ba8	-0.05088392
151	0x3bff00e5	0.007782089
152	0x3c843cec	0.016142331
153	0xbd8eb8ba	-0.069688275
154	0xbd02ce32	-0.031934924
155	0xbd4dc23e	-0.050234072
156	0x3d6f3b7d	0.05840634
157	0xbd061915	-0.032738764
158	0xbd984c72	-0.07436456
159	0xbd235b81	-0.039882187
160	0xbb3c28bc	-0.0028710803
161	0x3d774e52	0.060377426
162	0x3d9247cf	0.07142603
163	0x3ca2ea14	0.019887008
164	0x380163fc	3.0849114e-05
165	0xbd8c498a	-0.06849964
166	0xbcaa8bf9	-0.020818697
167	0x3c4e5d13	0.012595433
168	0x3c028ac1	0.007967652
169	0x3d6ee309	0.058321986
170	0x3d1fb628	0.038992077
171	0xbd04a8c4	-0.03238751
172	0xbbe17164	-0.0068799723
173	0x3cea2070	0.02857992
174	0x3cd9c738	0.026584253
175	0x3bf28721	0.0074013625
176	0xbbd89241	-0.0066092317
177	0xbd070033	-0.032959174
178	0xbc6b880f	-0.014375701
179	0xbda3da35	-0.08000604
180	0x3b8c2466	0.0042768
181	0x3d636fc5	0.055526514
182	0xbd24296a	-0.040078558
183	0xbd523fd3	-0.0513304
184	0x3da04bb6	0.07826941
185	0x3d91881a	0.071060374
186	0x3d1ef61d	0.03880893
187	0x3d08e08c	0.03341727
188	0x3bbcddc8	0.005763743
189	0x3db50fed	0.08840928
190	0x3d93c78f	0.07215797
191	0xbcfa7ef7	-0.03057812
192	0x3d8de4dc	0.06928417
193	0xbd99229f	-0.074773066
194	0xbcb85321	-0.022500576
195	0xbd80ad3d	-0.062830426
196	0xbd31e54e	-0.043431573
197	0xbd93c769	-0.07215769
198	0xbdada374	-0.08478442
199	0xbcf2cc97	-0.029638572
200	0x3d706d6a	0.058698095
201	0x3d419c4b	0.047268193
202	0xbd54f9d6	-0.051996075
203	0xbcf1dc27	-0.029523922
204	0xbdbd0bcd	-0.092307664
205	0xbcc78de8	-0.024359658
206	0x3a257573	0.0006311752
207	0xbcb34663	-0.021884149
208	0xbd2fad92	-0.04289014
209	0x3d4a9e65	0.049467463
210	0xbd186f83	-0.03721572
211	0xbdd38c7d	-0.103295304
212	0x3cae948a	0.021311063
213	0x3cb523d6	0.022111814
214	0x3dcbd531	0.099527724
215	0x3d444df7	0.047925916
216	0x3d314487	0.043278243
217	0xbd42352b	-0.047413986
218	0xbca402c9	-0.02002086
219	0x3db008c4	0.08595422
220	0x3d8c5a37	0.068531446
221	0xbdcc4ee0	-0.09975982
222	0x3d09e922	0.0336696
223	0x3d6a4f13	0.057204317
224	0x3c5a0c38	0.013308577
225	0xbdac6691	-0.084180005
226	0xbdb18c46	-0.08669333
227	0xbd51c2f6	-0.05121132
228	0x3b33f70b	0.0027460482
229	0xbc9796cf	-0.018504528
230	0x3ca3b0bc	0.019981734
231	0x3dbb981c	0.09159872
232	0x3d7f1a9a	0.06228123
233	0xbcca7b62	-0.024717037
234	0x3c035a5b	0.008017148
235	0xbd08e056	-0.03341707
236	0xbbb4fef2	-0.005523556
237	0x3d459f71	0.04824776
238	0xbdb73e8f	-0.08947479
239	0x3d0ac8ce	0.03388291
240	0xb8f11db2	-0.00011497307
241	0xbcef350d	-0.029200101
242	0x3ce93658	0.028468296
243	0x3d2ba354	0.04190381
244	0xbd1b4509	-0.037907634
245	0xbd04b354	-0.032397583
246	0x3ab1e6ac	0.0013572774
247	0xbc72a7de	-0.0148105305
248	0xbd1560ab	-0.036469143
249	0x3d296f42	0.04136587
250	0xbdb49744	-0.08817914
251	0x3dba8d82	0.09109022
252	0x3c31629b	0.010826732
253	0x3c526960	0.012842506
254	0x3c9ae998	0.018910214
255	0x3cc14442	0.023592118

bias f4 [128]
0	0x3d356669	0.04428712
1	0xbd44f7ec	-0.048088
2	0x3d8b0209	0.067874976
3	0xbd3c8837	-0.046028342
4	0x3d8478ad	0.064683296
5	0x3d8a518c	0.06753835
6	0x3d8a956d	0.06766782
7	0xbd194e51	-0.037428204
8	0xbcdf49c9	-0.027256863
9	0x3d454aac	0.048166916
10	0xbd12426f	-0.035707887
11	0xbc4bc5ed	-0.012437326
12	0xbb7e1c43	-0.003877417
13	0xbda3cf5f	-0.07998537
14	0xbd20954b	-0.039204877
15	0xbd431b75	-0.047633607
16	0x3c85bf21	0.016326489
17	0x3d5c9b6f	0.05385917
18	0x3cd70373	0.026246762
19	0x3cdb6973	0.02678368
20	0x3d38aa15	0.045084078
21	0x3d888f4f	0.06667959
22	0x3d5e5728	0.054282337
23	0x3d7f319c	0.06230317
24	0xbd847803	-0.06468203
25	0xbbb6b16d	-0.00557535
26	0x3cd7c929	0.026341038
27	0x3d260182	0.04052878
28	0xbd821ccd	-0.063531496
29	0x3d576a6d	0.05259173
30	0x3d225e82	0.03964091
31	0x3cb7c42f	0.022432415
32	0xbd957cc2	-0.07299186
33	0x3b1c3743	0.002383665
34	0xbc245fe3	-0.010032627
35	0x3d2751ec	0.04084961
36	0xbd27d00d	-0.040969897
37	0x3d9fa21b	0.07794591
38	0x3bfaa5cb	0.0076491586
39	0x3d8a4700	0.067518234
40	0xbd87a996	-0.06624143
41	0x3d76943e	0.06019997
42	0xbd89f8ea	-0.0673693
43	0xba1c74e7	-0.00059683475
44	0xbce4c979	-0.0279281
45	0x3d976f79	0.073943086
46	0xbd51fe27	-0.05126777
47	0xbd97db19	-0.074148364
48	0x3ceb68f4	0.028736569
49	0x3c7ba821	0.015359909
50	0x3d1ccee7	0.038283255
51	0x3dc18812	0.094497815
52	0x3d392d7b	0.04520939
53	0x3cce3472	0.025171492
54	0x3c04d6f7	0.008107892
55	0xbd34f7da	-0.044181682
56	0xbbafd53d	-0.005365996
57	0xbd898779	-0.067152925
58	0xbce479b9	-0.027890073
59	0xbda618a1	-0.08110166
60	0x3d827bbf	0.06371259
61	0xbd2a4589	-0.04157022
62	0x3d9e3e37	0.0772671
63	0xbdb0d6b2	-0.086347
64	0xbd9d8e30	-0.07693136
65	0xbd980510	-0.074228406
66	0x3db5fae5	0.08885745
67	0xbc08d926	-0.0083525535
68	0x3daeb903	0.08531382
69	0xbd4b67ea	-0.049659647
70	0x3d943fb5	0.07238714
71	0xbc5c07c9	-0.0134295905
72	0xbc9012d8	-0.01758711
73	0xbc331c7c	-0.010932084
74	0x3be6e0a2	0.0070458213
75	0xbcd80531	-0.026369663
76	0xbd0f48cf	-0.034981545
77	0xbafaa9d2	-0.0019124097
78	0x3dac7bec	0.08422074
79	0xbdb04a02	-0.08607866
80	0x3c3857e6	0.011251425
81	0x3d38452b	0.04498784
82	0x3d76449d	0.06012403
83	0x3c8ddd92	0.017317567
84	0xbd6b4e40	-0.057447672
85	0x3ccdee00	0.025137901
86	0xbd0af78f	-0.033927497
87	0x3c9c6b5a	0.019094158
88	0x3d4ac03b	0.04949973
89	0x3c0b8b4b	0.008517097
90	0xbd8e738a	-0.06955631
91	0xbda041bc	-0.07825038
92	0xbcfb411e	-0.030670699
93	0x3d85d4ed	0.06534753
94	0xbdbbe6c7	-0.09174877
95	0xbd24d125	-0.04023852
96	0xbae29ecd	-0.0017289758
97	0xbdbb4319	-0.09143657
98	0xbcae9e09	-0.021315591
99	0x3d6ee6f8	0.058325738
100	0xbd2cbe23	-0.042173516
101	0xbc2c61e1	-0.010521383
102	0x3c53ae45	0.012919967
103	0xbd536425	-0.051609177
104	0x3c0a4230	0.008438632
105	0x3d4b9a1b	0.049707513
106	0xbd5e205a	-0.05423007
107	0x3d095332	0.033526607
108	0x3d375ad9	0.044764373
109	0xbd9eb61e	-0.0774958
110	0x3c8f862f	0.017520038
111	0xbd7e5eaf	-0.062102016
112	0xbc87377f	-0.016505955
113	0x3c6ab32f	0.014324947
114	0x3d283f08	0.041075736
115	0xbb4a03b6	-0.0030824966
116	0x3d8ea2be	0.06964634
117	0xbdc4bb14	-0.09605995
118	0xbb435f94	-0.0029811608
119	0x3cbac90c	0.022800945
120	0xbab296e0	-0.0013625287
121	0x3c03fee3	0.008056375
122	0x3d74df44	0.059783235
123	0x3d96c759	0.07362241
124	0xbcb2a6dd	-0.021808082
125	0x3cd27d03	0.025694376
126	0x3c26f8cc	0.010191154
127	0x3d26e9a2	0.040750153
