dapg/examples/model/no_pen-v0/test_model_classifier.pt (torch, 148522 bytes, 10 tensors)

in_shift f4 [128]
0	0x00000000	0.0
1	0x00000000	0.0
2	0x00000000	0.0
3	0x00000000	0.0
4	0x00000000	0.0
5	0x00000000	0.0
6	0x00000000	0.0
7	0x00000000	0.0
8	0x00000000	0.0
9	0x00000000	0.0
10	0x00000000	0.0
11	0x00000000	0.0
12	0x00000000	0.0
13	0x00000000	0.0
14	0x00000000	0.0
15	0x00000000	0.0
16	0x00000000	0.0
17	0x00000000	0.0
18	0x00000000	0.0
19	0x00000000	0.0
20	0x00000000	0.0
21	0x00000000	0.0
22	0x00000000	0.0
23	0x00000000	0.0
24	0x00000000	0.0
25	0x00000000	0.0
26	0x00000000	0.0
27	0x00000000	0.0
28	0x00000000	0.0
29	0x00000000	0.0
30	0x00000000	0.0
31	0x00000000	0.0
32	0x00000000	0.0
33	0x00000000	0.0
34	0x00000000	0.0
35	0x00000000	0.0
36	0x00000000	0.0
37	0x00000000	0.0
38	0x00000000	0.0
39	0x00000000	0.0
40	0x00000000	0.0
41	0x00000000	0.0
42	0x00000000	0.0
43	0x00000000	0.0
44	0x00000000	0.0
45	0x00000000	0.0
46	0x00000000	0.0
47	0x00000000	0.0
48	0x00000000	0.0
49	0x00000000	0.0
50	0x00000000	0.0
51	0x00000000	0.0
52	0x00000000	0.0
53	0x00000000	0.0
54	0x00000000	0.0
55	0x00000000	0.0
56	0x00000000	0.0
57	0x00000000	0.0
58	0x00000000	0.0
59	0x00000000	0.0
60	0x00000000	0.0
61	0x00000000	0.0
62	0x00000000	0.0
63	0x00000000	0.0
64	0x00000000	0.0
65	0x00000000	0.0
66	0x00000000	0.0
67	0x00000000	0.0
68	0x00000000	0.0
69	0x00000000	0.0
70	0x00000000	0.0
71	0x00000000	0.0
72	0x00000000	0.0
73	0x00000000	0.0
74	0x00000000	0.0
75	0x00000000	0.0
76	0x00000000	0.0
77	0x00000000	0.0
78	0x00000000	0.0
79	0x00000000	0.0
80	0x00000000	0.0
81	0x00000000	0.0
82	0x00000000	0.0
83	0x00000000	0.0
84	0x00000000	0.0
85	0x00000000	0.0
86	0x00000000	0.0
87	0x00000000	0.0
88	0x00000000	0.0
89	0x00000000	0.0
90	0x00000000	0.0
91	0x00000000	0.0
92	0x00000000	0.0
93	0x00000000	0.0
94	0x00000000	0.0
95	0x00000000	0.0
96	0x00000000	0.0
97	0x00000000	0.0
98	0x00000000	0.0
99	0x00000000	0.0
100	0x00000000	0.0
101	0x00000000	0.0
102	0x00000000	0.0
103	0x00000000	0.0
104	0x00000000	0.0
105	0x00000000	0.0
106	0x00000000	0.0
107	0x00000000	0.0
108	0x00000000	0.0
109	0x00000000	0.0
110	0x00000000	0.0
111	0x00000000	0.0
112	0x00000000	0.0
113	0x00000000	0.0
114	0x00000000	0.0
115	0x00000000	0.0
116	0x00000000	0.0
117	0x00000000	0.0
118	0x00000000	0.0
119	0x00000000	0.0
120	0x00000000	0.0
121	0x00000000	0.0
122	0x00000000	0.0
123	0x00000000	0.0
124	0x00000000	0.0
125	0x00000000	0.0
126	0x00000000	0.0
127	0x00000000	0.0

in_scale f4 [128]
0	0x3f800000	1.0
1	0x3f800000	1.0
2	0x3f800000	1.0
3	0x3f800000	1.0
4	0x3f800000	1.0
5	0x3f800000	1.0
6	0x3f800000	1.0
7	0x3f800000	1.0
8	0x3f800000	1.0
9	0x3f800000	1.0
10	0x3f800000	1.0
11	0x3f800000	1.0
12	0x3f800000	1.0
13	0x3f800000	1.0
14	0x3f800000	1.0
15	0x3f800000	1.0
16	0x3f800000	1.0
17	0x3f800000	1.0
18	0x3f800000	1.0
19	0x3f800000	1.0
20	0x3f800000	1.0
21	0x3f800000	1.0
22	0x3f800000	1.0
23	0x3f800000	1.0
24	0x3f800000	1.0
25	0x3f800000	1.0
26	0x3f800000	1.0
27	0x3f800000	1.0
28	0x3f800000	1.0
29	0x3f800000	1.0
30	0x3f800000	1.0
31	0x3f800000	1.0
32	0x3f800000	1.0
33	0x3f800000	1.0
34	0x3f800000	1.0
35	0x3f800000	1.0
36	0x3f800000	1.0
37	0x3f800000	1.0
38	0x3f800000	1.0
39	0x3f800000	1.0
40	0x3f800000	1.0
41	0x3f800000	1.0
42	0x3f800000	1.0
43	0x3f800000	1.0
44	0x3f800000	1.0
45	0x3f800000	1.0
46	0x3f800000	1.0
47	0x3f800000	1.0
48	0x3f800000	1.0
49	0x3f800000	1.0
50	0x3f800000	1.0
51	0x3f800000	1.0
52	0x3f800000	1.0
53	0x3f800000	1.0
54	0x3f800000	1.0
55	0x3f800000	1.0
56	0x3f800000	1.0
57	0x3f800000	1.0
58	0x3f800000	1.0
59	0x3f800000	1.0
60	0x3f800000	1.0
61	0x3f800000	1.0
62	0x3f800000	1.0
63	0x3f800000	1.0
64	0x3f800000	1.0
65	0x3f800000	1.0
66	0x3f800000	1.0
67	0x3f800000	1.0
68	0x3f800000	1.0
69	0x3f800000	1.0
70	0x3f800000	1.0
71	0x3f800000	1.0
72	0x3f800000	1.0
73	0x3f800000	1.0
74	0x3f800000	1.0
75	0x3f800000	1.0
76	0x3f800000	1.0
77	0x3f800000	1.0
78	0x3f800000	1.0
79	0x3f800000	1.0
80	0x3f800000	1.0
81	0x3f800000	1.0
82	0x3f800000	1.0
83	0x3f800000	1.0
84	0x3f800000	1.0
85	0x3f800000	1.0
86	0x3f800000	1.0
87	0x3f800000	1.0
88	0x3f800000	1.0
89	0x3f800000	1.0
90	0x3f800000	1.0
91	0x3f800000	1.0
92	0x3f800000	1.0
93	0x3f800000	1.0
94	0x3f800000	1.0
95	0x3f800000	1.0
96	0x3f800000	1.0
97	0x3f800000	1.0
98	0x3f800000	1.0
99	0x3f800000	1.0
100	0x3f800000	1.0
101	0x3f800000	1.0
102	0x3f800000	1.0
103	0x3f800000	1.0
104	0x3f800000	1.0
105	0x3f800000	1.0
106	0x3f800000	1.0
107	0x3f800000	1.0
108	0x3f800000	1.0
109	0x3f800000	1.0
110	0x3f800000	1.0
111	0x3f800000	1.0
112	0x3f800000	1.0
113	0x3f800000	1.0
114	0x3f800000	1.0
115	0x3f800000	1.0
116	0x3f800000	1.0
117	0x3f800000	1.0
118	0x3f800000	1.0
119	0x3f800000	1.0
120	0x3f800000	1.0
121	0x3f800000	1.0
122	0x3f800000	1.0
123	0x3f800000	1.0
124	0x3f800000	1.0
125	0x3f800000	1.0
126	0x3f800000	1.0
127	0x3f800000	1.0

out_shift f4 [4]
0	0x00000000	0.0
1	0x00000000	0.0
2	0x00000000	0.0
3	0x00000000	0.0

out_scale f4 [4]
0	0x3f800000	1.0
1	0x3f800000	1.0
2	0x3f800000	1.0
3	0x3f800000	1.0

weight f4 [128, 128]
0	0x3cb0af12	0.021567855
1	0xbd6097ce	-0.054832272
2	0xbca9d034	-0.020729162
3	0xbbf440d0	-0.0074540153
4	0xbd32657d	-0.043553818
5	0x3da7dfc9	0.081969805
6	0xbdb079cb	-0.0861698
7	0xbdc312ef	-0.09525096
8	0x3d64bc92	0.055843897
9	0xbbdb4eb6	-0.0066927327
10	0x3d181376	0.037127934
11	0x3d704107	0.058655765
12	0x3d3c0794	0.045905665
13	0x3d3de3a0	0.04635966
14	0xbb7b0c0d	-0.0038306743
15	0x3d82e865	0.06391982
16	0x3ca13f4c	0.019683503
17	0x3b3ef90e	0.0029140147
18	0xbd63acbe	-0.05558466
19	0x3b83d952	0.0040237093
20	0x3d784038	0.06060812
21	0xbd4a3219	-0.049364183
22	0xbd8b22a6	-0.06793718
23	0x3dbbf2a7	0.09177142
24	0x3d4119c2	0.047143705
25	0xbd6ea911	-0.058266703
26	0xbd9d18ce	-0.07670747
27	0x3c17bed0	0.009261802
28	0xbd051bfd	-0.032497395
29	0x3d462224	0.048372403
30	0xbd1c5f66	-0.038176917
31	0xbd1af30b	-0.03782944
32	0x3ceb7735	0.028743366
33	0x3d9b939e	0.07596515
34	0x3d5351a6	0.051591538
35	0xbd900d11	-0.07033742
36	0x3be0b347	0.006857309
37	0x3cce406d	0.025177205
38	0xbdae8a66	-0.08522491
39	0x3d9230a4	0.07138184
40	0x3d32df20	0.04366982
41	0xbdaa680a	-0.08320625
42	0xbd0e6b0c	-0.034770057
43	0x3aca250f	0.0015422421
44	0xbdca67b3	-0.0988306
45	0xbd8b31e4	-0.06796625
46	0xbdbaf8a7	-0.09129458
47	0xbd4de3a6	-0.05026593
48	0xbd55dfdf	-0.052215453
49	0xba904c1b	-0.0011009009
50	0xbc451e95	-0.012031217
51	0xbce8a33d	-0.02839815
52	0xbd8ec1f2	-0.06970586
53	0xbd1db961	-0.03850687
54	0xbd80d9c4	-0.062915355
55	0x3cec332f	0.028833
56	0x3c8016dc	0.0156359
57	0x3bdc8bd3	0.0067305355
58	0x3da77d75	0.08178226
59	0xbd6ea1b1	-0.05825967
60	0xbd326370	-0.043551862
61	0xbd6e704e	-0.05821257
62	0x3d51fb61	0.051265124
63	0xbcbe4c5a	-0.023229767
64	0x3da5cb24	0.080953866
65	0x3d37cccd	0.044873048
66	0xbc82d054	-0.01596848
67	0x3cf311ca	0.029671568
68	0xbda502b6	-0.08057158
69	0x3c474def	0.012164577
70	0xbbebf429	-0.007200737
71	0xbd2f91dd	-0.042863715
72	0x3b916bc0	0.0044378936
73	0x3d962f5b	0.07333251
74	0xbd032718	-0.032019705
75	0x3bf5f9ab	0.0075065694
76	0xbd54c87a	-0.051949
77	0xbd10fc1d	-0.035396684
78	0xbb5bb007	-0.0033521669
79	0x3d67f8a0	0.05663359
80	0xbd07837c	-0.033084378
81	0x3d42f8ad	0.047600437
82	0x3d998d7b	0.074976884
83	0xbd7154a0	-0.058918595
84	0xba8ce7cf	-0.0010750237
85	0x3ca5deb2	0.020247791
86	0xbdb2bbb3	-0.08727207
87	0xbdc336ca	-0.095319346
88	0xbd88f447	-0.06687217
89	0x3db60f63	0.088896535
90	0x3da967f2	0.08271779
91	0xbd58a008	-0.052886993
92	0xbc8d1299	-0.017220782
93	0xbd4d7b1d	-0.050166238
94	0xbda5fc7a	-0.08104797
95	0x3cdf74b8	0.027277336
96	0x3db600bd	0.088868596
97	0x3d0093dd	0.031391013
98	0x3ce2981f	0.027660428
99	0xbd9b517a	-0.075839
100	0x3dbb3768	0.09141427
101	0xbd962427	-0.07331114
102	0x3d5fd60f	0.0546475
103	0x3d948e23	0.07253673
104	0xbd7c2e2a	-0.061567463
105	0xbdbf40c6	-0.093385264
106	0xbc0be09c	-0.008537438
107	0x3dc2a9c1	0.09505034
108	0xbd54350b	-0.0518084
109	0xbd96af01	-0.07357598
110	0xbd0fb336	-0.03508302
111	0x3c9016be	0.01758897
112	0xbd8ad145	-0.06778196
113	0xbc5be340	-0.01342088
114	0x3c41fcc7	0.011840052
115	0xbccf4628	-0.025302008
116	0x3d5fbed5	0.05462535
117	0x3cda0539	0.026613818
118	0xbd38bf37	-0.04510423
119	0xbd220174	-0.039552167
120	0xbbb3b3a8	-0.005484063
121	0x3d65bc8b	0.05608801
122	0x3c150919	0.009096407
123	0xbb2a52b6	-0.002598924
124	0x3d085c80	0.03329134
125	0x3cc728d4	0.02431146
126	0xbd32d51b	-0.043660264
127	0x3d15a625	0.0365354
128	0xbdafa127	-0.08575659
129	0x3d1a2941	0.037637
130	0xbc6c314f	-0.014416053
131	0x3ae7489c	0.0017645541
132	0xbc1dee1b	-0.009639288
133	0xbd3d1a11	-0.046167437
134	0x3da11a84	0.078663856
135	0x3d3695c3	0.044576418
136	0xbd981f62	-0.07427861
137	0xbc35d137	-0.011097244
138	0x3da07755	0.07835261
139	0x3c412565	0.011788701
140	0xbd88f582	-0.06687452
141	0x3db2466d	0.08704839
142	0x3db858a8	0.09001285
143	0xbc1830bc	-0.009288963
144	0xbd9060b8	-0.07049698
145	0x3d98ed7f	0.07467174
146	0xbcf3c9b7	-0.029759271
147	0xbd975803	-0.07389834
148	0x3d90bebc	0.0706763
149	0xbd81813c	-0.063234776
150	0xbccb6fc0	-0.02483356
151	0x3caf18fa	0.021374214
152	0x3cb9cbd1	0.022680195
153	0xbc51e64a	-0.012811253
154	0xbccf5ca2	-0.025312725
155	0x3d9440a9	0.072388954
156	0xbcb9047b	-0.022585144
157	0x3c9da3d6	0.019243162
158	0x3d2d26f3	0.042273473
159	0x3d8a3fd5	0.06750456
160	0x3d4d952e	0.050191097
161	0xbd8393e9	-0.06424696
162	0x3d38bd18	0.04510221
163	0x3d9297b8	0.07157844
164	0xbd733d38	-0.059384555
165	0x3ba47608	0.0050189532
166	0x3da38bc5	0.07985643
167	0xbce44f3b	-0.027869811
168	0xbd5a1123	-0.053239
169	0xbd058955	-0.032601673
170	0xba173b7e	-0.0005769058
171	0x3cd43478	0.025903925
172	0x3db1b42e	0.08676945
173	0x3d0408e4	0.03223504
174	0x3d19d628	0.03755775
175	0xbdb9ba0a	-0.09068687
176	0x3ca908ee	0.02063414
177	0xbce28d03	-0.02765513
178	0x3d4b4261	0.04962385
179	0x3d0c2884	0.034218326
180	0xbd676293	-0.056490492
181	0x3dba8707	0.09107786
182	0x3d1f4c1e	0.03889095
183	0x3b33963d	0.0027402781
184	0x3d99af1b	0.07504102
185	0x3dba67cb	0.09101828
186	0xbc2bbd1c	-0.010482099
187	0xbc943b50	-0.018094689
188	0x3d273622	0.04082311
189	0xbce78ccc	-0.02826538
190	0xbd498ac1	-0.04920459
191	0x3d8a65d0	0.067577004
192	0x3c0e889b	0.0086995615
193	0xbc841e12	-0.01612762
194	0xbcb49b44	-0.022046693
195	0xbd831c78	-0.06401914
196	0x3d676c98	0.056500047
197	0xbd581ae6	-0.052760027
198	0x3ca733c8	0.020410433
199	0xbd4b53eb	-0.049640577
200	0xbc8887a9	-0.01666625
201	0xbd422a8d	-0.04740386
202	0xbca8b2d1	-0.020593079
203	0xbd1a24c7	-0.03763273
204	0xbd8ead8e	-0.06966697
205	0xbc5cb1e4	-0.013470147
206	0xbd917107	-0.071016364
207	0x3c97bd52	0.018522892
208	0x3dba18a7	0.09086733
209	0xbcaa93ce	-0.020822432
210	0x3d0569da	0.03257165
211	0x3d73f40c	0.059558913
212	0x3d4c7f65	0.04992618
213	0xbcd247a6	-0.02566893
214	0x3d85ad18	0.06527156
215	0x3d7e3f4e	0.06207209
216	0xbdc457b3	-0.0958704
217	0x3d7f87af	0.062385257
218	0xbc57f4db	-0.013180937
219	0xbd5527c1	-0.052039865
220	0xbc38dc8e	-0.011283053
221	0x3d8b665d	0.068066336
222	0xbd813ea5	-0.063107766
223	0xbcf059f4	-0.029339768
224	0x3d937451	0.0719992
225	0x3c8e5904	0.01737643
226	0x3d48eb53	0.049052548
227	0xbcc484a8	-0.023989037
228	0xbca2278f	-0.019794254
229	0xbab47a16	-0.0013769295
230	0xbd88e6aa	-0.06684621
231	0xbd872201	-0.065982826
232	0x3d223044	0.03959681
233	0xbd9fe184	-0.078066856
234	0x3cc49e4b	0.024001261
235	0xbc0abf47	-0.008468456
236	0xbd6e13d6	-0.058124386
237	0x3bd139f9	0.0063850847
238	0xbd16e7b7	-0.036842074
239	0x3dacdd10	0.08440602
240	0x3d1431e9	0.03618041
241	0x3b51c8e1	0.0032010602
242	0x3d6d44ba	0.05792687
243	0x3dae0fac	0.08499083
244	0x3d6b5560	0.057454467
245	0xbd4c14ad	-0.049824405
246	0xbd63add8	-0.055585712
247	0xbdc58764	-0.09644964
248	0x3d92cefa	0.07168384
249	0xbd1f8149	-0.038941655
250	0xbda496db	-0.08036586
251	0x3d4ab69f	0.049490567
252	0xbd19026a	-0.037355818
253	0xbdb34c13	-0.087547444
254	0x3d9c2639	0.07624478
255	0xbd99ae61	-0.07503963

bias f4 [128]
0	0xbd616586	-0.05502846
1	0xbd7c078b	-0.06153063
2	0xbd7f039b	-0.062259298
3	0xbd7ed912	-0.062218733
4	0x3d80b5ad	0.06284652
5	0x3ceffe6e	0.029296126
6	0xbc90187e	-0.017589804
7	0x3d9d0f2f	0.07668912
8	0x3d8a390a	0.067491606
9	0xbbe640d9	-0.0070267734
10	0x3d2f6b97	0.042827215
11	0x3d1e1b9d	0.038600553
12	0xbd84164a	-0.06449564
13	0xbcc52273	-0.024064278
14	0xbd84aa85	-0.064778365
15	0x3d0cde38	0.03439161
16	0x3d88d32c	0.06680903
17	0x3da7f4f0	0.08201015
18	0xb8c5d3c6	-9.433138e-05
19	0x3dc1ba47	0.09459358
20	0x3d6fc6c6	0.058539174
21	0xbc1ddddc	-0.009635415
22	0x3d9d185e	0.07670663
23	0x3d5c16c8	0.053732663
24	0xbd1d21a9	-0.03836218
25	0x3d7c3873	0.06157727
26	0xbbe147d9	-0.00687502
27	0xbda87b73	-0.08226671
28	0xbda2998a	-0.079394415
29	0x3d55c675	0.052191216
30	0x3d3c2086	0.045929454
31	0xbd8be319	-0.06830425
32	0x3d94349d	0.07236598
33	0xbabdfd6f	-0.0014495085
34	0x3d3fe160	0.046845794
35	0xbd6a5712	-0.057211943
36	0xbd919b8f	-0.071097486
37	0x3bc19fbc	0.0059089344
38	0xbd15a47d	-0.03653382
39	0xbda2a86d	-0.07942281
40	0xbc4fa737	-0.0126741445
41	0xbd85e8df	-0.06538557
42	0xbcea5bb5	-0.028608182
43	0xbd374b77	-0.044749703
44	0xbc9a60c8	-0.018844977
45	0x3d7f8123	0.062379014
46	0xbcd0fa22	-0.025509898
47	0x3d7f5ef5	0.062346417
48	0xbb66899d	-0.0035177239
49	0x3dba5461	0.09098125
50	0x3d536626	0.05161109
51	0x3c285791	0.010274784
52	0x3d701c98	0.05862102
53	0xbc9396f7	-0.018016322
54	0xbdbf717e	-0.09347819
55	0x3dc9c419	0.09851856
56	0xbd919f5c	-0.071104735
57	0x3db9f018	0.090789974
58	0x3d937961	0.072008856
59	0xbd8e9f3a	-0.06963964
60	0xbda6f938	-0.081530035
61	0xbd667b3b	-0.056269865
62	0xbc8643ca	-0.016389746
63	0xbd2d4e88	-0.04231122
64	0x3d96605c	0.07342598
65	0x3d21df60	0.039519668
66	0xbd02543d	-0.031818617
67	0x3c81cad8	0.015843794
68	0x3d8f65c2	0.07001831
69	0xbd8122cc	-0.06305465
70	0xbd856a43	-0.065144084
71	0x3ceb1d43	0.028700477
72	0xbda5b2dc	-0.08090755
73	0xbcaeab92	-0.021322045
74	0xbd22ff34	-0.039794162
75	0xbb7fa007	-0.0039005296
76	0x3a1c0fb0	0.00059532654
77	0xbc4db825	-0.0125561105
78	0xbd4d7154	-0.050156906
79	0x3c8c9c33	0.017164325
80	0x3b8d3fc4	0.00431058
81	0xbd2f25a2	-0.0427605
82	0xbd1e64b2	-0.03867025
83	0xbc9a9221	-0.018868508
84	0xbd673521	-0.056447152
85	0xbd98784a	-0.07444818
86	0xbd5cd9b9	-0.053918574
87	0x3db2757f	0.08713817
88	0xbcfc37ca	-0.030788321
89	0x39b899d0	0.00035209814
90	0xbcbbf8a8	-0.022945717
91	0x3da355b6	0.079753324
92	0xbc9101bf	-0.017701028
93	0xbd8f7eb2	-0.07006587
94	0x3d95fbbd	0.07323406
95	0x3b65fdf9	0.0035094006
96	0x3c40134c	0.011723351
97	0xbd6a5d6d	-0.057218004
98	0x3caae8f1	0.020863028
99	0x3cb80e0e	0.02246764
100	0x3d4a7210	0.049425185
101	0x3db25935	0.08708421
102	0x3d8bd8bc	0.06828448
103	0xbca2b46c	-0.019861422
104	0xbdba8325	-0.09107045
105	0xbd6c67c3	-0.057716142
106	0x3d5f73f1	0.05455393
107	0x3c353bcb	0.011061619
108	0x3bf60833	0.0075083016
109	0xbd5e6cd7	-0.054303017
110	0x3d3e3519	0.046437357
111	0x3d9ff5fd	0.078105904
112	0xbd8c639a	-0.06854935
113	0xbd876731	-0.06611479
114	0xbdb3a9fa	-0.08772655
115	0xbd4ade50	-0.04952842
116	0xbd51ba52	-0.05120308
117	0x3c289fb2	0.010291981
118	0xbc77f23c	-0.015133437
119	0xbda4de06	-0.0805016
120	0x3cc9b032	0.02462015
121	0x3d450a6e	0.04810565
122	0xbcf80e5b	-0.030280283
123	0x3d419300	0.04725933
124	0xbd79caf4	-0.060984567
125	0xbcadec64	-0.021230884
126	0xbcd9db73	-0.0265939
127	0xbda74159	-0.08166761

weight f4 [128, 128]
0	0x3d9d9b47	0.076956324
1	0xbc8940f6	-0.016754609
2	0xbcddc8ae	-0.02707323
3	0xbda39322	-0.07987048
4	0x3d9ceda4	0.07662514
5	0xbd53a589	-0.05167154
6	0xbd63f66b	-0.055654924
7	0xbd99d1d6	-0.07510726
8	0x3d47f065	0.048813242
9	0xbda0ae2e	-0.07845722
10	0x3cbcb2d2	0.023034487
11	0x3d92e227	0.071720414
12	0xbdb09b03	-0.08623316
13	0xbd8be3be	-0.06830548
14	0x3d12bec6	0.035826467
15	0x3c8547fc	0.016269676
16	0x3da9a572	0.08283509
17	0x3d833c58	0.06407994
18	0x3da9c1e8	0.08288938
19	0xbd868555	-0.065684
20	0x3b7d45c7	0.0038646327
21	0x3d36481f	0.044502374
22	0x3cb7291d	0.022358472
23	0x3d4edf81	0.05050612
24	0xbd85f57e	-0.065409645
25	0x3c28ce19	0.010303044
26	0x3d387a55	0.04503854
27	0x3d3fb11b	0.04679976
28	0xba67ddb2	-0.0008844986
29	0x3d2bf402	0.04198075
30	0xbd0cfea6	-0.03442254
31	0x3c97c177	0.018524868
32	0xbd93a590	-0.07209313
33	0xbd8445b1	-0.06458605
34	0x3d8da3fb	0.069160424
35	0x3d4cbf5c	0.049987182
36	0xbc8d7290	-0.017266542
37	0xbd14b32a	-0.036303677
38	0x3ca1a996	0.019734185
39	0x3d6e5b86	0.058192752
40	0xbd7a4e31	-0.061109725
41	0xbd9e5d66	-0.07732658
42	0xbd4f248b	-0.05057196
43	0x3d3ae106	0.045624755
44	0x3d51488a	0.05109457
45	0x3d14f20e	0.036363654
46	0xbd9ac774	-0.07557574
47	0xbd9e9390	-0.07742989
48	0xbda7d5bf	-0.08195066
49	0xbbdef242	-0.0068037817
50	0x3d957dc5	0.07299379
51	0x3d50e8e3	0.051003348
52	0xbcd32eb1	-0.0257791
53	0x3d69645d	0.05698048
54	0x3d1cce06	0.038282417
55	0xbd19a0d2	-0.037506886
56	0xbceaa875	-0.02864478
57	0xbd87c977	-0.06630223
58	0xbd474025	-0.048645157
59	0xbcf92382	-0.03041244
60	0xbdb2e3c2	-0.087348476
61	0xbccb0839	-0.024784194
62	0x3d70f73a	0.058829524
63	0xbd837c95	-0.064202465
64	0x3c6d5ae1	0.014486999
65	0xbd75dc43	-0.06002451
66	0x3da45f53	0.08025994
67	0xbd91a966	-0.07112388
68	0x3db4b23b	0.08823057
69	0x3d36eaf0	0.044657648
70	0x3d8ad5b6	0.067790434
71	0xbdc480a7	-0.09594851
72	0xbbcb7617	-0.0062091458
73	0x3d3b1749	0.045676503
74	0xbd90695e	-0.07051347
75	0xbce1c6c8	-0.027560607
76	0x3d90cb18	0.07069987
77	0x3c51490c	0.012773763
78	0xbd6c2146	-0.05764892
79	0xbd3ec55a	-0.046574928
80	0xbd817994	-0.06322017
81	0x3c46ac14	0.012125988
82	0x3c545e7b	0.012961979
83	0xbcec6fa8	-0.028861836
84	0xbdb6ed19	-0.089319415
85	0x3cc8b605	0.024500856
86	0x3d905947	0.07048278
87	0xbc9f8932	-0.0194746
88	0x3ce9ce02	0.028540615
89	0xbc8e9d0e	-0.017408874
90	0x3d7317e2	0.05934895
91	0x3cdbb02b	0.026817402
92	0xbd5f2726	-0.054480694
93	0xbc945754	-0.018108048
94	0x3b45df2a	0.003019283
95	0xbd8a14c7	-0.06742244
96	0x3d8c23f5	0.06842796
97	0x3d5750ff	0.05256748
98	0x3afcf4a8	0.0019298987
99	0x3d4d901a	0.050186254
100	0x3da030b6	0.07821791
101	0x3d5183fd	0.051151264
102	0xbd21b9fb	-0.039484005
103	0x3c178320	0.009247571
104	0x3b5df587	0.003386827
105	0xbd644680	-0.055731297
106	0x3da9ba59	0.08287496
107	0x3d3924a3	0.045200955
108	0xbd1a7ff8	-0.037719697
109	0xbd54d5a8	-0.05196157
110	0xbd0bfa57	-0.03417429
111	0x3d127dbb	0.035764437
112	0x3dac2888	0.08406168
113	0xbd55dc61	-0.052212123
114	0x3d63721f	0.055528756
115	0xbd9b801d	-0.07592795
116	0xbd6d5163	-0.057938945
117	0x3d48da74	0.049036458
118	0x3d9da664	0.07697752
119	0x3d333549	0.04375199
120	0xbd06cbd5	-0.032909233
121	0x3d983b49	0.07433183
122	0x3d7b9065	0.061417002
123	0x3d487836	0.048942767
124	0xbda33609	-0.07969291
125	0xbb40918b	-0.0029383625
126	0x3d9b055f	0.07569384
127	0x3a7f7dcb	0.00097462226
128	0x3ce1a8fb	0.027546396
129	0x3bb52a95	0.005528758
130	0xbc683087	-0.014171726
131	0x3da73161	0.08163715
132	0x3d234a46	0.039865755
133	0x3d09a8ef	0.033608373
134	0x3c9064ff	0.017626284
135	0xbda46103	-0.08026316
136	0xbd5a15fc	-0.053243622
137	0x3a234b52	0.000622918
138	0x3dc660a1	0.09686399
139	0xbc741676	-0.014897933
140	0xbd491f8f	-0.049102362
141	0x3d90feb1	0.070798285
142	0xbd5a59b0	-0.05330819
143	0x3d8c3b75	0.06847278
144	0x3d47f00a	0.048812903
145	0x3d92a65f	0.07160639
146	0x3d7eb45c	0.062183723
147	0xbc9962e5	-0.018723914
148	0xbd99cd26	-0.07509832
149	0x3b1f8f27	0.00243468
150	0xbd85bc08	-0.06530005
151	0xbd2c2a93	-0.04203279
152	0xbd68f038	-0.056869715
153	0xbbbb9a65	-0.0057251924
154	0xbd8978ff	-0.06712531
155	0x3cfa64a7	0.030565573
156	0xbd398405	-0.04529192
157	0xbd935adf	-0.07195067
158	0x3d4210a2	0.047379144
159	0x3d387607	0.045034435
160	0xbcdca2e5	-0.026933143
161	0xbcded9ca	-0.02720346
162	0x3d5829d5	0.05277427
163	0x3bb9cf2b	0.0056704483
164	0xbd8e7621	-0.06956125
165	0xbce77819	-0.02825551
166	0xbd3de74a	-0.046363153
167	0x3da8bd98	0.08239287
168	0xbd54077e	-0.051764958
169	0xbd933313	-0.07187476
170	0x3c82539e	0.015909012
171	0xbd754bb6	-0.059886657
172	0xbc942756	-0.018085163
173	0x3dc16f53	0.094450615
174	0x3d074790	0.03302723
175	0xbc686364	-0.014183853
176	0x3dab331b	0.08359357
177	0xbd9a2c9b	-0.07528039
178	0x3d2a59b6	0.04158946
179	0x3d9685d8	0.073497474
180	0xbd0379a3	-0.032098424
181	0xbd0b95fd	-0.034078587
182	0xbd80178d	-0.06254492
183	0x396ac147	0.0002238798
184	0xbcef200a	-0.029190082
185	0x3da3611e	0.07977508
186	0x3d8db92d	0.06920085
187	0x3c8ecf07	0.017432703
188	0x3db7ad28	0.08968574
189	0xbcbcc07b	-0.023041
190	0x3c446824	0.01198772
191	0x3cbf0bbd	0.023321027
192	0x3c7497e1	0.014928789
193	0xbb7fe240	-0.0039044768
194	0xbd10824f	-0.035280522
195	0xbcc1e783	-0.023669964
196	0x3d0973fa	0.03355787
197	0xbd60e7e4	-0.054908648
198	0x3d53046e	0.051517896
199	0xbb750782	-0.0037388508
200	0x3d2ff23a	0.042955615
201	0x3d5acbb1	0.05341691
202	0xbc371182	-0.011173608
203	0x3a0f442f	0.0005465177
204	0x3d88c070	0.066773295
205	0xbcbb21ba	-0.02284323
206	0xbdaca592	-0.084300175
207	0x3d4736de	0.04863631
208	0x3d16a15d	0.03677498
209	0xbd2c8ec0	-0.042128325
210	0xbd5c715b	-0.05381904
211	0x3c9d14f1	0.019175025
212	0x3d9bc3b1	0.076056845
213	0xbcd6867b	-0.026187172
214	0x3d52c6d2	0.05145914
215	0xbd73c782	-0.059516437
216	0xbd549223	-0.05189718
217	0x3bc28a0d	0.005936867
218	0xbd1ca918	-0.038247198
219	0x3c734d7b	0.014850016
220	0xbb1a8cba	-0.0023582415
221	0xbc40d079	-0.011768454
222	0x3d09d68e	0.03365188
223	0xbd440ebd	-0.047865618
224	0xbced7435	-0.028986076
225	0x3d57e080	0.052704334
226	0xbc9e453c	-0.019320123
227	0xbdb55cca	-0.08855589
228	0x3c8b05ef	0.016970603
229	0xbd595306	-0.053057693
230	0xbd2cec25	-0.042217392
231	0xbd7a4524	-0.061101094
232	0x3cc1317b	0.023583164
233	0x3d8a8bba	0.06764932
234	0xbc9d4795	-0.019199172
235	0xbd895144	-0.06704953
236	0xba233c5b	-0.000622695
237	0xbdab85f9	-0.08375163
238	0xbd9c2d12	-0.07625784
239	0xbda82eb0	-0.0821203
240	0xbd7f9b68	-0.062404066
241	0x3d147077	0.036240067
242	0x3d84edb7	0.06490653
243	0xbd5e6176	-0.054292165
244	0xbd0d25c6	-0.03445985
245	0x3bb4e376	0.0055202795
246	0x3d11c6c4	0.03558995
247	0xbd3e9535	-0.046529014
248	0xbd06dbf1	-0.032924596
249	0xbd8fe32c	-0.070257515
250	0xbd4b5371	-0.049640123
251	0xbcc93da8	-0.024565533
252	0x3cf5eef5	0.03002117
253	0x3bb663fe	0.005566119
254	0x3c36b881	0.011152388
255	0x3dbceb14	0.09224525

bias f4 [128]
0	0xbd7fefed	-0.06248467
1	0xbba20b97	-0.0049452293
2	0xbda1cdf4	-0.079006106
3	0x3d229ddd	0.03970133
4	0xbd3ea095	-0.04653986
5	0x3d865202	0.065586105
6	0x3d96015f	0.0732448
7	0x3c90d96a	0.017681796
8	0x3d96d8ac	0.07365546
9	0xbd89d512	-0.06730093
10	0xbd488b42	-0.04896093
11	0xbca15cb8	-0.019697532
12	0x3d47bdbc	0.04876493
13	0x3d9fc11c	0.078005046
14	0xbc5534e9	-0.013013103
15	0x3d89b889	0.067246504
16	0xbd85a238	-0.065250814
17	0x3d843bf7	0.0645675
18	0x3cc43d0f	0.023954896
19	0x3d839745	0.06425337
20	0xbda21b6e	-0.07915388
21	0x3daa4ca8	0.08315402
22	0xbd904e8f	-0.07046234
23	0x3d1fef62	0.039046653
24	0xbd81dd61	-0.06341053
25	0xbcf00f84	-0.029304273
26	0xbb84588f	-0.0040388773
27	0xbc98849b	-0.018617919
28	0x38eb611e	0.00011223763
29	0x3dc7a81f	0.097488634
30	0xbd675b53	-0.056483578
31	0x3d86431b	0.06555768
32	0x3d150f20	0.036391377
33	0x3d4fba6f	0.050714906
34	0xbd099910	-0.033593237
35	0xbdcc1854	-0.09965578
36	0xbd5d3a87	-0.054010894
37	0x3dbf5438	0.09342235
38	0xbcf8882d	-0.030338371
39	0xbce1ec7b	-0.027578583
40	0xbcf188be	-0.029484149
41	0x3db003bd	0.08594463
42	0x3cca5242	0.024697427
43	0xbc8d6ceb	-0.01726385
44	0x3c4fe6f7	0.012689344
45	0x3bf7da03	0.007563831
46	0xbd6042f9	-0.05475137
47	0xbca9cfe4	-0.020729013
48	0x3d9b2e0d	0.07577143
49	0x3ceb87d3	0.02875129
50	0xbdc1534a	-0.09439714
51	0xbd38f644	-0.045156732
52	0xbda85dae	-0.08220993
53	0xbbc0be6d	-0.0058820755
54	0xbb4a37c9	-0.0030856004
55	0x3c22d0c5	0.00993747
56	0x3b524dfe	0.0032089944
57	0x3b5b004a	0.003341692
58	0x3da1af43	0.07894757
59	0x3b3a2f0b	0.0028409387
60	0xbd59528f	-0.05305725
61	0xbcc4c3ee	-0.024019208
62	0xbdb3cf23	-0.087797426
63	0x3d414389	0.047183547
64	0x3b8a360d	0.004217869
65	0x3ca9f748	0.020747796
66	0x3d74c96b	0.0597624
67	0xbd80d9a9	-0.062915154
68	0xbd3f8430	-0.046756923
69	0x3d51eef8	0.05125329
70	0x3c00bea1	0.0078579495
71	0xbd8cc5bd	-0.06873653
72	0xbd5ba06f	-0.0536198
73	0xbd10a931	-0.035317603
74	0x3d9e7b7a	0.07738395
75	0xbd8ab818	-0.06773394
76	0xbd37c3c1	-0.04486442
77	0xbd052b43	-0.03251196
78	0xbd7e4b69	-0.062083635
79	0xbaffad6f	-0.0019506643
80	0xbda6434c	-0.081183046
81	0x3c8c61d3	0.01713649
82	0x3bdb2b0c	0.006688481
83	0xbd79e1e9	-0.06100646
84	0xbdc28c21	-0.09499384
85	0x3d575e7a	0.052580334
86	0xbd9a7fde	-0.0754392
87	0x3d1f2304	0.038851753
88	0x3d97c75f	0.07411074
89	0xbc14794e	-0.009062124
90	0xbd8fe46b	-0.07025989
91	0xbd18f413	-0.037342142
92	0xbda1be6c	-0.07897648
93	0x3d329e99	0.04360828
94	0x3d80b110	0.06283772
95	0x3ace3fb8	0.0015735542
96	0x3d9ff4eb	0.07810386
97	0x3d0adf5b	0.033904415
98	0xbd16dae0	-0.03682983
99	0xbd66d0fc	-0.056351647
100	0xbb52af6a	-0.0032148012
101	0xbcda61c4	-0.026657946
102	0xbd2d7064	-0.042343512
103	0x3dca51bc	0.09878871
104	0xbc9e1d4a	-0.019301075
105	0xbd639c9c	-0.055569276
106	0xbd8e8205	-0.06958393
107	0x3c9f421f	0.019440709
108	0xbd1c6552	-0.038182564
109	0x3d6e174e	0.058127694
110	0xbc330098	-0.0109254345
111	0x3d1c1278	0.03810355
112	0x3d2dc219	0.042421434
113	0xbda3d042	-0.079987064
114	0x3d591585	0.05299904
115	0x3d93f062	0.07223584
116	0x3c52f30d	0.012875331
117	0xbca4214a	-0.020035405
118	0x3d5737e0	0.05254352
119	0xbda60772	-0.08106889
120	0x3d513a8f	0.051081236
121	0x3d9a2411	0.0752641
122	0x3c1b853a	0.009492213
123	0xbd3f52f9	-0.04670999
124	0xbcb5ab5b	-0.022176435
125	0x3cd72757	0.026263876
126	0x3d887cd4	0.06664434
127	0xbc474bb8	-0.012164049

weight f4 [4, 128]
0	0xbd86694e	-0.06563054
1	0x3caa6555	0.020800272
2	0xbd935efc	-0.07195851
3	0x3c3dd4c2	0.01158637
4	0x3d892d30	0.06698072
5	0x3d89a8bf	0.06721639
6	0x3ccbca29	0.02487667
7	0x3d240c53	0.040050816
8	0x3d324529	0.043522988
9	0x3d8a59af	0.06755387
10	0x3d581f0b	0.05276398
11	0xbbe5bdd1	-0.0070111533
12	0xbbf007ed	-0.0073251636
13	0xbd34a73b	-0.044104796
14	0xbdaaceff	-0.083402626
15	0xbc5ec691	-0.013597147
16	0xbc565eb0	-0.013084099
17	0x3d998540	0.074961185
18	0xbd900304	-0.07031825
19	0x3db2767d	0.08714006
20	0xbdb0719d	-0.0861542
21	0x3ce4178b	0.027843257
22	0x3d8f2b26	0.06990652
23	0x3d4b4f38	0.049636096
24	0xbce919e8	-0.028454736
25	0x3da31662	0.079632536
26	0x3d4632a4	0.04838814
27	0x3c30b05c	0.010784235
28	0xbcb6ec1a	-0.022329379
29	0x3d1ee29e	0.038790338
30	0xbdae6fa0	-0.085173845
31	0x3d40bfb3	0.04705782
32	0xbcd949af	-0.026524393
33	0xbd09aec3	-0.03361393
34	0x3d992f71	0.07479752
35	0x3da258fd	0.079271294
36	0xbd5121e1	-0.0510577
37	0xbd65aae2	-0.05607117
38	0xbd72a6c9	-0.05924109
39	0xbd86a78b	-0.06574925
40	0x3cd4d9eb	0.025982818
41	0xbd93577c	-0.07194421
42	0xbd68660e	-0.056737952
43	0xbd11d600	-0.035604477
44	0xbc824402	-0.01590157
45	0xbdbea7cf	-0.09309351
46	0x3d8c032d	0.06836543
47	0x3d913f3c	0.07092139
48	0x3d4df874	0.05028577
49	0xbcd5ab16	-0.026082557
50	0x3cc59256	0.02411763
51	0xbd20ef43	-0.039290678
52	0x3d9c81ff	0.07641982
53	0xbd1cdb56	-0.038295113
54	0x3cfa3411	0.030542405
55	0xbcf274bc	-0.029596679
56	0xbd8a926d	-0.0676621
57	0x3d34bd69	0.044125948
58	0x3b255c19	0.0025231896
59	0xbd920c1b	-0.07131215
60	0xbbe1a5e8	-0.0068862326
61	0xbd2f261f	-0.042760964
62	0xbdc5baa2	-0.09654738
63	0x3d982f23	0.074308656
64	0x3c911c2d	0.01771363
65	0x3d6300a8	0.055420548
66	0x3d3b8f7c	0.045791134
67	0x3d53cf24	0.051711217
68	0xbd18121d	-0.03712665
69	0x3d46bd83	0.048520576
70	0x3d83f807	0.06443792
71	0xbd311b4e	-0.04323893
72	0x3cc8e65a	0.024523903
73	0xbd6a8ff6	-0.057266198
74	0xbc0509f1	-0.008120046
75	0x3d3b8c44	0.045788065
76	0x3cf36f12	0.029716048
77	0xbd3bdc7f	-0.04586458
78	0xbd9fe259	-0.07806844
79	0xbd08abb5	-0.033366878
80	0xbdabbc01	-0.08385468
81	0x3d9735e2	0.07383324
82	0xbc666a31	-0.014063404
83	0x3ce84073	0.028351044
84	0xbc23e356	-0.010002932
85	0xbd5fdf27	-0.054656174
86	0x3ce1ab7b	0.027547589
87	0xbaf42d7b	-0.0018629277
88	0xbd8b4000	-0.067993164
89	0x3c8ad558	0.016947433
90	0x3d31ee5d	0.04344021
91	0x3d3c5b76	0.04598566
92	0x3b00caaf	0.001965206
93	0xbda801fb	-0.08203503
94	0x3cbe5bfc	0.023237221
95	0xbd36c117	-0.04461774
96	0xb978c453	-0.0002372426
97	0x3b5e82d8	0.00339525
98	0x3d83f7fe	0.06443785
99	0xbd01e524	-0.031712666
100	0x3d73c7c1	0.059516672
101	0x3c02295d	0.007944432
102	0xbd750da4	-0.05982746
103	0xbd49cd3d	-0.049267996
104	0xbd09bd32	-0.033627696
105	0x3d6bf9ee	0.0576114
106	0xbc1e2173	-0.00965153
107	0xbd7944c3	-0.060856592
108	0xbd32f3ec	-0.043689653
109	0xbdb18551	-0.08668006
110	0xbd7b91c0	-0.061418295
111	0x3ba351eb	0.0049841306
112	0xbda92eca	-0.082608774
113	0x3d842fe3	0.06454446
114	0x3db7ee75	0.08981029
115	0xbc5b3cc1	-0.013381184
116	0x3cac98fd	0.021069044
117	0x3db24d73	0.087061785
118	0xbd5ae0b6	-0.053436957
119	0x3c126cb3	0.008937049
120	0x3d44a369	0.048007403
121	0xbc867ac4	-0.016415961
122	0x3d5d69d7	0.054056015
123	0x3c953ea3	0.018218344
124	0x3d4aec8d	0.049542
125	0x3d0d404d	0.03448515
126	0xbd30d960	-0.043176055
127	0x3d9a6bbb	0.07540079
128	0xbd93024c	-0.071781725
129	0xbcd36917	-0.025806947
130	0x3d2e81f9	0.04260442
131	0x3c9e4c79	0.019323574
132	0xbd62b07c	-0.05534409
133	0x3d167d5b	0.036740642
134	0x3d674a76	0.056467496
135	0x3d97f036	0.074188635
136	0xbd028a35	-0.031870086
137	0xbb7d6934	-0.0038667442
138	0x3d26ad41	0.04069257
139	0xbce8c66d	-0.02841493
140	0xbc1373a3	-0.008999738
141	0xbd97f44f	-0.07419645
142	0x3d6f3d0a	0.05840782
143	0xbd81bb3a	-0.06334539
144	0x3d1e13d5	0.038593132
145	0x3cbfdcee	0.023420777
146	0xbc7532b5	-0.014965703
147	0x3c131462	0.008977028
148	0x3d1bb615	0.038015444
149	0xbcd93e5a	-0.02651899
150	0xbc621a00	-0.013800144
151	0x3bc9c0e9	0.00615703
152	0xbd9cf30d	-0.07663546
153	0x3cc7e077	0.024399025
154	0xbdb7d917	-0.089769535
155	0x3d5cca2a	0.053903736
156	0xbd30be76	-0.043150388
157	0xbd1373fe	-0.03599929
158	0x3c14404d	0.009048534
159	0x3d0ce6c3	0.03439976
160	0x3d6288b0	0.055306137
161	0xbd9c4117	-0.076296024
162	0xbcb3475d	-0.021884615
163	0x3d269367	0.040667918
164	0x3d6de609	0.058080707
165	0xbd926763	-0.07148626
166	0x3d95d327	0.07315665
167	0x3d8058c0	0.06266928
168	0x3d304f13	0.04304416
169	0xbd4fb570	-0.05071014
170	0x3c232d9a	0.009959603
171	0xbd6c14f9	-0.05763719
172	0x3d2b2f06	0.041792892
173	0xbcbc86fc	-0.023013584
174	0xbbbbcedd	-0.005731447
175	0xbc1237d0	-0.00892444
176	0x3cc980dc	0.024597578
177	0x3c6d2393	0.014473814
178	0x3cfdec13	0.030996358
179	0xbd298576	-0.041387044
180	0x3d47c829	0.048774872
181	0x3d0ee26e	0.03488391
182	0x3d6e4e06	0.058179878
183	0x3d9c772d	0.076399185
184	0xbd6df8c6	-0.058098577
185	0x3da1eb28	0.079061806
186	0xbdaef4fd	-0.085428216
187	0xbd356a55	-0.04429086
188	0x3d93c138	0.07214588
189	0xbd881186	-0.06643967
190	0x3d3eeff5	0.04661556
191	0xbccfc795	-0.025363723
192	0xbd961fbb	-0.07330271
193	0xbd8a13a7	-0.0674203
194	0xbc93ebf9	-0.018056856
195	0x3d38b1aa	0.04509131
196	0xbca8319b	-0.020531466
197	0x3d736f7d	0.059432495
198	0x3da61636	0.08109705
199	0x3d32b43d	0.04362892
200	0x3ba3bad4	0.004996637
201	0x3d7703b6	0.060306273
202	0xbd1a09db	-0.037607055
203	0x3dc9bf3a	0.09850927
204	0xbd7a8d20	-0.061169744
205	0x3d9d35e8	0.076762974
206	0xbc028f04	-0.007968668
207	0x3d6fb187	0.058518913
208	0xbb3af285	-0.00285259
209	0x3d8baadf	0.068197004
210	0xbd1da474	-0.038486913
211	0xbc6f77f4	-0.014616001
212	0x3d7bb854	0.061455086
213	0xbb1d8c34	-0.0024039866
214	0xbcc7bed3	-0.024382984
215	0xbcc55953	-0.024090445
216	0xbd9ee3d9	-0.07758302
217	0xbd78bc9e	-0.060726754
218	0x3aea9f12	0.001790019
219	0x3d673133	0.056443404
220	0x3d9ea392	0.07746042
221	0x3b22431a	0.0024759234
222	0xbb680037	-0.0035400519
223	0x3d92f914	0.07176414
224	0x3cbe03e4	0.023195215
225	0x3d5e59b5	0.05428477
226	0x3d8ebf66	0.069701
227	0x3db1a3f3	0.08673849
228	0xbda8ad6b	-0.08236202
229	0xbd530e6f	-0.051527437
230	0x3dc32f05	0.09530453
231	0xbd075ff9	-0.03305051
232	0x3b12a50a	0.0022376203
233	0x3c888289	0.016663807
234	0xbd637da1	-0.05553973
235	0x3d2cb77e	0.04216718
236	0x3caaf943	0.02087081
237	0xbcf683b8	-0.030092105
238	0xbd6a1d5e	-0.057156913
239	0x3d8ca78f	0.06867897
240	0xbdb25d5a	-0.08709212
241	0xbcbd21de	-0.023087438
242	0x3c9e202d	0.019302452
243	0xbcb5fbea	-0.022214849
244	0x3da0e5ff	0.07856368
245	0xbd76beff	-0.06024074
246	0xbd6ea894	-0.058266237
247	0x3b0c23fe	0.0021383758
248	0xbd87554e	-0.066080675
249	0xbdb823a5	-0.08991174
250	0xbb4ccf8a	-0.0031251633
251	0x3d5cb7b4	0.05388613
252	0x3a7f3e72	0.0009736783
253	0xbd76bbb7	-0.060237613
254	0x3dc96f44	0.09835675
255	0xbc9db0ca	-0.019249339

bias f4 [4]
0	0x3cda091d	0.026615674
1	0xbd2b05ff	-0.041753765
2	0x3dc7ec3c	0.09761855
3	0xbd5c9ca9	-0.05386034
