dapg/examples/dapg_jit_model/no_relocate-v0/model_discriminator.pt (torch, 143224 bytes, 7 tensors)

in_shift f4 [128]
0	0x00000000	0.0
1	0x00000000	0.0
2	0x00000000	0.0
3	0x00000000	0.0
4	0x00000000	0.0
5	0x00000000	0.0
6	0x00000000	0.0
7	0x00000000	0.0
8	0x00000000	0.0
9	0x00000000	0.0
10	0x00000000	0.0
11	0x00000000	0.0
12	0x00000000	0.0
13	0x00000000	0.0
14	0x00000000	0.0
15	0x00000000	0.0
16	0x00000000	0.0
17	0x00000000	0.0
18	0x00000000	0.0
19	0x00000000	0.0
20	0x00000000	0.0
21	0x00000000	0.0
22	0x00000000	0.0
23	0x00000000	0.0
24	0x00000000	0.0
25	0x00000000	0.0
26	0x00000000	0.0
27	0x00000000	0.0
28	0x00000000	0.0
29	0x00000000	0.0
30	0x00000000	0.0
31	0x00000000	0.0
32	0x00000000	0.0
33	0x00000000	0.0
34	0x00000000	0.0
35	0x00000000	0.0
36	0x00000000	0.0
37	0x00000000	0.0
38	0x00000000	0.0
39	0x00000000	0.0
40	0x00000000	0.0
41	0x00000000	0.0
42	0x00000000	0.0
43	0x00000000	0.0
44	0x00000000	0.0
45	0x00000000	0.0
46	0x00000000	0.0
47	0x00000000	0.0
48	0x00000000	0.0
49	0x00000000	0.0
50	0x00000000	0.0
51	0x00000000	0.0
52	0x00000000	0.0
53	0x00000000	0.0
54	0x00000000	0.0
55	0x00000000	0.0
56	0x00000000	0.0
57	0x00000000	0.0
58	0x00000000	0.0
59	0x00000000	0.0
60	0x00000000	0.0
61	0x00000000	0.0
62	0x00000000	0.0
63	0x00000000	0.0
64	0x00000000	0.0
65	0x00000000	0.0
66	0x00000000	0.0
67	0x00000000	0.0
68	0x00000000	0.0
69	0x00000000	0.0
70	0x00000000	0.0
71	0x00000000	0.0
72	0x00000000	0.0
73	0x00000000	0.0
74	0x00000000	0.0
75	0x00000000	0.0
76	0x00000000	0.0
77	0x00000000	0.0
78	0x00000000	0.0
79	0x00000000	0.0
80	0x00000000	0.0
81	0x00000000	0.0
82	0x00000000	0.0
83	0x00000000	0.0
84	0x00000000	0.0
85	0x00000000	0.0
86	0x00000000	0.0
87	0x00000000	0.0
88	0x00000000	0.0
89	0x00000000	0.0
90	0x00000000	0.0
91	0x00000000	0.0
92	0x00000000	0.0
93	0x00000000	0.0
94	0x00000000	0.0
95	0x00000000	0.0
96	0x00000000	0.0
97	0x00000000	0.0
98	0x00000000	0.0
99	0x00000000	0.0
100	0x00000000	0.0
101	0x00000000	0.0
102	0x00000000	0.0
103	0x00000000	0.0
104	0x00000000	0.0
105	0x00000000	0.0
106	0x00000000	0.0
107	0x00000000	0.0
108	0x00000000	0.0
109	0x00000000	0.0
110	0x00000000	0.0
111	0x00000000	0.0
112	0x00000000	0.0
113	0x00000000	0.0
114	0x00000000	0.0
115	0x00000000	0.0
116	0x00000000	0.0
117	0x00000000	0.0
118	0x00000000	0.0
119	0x00000000	0.0
120	0x00000000	0.0
121	0x00000000	0.0
122	0x00000000	0.0
123	0x00000000	0.0
124	0x00000000	0.0
125	0x00000000	0.0
126	0x00000000	0.0
127	0x00000000	0.0

in_scale f4 [128]
0	0x3f800000	1.0
1	0x3f800000	1.0
2	0x3f800000	1.0
3	0x3f800000	1.0
4	0x3f800000	1.0
5	0x3f800000	1.0
6	0x3f800000	1.0
7	0x3f800000	1.0
8	0x3f800000	1.0
9	0x3f800000	1.0
10	0x3f800000	1.0
11	0x3f800000	1.0
12	0x3f800000	1.0
13	0x3f800000	1.0
14	0x3f800000	1.0
15	0x3f800000	1.0
16	0x3f800000	1.0
17	0x3f800000	1.0
18	0x3f800000	1.0
19	0x3f800000	1.0
20	0x3f800000	1.0
21	0x3f800000	1.0
22	0x3f800000	1.0
23	0x3f800000	1.0
24	0x3f800000	1.0
25	0x3f800000	1.0
26	0x3f800000	1.0
27	0x3f800000	1.0
28	0x3f800000	1.0
29	0x3f800000	1.0
30	0x3f800000	1.0
31	0x3f800000	1.0
32	0x3f800000	1.0
33	0x3f800000	1.0
34	0x3f800000	1.0
35	0x3f800000	1.0
36	0x3f800000	1.0
37	0x3f800000	1.0
38	0x3f800000	1.0
39	0x3f800000	1.0
40	0x3f800000	1.0
41	0x3f800000	1.0
42	0x3f800000	1.0
43	0x3f800000	1.0
44	0x3f800000	1.0
45	0x3f800000	1.0
46	0x3f800000	1.0
47	0x3f800000	1.0
48	0x3f800000	1.0
49	0x3f800000	1.0
50	0x3f800000	1.0
51	0x3f800000	1.0
52	0x3f800000	1.0
53	0x3f800000	1.0
54	0x3f800000	1.0
55	0x3f800000	1.0
56	0x3f800000	1.0
57	0x3f800000	1.0
58	0x3f800000	1.0
59	0x3f800000	1.0
60	0x3f800000	1.0
61	0x3f800000	1.0
62	0x3f800000	1.0
63	0x3f800000	1.0
64	0x3f800000	1.0
65	0x3f800000	1.0
66	0x3f800000	1.0
67	0x3f800000	1.0
68	0x3f800000	1.0
69	0x3f800000	1.0
70	0x3f800000	1.0
71	0x3f800000	1.0
72	0x3f800000	1.0
73	0x3f800000	1.0
74	0x3f800000	1.0
75	0x3f800000	1.0
76	0x3f800000	1.0
77	0x3f800000	1.0
78	0x3f800000	1.0
79	0x3f800000	1.0
80	0x3f800000	1.0
81	0x3f800000	1.0
82	0x3f800000	1.0
83	0x3f800000	1.0
84	0x3f800000	1.0
85	0x3f800000	1.0
86	0x3f800000	1.0
87	0x3f800000	1.0
88	0x3f800000	1.0
89	0x3f800000	1.0
90	0x3f800000	1.0
91	0x3f800000	1.0
92	0x3f800000	1.0
93	0x3f800000	1.0
94	0x3f800000	1.0
95	0x3f800000	1.0
96	0x3f800000	1.0
97	0x3f800000	1.0
98	0x3f800000	1.0
99	0x3f800000	1.0
100	0x3f800000	1.0
101	0x3f800000	1.0
102	0x3f800000	1.0
103	0x3f800000	1.0
104	0x3f800000	1.0
105	0x3f800000	1.0
106	0x3f800000	1.0
107	0x3f800000	1.0
108	0x3f800000	1.0
109	0x3f800000	1.0
110	0x3f800000	1.0
111	0x3f800000	1.0
112	0x3f800000	1.0
113	0x3f800000	1.0
114	0x3f800000	1.0
115	0x3f800000	1.0
116	0x3f800000	1.0
117	0x3f800000	1.0
118	0x3f800000	1.0
119	0x3f800000	1.0
120	0x3f800000	1.0
121	0x3f800000	1.0
122	0x3f800000	1.0
123	0x3f800000	1.0
124	0x3f800000	1.0
125	0x3f800000	1.0
126	0x3f800000	1.0
127	0x3f800000	1.0

weight f4 [128, 128]
0	0xbd7c6c92	-0.06162698
1	0xbd0d6837	-0.034523215
2	0xbd026dc1	-0.03184295
3	0x3bd91400	0.0066246986
4	0x3d8008a9	0.06251652
5	0x3d41f4c9	0.047352586
6	0xbcb93575	-0.022608498
7	0xbcbcc5de	-0.02304357
8	0xbce76166	-0.028244685
9	0xbc6bdb95	-0.014395614
10	0xbd8fcc74	-0.07021418
11	0x3d0f4502	0.03497792
12	0x3d1b79f2	0.037958093
13	0xbd84b16a	-0.064791515
14	0xbd6d0704	-0.05786802
15	0xbd9d76bf	-0.07688665
16	0x3da36979	0.07979102
17	0xbc973013	-0.01845554
18	0xbd348e17	-0.04408082
19	0xbd1f7414	-0.03892906
20	0xbc52696d	-0.012842518
21	0xbbcacc63	-0.0061889156
22	0x3dc0d1b6	0.09414999
23	0xbd5ebb28	-0.054377705
24	0xbd8735a8	-0.06602031
25	0xbd0c4e18	-0.034254164
26	0x3d77b4c2	0.06047512
27	0x3dc20950	0.094744325
28	0x3caeb585	0.02132679
29	0xbce61fc6	-0.028091323
30	0x3c7945f2	0.01521443
31	0x3d54e515	0.051976282
32	0x3dad9b8e	0.08476935
33	0x3d9990e4	0.07498339
34	0xbd669584	-0.056294933
35	0xbdcec64f	-0.10096418
36	0x3b9b61ae	0.004741869
37	0x3a37909c	0.00070024445
38	0xbcb6ccae	-0.022314396
39	0xbe0b17c3	-0.13583283
40	0xbce6d8b8	-0.028179511
41	0x3da305f8	0.07960123
42	0x3d87ad52	0.06624855
43	0x3bc8630e	0.006115324
44	0xbdad70c1	-0.08468772
45	0xbd23f29e	-0.0400263
46	0xbd33ebd9	-0.043926094
47	0xbd11e3ee	-0.03561776
48	0x3d91467f	0.07093524
49	0xbdc5f88a	-0.09666546
50	0x3d18755d	0.0372213
51	0xbc570463	-0.0131236045
52	0x3d64e6e8	0.05588427
53	0xbd9fbbb4	-0.077994734
54	0xbcb17617	-0.021662755
55	0x3d59ced8	0.053175777
56	0x3baf72a8	0.0053542443
57	0xbdb5e4fe	-0.088815674
58	0xbd34bfc7	-0.044128206
59	0x3d94d262	0.0726669
60	0xbd1cb7b0	-0.038261116
61	0x3d02a57f	0.03189611
62	0xbda3e970	-0.08003509
63	0x3d6ce4f8	0.05783555
64	0x3d99d056	0.0751044
65	0x3d82e374	0.063910395
66	0xbd66580b	-0.056236308
67	0x3c9de073	0.019272065
68	0xbc9b9510	-0.018991977
69	0x3d9f6279	0.07782454
70	0x3b15a418	0.0022833403
71	0xbd750e73	-0.059828233
72	0x3c4a6c84	0.012354974
73	0x3d7d5aed	0.06185429
74	0x3d9f50d2	0.07779087
75	0x3a5168ce	0.00079883344
76	0xbdb0c87f	-0.086319916
77	0x3dbd2596	0.092356846
78	0xbda7c28d	-0.081914045
79	0xbdeaf486	-0.114724204
80	0x3d80fb32	0.06297912
81	0x3e017fc0	0.12646389
82	0xbdc8a722	-0.09797503
83	0xbda20b22	-0.0791228
84	0x3da63e18	0.08117312
85	0xbd96c12e	-0.07361065
86	0xbd0329df	-0.032022353
87	0xbcb8b52a	-0.022547323
88	0xbcc402d3	-0.023927128
89	0xbd5d5e3f	-0.05404496
90	0xbdc6757a	-0.096903756
91	0xbd9294da	-0.071572974
92	0x3c571461	0.013127417
93	0xbbb6a6b1	-0.0055740704
94	0x3d70f8f9	0.05883119
95	0x3c9924c2	0.018694285
96	0x3c698006	0.014251715
97	0xbd463838	-0.048393458
98	0xbc4b40bd	-0.0124055715
99	0x3e030eb7	0.12798582
100	0xbdd6778b	-0.1047202
101	0xbdae5ef6	-0.08514206
102	0x3d9bcb15	0.07607094
103	0x3d5714e0	0.052510142
104	0x3da3e54e	0.08002721
105	0x3d118c41	0.035534147
106	0x3d9bc4f7	0.076059274
107	0xbc9cdf3a	-0.019149411
108	0x3a61a2b8	0.0008607316
109	0x3cb6b750	0.022304207
110	0xbda90882	-0.08253576
111	0xbd90fefc	-0.070798844
112	0xbdc241f1	-0.094852336
113	0x3d9abc36	0.0755543
114	0xbd3d5050	-0.04621917
115	0x3d0f6931	0.035012428
116	0x3d908ec9	0.07058484
117	0x3d7a07d0	0.061042607
118	0xba7a870c	-0.0009556867
119	0xbc54ad0b	-0.01298071
120	0xbde76089	-0.112977095
121	0x3e0d89f3	0.13822155
122	0xbde3e69b	-0.11127969
123	0xbd2364b6	-0.039890967
124	0xbb6e2075	-0.0036335264
125	0xbd2ec3f1	-0.042667333
126	0xbcb62d7c	-0.022238486
127	0x3ce8b633	0.028407192
128	0x3a8d4c5d	0.0010780204
129	0x3d5262a1	0.05136359
130	0xbd793077	-0.060837235
131	0x3da96419	0.08271045
132	0xbd1934e4	-0.037403956
133	0xbdc3e10a	-0.09564407
134	0x3cf0cf6c	0.029395781
135	0xbd9899de	-0.07451223
136	0xbdb34b8b	-0.08754643
137	0x3d21bbc5	0.03948571
138	0xbd5d4eec	-0.054030344
139	0xbdda5ede	-0.10662626
140	0xbd8fb266	-0.07016449
141	0xbda1ddef	-0.079036586
142	0x3b07c19a	0.002071476
143	0xbd935a1c	-0.071949214
144	0x3dfc26a2	0.12312056
145	0xbc0c4343	-0.008560958
146	0x3bd35a99	0.006450009
147	0x3d1551a7	0.036454823
148	0x3dc257e5	0.09489421
149	0xbdbf8e67	-0.09353333
150	0xbd634ca0	-0.055492997
151	0x3d7a5ef6	0.061125718
152	0x3d6b2821	0.057411317
153	0xbc8a5800	-0.016887665
154	0xbbe91678	-0.007113274
155	0x3d66d66c	0.056356832
156	0xbc8b85d9	-0.017031597
157	0xbd14cfd7	-0.036331024
158	0x3cbf3da0	0.023344815
159	0x3df007d0	0.1172024
160	0x3bf39384	0.0074333567
161	0xbcacdb95	-0.021100799
162	0x3bb445f0	0.0055015013
163	0x3b480196	0.0030518523
164	0x3daa8810	0.08326733
165	0xbda1247e	-0.078682885
166	0x3dbd6e2c	0.09249529
167	0x3c92b2ad	0.017907465
168	0xbd8ae803	-0.06782534
169	0xbd24619d	-0.040132154
170	0xbd0284cd	-0.03186493
171	0xba1b1329	-0.0005915636
172	0xbda1aed5	-0.07894675
173	0xbce4c6f0	-0.027926892
174	0x3d720553	0.05908711
175	0xbc9e7eaa	-0.019347508
176	0xbd747743	-0.05968405
177	0x3d56f5c1	0.052480463
178	0xbd3ed3c0	-0.04658866
179	0xbcb2963b	-0.021800151
180	0xbd7a84e4	-0.06116189
181	0x3cd57a80	0.02605939
182	0xbb8cd8a6	-0.0042982874
183	0x3d338c69	0.043835077
184	0x3c8a1ec0	0.016860366
185	0xbd836fd9	-0.064178176
186	0xbd4ada95	-0.049524862
187	0xbd77d80b	-0.06050877
188	0xbdac567f	-0.08414935
189	0xbde2e5e6	-0.11079006
190	0x3cffe60f	0.03123763
191	0xba811283	-0.0009847436
192	0x3d46599c	0.048425302
193	0x3d841cc6	0.064508006
194	0x3d81891f	0.06324982
195	0x3b0ec5f6	0.0021785474
196	0xbd57c8d7	-0.05268177
197	0xbd93d4d7	-0.0721833
198	0x3d5bf6d4	0.05370219
199	0xbdeda5c5	-0.11603884
200	0xbc499dac	-0.012305658
201	0x3c9238c7	0.01784934
202	0x3d7ce641	0.061743025
203	0xbdd5ffc3	-0.10449173
204	0xbcfa0bc6	-0.030523192
205	0x3dc07e72	0.093991175
206	0xbdaaed9c	-0.08346102
207	0x3cb99416	0.02265362
208	0x3db529ec	0.088458866
209	0xbcca0110	-0.02465871
210	0xbe0e4ca6	-0.13896427
211	0xbd306cec	-0.043072626
212	0x3dbe4928	0.09291297
213	0xbd5562ba	-0.052096106
214	0x3d2bc389	0.041934524
215	0xbc8f0e52	-0.017462883
216	0x3d6ac7de	0.057319514
217	0xbd3f58ff	-0.046715733
218	0x3d4ea075	0.050445992
219	0xbdeaf0c6	-0.11471705
220	0xbc52fd4a	-0.012877772
221	0xbb4a63db	-0.0030882272
222	0xbcafe4fc	-0.021471493
223	0x3cda8c5e	0.02667826
224	0xbda1a2fd	-0.07892416
225	0xbbfc9d9a	-0.0077092173
226	0xbd3d1dc9	-0.046170983
227	0xbc17499e	-0.00923386
228	0xbbfdea04	-0.007748844
229	0xbcec0215	-0.028809587
230	0x3d6bb15a	0.057542183
231	0x3da3251d	0.07966063
232	0x3cc116b6	0.0235704
233	0xbbb8842d	-0.005630991
234	0x3d8510dc	0.06497356
235	0xbe041b47	-0.1290103
236	0x3da1d2d5	0.07901541
237	0x3d900224	0.07031658
238	0xbda7e103	-0.081972145
239	0x3d50e761	0.05100191
240	0xbdbf20a8	-0.093324006
241	0xbd2b9ae0	-0.041895747
242	0x3cb3818b	0.021912357
243	0x3d4c2182	0.049836643
244	0xbdd0889d	-0.10182307
245	0x3dfd0a81	0.12355519
246	0xbd5a4f8e	-0.053298526
247	0xbcc58f38	-0.024116144
248	0x3cc1c2b5	0.023652414
249	0x3d6bda23	0.05758108
250	0xbdee38de	-0.1163194
251	0x3d855667	0.065106206
252	0x3d29a263	0.04141463
253	0xbdbf566b	-0.09342655
254	0x3d6b119a	0.057389833
255	0xbe01973d	-0.12655349

bias f4 [128]
0	0x3e0ebc04	0.1393891
1	0x3d22af73	0.039718103
2	0xbab087cb	-0.0013468204
3	0xbdd41187	-0.103549056
4	0x3d9271ff	0.07150649
5	0xbaef3352	-0.0018249548
6	0x3d9222e3	0.0713556
7	0xbe2b9c74	-0.16758901
8	0xbcece184	-0.028916128
9	0xbdfe769f	-0.12424969
10	0xbdf5db2c	-0.12004694
11	0xbbdab9a4	-0.006674962
12	0x3e1fdb73	0.15611057
13	0x3e6102f0	0.21973777
14	0x3db9c5b8	0.09070915
15	0xbe114f7d	-0.14190479
16	0x3dd21026	0.10256986
17	0x3da479a1	0.080310114
18	0xbdc78c61	-0.09743572
19	0xbd338278	-0.043825597
20	0x3e253c85	0.16136368
21	0x3d941fb3	0.07232609
22	0xbddeb438	-0.10874218
23	0x3e2af81b	0.16696207
24	0xbd8de173	-0.06927767
25	0x3d5cff37	0.05395433
26	0x3ce936b3	0.028468465
27	0xbdf86504	-0.12128642
28	0xbe0837b2	-0.13302496
29	0xbe1b5208	-0.15168011
30	0xbe479e0d	-0.19493885
31	0x3ce84de1	0.028357448
32	0xbb3ed7b7	-0.0029120275
33	0x3e22ec44	0.1591044
34	0xbd695f14	-0.05697544
35	0x3a9d3912	0.0011995158
36	0xbdbd0779	-0.09229941
37	0xbd417f7e	-0.047240727
38	0xbc68f76d	-0.014219147
39	0x3d9f64f2	0.07782926
40	0xbd09fcf7	-0.03368851
41	0x3d6c15ec	0.057638094
42	0x3e1d960e	0.15389273
43	0xbe34f198	-0.17670286
44	0xbce93431	-0.02846727
45	0xbd814332	-0.063116446
46	0xbe1782a0	-0.14795923
47	0xbd634003	-0.05548097
48	0xbdce62dd	-0.100774504
49	0xbb4f1946	-0.0031600758
50	0xbdf4bb86	-0.1194983
51	0x3df517a2	0.11967398
52	0x3e096544	0.13417536
53	0xbe3f0964	-0.18655926
54	0x3e163eca	0.1467239
55	0xbc50bd76	-0.0127404835
56	0x3cfbc2cb	0.030732533
57	0xbe07a949	-0.13248171
58	0xbdb8669a	-0.09003945
59	0xbe11f0ee	-0.14252064
60	0x3dc40f84	0.09573272
61	0xbdd5e5b3	-0.10444202
62	0x3da49478	0.08036131
63	0xbb15b8fc	-0.0022845855
64	0x3e2e7a37	0.17038809
65	0xbda1f568	-0.07908136
66	0x3e325dcd	0.17418595
67	0x3e221b16	0.15830645
68	0xbe468624	-0.19387108
69	0xbd8909e7	-0.06691342
70	0xbde9aadd	-0.11409543
71	0x3de7d734	0.113203436
72	0x3e082458	0.13295114
73	0xbdfb8c0c	-0.12282571
74	0x3c08a240	0.008339465
75	0xbc803fae	-0.015655365
76	0xbe120d06	-0.1426278
77	0xbde8cd24	-0.113672525
78	0xbd426083	-0.047455322
79	0x3dc14f7b	0.09438988
80	0x3e189192	0.1489928
81	0xbe04f27c	-0.12983125
82	0xbd8a3422	-0.06748225
83	0xbd610541	-0.05493665
84	0x3d3b8c06	0.045787834
85	0xbdf46124	-0.119325906
86	0x3dd98814	0.10621658
87	0x3e082d8a	0.13298622
88	0xbd39408b	-0.04522757
89	0x3d8c930d	0.06863985
90	0x3e2d5897	0.16928326
91	0x3dcb4653	0.09925523
92	0x3b661432	0.0035107252
93	0xbd3695ec	-0.04457657
94	0x3dde6aac	0.1086019
95	0x3e0ba2ee	0.13636371
96	0xbde72d29	-0.112879105
97	0xbe2c63a4	-0.16834885
98	0xbd79d387	-0.060992744
99	0xbe1b393d	-0.15158553
100	0xbc8fc232	-0.017548654
101	0x3dd2e4e0	0.10297561
102	0xbe37a24d	-0.17933007
103	0xbe10c24b	-0.14136617
104	0x3cf3fc5a	0.029783417
105	0xbe41dd90	-0.18932176
106	0x3d241cf6	0.04006668
107	0xbda333f0	-0.07968891
108	0xbd494476	-0.049137555
109	0xbd5f6b74	-0.054545835
110	0xbdb16973	-0.08662691
111	0x3c815473	0.015787339
112	0xbc227764	-0.00991616
113	0xbcf6afb1	-0.030113073
114	0xbdcacde1	-0.099025495
115	0x3d272c5e	0.040813796
116	0xbe4161f0	-0.18885016
117	0xba8e7030	-0.0010867175
118	0x3d88c80b	0.0667878
119	0x3e535a79	0.20639981
120	0xbd617e75	-0.05505224
121	0xbdbeb2dc	-0.093114585
122	0x3e32ba48	0.17453873
123	0xbc8f1dbb	-0.017470231
124	0xbc1f287f	-0.009714245
125	0x3e09e9fd	0.13468166
126	0x3d81743d	0.06320999
127	0x3d8100f9	0.06299014

weight f4 [128, 128]
0	0x3da59811	0.08085645
1	0x3d59e58f	0.05319744
2	0xbcbd8dff	-0.023138998
3	0x3c89a520	0.01680237
4	0xbd534c5f	-0.051586505
5	0xbcbaf953	-0.022823965
6	0x3d037e4b	0.032102864
7	0x3b72d218	0.0037051495
8	0xbdd6b34d	-0.10483418
9	0xbd41f892	-0.047356196
10	0xbd864c48	-0.06557518
11	0xbd9e7965	-0.07737998
12	0x3dbd3644	0.09238866
13	0x3d355f02	0.04428006
14	0xbc9a3c6c	-0.01882764
15	0xbd84af81	-0.06478787
16	0xbcdb17ee	-0.026744809
17	0xbc850f5c	-0.016242675
18	0xbaaa6963	-0.0013001378
19	0xbdac6898	-0.08418387
20	0x3d986331	0.07440794
21	0x3d43b4b6	0.04777976
22	0xbd17736d	-0.036975313
23	0x3d49a00a	0.04922489
24	0xbdde1523	-0.10843875
25	0xbd117565	-0.035512347
26	0x3d9da51f	0.0769751
27	0xbca29bf8	-0.019849762
28	0xbe0a8b2c	-0.13529652
29	0xbd927799	-0.07151718
30	0xbdc03f38	-0.09387058
31	0x3ce61c6f	0.02808973
32	0x3db75afc	0.08952901
33	0x3d03f4f3	0.032216024
34	0xbd517090	-0.05113274
35	0x3d113d5e	0.035458915
36	0xbe01eb50	-0.12687421
37	0xbd47c5e8	-0.048772722
38	0xbc144f73	-0.009052145
39	0x3d85e358	0.06537503
40	0xbdc96f2a	-0.09835656
41	0xbd7c0f7b	-0.0615382
42	0x3d925d8c	0.07146749
43	0xbceb67ee	-0.028736081
44	0xbdc413ed	-0.09574113
45	0x3d2bf20c	0.04197888
46	0xbd658690	-0.056036532
47	0x3d44b70a	0.048026122
48	0xbce32aa2	-0.02773029
49	0x3d42cbeb	0.047557753
50	0xbdf5cb60	-0.12001681
51	0x3bc18aee	0.0059064543
52	0x3d96ec0a	0.0736924
53	0x3caeeb8a	0.021352548
54	0x3de7ee35	0.11324731
55	0xbd3b4a10	-0.04572493
56	0x3d067e05	0.032835025
57	0xbc7f6180	-0.015587211
58	0x3cca32ac	0.024682365
59	0xbc2681a7	-0.010162747
60	0xbcd7a824	-0.026325293
61	0xbc3bb4f0	-0.011456713
62	0x3d7b609a	0.061371423
63	0x3dc08628	0.09400588
64	0x3db1f265	0.08688811
65	0xbcabee2d	-0.020987595
66	0x3d6315f8	0.055440873
67	0x3d8a8fd9	0.06765718
68	0xbdaba1e3	-0.08380487
69	0xbdebd5dd	-0.115154006
70	0xbc827804	-0.015926369
71	0x3c8017ba	0.015636314
72	0x3dc59cb9	0.09649033
73	0xbe089891	-0.1333945
74	0x3c16c720	0.009202749
75	0x3b9187a2	0.0044412175
76	0xbd8eecbe	-0.06978749
77	0xbdd64c16	-0.10463731
78	0x3d6e12b4	0.058123305
79	0xbd2dc363	-0.042422663
80	0x3d94a121	0.072572954
81	0xbde16b2e	-0.11006771
82	0x3c4de667	0.012567139
83	0xbdb2a3ed	-0.087226726
84	0x3db74c2f	0.08950078
85	0xbddc5db2	-0.107600585
86	0x3cb76e0a	0.022391338
87	0x3de41b4d	0.1113802
88	0xbdc49a1d	-0.09599707
89	0xbcaab204	-0.020836838
90	0x3ca7c7ab	0.020480951
91	0x3da363b0	0.07977998
92	0x3d78f120	0.06077683
93	0xbd8d8f2d	-0.06912074
94	0x3ddd8695	0.10816685
95	0xbd2a10b2	-0.04151983
96	0xbd86b2b4	-0.06577054
97	0x3d06c424	0.032901898
98	0xbd0d6f1e	-0.034529798
99	0x3d0863df	0.03329837
100	0x3d4e54d8	0.050373882
101	0x3da7542c	0.081703514
102	0xbd91ff46	-0.07128768
103	0xbccd34c1	-0.02504957
104	0xbcefcbb1	-0.029271932
105	0x3b55d522	0.0032628258
106	0x3cf8fe9e	0.030394848
107	0xbde57d03	-0.11205485
108	0xbb214190	-0.0024605729
109	0xbd8d5a63	-0.069020055
110	0x3d480d6c	0.048840925
111	0xbd073028	-0.03300491
112	0x3d14cdfb	0.03632925
113	0xbdae439d	-0.0850899
114	0x3d0197f6	0.031639062
115	0x395b13ff	0.00020892917
116	0xbd6fb4dc	-0.05852209
117	0xbd5dad40	-0.054120302
118	0x3c46f9a7	0.012144483
119	0x3d9a5c6b	0.075371586
120	0xbe01f297	-0.12690197
121	0x3d1d8a3b	0.038461905
122	0x3df71177	0.12063878
123	0xbd80f10e	-0.062959775
124	0x3c74b18e	0.01493491
125	0x3cbf7e3b	0.023375621
126	0x3dd35e7e	0.10320757
127	0xbd29ef0f	-0.04148775
128	0x3e13b615	0.14424928
129	0x3dc82759	0.0977313
130	0x3d042f46	0.032271646
131	0xbc31c451	-0.010850028
132	0x3e0372ef	0.12836812
133	0x3c47c406	0.012192732
134	0x3d9dd5fe	0.077068314
135	0xbdbf9614	-0.09354797
136	0xbd4c2281	-0.049837593
137	0xbe163af1	-0.14670922
138	0xbcf72298	-0.030167863
139	0xbdbc40ee	-0.09192072
140	0x3e2b6c60	0.1674056
141	0x3d92e3dd	0.07172368
142	0x3d6f34c4	0.05839993
143	0xbde9ef57	-0.114226036
144	0x3d4631ac	0.048387215
145	0x3d258810	0.040412962
146	0xbd564f90	-0.05232197
147	0xbce25531	-0.027628513
148	0x3e0ca598	0.13735044
149	0x3c97d141	0.018532397
150	0xbd8dd34b	-0.069250666
151	0x3e0f2d1a	0.13982049
152	0xbe03e01a	-0.12878457
153	0x3d9b9c84	0.07598212
154	0x3dd1833b	0.10230108
155	0xbd2b7315	-0.041857798
156	0xbdafcee0	-0.0858438
157	0xbe07616e	-0.1322076
158	0xbdf2f365	-0.1186283
159	0x3d6c7334	0.057727054
160	0x3dcd19aa	0.10014661
161	0x3ce95f19	0.028487729
162	0x3d44d3ac	0.04805343
163	0x3db3a79e	0.08772205
164	0xbdff98a1	-0.124802835
165	0x3d16a6fc	0.036780342
166	0xbd08c0f5	-0.033387143
167	0x3d2d991a	0.042382337
168	0xbda42eb4	-0.080167204
169	0xbc82cd1e	-0.015966948
170	0x3cf6a7ba	0.030109275
171	0x3cf9eb0e	0.03050759
172	0xbd001e92	-0.031279154
173	0xbd041f2d	-0.032256294
174	0xbc8f3755	-0.017482439
175	0xbdbfa69a	-0.093579486
176	0x3cc81d0c	0.024427913
177	0x3de9fd73	0.11425295
178	0xbe1868fe	-0.14883801
179	0x3cfc6c79	0.030813443
180	0x3dd2b1ea	0.10287841
181	0xbcf4ddd4	-0.029890932
182	0x3caff418	0.021478698
183	0x3abeb9c8	0.0014551217
184	0x3dbcdd09	0.092218466
185	0xbd9e364f	-0.07725202
186	0xbc7e494e	-0.015520407
187	0xbda3680e	-0.07978831
188	0x3e101fdb	0.14074652
189	0xbe0a3361	-0.13496162
190	0x3d92f796	0.071761295
191	0xbb373008	-0.0027952213
192	0x3df8d003	0.1214905
193	0xbd2f0721	-0.042731408
194	0x3c1a048b	0.009400497
195	0xbd02b26c	-0.031908438
196	0xbe3ac84d	-0.18240471
197	0xbdc01b8e	-0.09380256
198	0xbde46eb7	-0.1115393
199	0x3c2e52a3	0.010639819
200	0xbc8a2626	-0.016863894
201	0xbe0d3b1e	-0.13792083
202	0xbd4df7fc	-0.050285324
203	0x3d4ca825	0.049965043
204	0x3b2df1bf	0.0026541797
205	0xbdd02c48	-0.10164696
206	0x3cf569d9	0.029957699
207	0xbca5c102	-0.020233635
208	0x3e013c80	0.12620735
209	0xbd4b5879	-0.04964492
210	0xbcbe11ba	-0.023201812
211	0x3c7d1d52	0.015448885
212	0x3a61bf79	0.00086116005
213	0xbd3e1e29	-0.04641548
214	0x3d9ad2b0	0.07559717
215	0x3cc4e4e5	0.024034927
216	0xbe07995e	-0.13242099
217	0x3d930ca6	0.07180147
218	0xbc0a614c	-0.008446049
219	0x3da679ac	0.08128676
220	0x3d5afb6f	0.053462442
221	0x3ba74db2	0.0051056975
222	0x3d187bad	0.03722732
223	0x3d01a49a	0.031651117
224	0xbdb011af	-0.08597123
225	0xbda4cfc5	-0.080474414
226	0xbe04f863	-0.12985377
227	0xbde5b6ec	-0.1121653
228	0xbcd0e5d3	-0.025500214
229	0x3d919a06	0.07109456
230	0xbcc71a70	-0.024304599
231	0xbd81b3b1	-0.063331015
232	0xbdabf5f6	-0.08396523
233	0xbdcf7767	-0.10130196
234	0xbd829701	-0.06376458
235	0xbdc30538	-0.0952248
236	0xbc819764	-0.015819259
237	0xbd5921eb	-0.053010862
238	0x3c3f43a9	0.011673846
239	0xbb4c5f4b	-0.0031184729
240	0x3c199aac	0.009375256
241	0xbbc5cf5f	-0.0060366835
242	0xbd453567	-0.04814663
243	0x3d05b932	0.03264732
244	0xbe19a157	-0.15002953
245	0x3d757b73	0.059932183
246	0x3caf6e73	0.021414971
247	0x3dcb85eb	0.09937652
248	0xbc8250e0	-0.015907705
249	0xbd608b71	-0.05482048
250	0xba9b80b1	-0.0011863915
251	0xbce0eb8e	-0.027456071
252	0xbd745384	-0.05964996
253	0x3db214d7	0.08695381
254	0xbcda2bc2	-0.026632193
255	0x3ddda978	0.10823339

bias f4 [128]
0	0xbd27556e	-0.040852956
1	0x3db219d6	0.08696334
2	0x3dc73950	0.09727728
3	0x3dcd9be7	0.10039502
4	0xbe0c3b8d	-0.13694592
5	0x3cfec839	0.031101333
6	0xbd69dc52	-0.05709488
7	0x3dd31a5a	0.103077605
8	0x3da50dc5	0.08059267
9	0xbc8e4d25	-0.01737077
10	0x3e040cca	0.12895504
11	0x3d04eee2	0.03245438
12	0xbc755d6c	-0.014975887
13	0x3cd8ef53	0.026481306
14	0xbcb32d61	-0.021872224
15	0xbdd34664	-0.1031616
16	0x3c0e5dbb	0.008689339
17	0x3dac7018	0.08419818
18	0xbc6bf2bc	-0.014401134
19	0xbc70ffd4	-0.014709432
20	0xbd211ffb	-0.03933714
21	0xbd85e70d	-0.0653821
22	0x3c6d3408	0.014477737
23	0x3e0b7a5d	0.13620897
24	0xbd866311	-0.06561864
25	0x3d1b1397	0.03786048
26	0xbc8bbf09	-0.017058866
27	0xbc47b4d2	-0.012189107
28	0x3ced1d3c	0.028944604
29	0xbc964a2d	-0.018345917
30	0xbdac9998	-0.08427733
31	0xbda6862c	-0.0813106
32	0xbcf10558	-0.029421493
33	0x3d435365	0.047686953
34	0xbd129eb2	-0.035795875
35	0x3de8761c	0.113506526
36	0x3c43e0bd	0.011955437
37	0x3c832b15	0.016011754
38	0x3dfdf3d4	0.12400022
39	0xbdcd378b	-0.100203596
40	0xbe009323	-0.12556128
41	0xbd619f70	-0.055083692
42	0xbc545a16	-0.012960931
43	0xbdd491ff	-0.10379409
44	0xbc1285c8	-0.008943029
45	0xbdd53d39	-0.10412068
46	0x3df5687e	0.11982821
47	0xbde0b53a	-0.10972066
48	0x3d2ea64a	0.042639054
49	0x3e05b7d9	0.13058414
50	0xbd8a4490	-0.067513585
51	0xbddcc383	-0.107794784
52	0xbda7b4eb	-0.08188804
53	0xbd1e7523	-0.03868593
54	0xbd826da1	-0.06368566
55	0x3e07e208	0.13269818
56	0x3d3d5c9b	0.046230894
57	0xbde68f0e	-0.11257754
58	0xbdcfca67	-0.10146027
59	0x3db8c801	0.09022523
60	0xbd52ed8b	-0.05149607
61	0x3d1aa28b	0.03775267
62	0x3e0398fc	0.12851328
63	0xbc1a3cc7	-0.0094139045
64	0xbdc48f57	-0.095976524
65	0xbb74c7b9	-0.003735049
66	0xbdf9e6e0	-0.12202239
67	0xbd28f0eb	-0.041245382
68	0x3dbd4706	0.09242062
69	0xbcfb37b9	-0.03066622
70	0xbdf63418	-0.12021655
71	0xbdf5f982	-0.120104805
72	0xbde65374	-0.11246386
73	0xbd639a24	-0.05556692
74	0x3dcfd7ca	0.1014858
75	0xbdc3751e	-0.09543823
76	0xbc00459a	-0.007829094
77	0x3d3756d2	0.044760533
78	0x3dcb975e	0.099409804
79	0xbd73b52e	-0.05949896
80	0x3cbc7be4	0.023008294
81	0xbc089491	-0.008336202
82	0xbd7e28dd	-0.06205069
83	0x3d79e206	0.06100657
84	0xbe360ec2	-0.17779067
85	0x3c23c646	0.009996003
86	0xbcd2356d	-0.025660241
87	0x3cc1a296	0.023637097
88	0x3bbb889b	0.0057230718
89	0xbd40431f	-0.04693901
90	0x3d0b18b0	0.03395909
91	0x3da00d94	0.0781509
92	0xbd3fcdc5	-0.046827096
93	0x3dd1d734	0.10246125
94	0x3dd317f4	0.10307303
95	0xbd1a041f	-0.037601586
96	0x3d70e991	0.058816496
97	0x3c67dead	0.014152211
98	0x3e03d292	0.12873295
99	0x3e15da6e	0.14634106
100	0xbd3a9a32	-0.04555721
101	0x3d6f13e5	0.058368582
102	0xbb6cc5be	-0.0036128606
103	0xbdefb486	-0.11704354
104	0xbd1b0ba6	-0.037852906
105	0xbdc68ac5	-0.09694437
106	0xbd750320	-0.059817433
107	0x3de94ea7	0.11391955
108	0xbd83219c	-0.06402895
109	0x3c8a8520	0.016909182
110	0x3cf577bb	0.029964318
111	0xbd0dd7a6	-0.034629487
112	0xbd7f4ed3	-0.062331032
113	0x3dc95397	0.098303966
114	0x3dc4d284	0.09610465
115	0x3e04f1a2	0.129828
116	0x3e0ac993	0.13553457
117	0x3da19e6e	0.07891546
118	0xbcb06b19	-0.021535443
119	0xbbccb9aa	-0.006247719
120	0xbc0949ef	-0.008379444
121	0x3dd1770d	0.10227785
122	0x3dc3049a	0.09522362
123	0xbd9264e4	-0.071481496
124	0x3c39cc71	0.011340247
125	0xbb67000b	-0.0035247828
126	0x3e01b758	0.12667596
127	0x3dd2b41b	0.10288259

weight f4 [1, 128]
0	0xbdd68b77	-0.104758196
1	0xbdede344	-0.11615613
2	0xbde12350	-0.109930634
3	0xbde23843	-0.11045887
4	0x3d5de667	0.054174807
5	0x3e011e89	0.12609304
6	0x3de39d02	0.11113931
7	0xbe09793f	-0.13425158
8	0xbdc2ff65	-0.09521369
9	0xbdd44200	-0.10364151
10	0xbdb15571	-0.08658875
11	0x3d9f16cd	0.07768021
12	0x3d93237d	0.07184503
13	0x3dd675f1	0.10471714
14	0xbd862ad2	-0.06551136
15	0x3e0b5578	0.13606822
16	0x3dc4b58a	0.09604938
17	0xbe1b9c24	-0.15196282
18	0x3d939e4f	0.07207929
19	0x3d85637d	0.065131165
20	0xbdb834ae	-0.08994423
21	0x3da60112	0.08105673
22	0xbdf06951	-0.117388375
23	0xbda714ae	-0.08158241
24	0x3dbe7393	0.09299388
25	0x3e0236d2	0.12716225
26	0xbe0768d9	-0.1322359
27	0x3deeb7e4	0.11656168
28	0x3db57bb2	0.08861484
29	0x3e061edb	0.13097708
30	0x3e0869b5	0.13321574
31	0x3d81571a	0.063154414
32	0x3e0f74ae	0.14009354
33	0xbdd78a40	-0.10524416
34	0xbddbdad9	-0.10735101
35	0xbda9a6e0	-0.08283782
36	0xbe19eeb6	-0.15032467
37	0x3dd78125	0.10522679
38	0xbdf3620a	-0.11883934
39	0x3e06581b	0.13119547
40	0x3e1ec3ed	0.15504427
41	0x3df3d07f	0.11905002
42	0xbe114e9f	-0.14190148
43	0x3dfe616a	0.12420924
44	0xbdcac8cd	-0.09901581
45	0x3dfc0b4e	0.12306844
46	0xbde49e91	-0.11163057
47	0x3e25d67f	0.16195105
48	0x3de41c7d	0.11138246
49	0xbdce599f	-0.100756876
50	0x3db4df72	0.08831681
51	0x3dea2b0a	0.1143399
52	0x3dad6f13	0.08468451
53	0x3df472c3	0.119359516
54	0x3dc28c5f	0.0949943
55	0xbe195890	-0.1497519
56	0xbdb28901	-0.08717538
57	0x3dd3daca	0.10344465
58	0x3e007b54	0.12547046
59	0xbe0bf06c	-0.13665932
60	0x3e07969e	0.1324105
61	0xbdcadeb1	-0.09905756
62	0xbde38c59	-0.111107536
63	0x3e03b556	0.12862143
64	0x3dee5dd3	0.11638989
65	0xbe2cf070	-0.16888595
66	0x3d89b690	0.06724274
67	0x3e077051	0.13226439
68	0xbd9066ce	-0.070508584
69	0xbd8cc9f7	-0.06874459
70	0x3de65d01	0.11248208
71	0x3e021166	0.1270195
72	0x3e24f1df	0.16107891
73	0x3dc5dbdd	0.09661076
74	0xbdfba8b7	-0.12288039
75	0x3deff176	0.11715977
76	0x3da9a034	0.082825094
77	0xbe03299f	-0.12808846
78	0xbdfc04c5	-0.12305597
79	0x3de8adbc	0.11361262
80	0x3deee7e6	0.11665325
81	0x3de07600	0.10960007
82	0x3d96a679	0.07355971
83	0xbe0fabeb	-0.14030425
84	0x3e0e2872	0.13882616
85	0x3e06dfc0	0.13171291
86	0xbde17c49	-0.11010034
87	0xbde06cfe	-0.109582886
88	0x3d5f1777	0.054465737
89	0x3e229a0a	0.15879074
90	0x3df2cf2f	0.118559234
91	0xbe0ed23d	-0.13947387
92	0x3e03f044	0.12884623
93	0xbe004fc7	-0.12530433
94	0xbe08a769	-0.13345112
95	0x3df3e48e	0.11908828
96	0xbdad4f38	-0.084623754
97	0x3e151bee	0.14561436
98	0xbe03dd8c	-0.12877482
99	0xbdd49316	-0.10379617
100	0x3df7c053	0.1209723
101	0xbd8ed7e8	-0.069747746
102	0xbd874899	-0.06605644
103	0x3dbf45c4	0.093394786
104	0xbde511a9	-0.11185009
105	0x3d9f561a	0.077800944
106	0x3e3cec25	0.18449457
107	0xbe0fe924	-0.1405378
108	0x3e19123e	0.14948365
109	0xbe0ec626	-0.13942775
110	0xbda56b74	-0.08077136
111	0xbdb113e9	-0.08646376
112	0x3e0671e7	0.13129388
113	0xbde33563	-0.11094167
114	0xbdd43061	-0.1036079
115	0xbddc00b1	-0.107423194
116	0xbe1d79c5	-0.15378483
117	0xbde771db	-0.11301013
118	0x3db4cb3e	0.08827828
119	0xbd8f89f3	-0.070087336
120	0x3d9f4630	0.07777059
121	0xbdfdeace	-0.12398301
122	0xbdccd476	-0.10001461
123	0x3dba0a61	0.09084011
124	0xbdfc1584	-0.12308791
125	0x3d83141e	0.064003214
126	0xbd8db7ab	-0.069197975
127	0xbdf74157	-0.120730095
