dapg/examples/dapg_jit_model/no_relocate-v0/model_feature.pt (torch, 179982 bytes, 10 tensors)

in_shift f4 [72]
00000000: 0000 0000 0000 0000 0000 0000 0000 0000
00000010: 0000 0000 0000 0000 0000 0000 0000 0000
00000020: 0000 0000 0000 0000 0000 0000 0000 0000
00000030: 0000 0000 0000 0000 0000 0000 0000 0000
00000040: 0000 0000 0000 0000 0000 0000 0000 0000
00000050: 0000 0000 0000 0000 0000 0000 0000 0000
00000060: 0000 0000 0000 0000 0000 0000 0000 0000
00000070: 0000 0000 0000 0000 0000 0000 0000 0000
00000080: 0000 0000 0000 0000 0000 0000 0000 0000
00000090: 0000 0000 0000 0000 0000 0000 0000 0000
000000a0: 0000 0000 0000 0000 0000 0000 0000 0000
000000b0: 0000 0000 0000 0000 0000 0000 0000 0000
000000c0: 0000 0000 0000 0000 0000 0000 0000 0000
000000d0: 0000 0000 0000 0000 0000 0000 0000 0000
000000e0: 0000 0000 0000 0000 0000 0000 0000 0000
000000f0: 0000 0000 0000 0000 0000 0000 0000 0000
00000100: 0000 0000 0000 0000 0000 0000 0000 0000
00000110: 0000 0000 0000 0000 0000 0000 0000 0000
0.0 0.0 0.0 0.0 0.0 0.0 0.0 0.0
0.0 0.0 0.0 0.0 0.0 0.0 0.0 0.0
0.0 0.0 0.0 0.0 0.0 0.0 0.0 0.0
0.0 0.0 0.0 0.0 0.0 0.0 0.0 0.0
0.0 0.0 0.0 0.0 0.0 0.0 0.0 0.0
0.0 0.0 0.0 0.0 0.0 0.0 0.0 0.0
0.0 0.0 0.0 0.0 0.0 0.0 0.0 0.0
0.0 0.0 0.0 0.0 0.0 0.0 0.0 0.0
0.0 0.0 0.0 0.0 0.0 0.0 0.0 0.0

in_scale f4 [72]
00000000: 0000 803f 0000 803f 0000 803f 0000 803f
00000010: 0000 803f 0000 803f 0000 803f 0000 803f
00000020: 0000 803f 0000 803f 0000 803f 0000 803f
00000030: 0000 803f 0000 803f 0000 803f 0000 803f
00000040: 0000 803f 0000 803f 0000 803f 0000 803f
00000050: 0000 803f 0000 803f 0000 803f 0000 803f
00000060: 0000 803f 0000 803f 0000 803f 0000 803f
00000070: 0000 803f 0000 803f 0000 803f 0000 803f
00000080: 0000 803f 0000 803f 0000 803f 0000 803f
00000090: 0000 803f 0000 803f 0000 803f 0000 803f
000000a0: 0000 803f 0000 803f 0000 803f 0000 803f
000000b0: 0000 803f 0000 803f 0000 803f 0000 803f
000000c0: 0000 803f 0000 803f 0000 803f 0000 803f
000000d0: 0000 803f 0000 803f 0000 803f 0000 803f
000000e0: 0000 803f 0000 803f 0000 803f 0000 803f
000000f0: 0000 803f 0000 803f 0000 803f 0000 803f
00000100: 0000 803f 0000 803f 0000 803f 0000 803f
00000110: 0000 803f 0000 803f 0000 803f 0000 803f
1.0 1.0 1.0 1.0 1.0 1.0 1.0 1.0
1.0 1.0 1.0 1.0 1.0 1.0 1.0 1.0
1.0 1.0 1.0 1.0 1.0 1.0 1.0 1.0
1.0 1.0 1.0 1.0 1.0 1.0 1.0 1.0
1.0 1.0 1.0 1.0 1.0 1.0 1.0 1.0
1.0 1.0 1.0 1.0 1.0 1.0 1.0 1.0
1.0 1.0 1.0 1.0 1.0 1.0 1.0 1.0
1.0 1.0 1.0 1.0 1.0 1.0 1.0 1.0
1.0 1.0 1.0 1.0 1.0 1.0 1.0 1.0

out_shift f4 [128]
00000000: 0000 0000 0000 0000 0000 0000 0000 0000
00000010: 0000 0000 0000 0000 0000 0000 0000 0000
00000020: 0000 0000 0000 0000 0000 0000 0000 0000
00000030: 0000 0000 0000 0000 0000 0000 0000 0000
00000040: 0000 0000 0000 0000 0000 0000 0000 0000
00000050: 0000 0000 0000 0000 0000 0000 0000 0000
00000060: 0000 0000 0000 0000 0000 0000 0000 0000
00000070: 0000 0000 0000 0000 0000 0000 0000 0000
00000080: 0000 0000 0000 0000 0000 0000 0000 0000
00000090: 0000 0000 0000 0000 0000 0000 0000 0000
000000a0: 0000 0000 0000 0000 0000 0000 0000 0000
000000b0: 0000 0000 0000 0000 0000 0000 0000 0000
000000c0: 0000 0000 0000 0000 0000 0000 0000 0000
000000d0: 0000 0000 0000 0000 0000 0000 0000 0000
000000e0: 0000 0000 0000 0000 0000 0000 0000 0000
000000f0: 0000 0000 0000 0000 0000 0000 0000 0000
00000100: 0000 0000 0000 0000 0000 0000 0000 0000
00000110: 0000 0000 0000 0000 0000 0000 0000 0000
00000120: 0000 0000 0000 0000 0000 0000 0000 0000
00000130: 0000 0000 0000 0000 0000 0000 0000 0000
00000140: 0000 0000 0000 0000 0000 0000 0000 0000
00000150: 0000 0000 0000 0000 0000 0000 0000 0000
00000160: 0000 0000 0000 0000 0000 0000 0000 0000
00000170: 0000 0000 0000 0000 0000 0000 0000 0000
00000180: 0000 0000 0000 0000 0000 0000 0000 0000
00000190: 0000 0000 0000 0000 0000 0000 0000 0000
000001a0: 0000 0000 0000 0000 0000 0000 0000 0000
000001b0: 0000 0000 0000 0000 0000 0000 0000 0000
000001c0: 0000 0000 0000 0000 0000 0000 0000 0000
000001d0: 0000 0000 0000 0000 0000 0000 0000 0000
000001e0: 0000 0000 0000 0000 0000 0000 0000 0000
000001f0: 0000 0000 0000 0000 0000 0000 0000 0000
0.0 0.0 0.0 0.0 0.0 0.0 0.0 0.0
0.0 0.0 0.0 0.0 0.0 0.0 0.0 0.0
0.0 0.0 0.0 0.0 0.0 0.0 0.0 0.0
0.0 0.0 0.0 0.0 0.0 0.0 0.0 0.0
0.0 0.0 0.0 0.0 0.0 0.0 0.0 0.0
0.0 0.0 0.0 0.0 0.0 0.0 0.0 0.0
0.0 0.0 0.0 0.0 0.0 0.0 0.0 0.0
0.0 0.0 0.0 0.0 0.0 0.0 0.0 0.0
0.0 0.0 0.0 0.0 0.0 0.0 0.0 0.0
0.0 0.0 0.0 0.0 0.0 0.0 0.0 0.0
0.0 0.0 0.0 0.0 0.0 0.0 0.0 0.0
0.0 0.0 0.0 0.0 0.0 0.0 0.0 0.0
0.0 0.0 0.0 0.0 0.0 0.0 0.0 0.0
0.0 0.0 0.0 0.0 0.0 0.0 0.0 0.0
0.0 0.0 0.0 0.0 0.0 0.0 0.0 0.0
0.0 0.0 0.0 0.0 0.0 0.0 0.0 0.0

out_scale f4 [128]
00000000: 0000 803f 0000 803f 0000 803f 0000 803f
00000010: 0000 803f 0000 803f 0000 803f 0000 803f
00000020: 0000 803f 0000 803f 0000 803f 0000 803f
00000030: 0000 803f 0000 803f 0000 803f 0000 803f
00000040: 0000 803f 0000 803f 0000 803f 0000 803f
00000050: 0000 803f 0000 803f 0000 803f 0000 803f
00000060: 0000 803f 0000 803f 0000 803f 0000 803f
00000070: 0000 803f 0000 803f 0000 803f 0000 803f
00000080: 0000 803f 0000 803f 0000 803f 0000 803f
00000090: 0000 803f 0000 803f 0000 803f 0000 803f
000000a0: 0000 803f 0000 803f 0000 803f 0000 803f
000000b0: 0000 803f 0000 803f 0000 803f 0000 803f
000000c0: 0000 803f 0000 803f 0000 803f 0000 803f
000000d0: 0000 803f 0000 803f 0000 803f 0000 803f
000000e0: 0000 803f 0000 803f 0000 803f 0000 803f
000000f0: 0000 803f 0000 803f 0000 803f 0000 803f
00000100: 0000 803f 0000 803f 0000 803f 0000 803f
00000110: 0000 803f 0000 803f 0000 803f 0000 803f
00000120: 0000 803f 0000 803f 0000 803f 0000 803f
00000130: 0000 803f 0000 803f 0000 803f 0000 803f
00000140: 0000 803f 0000 803f 0000 803f 0000 803f
00000150: 0000 803f 0000 803f 0000 803f 0000 803f
00000160: 0000 803f 0000 803f 0000 803f 0000 803f
00000170: 0000 803f 0000 803f 0000 803f 0000 803f
00000180: 0000 803f 0000 803f 0000 803f 0000 803f
00000190: 0000 803f 0000 803f 0000 803f 0000 803f
000001a0: 0000 803f 0000 803f 0000 803f 0000 803f
000001b0: 0000 803f 0000 803f 0000 803f 0000 803f
000001c0: 0000 803f 0000 803f 0000 803f 0000 803f
000001d0: 0000 803f 0000 803f 0000 803f 0000 803f
000001e0: 0000 803f 0000 803f 0000 803f 0000 803f
000001f0: 0000 803f 0000 803f 0000 803f 0000 803f
1.0 1.0 1.0 1.0 1.0 1.0 1.0 1.0
1.0 1.0 1.0 1.0 1.0 1.0 1.0 1.0
1.0 1.0 1.0 1.0 1.0 1.0 1.0 1.0
1.0 1.0 1.0 1.0 1.0 1.0 1.0 1.0
1.0 1.0 1.0 1.0 1.0 1.0 1.0 1.0
1.0 1.0 1.0 1.0 1.0 1.0 1.0 1.0
1.0 1.0 1.0 1.0 1.0 1.0 1.0 1.0
1.0 1.0 1.0 1.0 1.0 1.0 1.0 1.0
1.0 1.0 1.0 1.0 1.0 1.0 1.0 1.0
1.0 1.0 1.0 1.0 1.0 1.0 1.0 1.0
1.0 1.0 1.0 1.0 1.0 1.0 1.0 1.0
1.0 1.0 1.0 1.0 1.0 1.0 1.0 1.0
1.0 1.0 1.0 1.0 1.0 1.0 1.0 1.0
1.0 1.0 1.0 1.0 1.0 1.0 1.0 1.0
1.0 1.0 1.0 1.0 1.0 1.0 1.0 1.0
1.0 1.0 1.0 1.0 1.0 1.0 1.0 1.0

weight f4 [128, 72]
00000000: d5f8 4b3d 368b 323e 89d9 923b 73b0 bdbd
00000010: b71c bb3d abe1 123d 7311 abbc 1403 84bd
00000020: aa20 1f3c 5156 c3bd 6986 313d 8283 f6bd
00000030: 57ee 6d3d 2df3 c63d 96c8 e9bd fbc9 e7bc
00000040: 37aa 043d c1ea 613d 2003 5c3d b9ca 09be
00000050: db76 d6bc 69b3 343d 909e 26bd d623 393b
00000060: 0c41 0f3e fa8d 753d fbcf 2c3b 05b2 02be
00000070: 4680 eb3c e365 b83d 32fe cc3c f7be f53b
00000080: 4826 d6bc 97b9 79bd a8a4 a33d a563 d1bd
00000090: 605e f2bc 8b4f a4bd b818 2fbe 670d 3b3c
000000a0: fb3c c33d e756 50bd 9585 963d d90a 27be
000000b0: 0a42 65bd f7f7 72bd 4f0e 133e 2348 843d
000000c0: 6b9b fe3c d2fb d73d 1596 8c3d 6a1a 7fbd
000000d0: b6ba e43d fb78 edbc f04c 293d ad5e 52bd
000000e0: 83c3 563d 21cb b03c 5393 553d de47 8cbd
000000f0: 7d2c e93c c889 cc3d 566a ebbc 94a6 1f3d
00000100: 9c7a 923d 044e 40bd aa57 5dbd ffba fcbd
00000110: fca9 02bd f81a 973d ea11 96bd c820 223e
00000120: 5c8c 03be 654a f93c 945d 45bd 6291 023d
00000130: 7b3c bfbd 1a7e 603d 0311 e6bd b863 79bc
00000140: 2386 0cbd 208a a23c 0abc a43b 9358 273d
00000150: f2ef f9bd a753 53bd 3c91 e93c 75a5 febd
00000160: dca4 a6bd a216 04be 2aee 86bd ed27 31bd
00000170: d704 2abd 72f9 31be c831 88bd 516b dc3d
00000180: 8649 90bd 5ad3 1bbd 0099 383c c0ea 6dbc
00000190: a091 ea3c 998a 09be ac94 cd3b e132 0abe
000001a0: d08f cf3d 4bd6 e33d a6b4 5c3d 4e29 093d
000001b0: 3cf2 e4bd 07cb aa3d 7074 77bd 8cbb 7fbd
000001c0: 03dd 8bbd ae24 eabd 6ac8 bdbd d066 0b3d
000001d0: 6eb0 1a3d 7b4d e1bc 33e3 53bc bac9 913d
000001e0: 627f 04be 7a55 83bd 9bb2 69bd b011 08be
000001f0: 825c df3b f70c 23bc 2b2d 40bd c7a9 653d
00000200: e0df e63d b7ae 293d 975b 953c 1fb9 023d
00000210: 1c28 25bd 97ce 82bc e150 a7bd 511c a7bd
00000220: fd5e 56bd 0412 983d a433 9c3a 37df 5ebd
00000230: 6539 9d3d bc44 04be 5afc 0cbe 192e a7bc
00000240: f41e 62bd 55c5 c83c e11f f938 2efd e43d
00000250: 74bd 893c 20c0 05bd b8ef d13d 543e cf3d
00000260: a319 84bd 86f7 053b 2e2d 9bbd 58bf debd
00000270: cc34 81bc 3be6 413d ac78 d4bc 5eca 8cbd
00000280: 73b5 003e f535 e63d e9f8 7ebd 9334 98bd
00000290: 090c a43d c7bb 3d3d 2fef dcbc 4fca 9bbd
000002a0: 58c8 5abd b3bc d9bd 47ba 9d3d 67d8 2dbd
000002b0: 6fd3 da3d b932 87bd 9b04 f73d c36e 08bb
000002c0: 92b4 d93d c0ad f4bb 5952 a23d 554e d0bd
000002d0: d6c7 f63d 0bc2 c1bd 54e4 c7bc 8f1c 9d3d
000002e0: dd47 2dbd 3a40 0dbd 2846 7ebd a533 7b3d
000002f0: d08e ecbc 3425 80bd 7e00 653d 3167 0ebe
00000300: 0009 c7bc 3944 94bd c351 a63d 12ec f53c
00000310: d372 183e b564 ae3d e460 cbbd e9d4 363e
00000320: 3047 a9bc 64df 72bd 28d1 cabd 2eea 99bd
00000330: 67d2 e23d e425 0bbc c37c bcbc 593c 4cbc
00000340: 698a c5bd 1cf8 8438 97b1 bfbc 0210 d93d
00000350: aa6a 96bd b14b 97bd 6e19 2f3b 7d84 5bbd
00000360: a843 98bd e684 02be 2ec5 8ebd 7ea2 67bd
00000370: 3013 aabb ce3b 003e 1931 dfbd e627 b83c
00000380: f6d2 abbd 0448 bbbd 81f5 94bd bcf7 c13d
00000390: 1293 003d 3b3a d7bd 24ab dc3c 4686 96bc
000003a0: 31a3 58bd cf9f bf3d d8ac 20bc b022 a13c
000003b0: abbd ed3d f08f b3bd c590 053e 7dde d7bd
000003c0: fb09 c0bd 8d45 01be 64c1 47bd ec40 193d
000003d0: ff4a fc3d 0c9e 203e 39ba 823d ba85 4a3d
000003e0: a237 7ebc 3b4f 4cbd 3129 88bd 1613 ad3d
000003f0: 9992 f6bd db20 9bbb 6b7c ccbd 41ab 0dbe
0.04979785 0.17435917 0.0044814986 -0.09262171 0.09136336 0.035859745 -0.020882344 -0.064458996
0.009712378 -0.09537948 0.043341074 -0.12036802 0.058088627 0.09714351 -0.11415212 -0.028294554
0.032388892 0.05515552 0.053713918 -0.13456239 -0.026179722 0.04411641 -0.04067856 0.002825012
0.13989657 0.059949853 0.0026369083 -0.12763222 0.028747689 0.09003808 0.025023554 0.0074995714
-0.0261413 -0.060968008 0.0799039 -0.10224084 -0.029586017 -0.08022984 -0.17099273 0.01141677
0.095331155 -0.050864127 0.073496975 -0.16312732 -0.055971183 -0.05931851 0.14360927 0.064590715
0.031079968 0.10546078 0.068645634 -0.06228105 0.11168425 -0.028988352 0.04133314 -0.05135982
0.05243255 0.021581234 0.052142452 -0.06849645 0.028463596 0.09987217 -0.028737228 0.03897722
0.07152292 -0.0469494 -0.05403868 -0.12340354 -0.03190039 0.07378191 -0.073276356 0.15832818
-0.12846512 0.030430982 -0.048184946 0.03187693 -0.093377076 0.05480776 -0.112337135 -0.015221529
-0.03430761 0.019841254 0.005027299 0.040855955 -0.12203969 -0.05159345 0.028511636 -0.12433902
-0.08136913 -0.12899259 -0.06588395 -0.043250967 -0.041508522 -0.17380312 -0.0665012 0.107626565
-0.070452735 -0.038043357 0.011266947 -0.014521301 0.028633893 -0.13431777 0.0062738266 -0.13495971
0.10134852 0.111248575 0.053883217 0.033486657 -0.11179015 0.08339506 -0.060413778 -0.062434718
-0.06829264 -0.11432777 -0.092667416 0.034033597 0.037765913 -0.027502766 -0.0129325865 0.071185544
-0.12939218 -0.06412788 -0.057055097 -0.13287997 0.0068164477 -0.0099518215 -0.046918076 0.056070115
0.112731695 0.041426387 0.01823215 0.031914826 -0.040321454 -0.01596765 -0.08169723 -0.08159698
-0.05233668 0.07425311 0.0011917246 -0.054412093 0.07676963 -0.12916845 -0.1376814 -0.020407723
-0.0552053 0.024508158 0.00011879183 0.11181103 0.016813971 -0.032653928 0.10250801 0.1011931
-0.06450202 0.0020441725 -0.07576977 -0.1087634 -0.015772246 0.047338706 -0.025936447 -0.06874536
0.12569217 0.1124076 -0.062249098 -0.07431903 0.08010108 0.046321657 -0.02696952 -0.07606947
-0.05341372 -0.10631695 0.07701545 -0.042442705 0.10684859 -0.066014715 0.12061425 -0.0020817972
0.10630144 -0.0074670017 0.07925863 -0.10171191 0.120498344 -0.09460839 -0.024400868 0.07671463
-0.042304862 -0.03448508 -0.062078625 0.06132855 -0.028876692 -0.06257096 0.055908673 -0.13906552
-0.024296284 -0.07239575 0.081210636 0.030019794 0.14887552 0.08515302 -0.0993059 0.17854656
-0.020663828 -0.059295073 -0.09903175 -0.07515369 0.11075287 -0.008492921 -0.02300871 -0.01246556
-0.0964554 6.3404645e-05 -0.023400111 0.105987564 -0.07344563 -0.07387484 0.0026718038 -0.053593148
-0.074347794 -0.12746009 -0.06971203 -0.05655145 -0.0051902756 0.12522814 -0.108980365 0.022479963
-0.08389847 -0.09144595 -0.07273389 0.0947108 0.031390257 -0.105091535 0.026937075 -0.018374573
-0.052890006 0.09356653 -0.009806834 0.01966986 0.11608442 -0.08767688 0.13043506 -0.10540483
-0.093769036 -0.12624188 -0.048768416 0.03741543 0.12318992 0.1568529 0.063831754 0.049443938
-0.015516194 -0.049880248 -0.06648482 0.08450906 -0.1203968 -0.0047341413 -0.09984668 -0.1383486

bias f4 [128]
00000000: 1650 c5bd fb1d 14be 170f 003e da44 a8bd
00000010: 9929 37bd 4e78 8fbd d995 d03d fc6b 0c3d
00000020: 5984 a1bd a6ed 8abd 79e0 c5bd 71a3 b0bd
00000030: 985f 03bd 86b0 e6bd 7ce3 543d 5b91 f2bc
00000040: 0a51 f43c f2b2 883d f63c 84bd 6dc1 96bd
00000050: 4b65 12be f605 b23d 0a9a 17bd ed0f a5bc
00000060: 3407 543d 78ca 343c 0467 6ebd f39b 5a3c
00000070: 1b78 063e 99f5 82bc 0fb9 4cbd 38b6 13be
00000080: 6bfb fd3c 1437 473d 499b ebbd f3e5 b9bd
00000090: 9176 bcbd 0ba7 ccbd 197b 22bd 7c20 9e3d
000000a0: 824d e7bc 7faf ad3c dc65 b6bd 1bf3 ae3d
000000b0: b8cd 9c3d 2ae2 b93d a7bd 5abd c784 673c
000000c0: ac22 363d 44e7 df3c c1f3 3f3d c37b 02bd
000000d0: 4876 1e3d 1196 993d c50d 193d 470d b83d
000000e0: ed62 df3d 2417 b6bd f6de ebbc e580 593d
000000f0: 9f70 843d 8b2c a5bd 460e 82bd 16d2 9d3d
00000100: 0bf0 b23d 922f 74bd c220 a5bc cf8e 84bd
00000110: 6c03 dcbc a38b 59bd acde cdbd cbd6 d93d
00000120: 0f66 d7bc a752 c13c 3ae2 1b3c fe35 b3bd
00000130: 8920 893d 1a0d ac3d 16f5 0b3d 7d3b 083e
00000140: 413c b0b8 d572 08bd 8e61 873c 18c7 1b3e
00000150: fae2 0bbd ef6d a8bc cf72 b7bd b24b 673d
00000160: 86db 473d 2e2e e03d afe9 d23d dab4 e53c
00000170: 4e79 05bd 7144 f2bd dcda b3bd bbf5 afbd
00000180: eddd 32bd 754f 973d 793d 8f3b 46b1 b1bd
00000190: b173 fabd bbcb 96bc 13b3 e73d e6b2 cdbd
000001a0: 2690 38bd e0c2 bc3d dc01 c2bd 549f d8bc
000001b0: 2118 a0bd 3810 f73d ec92 c3bc 7835 f4bd
000001c0: 8a02 a33d d25b 64bd 9adc 323c 16e1 ab3d
000001d0: 0802 b3bd 0394 84bd 8175 1e3d d8a0 10bc
000001e0: d6a6 793c 613e 6a3d 46fe 01be 35c5 aabd
000001f0: a180 eebc 853b f6bd 37cb a5bc dd07 a53d
-0.09634416 -0.14464562 0.12505756 -0.082162574 -0.044717405 -0.07005368 0.10184831 0.03428267
-0.078865714 -0.06783609 -0.096619554 -0.08624924 -0.032073587 -0.11264138 0.05197476 -0.029610327
0.029823799 0.06674756 -0.0645694 -0.07361112 -0.14296453 0.08692543 -0.037012137 -0.020149196
0.051764682 0.0110346 -0.058203712 0.013342845 0.13131754 -0.01598625 -0.049981173 -0.1442498
0.031003674 0.04863651 -0.11504228 -0.090770625 -0.09202302 -0.099927984 -0.039668176 0.0772104
-0.0282352 0.021201847 -0.08906147 0.085424624 0.07656425 0.090763405 -0.053403523 0.014130778
0.04446666 0.027331956 0.04686332 -0.03185631 0.03868702 0.07499326 0.037366647 0.089869075
0.109075405 -0.088911325 -0.02879284 0.05310144 0.06466793 -0.080651365 -0.06350379 0.07706086
0.08737191 -0.05961568 -0.020157222 -0.06472551 -0.0268571 -0.053111684 -0.10052237 0.10636672
-0.026293783 0.023598982 0.009514386 -0.087505326 0.06695659 0.084009364 0.03416928 0.13303943
-8.403557e-05 -0.033312637 0.01652601 0.15212667 -0.03415201 -0.020560233 -0.08957445 0.056468673
0.04879334 0.10946308 0.10298478 0.028040338 -0.03258639 -0.118294604 -0.087819785 -0.08591791
-0.043668676 0.07388202 0.004371342 -0.0867639 -0.12229098 -0.018407693 0.113134526 -0.10043888
-0.045059346 0.09216857 -0.09473011 -0.026443161 -0.07817102 0.1206364 -0.023873769 -0.11924261
0.07959469 -0.05575163 0.010916853 0.08392541 -0.08740622 -0.064735435 0.03868628 -0.008827411
0.015237531 0.057188395 -0.12694654 -0.083383955 -0.02911407 -0.12023071 -0.020238502 0.080581404

weight f4 [128, 128]
00000000: 0f2e 95bc f62b 32bc c5cd 5a3d c617 083d
00000010: b8d1 78bd 2a9c 043d 2e82 e13c 78d4 4e3d
00000020: 6538 b3bd e1e1 1b3d 68e9 82bb d295 9d3b
00000030: e4fe 4dbc b963 ba3d b5bd 19be 4a93 9e3d
00000040: af10 92bd 872c c23c a7f2 86bc 83f8 0d3c
00000050: 8237 05be 838e b4bd 4cb8 403c 5141 163b
00000060: 1c67 5b3d 803f 4a3c 16ad a13d 46b6 b5bd
00000070: 4a4c bdbd 4bf1 003e 5ace 4b3d 077c 933d
00000080: 064b 3c3d 326d 8d3d ec1a dbbd 048e 58bd
00000090: 7504 023d 1664 8fbc 226e 05be d131 7cbd
000000a0: 13fa 02bd e93f b2bb 973e 4e3c 7f34 08bd
000000b0: b466 5d3d c2ce b8bd df42 edbd 45fd b2bd
000000c0: e07b 99bd d0c5 8ebd 84a5 88bd 6fab 4a3d
000000d0: 29ef 5f3d 3575 7a3d 95cf 803d f136 0abd
000000e0: 014a e0bd a0f1 bfbc 5c78 e8bd f747 923d
000000f0: ec17 8dbc 8665 b8bc 142e 553c 416b a53d
00000100: 6c03 b83d 1dbb c13c 8846 8bbd d7b8 613d
00000110: e201 26bd 39cb 5bbd 6c39 383d 0e07 463d
00000120: 6548 763e 661f 50bd a0b6 c83d 287f 373d
00000130: 67fa 4abd 6416 ba3d 448c 163d 6a78 76bd
00000140: 1049 023e 58dd a5bd 29af 6b3e 4bca 60bd
00000150: f99e a83d 0a36 9d3d b876 1bbd 7022 cb3d
00000160: e473 1e3e 4f85 d03a 3533 84bd 7047 183d
00000170: 51d0 f53c 87f3 663d 89c8 0e3c 9fd3 dc3c
00000180: 392e 843d c64c d53c b2c1 f9ba a739 c23d
00000190: 3fd9 dbbd b1f2 ee3c 3f2f 6bbd b75d bbba
000001a0: eca8 86bc 3d4a 123d 33fa e5bc 14a4 a3bd
000001b0: 6dd9 89bd a871 b9bd 796a 963d e2b6 383d
000001c0: 1132 303e a566 95bd c822 c13d bb65 81bd
000001d0: 95d1 373d 2bc8 3e3c 0744 8dbd 7762 1e3c
000001e0: dbd7 903d 6da8 58bd d463 713c 630f 3dbd
000001f0: 3a93 6c3d 5a4c 243e faf6 f93c d0e5 87bb
00000200: e1f6 aa3d 225f a73c 01b1 dfbc 2323 ccbd
00000210: e890 7bbd dcb7 e93d 0b05 63bc d3d7 0bbd
00000220: 5d3a 373c a823 293d b013 fb3d 02ad 933d
00000230: 8739 bf3d 70d9 66bd 4929 293d 2804 6d3c
00000240: 8383 81bc 00e3 c7bd 3257 103e 273c d9bc
00000250: 0e42 75bd c4c8 503d 94c1 043d 416a 2bbb
00000260: b2c8 b3bc 702a 80bd 585e 28bd 26f2 c9bd
00000270: 5777 9abd fd51 09bd 6f4c 113e db14 713d
00000280: ffc5 cabd 6e06 94bd 4ebf a5bd 3a13 423d
00000290: 4737 6a3d 68b9 583d 8ffb 13bd b973 ddbd
000002a0: a498 053d 0311 c53c 3383 a33d ec01 01be
000002b0: aa36 09be 77e8 653c ebca 01be b9f9 ec3d
000002c0: 8973 08bd b6eb 55bd aeb1 f53d 3ea3 343c
000002d0: 3ed0 b93d ddf7 303d 83e8 aa3c c9aa 243d
000002e0: f3eb 42bd e907 67bd 207d ed3d b294 46bd
000002f0: fca8 803d 41e5 6abd b75e c1ba 14f5 d5bc
00000300: cfe0 5dbd b367 053e b438 c93d 6fd8 a1bd
00000310: d46d 30bc 7ffe 30bd db7b 3f3d 151e 75bd
00000320: 767c 6ebc 732c d9bb da1b c8bc 0080 663d
00000330: dcdf b53d 2f4f 4e3d 9b3b 6f3d 4b92 1cbe
00000340: 828a bb3b e2e1 b2bc c56f bfbd d406 62bd
00000350: 95a8 a33c 6bea 81bc 1002 d3bd c9b0 75bd
00000360: 6afb 13bd 96a8 e2bd a5fc 693c ea94 bdbd
00000370: 1027 02bd b5ef da39 fb5a 2f3d 4671 cf3c
00000380: debf 983d 245e 5fbd 1ebe 79bc 6ec9 2c3d
00000390: 1612 1abd 9e09 8fbd 85c3 1fbd 1c40 643c
000003a0: 2bc4 9abd 07b2 94bd 0b81 98bd 0ea5 8cbd
000003b0: 80f7 99bc 82d3 ee3c 744c f0bd b065 dbbc
000003c0: e903 46bd b970 1dbd e47d cebc 4d34 79bc
000003d0: cb95 943c fc20 1c3d 4a2a 7ebc e5c0 133d
000003e0: 762b f43c 5ca2 3bbd bfea 73bb 6e20 033e
000003f0: bff7 db3c c2d0 90bc a134 e7bc 95d2 dcbc
-0.018210439 -0.010874739 0.053418893 0.033225797 -0.06074688 0.032375492 0.027527895 0.050495595
-0.08750991 0.03805721 -0.0039951093 0.0048091197 -0.012572978 0.09101052 -0.15013774 0.07742937
-0.071320884 0.023702873 -0.016473128 0.008665207 -0.13009456 -0.088162445 0.01176269 0.0022927115
0.05356513 0.012344241 0.07894342 -0.088726565 -0.092430666 0.12592046 0.04975734 0.07201391
0.045969985 0.06905593 -0.10698494 -0.05286981 0.03174253 -0.01750378 -0.13030294 -0.061570946
-0.03197677 -0.0054397476 0.012588165 -0.03325319 0.054053023 -0.09023811 -0.1158502 -0.087397136
-0.074943304 -0.069713235 -0.066721946 0.049479898 0.05467144 0.061146934 0.06289593 -0.033743802
-0.10951615 -0.023430645 -0.11351082 0.071426325 -0.01722332 -0.022509348 0.013011474 0.08077098
0.08985028 0.023648793 -0.06800562 0.055107918 -0.04052914 -0.053660605 0.044976637 0.04834657
0.24051054 -0.050811194 0.09800458 0.044799 -0.04955521 0.09086302 0.03675486 -0.06017343
0.12723184 -0.080988586 0.23016037 -0.05488042 0.08233447 0.07676323 -0.037955016 0.09918678
0.15473896 0.001590887 -0.064550795 0.037177503 0.03000656 0.05638459 0.0087148035 0.026956378
0.06454129 0.026037585 -0.0019054918 0.094836526 -0.10734796 0.029168459 -0.057418104 -0.0014294897
-0.01643797 0.03571533 -0.028073406 -0.0799028 -0.06730924 -0.09054881 0.07344527 0.045096286
0.17206599 -0.072949685 0.09430462 -0.06318232 0.044877607 0.011644403 -0.06897741 0.009667031
0.07072421 -0.052895 0.014733274 -0.046157252 0.057757594 0.16044751 0.030513275 -0.004147269
0.0834787 0.020431105 -0.027306082 -0.09967639 -0.06141749 0.114120215 -0.013856183 -0.034141373
0.0111833485 0.04129377 0.122596145 0.07210733 0.09337144 -0.05635971 0.04129914 0.014466323
-0.01580978 -0.09760094 0.14095762 -0.02651794 -0.059877448 0.050972715 0.032411173 -0.0026155862
-0.021946285 -0.06258094 -0.0411056 -0.09860639 -0.075422935 -0.033525456 0.14189313 0.05885778
-0.09901046 -0.07227789 -0.08093129 0.047381617 0.057181623 0.052911192 -0.036128577 -0.10813088
0.032616273 0.024055963 0.07984009 -0.1259839 -0.13399759 0.014032475 -0.12675063 0.11571068
-0.033313308 -0.052226745 0.1199678 0.011025248 0.09072922 0.04320513 0.020862823 0.040201936
-0.0475883 -0.056404028 0.11596131 -0.04848165 0.06282231 -0.05734754 -0.0014752959 -0.026117839
-0.054169472 0.1302784 0.098252684 -0.079026096 -0.010768373 -0.043211456 0.046748977 -0.05984314
-0.014556041 -0.006627613 -0.024427343 0.056274414 0.088805884 0.050368484 0.058406454 -0.15290181
0.0057232985 -0.021836225 -0.0934749 -0.055182293 0.019977847 -0.01585885 -0.10303128 -0.05998305
-0.03612844 -0.110673115 0.014281427 -0.09256919 -0.031775534 0.00041758796 0.042811375 0.025322568
0.07458471 -0.05453314 -0.015243081 0.042184286 -0.037614904 -0.06984256 -0.03900482 0.0139313005
-0.07556947 -0.072605185 -0.07446488 -0.06867419 -0.018794775 0.02915359 -0.11733332 -0.026781887
-0.048343573 -0.03843758 -0.025206514 -0.015210223 0.018137833 0.038117394 -0.015513012 0.03607263
0.02980588 -0.045809135 -0.0037218777 0.1280534 0.026851533 -0.017677668 -0.028223338 -0.026955882

bias f4 [128]
00000000: d569 aa3c f358 3fbb a8d9 993d d943 713c
00000010: 4ea8 0d3d 796e 80bc 686a 10bd e004 7b3d
00000020: 164f 0cbd 559b d93d ff44 243b 9d6d 86bc
00000030: 32b7 eebc de42 60bd 10fd b23d 1fc8 02bd
00000040: 5fc6 1ebd 2123 1fbd d58f 153d d5cc 273d
00000050: a6df 56bc f41a 53bd 15c8 84bc aa5f 0bbc
00000060: b82c a2bd 7a84 35bd 2ad1 00bd e285 2c3d
00000070: 0c66 9abc eecf 71bb f322 e1bc f9cc 303d
00000080: b328 ac3c ed2c 25bd 027a ae3d 7430 313d
00000090: d55f db3c 25e5 a93d c178 c33c a741 1dbd
000000a0: 1b9b 933d 5a28 9dbd 5434 c7bd dfd5 99bd
000000b0: b2c9 f53c 4365 1c3d 59db 473d 1c4c 93bd
000000c0: 725b 093d 962c d43c 7532 0dbd 6c00 46bc
000000d0: ab83 153d 0449 4fbd 62c6 8bbd 63e1 16bd
000000e0: cd9b a7bc d30d bf3c 9713 52bd a637 963c
000000f0: 8d6b da3c 1153 3dbd d98a 1c3d 0043 b9bd
00000100: b68c 903d 1b61 3d3b fe17 9abd 71ea bbbd
00000110: 52a2 72bd 9400 003d f963 96bd e653 783d
00000120: 9c45 03bb a952 49bd 6281 bf3d 31b7 45bd
00000130: 42dd 03bd d293 c9bc 571c f2bc f070 603c
00000140: 3587 66bd 8702 b4bc 3ede 0dbd fcc9 523d
00000150: 7d40 cebd eaa5 953c 2c0b 683d dfb5 de3c
00000160: 1c86 b6bd 7a38 b9bd 0ee7 aabc 4074 7fbd
00000170: 92ec 543d 9a3a 8e3c 1d33 ac3d a419 a8bc
00000180: 917d d13d 774d 983c 1a29 cabd 5ca0 6b3d
00000190: 5aa7 aa3d 6454 4f3d 05b8 f2b9 4a27 7cbd
000001a0: 2313 b43b ded2 0fbd afc2 85bd 01c3 e639
000001b0: d28e c83d 4aa0 19bc 4ba7 803d b65e 6abd
000001c0: 07c0 5cbd becb 663a 93ab 06bd 2d21 b63d
000001d0: 635f 85bd b5e9 743c e587 1a3c 972f 8cbd
000001e0: c10f 483d e0a1 a73c b6a2 d3b9 8837 c3bd
000001f0: 31d9 7c3d ada4 b03d bafc 8abd 4d00 afba
0.020802418 -0.0029197305 0.07512218 0.014725649 0.034584336 -0.015677677 -0.035257727 0.061283946
-0.03425511 0.1062533 0.002506554 -0.01640969 -0.029140089 -0.05475127 0.08739674 -0.03192913
-0.0387634 -0.03885186 0.036514122 0.040966827 -0.013114845 -0.051539376 -0.016208688 -0.008506695
-0.07918686 -0.044315793 -0.031449474 0.042119868 -0.018847488 -0.0036897617 -0.027482485 0.043164227
0.0210155 -0.040326048 0.08519365 0.0432591 0.026779095 0.08295659 0.02386129 -0.03839269
0.072073184 -0.07673712 -0.09726778 -0.07511496 0.030003402 0.03818251 0.04879317 -0.07192251
0.033534475 0.025900166 -0.034471948 -0.0120850615 0.03650252 -0.050606743 -0.06824948 -0.03683604
-0.020460034 0.023322022 -0.051288214 0.018337082 0.026662612 -0.046221796 0.038218353 -0.09045982
0.070580885 0.002889699 -0.075241074 -0.091755755 -0.059236832 0.03125055 -0.07343287 0.060626887
-0.0020030504 -0.049151096 0.0935085 -0.048270408 -0.03219343 -0.024606619 -0.02955453 0.013698801
-0.056281287 -0.021973861 -0.034635775 0.05146216 -0.10070894 0.01826759 0.05665128 0.027186332
-0.08912298 -0.09043975 -0.020862129 -0.062366724 0.051983424 0.017361928 0.084081866 -0.020520039
0.10229028 0.018591626 -0.09871121 0.057525977 0.08332701 0.05061759 -0.00046294942 -0.061560906
0.0054954453 -0.035113208 -0.065312736 0.00044014308 0.09792866 -0.009376595 0.062819086 -0.05721923
-0.05389407 0.00088041637 -0.03287847 0.088930465 -0.06512334 0.014948298 0.009431814 -0.068450145
0.04884315 0.02046293 -0.00040366285 -0.09532076 0.061730567 0.086251594 -0.06786485 -0.001335153

weight f4 [128, 128]
00000000: f92e 17bd 9c2d 743d b6d9 a6bd c79f a83c
00000010: 48aa 4e3d 9e35 873d 24b3 d63c f782 28bd
00000020: 490a e53d 82c5 e4bc 80ed b63c 54b7 203d
00000030: ee0b 8ebb 0d7c 24bc 2caa 65bb aa0f fa3d
00000040: b955 f4bc e6fd fabc eaa0 debc 2f21 80bd
00000050: 269c d8bc 36a4 e5bd 00df a53d ce78 993d
00000060: 1db3 f2bd 0463 3cbd fe02 4e3c 8798 b53c
00000070: 8976 5ebd 6896 c8bb fc08 8dbc d8d0 debb
00000080: 0e2b 2ebb 4731 6abd 0574 8fbd 8cb6 10bd
00000090: 9591 94bd 099b b23a d012 4bbd b06d 01bd
000000a0: f059 a63d 6342 a3bc e504 b53d 2993 fe3d
000000b0: 4729 c53c cb25 e93c c0d7 8b3c 680e 043d
000000c0: dae8 c2bd 377a babc 2a85 8f3d 4c9d bcbd
000000d0: 0bb0 9bbc 790d 82bd 0dd3 ca3c fb5b 7fbd
000000e0: bcc3 bdbd 1368 743b 5029 01be c71d 823b
000000f0: 64e7 b73b 96d5 4b3d 1d41 26bc 978d aa3c
00000100: d820 12be 2285 42bd bd6e 0dbd bce6 20bc
00000110: ca4a efbd 756d 28bd 3c86 013e a041 b13d
00000120: b137 ee3c 0bed d83c 1726 c83d 11de 0d3d
00000130: d0ae cd3d 6c0e 5fbd e3cb 623c 70d1 b9bd
00000140: 5980 66bd e140 223c d60f 253c 2624 933c
00000150: fbb6 af3a 3864 523d 4c03 34bd c0db 9f3d
00000160: 4be0 76bc 4a41 ecbd c1f8 adbd 232f 493d
00000170: 1fff 8a3c d09c 623d 9a34 333b dd93 b5bc
00000180: 6fb2 0f3d e4fc 163c 9c00 8c3d 901e aabd
00000190: d5c4 1cbd 9cbe f53c d813 29bd 9805 aabd
000001a0: 34f4 03be 5367 c73c 0b08 95bd 7ab8 3e3d
000001b0: 3ce4 3cbd 5f48 8ebd dc13 363d ae24 533d
000001c0: f294 b13d 304c 033d 81cb 17be 77a4 cbbc
000001d0: a2d0 0fbc 2b76 b7bd 6900 bebd 23a5 343d
000001e0: fc95 543d ceb7 a43d 1826 5e3d 0d7f c4bc
000001f0: 80ea 54bc 76f3 98bd 4b3e a0bd 2fce 0ebc
00000200: 7d7c 883d c2d1 0d3d 97fe b03c b1c9 a03d
00000210: bc57 0d3d 618e 68ba aaa4 4dbd 205e 133c
00000220: 7c61 c4bc fdba 07bc 1b7a e0ba fbcd 8f3c
00000230: 910c 153d 8bd5 87bd 9d30 cfbc 21c0 b83d
00000240: 00f7 f73a 5818 90bc e516 093d c1fe 043e
00000250: cd71 3b3d 827d 823c 1b99 253c eee0 00bd
00000260: 31a8 2b3d 9243 f8bc ab99 c03d d8e9 bb3d
00000270: c3c1 06bd 84c7 c8bc 0a66 8c3d 8f5a 15be
00000280: 4141 fbbc e881 99bd f66e 213d 687c 89bd
00000290: 95fa 85bd d17f fdbc dab0 7cbc 89b0 f9bc
000002a0: 78ba 83bd 733a 03be 8afe 163b 1bf2 0abe
000002b0: 9341 b13b 5c8a 903c 1d67 34bd 47fb 51bd
000002c0: 8ff0 423d efa7 73bd f92f ae3d 2d97 763d
000002d0: 3d1d de3c 6b4b dc3a 8c50 9cbc d143 a0bd
000002e0: f664 403d faef a33d d07a 903d 6c33 63bd
000002f0: 9507 d3bc 6f08 9c3d e435 193d 708c aa3c
00000300: ea63 123d db54 aebc f82f 70bc 735f 6c3d
00000310: 08fc 9cbd 0d85 7ebd 2fc1 18bd fed7 563c
00000320: 929c 4dbc bada 86bd d88c 2fbd 0e21 34bd
00000330: 3606 a2bc 1305 babc bf66 403d 71ab 573d
00000340: c77f 48bd eb34 413b e5d9 3d3d 7a80 823c
00000350: 5655 35bd 44af 20bc 6e9e 07bd e908 853d
00000360: cfb4 7c3d 8f5b a2bc 315d 61bc 4821 a13b
00000370: 6a88 98bb 7861 58bd f22f 4e3b 99ff 19bd
00000380: 021a a7bb e518 e5bc 1208 123e 78c1 ee3d
00000390: 47cb 423d 0a17 55bd df58 d23b ef5f c93c
000003a0: ee79 483d d2a8 8ebd 1fed 9e3d 2f36 42bd
000003b0: 2d87 493c 86ce bcba 7159 2fbc acee 823d
000003c0: ae6a 193c 2aeb d93d b4a4 8dbc ecdd 44bd
000003d0: 1a00 cc3c e01e 8f3b 09f5 f13d 4251 1e3e
000003e0: bb3a abbd 45f8 d33d df36 d63d e7b3 5cbc
000003f0: 75c3 64bc 0d47 ef3d 0331 35bd c8a5 113d
-0.03691003 0.05961381 -0.08146994 0.020584 0.05045536 0.066020235 0.026208468 -0.041140523
0.11183602 -0.02792621 0.022330046 0.039237335 -0.004334918 -0.010039342 -0.0035044057 0.12210019
-0.029826032 -0.030638646 -0.02717634 -0.06256329 -0.026441645 -0.112129614 0.080991745 0.07493745
-0.118505694 -0.045992866 0.012573956 0.022167457 -0.054312263 -0.0061214454 -0.017216198 -0.0067997985
-0.0026575956 -0.0571759 -0.07004551 -0.03533034 -0.0725433 0.0013626526 -0.049578488 -0.031598747
0.08122623 -0.019929117 0.08838824 0.12430412 0.024067534 0.028460404 0.017070651 0.0322403
-0.09517069 -0.022763355 0.07007821 -0.092096895 -0.019004842 -0.06350226 0.02475884 -0.06234358
-0.09265849 0.0037293478 -0.12613416 0.003970835 0.0056123007 0.04976424 -0.01014736 0.020819468
-0.14270341 -0.047490247 -0.034529436 -0.009820636 -0.11684187 -0.04112001 0.12648863 0.08655095
0.02907929 0.026480218 0.0977289 0.034635607 0.100431085 -0.054457113 0.013842556 -0.0907315
-0.056274746 0.009903164 0.010074576 0.017961573 0.0013405973 0.051365107 -0.043948457 0.07805586
-0.015068124 -0.115358904 -0.08494712 0.04911722 0.016967354 0.05532533 0.0027344585 -0.022165233
0.035082277 0.009215567 0.06836054 -0.083066106 -0.03827365 0.029998116 -0.04127869 -0.08301848
-0.12886125 0.024341261 -0.07276925 0.04656265 -0.0461161 -0.069473974 0.044452533 0.051548652
0.08670987 0.03205508 -0.14823724 -0.024858696 -0.008777769 -0.089580856 -0.09277422 0.0441028
0.05190085 0.080428705 0.054235548 -0.023986364 -0.012995362 -0.074683115 -0.078243814 -0.00871615
0.06664369 0.03462387 0.021605773 0.078509696 0.0345075 -0.0008871314 -0.050205864 0.008994609
-0.023972265 -0.008284328 -0.0017126234 0.017554274 0.036388937 -0.06632527 -0.025291735 0.09021021
0.0018918216 -0.017589733 0.0334691 0.12987806 0.045762826 0.015928987 0.010107304 -0.03146451
0.041908447 -0.030305658 0.0940431 0.091754615 -0.03289963 -0.024509199 0.068554 -0.14585327
-0.030670764 -0.07495481 0.03941246 -0.06713182 -0.06541935 -0.030944737 -0.015423024 -0.030479686
-0.064320505 -0.12815265 0.00230399 -0.13568918 0.0054094284 0.0176441 -0.04404365 -0.051265027
0.047592696 -0.059486326 0.08505244 0.060202766 0.027113551 0.0016807144 -0.019081376 -0.07825435
0.046971284 0.08004756 0.070546746 -0.05546896 -0.025760451 0.07618796 0.03740491 0.020818919
0.035739817 -0.021280697 -0.014659874 0.057708215 -0.07665259 -0.062138606 -0.03729361 0.01311302
-0.012549536 -0.065846875 -0.04285893 -0.043976836 -0.019778352 -0.022707498 0.046972986 0.052653734
-0.048949983 0.0029481004 0.04635038 0.015930403 -0.044270836 -0.009807412 -0.033110075 0.0649584
0.06169587 -0.01981905 -0.013755129 0.0049172975 -0.0046549337 -0.05282733 0.0031461683 -0.037597273
-0.005099536 -0.027965972 0.14260891 0.11657995 0.04755714 -0.052023925 0.0064192857 0.024581878
0.048944406 -0.06965794 0.07760071 -0.047414955 0.012300295 -0.001440481 -0.010702477 0.06393179
0.009363813 0.10640557 -0.01729045 -0.048063204 0.024902392 0.0043676943 0.11814315 0.15460685
-0.08360811 0.10350088 0.104596846 -0.013470626 -0.013962616 0.11683474 -0.044236194 0.035558492

bias f4 [128]
00000000: 6854 a8bd 75aa 1c3d bc7d 813d 523d e53c
00000010: 0ec5 8e3c 18a5 1fbd 1e61 04bd 27ca 603d
00000020: bc63 3fbc 4e43 ae3c 62af e0bc 0ae9 863c
00000030: 50f0 59bd 64e9 d73d c4f5 213d e7e7 d63c
00000040: a21c 11bd dd1f e83c c731 d93c 763f ddbc
00000050: dcef 37bc 26a8 22bd 62c8 6c3b 7e63 0cbd
00000060: 7d3d ac3c cce5 e73c afc2 04bd 5302 b8bd
00000070: 20c8 d63c 1fad d53d 2d9e 193d 93c7 333d
00000080: d44f 1fbd cf2e 723c a84f 403c 9091 92bd
00000090: fc14 97bd 7541 e6bc 7908 893d 7add 8ebc
000000a0: 46b5 d93c 591c 8a3c 0942 04bd 5d33 c33d
000000b0: 761a 7abd d548 433c d1f5 babc 2423 89bd
000000c0: 71d1 25bd a399 37bd 1140 3abd 27cf a13b
000000d0: 17bf 333d c116 4cbd 6f41 603d 3efe ec3c
000000e0: 9297 753d 765f 5bbc 6e18 cfbb c893 463d
000000f0: b177 84bc eeb1 d13d bf28 cbbc 3955 8dbd
00000100: 9654 263b 6052 45bd 9348 913d 46bb 02bd
00000110: 7d81 e23b 30c9 3c3d 7e56 663c c13d d93b
00000120: 8d53 213d ec20 9ebd 01c8 023d bf0e 75bd
00000130: 4b0e 27bd 984d 633d 2a67 263d e8ae b43d
00000140: 70e1 e9bc 1fc6 ac3c 9f33 5c3d e2d8 32bd
00000150: f5d2 51bc 3f62 9f3d 5de8 d63d bbdb b43d
00000160: ffd5 a5bb b0b5 033d 0752 aa3c 5c66 4c3a
00000170: 9a6d d3bc 48b3 0b3b 1245 11bd 57bc e03c
00000180: 2af2 2bbd 9eaf adbd 87a0 813d 5e64 9b3c
00000190: 46b8 c43d b6b2 d9bc 4178 a2bd 242a 5fbc
000001a0: 09d3 73bd 4407 003c 493a 863d 93c2 d33b
000001b0: d86a 0b3c 168e 423d 7fed 24bd 2647 8c3d
000001c0: 65c7 c33c 4681 bfbd 5555 78bc 1bb1 f2bb
000001d0: 2f23 4bbd dda8 ae3d 38b4 db3c 7b24 58bd
000001e0: 6939 923d ebe2 38bd 0e7e 993d 922d 53bd
000001f0: 2c16 1abc 25de eebc 6a37 56bd 8775 18bb
-0.08219224 0.038248498 0.0632281 0.027983341 0.017427947 -0.038975805 -0.03231918 0.054880287
-0.011681493 0.021272328 -0.027427379 0.016468544 -0.053207695 0.105425626 0.03954102 0.026233627
-0.035427697 0.028335506 0.026512993 -0.0270078 -0.0112266205 -0.03971114 0.003613018 -0.03427457
0.021025414 0.028307818 -0.032412227 -0.08984818 0.026218474 0.10433411 0.037504364 0.0438915
-0.03889449 0.014781668 0.0117377415 -0.0715667 -0.07377049 -0.028107384 0.06691069 -0.017439593
0.026575696 0.01685922 -0.03228954 0.09531281 -0.06106039 0.01191922 -0.022822293 -0.06696156
-0.040482942 -0.044824254 -0.045471255 0.0049380246 0.04388341 -0.049826387 0.054749902 0.028929826
0.059959 -0.013389459 -0.006320051 0.04848078 -0.016170355 0.102390155 -0.024799703 -0.069010206
0.0025380007 -0.048174262 0.070939206 -0.03191688 0.006912409 0.046090305 0.014058707 0.006629676
0.03938632 -0.07721123 0.03192902 -0.059828516 -0.040785115 0.05549392 0.04062573 0.08822423
-0.02854988 0.021090565 0.053760167 -0.043663867 -0.012806644 0.07782411 0.104935385 0.08830973
-0.0050609107 0.032155693 0.020791067 0.0007797235 -0.025809098 0.0021316577 -0.03546626 0.027433557
-0.041978993 -0.08480762 0.06329446 0.018968757 0.0960546 -0.026574474 -0.07933093 -0.013620887
-0.05952743 0.007814232 0.06554086 0.006462404 0.00850936 0.047498785 -0.040265556 0.06849508
0.02389879 -0.09350829 -0.0151570635 -0.0074063665 -0.0495941 0.08528302 0.026819333 -0.052769165
0.07139856 -0.04513828 0.07494746 -0.05155713 -0.0094047 -0.029158661 -0.05229894 -0.002326341
