dapg/examples/dapg_jit_model/no_relocate-v0/model_classifier.pt (torch, 148333 bytes, 10 tensors)

in_shift f4 [128]
0.0 0.0 0.0 0.0 0.0 0.0 0.0 0.0
0.0 0.0 0.0 0.0 0.0 0.0 0.0 0.0
0.0 0.0 0.0 0.0 0.0 0.0 0.0 0.0
0.0 0.0 0.0 0.0 0.0 0.0 0.0 0.0
0.0 0.0 0.0 0.0 0.0 0.0 0.0 0.0
0.0 0.0 0.0 0.0 0.0 0.0 0.0 0.0
0.0 0.0 0.0 0.0 0.0 0.0 0.0 0.0
0.0 0.0 0.0 0.0 0.0 0.0 0.0 0.0
0.0 0.0 0.0 0.0 0.0 0.0 0.0 0.0
0.0 0.0 0.0 0.0 0.0 0.0 0.0 0.0
0.0 0.0 0.0 0.0 0.0 0.0 0.0 0.0
0.0 0.0 0.0 0.0 0.0 0.0 0.0 0.0
0.0 0.0 0.0 0.0 0.0 0.0 0.0 0.0
0.0 0.0 0.0 0.0 0.0 0.0 0.0 0.0
0.0 0.0 0.0 0.0 0.0 0.0 0.0 0.0
0.0 0.0 0.0 0.0 0.0 0.0 0.0 0.0
00000000: 0000 0000 0000 0000 0000 0000 0000 0000
00000010: 0000 0000 0000 0000 0000 0000 0000 0000
00000020: 0000 0000 0000 0000 0000 0000 0000 0000
00000030: 0000 0000 0000 0000 0000 0000 0000 0000
00000040: 0000 0000 0000 0000 0000 0000 0000 0000
00000050: 0000 0000 0000 0000 0000 0000 0000 0000
00000060: 0000 0000 0000 0000 0000 0000 0000 0000
00000070: 0000 0000 0000 0000 0000 0000 0000 0000
00000080: 0000 0000 0000 0000 0000 0000 0000 0000
00000090: 0000 0000 0000 0000 0000 0000 0000 0000
000000a0: 0000 0000 0000 0000 0000 0000 0000 0000
000000b0: 0000 0000 0000 0000 0000 0000 0000 0000
000000c0: 0000 0000 0000 0000 0000 0000 0000 0000
000000d0: 0000 0000 0000 0000 0000 0000 0000 0000
000000e0: 0000 0000 0000 0000 0000 0000 0000 0000
000000f0: 0000 0000 0000 0000 0000 0000 0000 0000
00000100: 0000 0000 0000 0000 0000 0000 0000 0000
00000110: 0000 0000 0000 0000 0000 0000 0000 0000
00000120: 0000 0000 0000 0000 0000 0000 0000 0000
00000130: 0000 0000 0000 0000 0000 0000 0000 0000
00000140: 0000 0000 0000 0000 0000 0000 0000 0000
00000150: 0000 0000 0000 0000 0000 0000 0000 0000
00000160: 0000 0000 0000 0000 0000 0000 0000 0000
00000170: 0000 0000 0000 0000 0000 0000 0000 0000
00000180: 0000 0000 0000 0000 0000 0000 0000 0000
00000190: 0000 0000 0000 0000 0000 0000 0000 0000
000001a0: 0000 0000 0000 0000 0000 0000 0000 0000
000001b0: 0000 0000 0000 0000 0000 0000 0000 0000
000001c0: 0000 0000 0000 0000 0000 0000 0000 0000
000001d0: 0000 0000 0000 0000 0000 0000 0000 0000
000001e0: 0000 0000 0000 0000 0000 0000 0000 0000
000001f0: 0000 0000 0000 0000 0000 0000 0000 0000

in_scale f4 [128]
1.0 1.0 1.0 1.0 1.0 1.0 1.0 1.0
1.0 1.0 1.0 1.0 1.0 1.0 1.0 1.0
1.0 1.0 1.0 1.0 1.0 1.0 1.0 1.0
1.0 1.0 1.0 1.0 1.0 1.0 1.0 1.0
1.0 1.0 1.0 1.0 1.0 1.0 1.0 1.0
1.0 1.0 1.0 1.0 1.0 1.0 1.0 1.0
1.0 1.0 1.0 1.0 1.0 1.0 1.0 1.0
1.0 1.0 1.0 1.0 1.0 1.0 1.0 1.0
1.0 1.0 1.0 1.0 1.0 1.0 1.0 1.0
1.0 1.0 1.0 1.0 1.0 1.0 1.0 1.0
1.0 1.0 1.0 1.0 1.0 1.0 1.0 1.0
1.0 1.0 1.0 1.0 1.0 1.0 1.0 1.0
1.0 1.0 1.0 1.0 1.0 1.0 1.0 1.0
1.0 1.0 1.0 1.0 1.0 1.0 1.0 1.0
1.0 1.0 1.0 1.0 1.0 1.0 1.0 1.0
1.0 1.0 1.0 1.0 1.0 1.0 1.0 1.0
00000000: 0000 803f 0000 803f 0000 803f 0000 803f
00000010: 0000 803f 0000 803f 0000 803f 0000 803f
00000020: 0000 803f 0000 803f 0000 803f 0000 803f
00000030: 0000 803f 0000 803f 0000 803f 0000 803f
00000040: 0000 803f 0000 803f 0000 803f 0000 803f
00000050: 0000 803f 0000 803f 0000 803f 0000 803f
00000060: 0000 803f 0000 803f 0000 803f 0000 803f
00000070: 0000 803f 0000 803f 0000 803f 0000 803f
00000080: 0000 803f 0000 803f 0000 803f 0000 803f
00000090: 0000 803f 0000 803f 0000 803f 0000 803f
000000a0: 0000 803f 0000 803f 0000 803f 0000 803f
000000b0: 0000 803f 0000 803f 0000 803f 0000 803f
000000c0: 0000 803f 0000 803f 0000 803f 0000 803f
000000d0: 0000 803f 0000 803f 0000 803f 0000 803f
000000e0: 0000 803f 0000 803f 0000 803f 0000 803f
000000f0: 0000 803f 0000 803f 0000 803f 0000 803f
00000100: 0000 803f 0000 803f 0000 803f 0000 803f
00000110: 0000 803f 0000 803f 0000 803f 0000 803f
00000120: 0000 803f 0000 803f 0000 803f 0000 803f
00000130: 0000 803f 0000 803f 0000 803f 0000 803f
00000140: 0000 803f 0000 803f 0000 803f 0000 803f
00000150: 0000 803f 0000 803f 0000 803f 0000 803f
00000160: 0000 803f 0000 803f 0000 803f 0000 803f
00000170: 0000 803f 0000 803f 0000 803f 0000 803f
00000180: 0000 803f 0000 803f 0000 803f 0000 803f
00000190: 0000 803f 0000 803f 0000 803f 0000 803f
000001a0: 0000 803f 0000 803f 0000 803f 0000 803f
000001b0: 0000 803f 0000 803f 0000 803f 0000 803f
000001c0: 0000 803f 0000 803f 0000 803f 0000 803f
000001d0: 0000 803f 0000 803f 0000 803f 0000 803f
000001e0: 0000 803f 0000 803f 0000 803f 0000 803f
000001f0: 0000 803f 0000 803f 0000 803f 0000 803f

out_shift f4 [4]
0.0 0.0 0.0 0.0
00000000: 0000 0000 0000 0000 0000 0000 0000 0000

out_scale f4 [4]
1.0 1.0 1.0 1.0
00000000: 0000 803f 0000 803f 0000 803f 0000 803f

weight f4 [128, 128]
0.03165656 -0.031139946 0.050357636 0.054995883 0.026863076 0.027510172 0.083175644 0.0415847
0.0064680697 0.0032028088 0.013249827 0.055916216 0.07442073 0.017543226 -0.061497357 0.097642496
0.0087220855 -0.07911079 -0.03652781 -0.03943412 0.061115246 0.04858956 0.010719353 0.032437906
0.05814089 0.029001435 0.085890934 -0.009633027 -0.12193125 -0.019116422 -0.004295169 -0.00084773096
-0.037323195 -0.022308618 0.0074909483 0.069493085 0.0008198314 -0.04064763 -0.037317175 0.0555062
-0.11710179 0.0018616628 -0.077200726 -0.11529565 -0.058752634 -0.033728704 -0.027182247 -0.079644345
-0.046418186 0.044051703 -0.03543812 -0.03406208 0.013561284 -0.09035319 -0.009131571 0.052180536
-0.011582478 -0.013627379 -0.023974681 0.0128340125 0.08151515 -0.05420274 -0.07865584 0.042694498
0.019877663 0.004959819 0.048370376 -0.010185577 0.00029833635 0.11283622 0.046311185 -0.053672742
0.033654973 -0.036119897 0.012442452 0.09170505 -0.023426808 -0.06627609 0.0007543339 0.04739479
-0.0264791 -0.091730416 -0.08164022 0.064373605 -0.08624886 0.01439897 0.029406017 0.020854851
-0.15162753 0.10198402 -0.07499527 -0.012951366 -0.117754355 -0.112565 -0.05880484 0.03733692
0.04339436 -0.08555667 -0.05202154 0.02055476 -0.11785215 -0.052779693 0.039447054 0.070970096
0.011539797 0.12658858 0.069603875 0.009902053 -0.014873861 0.051088095 -0.0034134788 -0.07166833
-0.050715193 0.06899085 -0.0014176768 -0.010305589 -0.04497528 -0.026934406 0.024331959 -0.074936435
-0.09001386 -0.039002754 -0.07905593 -0.04234835 0.061245263 -0.00027106548 0.048077594 -0.09101639
0.073463924 0.0063493997 0.088769846 0.14303121 -0.042570952 -0.092474 -0.09845658 -0.15458721
-0.03879085 -0.0074765156 -0.011735398 0.058528475 -0.040555824 0.0401843 -0.035693824 -0.053326778
-0.07786948 0.11274201 -0.099333555 -0.027986888 -0.06299061 -0.060842983 0.03475825 0.03968511
0.012371764 -0.030348696 -0.11621225 0.057272956 0.048301462 0.0424756 0.05986328 -0.081280105
0.013569484 -0.10341117 0.006310003 -0.06663501 -0.036289446 0.034452043 0.091776215 0.1043243
-0.07887212 -0.06655684 -0.028839653 0.03100999 -0.096877284 -0.055005915 -0.030182375 -0.0680585
0.08580234 -0.0021778909 -0.08021785 0.016745826 0.0061307675 -0.023067806 -0.06451972 0.058523383
0.045170553 0.02904423 -0.034542665 -0.07053972 0.012251656 -0.07169423 0.03499951 0.03597249
-0.13396718 0.12244927 0.035514705 -0.009005064 -0.13009818 0.037699174 0.0034286666 -0.10746832
0.055750832 -0.068186164 0.14455812 -0.047886696 0.04003126 -0.003244717 -0.12433476 0.011099919
0.13555752 0.01993886 0.038723666 -0.10125161 0.03309419 -0.059037853 -0.00013114532 -0.06561064
-0.090291336 -0.05138098 -0.041840695 -0.073452994 0.036389746 -0.033535 -0.05745488 -0.114210084
-0.03163598 -0.028025616 -0.017168289 -0.018673154 0.07862687 0.04478971 -0.09862883 -0.020058855
0.033744566 -0.026442222 0.016121142 0.017672425 0.10164054 -0.054223955 -0.06649851 -0.08812602
0.046146754 0.06382707 -0.06508528 0.06799086 0.052221637 -0.004505973 0.025392137 -0.028450191
-0.09844608 0.02332582 -0.1029065 -0.066444956 -0.03875648 -0.036598735 -0.0067843427 0.111608185
00000000: 4faa 013d 3319 ffbc cf43 4e3d 5d43 613d
00000010: f40f dc3c 035d e13c fe57 aa3d b854 2a3d
00000020: 1af2 d33b 37e6 513b cd15 593c 6708 653d
00000030: e569 983d d0b6 8f3c a7e4 7bbd caf8 c73d
00000040: 14e7 0e3c d604 a2bd 2f9e 15bd ac85 21bd
00000050: fb53 7a3d d905 473d 3aa0 2f3c 9cdd 043d
00000060: 2425 6e3d 6b94 ed3c 96e7 af3d d8d3 1dbc
00000070: 17b7 f9bd 0b9a 9cbc 7dbe 8cbb 433a 5eba
00000080: 35e0 18bd 90c0 b6bc a176 f53b 6452 8e3d
00000090: f4e9 563a 217e 26bd e5d9 18bd 785a 633d
000000a0: 10d3 efbd 0a03 f43a 6a1b 9ebd 2020 ecbd
000000b0: 9aa6 70bd 1c27 0abd 4ead debc 931c a3bd
000000c0: ff20 3ebd 8f6f 343d 9027 11bd ae84 0bbd
000000d0: 2630 5e3c 180b b9bd 969c 15bc 42bb 553d
000000e0: 6fc4 3dbc 5f45 5fbc 8d66 c4bc c045 523c
000000f0: 6af1 a63d b103 5ebd 5016 a1bd 6de0 2e3d
00000100: 7bd6 a23c fa85 a23b 0420 463d 68e1 26bc
00000110: 076a 9c39 ad16 e73d ccb0 3d3d f3d7 5bbd
00000120: ccd9 093d 75f2 13bd 6ddb 4b3c dbcf bb3d
00000130: 94e9 bfbc c2bb 87bd 7ebe 453a 0a21 423d
00000140: b3ea d8bc 28dd bbbd fd32 a7bd 4fd6 833d
00000150: 3ea3 b0bd a8e9 6b3c e3e4 f03c cbd7 aa3c
00000160: 3f44 1bbe ffdc d03d 1f97 99bd f731 54bc
00000170: 3229 f1bd 7b88 e6bd 58dd 70bd 99ee 183d
00000180: 49be 313d 5638 afbd 8a14 55bd 7562 a83c
00000190: 785c f1bd 852f 58bd 3c93 213d c558 913d
000001a0: 6b11 3d3c 70a0 013e 7a8c 8e3d 383c 223c
000001b0: 7fb1 73bc c041 513d acb4 5fbb d8c6 92bd
000001c0: bcba 4fbd 134b 8d3d 57d1 b9ba c6d8 28bc
000001d0: 0038 38bd 8ba5 dcbc d153 c73c 4678 99bd
000001e0: 3059 b8bd 5ac1 1fbd 13e8 a1bd 7775 2dbd
000001f0: 50dc 7a3d cb1d 8eb9 03ed 443d cd66 babd
00000200: 4174 963d a00e d03b f7cc b53d c676 123e
00000210: e15e 2ebd 0263 bdbd 9aa3 c9bd 1c4c 1ebe
00000220: 28e3 1ebd 8ffd f4bb d445 40bc 8ebb 6f3d
00000230: dd1d 26bd 4b98 243d b033 12bd 2e6d 5abd
00000240: 097a 9fbd 48e5 e63d 646f cbbd c244 e5bc
00000250: 3901 81bd 7e36 79bd ab5e 0e3d db8c 223d
00000260: f0b2 4a3c d49d f8bc b000 eebd 0c97 6a3d
00000270: c1d7 453d e5fa 2d3d 3333 753d 2f76 a6bd
00000280: 8b52 5e3c 3cc9 d3bd 24c4 ce3b f077 88bd
00000290: 3ea4 14bd 961d 0d3d 2bf5 bb3d fba7 d53d
000002a0: b587 a1bd f44e 88bd 2341 ecbc aa08 fe3c
000002b0: 9967 c6bd e24d 61bd 0741 f7bc 4162 8bbd
000002c0: 23b9 af3d f2ba 0ebb 4249 a4bd 8b2e 893c
000002d0: 9be4 c83b b2f8 bcbc ea22 84bd 37b6 6f3d
000002e0: c204 393d 2aee ed3c 9c7c 0dbd 2177 90bd
000002f0: 2bbb 483c 6dd4 92bd a55b 0f3d e457 133d
00000300: b12e 09be afc6 fa3d de77 113d fa89 13bc
00000310: 7538 05be 736a 1a3d 7bb3 603b 5a18 dcbd
00000320: fc5a 643d 30a5 8bbd 0b07 143e d724 44bd
00000330: d2f7 233d 51a5 54bb 39a3 febd 6fdc 353c
00000340: 97cf 0a3e d256 a33c b59c 1e3d 015d cfbd
00000350: c68d 073d add1 71bd 0e84 09b9 df5e 86bd
00000360: aaea b8bd dd74 52bd 2661 2bbd 866e 96bd
00000370: 6a0d 153d ff5b 09bd cf55 6bbd fae6 e9bd
00000380: bb94 01bd fa95 e5bc 83a4 8cbc 71f8 98bc
00000390: 2007 a13d 6a75 373d e9fd c9bd 7852 a4bc
000003a0: be37 0a3d 5c9d d8bc 7c10 843c c3c5 903c
000003b0: ea28 d03d f019 5ebd 5f30 88bd 6a7b b4bd
000003c0: 6104 3d3d c4b7 823d 6e4b 85bd cb3e 8b3d
000003d0: 5be6 553d d7a6 93bb 2c03 d03c 6010 e9bc
000003e0: 199e c9bd ca15 bf3c a5c0 d2bd 4b14 88bd
000003f0: 1dbf 1ebd 8ee8 15bd 314f debb d592 e43d

bias f4 [128]
-0.0040924787 0.14215201 -0.12054804 0.044983663 -0.02501061 0.08994605 0.14416178 -0.15509321
-0.16434155 0.19982114 0.17013012 -0.09413772 0.13416816 -0.18674178 0.28741047 -0.2026223
0.099061176 -0.1472929 0.10870211 -0.015867364 -0.21203834 0.027859768 -0.2674971 0.20094886
-0.15816791 -0.23955299 0.08781171 -0.16376004 0.15628433 0.21213771 -0.014203816 -0.07224189
-0.056686964 0.211531 -0.031855687 0.21570449 -0.1956189 0.11825538 0.2431478 -0.06342006
-0.22178437 -0.0050560352 -0.20386489 0.025182506 -0.16545276 0.20181642 0.21260865 -0.231429
-0.14943811 -0.070546165 0.20167813 0.024120526 0.15194951 -0.036172036 -0.15072851 -0.06652201
-0.13040213 -0.064934365 -0.12643878 0.24746992 -0.21743701 0.23956995 0.24867238 -0.16714345
0.19109714 -0.21806507 0.10468348 0.14941218 0.05993539 0.11120652 0.24308144 -0.11116262
-0.044519555 -0.059152007 0.11310935 -0.045026563 0.20902096 -0.280974 -0.24313983 -0.15752082
-0.20598076 -0.13280782 0.1575119 -0.022092624 -0.07632147 0.103667915 -0.12450238 -0.26017576
0.007046249 -0.18887876 0.20964313 -0.08874921 0.22119811 -0.266348 0.05099003 0.025116082
0.10545511 -0.16333011 -0.21678026 0.18732576 -0.15677042 0.24054025 0.031540915 -0.20187315
0.2608516 0.05176036 0.050932545 0.23210093 -0.070122026 0.123154975 0.09039361 0.099130936
0.20820259 0.18099415 -0.09995314 -0.14574021 0.2416909 0.20722851 0.19505046 0.22360645
-0.038788404 0.18738833 -0.120040126 -0.06921362 0.025206381 -0.23048212 -0.051855396 -0.13462284
00000000: 331a 86bb 4c90 113e e4e1 f6bd ca40 383d
00000010: 0de3 ccbc a235 b83d 259f 133e c1d0 1ebe
00000020: 2749 28be ea9d 4c3e 9736 2e3e 47cb c0bd
00000030: 6163 093e 3d39 3fbe 7727 933e 387c 4fbe
00000040: 96e0 ca3d f3d3 16be 369f de3d 46fc 81bc
00000050: 9420 59be 2b3a e43c 61f5 88be 8ac5 4d3e
00000060: c5f6 21be 614d 75be a0d6 b33d b6b0 27be
00000070: 0009 203e a13a 593e 1fb7 68bc 8ef3 93bd
00000080: 9730 68bd 959b 583e 1c7b 02bd a3e1 5c3e
00000090: 5250 48be e02f f23d bdfb 783e 60e2 81bd
000000a0: 711b 63be 19ad a5bb f5c1 50be 8b4b ce3c
000000b0: 736c 29be f7a8 4e3e 15b6 593e b9fb 6cbe
000000c0: 4e06 19be 827a 90bd b684 4e3e 6998 c53c
000000d0: a798 1b3e 2129 14bd 9358 1abe b13c 88bd
000000e0: 2388 05be 4ffc 84bd 2b79 01be c168 7d3e
000000f0: cfa7 5ebe d351 753e f9a3 7e3e a727 2bbe
00000100: f8ae 433e 734c 5fbe 4b64 d63d 82ff 183e
00000110: d07e 753d 3ec0 e33d 57ea 783e 3aa9 e3bd
00000120: 235a 36bd 6049 72bd e0a5 e73d c66d 38bd
00000130: 9709 563e d3db 8fbe a6f9 78be 234d 21be
00000140: 9fec 52be c6fe 07be cd4a 213e 97fb b4bc
00000150: 6e4e 9cbd d84f d43d 1bfb febd c235 85be
00000160: 39e4 e63b 6f69 41be b0ac 563e 25c2 b5bd
00000170: c281 623e c45e 88be ecda 503d 3ec0 cd3c
00000180: d9f8 d73d 0240 27be a5fb 5dbe 53d2 3f3e
00000190: 6d88 20be 2f50 763e 0c31 013d d6b7 4ebe
000001a0: 578e 853e ac02 543d a59e 503d deab 6d3e
000001b0: 239c 8fbd ad38 fc3d 4920 b93d 2905 cb3d
000001c0: 0f33 553e 8856 393e 3bb4 ccbd ec3c 15be
000001d0: d27d 773e b633 543e 4fbb 473e 17f9 643e
000001e0: 97e0 1ebd bae2 3f3e 99d7 f5bd dfbf 8dbd
000001f0: 9d7d ce3c 8103 6cbe 5366 54bd 92da 09be

weight f4 [128, 128]
0.068041034 -0.18915051 -0.09396028 -0.013674824 0.09234645 -0.06276783 -0.15687257 -0.0659157
-0.069693364 -0.07403221 0.13131481 -0.11516504 -0.040372353 0.007655417 0.1493853 0.034115467
0.031935442 -0.017150609 0.11344763 -0.027857091 -0.07056783 0.0027901456 -0.012513844 0.14452805
0.01364917 0.0056648217 0.030605016 0.034112025 0.14300682 0.10833426 0.0659445 -0.022208134
0.029389558 0.057446025 -0.13064377 0.05848087 -0.032031156 -0.015554753 0.07350658 -0.07609349
-0.0066658515 0.06426126 0.0101926485 0.04754875 -0.0311248 -0.0617297 0.03498492 -0.025471853
0.096737005 0.008621466 0.03178128 -0.12953931 0.07396829 -0.09826447 -0.15712003 0.020886527
-0.052834827 0.042862576 -0.046485692 0.008113038 -0.021613227 -0.068664975 -0.062011983 0.018370366
0.08099247 -0.10889801 -0.04112796 0.008052019 0.010996005 -0.13011795 0.0964997 -0.07615694
-0.00026777657 0.026303727 0.08128243 -0.19596717 0.0036260574 -0.029061822 -0.069261506 -0.14116731
-0.03829611 -0.1103217 0.010023744 -0.07174814 -0.040825266 0.039421123 0.06103316 0.041844256
0.027999727 -0.07276431 -0.04471657 0.02360826 0.11891429 0.04394206 0.025253082 -0.12900323
0.1331211 0.07135091 -0.055594485 0.13028494 -0.15723063 0.07788676 -0.034502707 0.0069014733
0.13320935 0.05397824 0.09923638 0.14865108 -0.086429246 -0.16155933 0.13286103 -0.04097787
-0.13523616 -0.014659062 0.029306803 -0.061101288 0.01754543 0.03923386 0.050205026 -0.032522257
-0.04832162 0.093557686 -0.09252454 -0.018366937 -0.1006061 -0.07845276 0.07546854 -0.097554
-0.00265773 0.055058494 0.018009977 0.060350146 0.007294273 -0.058871295 0.07744139 -0.08636036
-0.030070249 -0.019932762 0.09192668 -0.055263028 0.08627882 -0.068880044 -0.044510387 -0.027983198
0.00030930663 -0.027202116 0.050470483 0.0040430194 -0.08976696 0.01323382 0.022730265 -0.04153877
0.0035312949 0.041092664 -0.017431429 -0.08915222 0.03564397 0.04693664 -0.030746758 0.033698387
0.020501742 0.008634313 0.09253909 0.06351173 -0.09060355 0.026801659 0.03061686 0.039997593
-0.10007629 0.024752997 -0.11547804 0.09400286 -0.0417016 0.10755586 -0.07537785 -0.12187231
-0.08926298 0.0064672465 0.07186038 0.054131735 0.07379447 -0.032946594 -0.08086649 -0.0064199846
0.056036934 0.0041030454 -0.014910935 0.043854736 -0.06604217 0.018365663 0.03004783 -0.06689388
0.096817754 -0.07517625 -0.049270228 -0.01602276 0.122384116 0.008699097 -0.023384864 -0.045474827
-0.052162006 -0.12115913 -0.06778187 -0.009977118 0.06877037 -0.060299587 -0.045518376 0.04699707
-0.034303453 -0.0022495936 -0.029550143 -0.012671881 0.0010352879 -0.019369213 -0.09880875 -0.031455122
0.07069634 -0.031315126 0.1011575 -0.07777939 0.1141697 -0.051388785 0.0012033939 0.08553127
0.08258207 -0.07256863 -0.076322556 0.025891278 0.0095762005 -0.08412115 0.031413686 -0.06959417
0.08289137 0.04267115 -0.035155132 0.06146666 0.060145877 0.07630964 -0.029491382 -0.019831091
0.05752767 -0.0040072403 0.05205934 -0.037938338 0.015552934 -0.02632458 0.09427501 0.01307003
0.035864606 0.043160524 -0.06927944 0.021248667 -0.063792765 -0.00411382 0.07751538 -0.11369754
00000000: 1959 8b3d acb0 41be 3f6e c0bd 5e0c 60bc
00000010: 2320 bd3d 6c8c 80bd 34a3 20be cffe 86bd
00000020: 65bb 8ebd 339e 97bd 6477 063e a6db ebbd
00000030: 7b5d 25bd 4bda fa3b 76f8 183e a9bc 0b3d
00000040: bdce 023d 6f7f 8cbc 3b57 e83d 8e34 e4bc
00000050: de85 90bd e0da 363b de06 4dbc 29ff 133e
00000060: c5a0 5f3c f89f b93b 5fb7 fa3c 0db9 0b3d
00000070: 6170 123e 5ade dd3d e90d 873d d5ed b5bc
00000080: 5fc2 f03c 864c 6b3d 7bc7 05be a389 6f3d
00000090: 1a33 03bd 5dd9 7ebc 9e8a 963d e7d6 9bbd
000000a0: 376d dabb 689b 833d 11ff 263c 7ac2 423d
000000b0: 70f9 febc 48d8 7cbd 594c 0f3d 59aa d0bc
000000c0: 0d1e c63d 0d41 0d3c 162d 023d f4a5 04be
000000d0: b07c 973d e23e c9bd 13e4 20be 391a ab3c
000000e0: 5569 58bd ab90 2f3d c867 3ebd 8cec 043c
000000f0: 390e b1bc 39a0 8cbd 4700 7ebd 737d 963c
00000100: 61df a53d eb05 dfbd cb75 28bd 9eec 033c
00000110: 9628 343c a43d 05be a2a1 c53d 2bf8 9bbd
00000120: 5d64 8cb9 ea7a d73c 6777 a63d 9eab 48be
00000130: 26a3 6d3b 0f13 eebc fad8 8dbd 2a8e 10be
00000140: 62dc 1cbd 58f0 e1bd a13a 243c b0f0 92bd
00000150: 6538 27bd 0b78 213d e8fd 793d e264 2b3d
00000160: af5f e53c 7405 95bd b928 37bd 1c66 c13c
00000170: 5689 f33d 97fc 333d 8ddf ce3c 6c19 04be
00000180: e650 083e 6d20 923d 0bb7 63bd 6a69 053e
00000190: 1101 21be 1883 9f3d b652 0dbd c125 e23b
000001a0: 0868 083e 4918 5d3d 713c cb3d fd37 183e
000001b0: d101 b1bd cf6f 25be b90c 083e 69d8 27bd
000001c0: 597b 0abe 902c 70bc d214 f03c 5845 7abd
000001d0: 6fbb 8f3c afb3 203d c9a3 4d3d 0f36 05bd
000001e0: e4ec 45bd 2c9b bf3d 827d bdbd 4276 96bc
000001f0: 920a cebd d7ab a0bd 408f 9a3d 64ca c7bd
00000200: 4f2d 2ebb 0485 613d a989 933c b731 773d
00000210: cc04 ef3b 0723 71bd 9799 9e3d b3dd b0bd
00000220: e255 f6bc 084a a3bc 0e44 bc3d 7c5b 62bd
00000230: f3b2 b03d fb10 8dbd 8650 36bd 053d e5bc
00000240: 6f2a a239 f9d6 debc 23ba 4e3d 4e7b 843b
00000250: bdd7 b7bd aad2 583c d234 ba3c 8f24 2abd
00000260: 4c6d 673b c850 283d 5bcc 8ebc 7095 b6bd
00000270: 69ff 113d a240 403d a0e0 fbbc 5207 0a3d
00000280: 45f3 a73c ef76 0d3c 2285 bd3d 7012 823d
00000290: 5b8e b9bd 278f db3c 36d0 fa3c 84d4 233d
000002a0: ccf4 ccbd ccc6 ca3c c07f ecbd 9284 c03d
000002b0: 4ccf 2abd 3f46 dc3d b45f 9abd 3198 f9bd
000002c0: 82cf b6bd 32eb d33b 892b 933d 3db9 5d3d
000002d0: 8e21 973d 02f3 06bd 559d a5bd bc5e d2bb
000002e0: fc86 653d d772 863b ff4c 74bc 06a1 333d
000002f0: 1e41 87bd 9673 963c de26 f63c a9ff 88bd
00000300: 6348 c63d 01f6 99bd 94cf 49bd 2a42 83bc
00000310: 86a4 fa3d a886 0e3c 9d91 bfbc d043 3abd
00000320: d4a7 55bd 4722 f8bd 39d1 8abd 1177 23bc
00000330: 7bd7 8c3d b3fc 76bd 7a71 3abd 0080 403d
00000340: c781 0cbd eb6d 13bb 2413 f2bc b99d 4fbc
00000350: 7fb2 873a 2fac 9ebc 3e5c cabd 16d7 00bd
00000360: 3ec9 903d 4a44 00bd aa2b cf3d cd4a 9fbd
00000370: ced1 e93d 0c7d 52bd 33bb 9d3a 052b af3d
00000380: ca20 a93d dd9e 94bd 004f 9cbd f219 d43c
00000390: 7fe5 1c3c b647 acbd a3ab 003d 6387 8ebd
000003a0: f3c2 a93d f2c7 2e3d d4fe 0fbd 77c4 7b3d
000003b0: 865b 763d 3b48 9c3d e997 f1bc d074 a2bc
000003c0: 22a2 6b3d 2b4f 83bb 2d3c 553d 3b65 1bbd
000003d0: bcd1 7e3c a5a6 d7bc 4213 c13d ae23 563c
000003e0: c4e6 123d 17c9 303d 61e2 8dbd af11 ae3c
000003f0: c8a5 82bd 39cd 86bb 62c0 9e3d 41da e8bd

bias f4 [128]
0.06348448 0.1686954 0.21221644 -0.050896365 -0.14080828 -0.015800245 0.19237807 -0.21996127
-0.010672952 -0.2619252 -0.14726897 0.11861122 -0.025279062 -0.0050788894 -0.2218119 0.17585123
-0.20980619 0.13713133 0.08987143 -0.023139315 0.14845006 -0.120119475 0.18930505 -0.21314043
0.06879783 0.07936961 -0.22048017 0.016809877 -0.1668791 0.046190638 -0.24970336 -0.24277042
-0.13651396 0.021928305 0.18084346 0.22071265 -0.28053778 0.14464256 0.09982424 0.20412317
-0.05884989 0.15332234 -0.20780823 -0.017677143 0.22383149 -0.034645136 -0.13997626 0.027492777
0.00081984256 -0.17638482 0.23381047 -0.10893601 -0.24858715 0.1110015 -0.12561306 0.17304815
-0.18855892 0.08063098 0.05197374 0.18993148 -0.0918216 0.06682806 0.26708302 -0.106861725
-0.06396199 0.20869468 -0.13372636 -0.045808457 0.09604571 -0.1616275 0.042786334 0.16764128
-0.15517691 0.25593463 -0.07908915 -0.22818658 -0.18837897 -0.18924712 -0.112457134 -0.016055273
-0.26568174 -0.28085837 -0.20669481 0.15820675 -0.018633593 -0.12343561 -0.10724257 0.06183584
-0.19771361 0.07459576 0.059484914 -0.04063114 -0.17279026 -0.1837982 -0.041810308 -0.16022146
0.20578954 0.14093973 -0.18077996 -0.17795339 0.12236056 0.17640246 0.05735381 0.10498719
0.18438454 -0.1314663 -0.24876396 -0.13904278 0.23774724 -0.023879934 -0.23778617 0.22991383
0.16008897 0.22465731 -0.15448913 -0.19670369 -0.052661534 0.114491515 0.041552253 -0.23669708
-0.17975123 -0.042147644 -0.27293205 -0.2528908 -0.25072002 -0.16312894 -0.20562626 0.26455033
00000000: 2704 823d 7dbe 2c3e 444f 593e b578 50bd
00000010: 0c30 10be 846f 81bc c2fe 443e 873d 61be
00000020: 9bdd 2ebc 0f1b 86be adcd 16be 70ea f23d
00000030: 0916 cfbc d06c a6bb a922 63be 5812 343e
00000040: 6fd7 56be 286c 0c3e 830e b83d a98e bdbc
00000050: 4b03 183e 3301 f6bd 2fd9 413e 7c41 5abe
00000060: e0e5 8c3d 898c a23d 8ec5 61be deb4 893c
00000070: 5be2 2abe 6532 3d3d 3db2 7fbe cf98 78be
00000080: 51ca 0bbe fda2 b33c 072f 393e 7f02 623e
00000090: a6a2 8fbe 2e1d 143e a770 cc3d aa05 513e
000000a0: 950c 71bd 8800 1d3e aecb 54be a8cf 90bc
000000b0: 1534 653e 0fe8 0dbd f055 0fbe 8838 e13c
000000c0: b4ea 563a 399e 34be 036c 6f3e d819 dfbd
000000d0: a18d 7ebe c154 e33d b6a0 00be 8933 313e
000000e0: 9715 41be db21 a53d 6be2 543d 667d 423e
000000f0: f70c bcbd 26dd 883d 1bbf 883e 52da dabd
00000100: 81fe 82bd 0fb4 553e 90ef 08be a6a1 3bbd
00000110: 9db3 c43d ae81 25be b940 2f3d 28aa 2b3e
00000120: b2e6 1ebe dd09 833e 7ef9 a1bd bea9 69be
00000130: 6be6 40be ffc9 41be ed4f e6bd 5986 83bc
00000140: 7007 88be abcc 8fbe cea7 53be f300 223e
00000150: 7aa5 98bc cfcb fcbd fea1 dbbd 9447 7d3d
00000160: 7075 4abe a9c5 983d 74a6 733d d76c 26bd
00000170: eeef 30be 9835 3cbe 4941 2bbd 1811 24be
00000180: 7eba 523e 8152 103e 621e 39be 6a39 36be
00000190: 2c98 fa3d d9a2 343e d4eb 6a3d 8603 d73d
000001a0: 4dcf 3c3e 1a9f 06be fbbb 7ebe 3b61 0ebe
000001b0: 0374 733e da9f c3bc 387e 73be 886e 6b3e
000001c0: 5dee 233e 910c 663e 6632 1ebe b16c 49be
000001d0: 9fb3 57bd 877a ea3d b232 2a3d b860 72be
000001e0: b510 38be 02a3 2cbd c0bd 8bbe e77a 81be
000001f0: 605e 80be 460b 27be b18f 52be 2473 873e

weight f4 [4, 128]
-0.014242239 -0.13210388 0.018919736 -0.01811498 0.043035664 0.0161588 -0.13913645 0.09113888
0.06268639 0.06378788 0.057153553 -0.021992473 0.08037112 0.011372865 0.0098178815 0.038669318
0.054239035 -0.111682594 -0.011492894 0.034642763 -0.1028281 0.05413865 -0.09543784 0.09671617
-0.026795583 -0.05279671 0.1547767 -0.004359676 0.13943344 -0.067608975 0.061391897 0.08595594
0.11791493 -0.0014118331 -0.10899033 -0.089594156 0.22924508 -0.092454 -0.03602265 -0.07562788
0.095376156 -0.015070217 -0.0142316455 -0.010517618 -0.061628543 0.036837377 -0.05316819 -0.0028169753
0.010529302 0.07986548 -0.09982321 0.05311714 0.18543261 -0.05480509 0.056547467 -0.05035607
0.09520766 -0.09647071 -0.06388666 0.051764626 0.062385805 -0.06191891 -0.1462243 0.09409997
0.1494294 -0.12735745 0.0581943 -0.055837855 0.1002869 0.04375777 0.06988406 -0.098254
-0.012516086 -0.07211129 0.097716935 0.06207333 0.08898907 0.10626369 0.005556588 0.072419584
0.017730746 0.15250678 0.056375183 -0.00272023 0.042979367 0.12121367 0.07904998 0.009063753
0.13296355 -0.08654483 -0.042642236 0.02752112 -0.020369275 0.03001876 0.032319956 0.10998378
-0.10669454 -0.12198582 0.051793914 0.042212654 -0.13915603 -0.108421065 -0.09064635 -0.0038811916
-0.053832546 -0.00029514232 0.07654521 0.07796086 -0.05936273 0.02327906 0.105217405 0.013691315
0.045866538 -0.008981608 0.088305265 0.16114189 0.07906779 0.021599298 0.0059202416 -0.04197186
0.049915813 -0.08692111 0.121372186 0.107085824 0.14484699 -0.011196878 0.13797097 -0.033054948
-0.050450332 -0.17330498 -0.13674875 0.09014084 0.117239326 0.045731373 -0.15777399 0.11165499
0.024904994 0.20066477 0.13768017 -0.13534155 0.011775276 -0.10559692 0.08168217 -0.06575719
0.12422765 -0.09708186 -0.05039207 -0.11259413 -0.15607509 0.091462165 -0.07778197 0.12492002
-0.023652729 -0.012578777 0.022535758 0.0014490435 0.094628654 0.038129676 0.13583754 0.022087665
0.07975599 -0.033583198 -0.101094484 -0.061563328 0.04315847 -0.18221857 -0.055321332 -0.07024992
0.14698695 -0.18552025 0.14451274 -0.007986631 -0.06734007 -0.018135127 0.13285515 0.03834235
-0.056272473 0.14050306 -0.09036707 -0.0071750693 0.096898764 -0.11809513 0.07593862 0.032942176
0.031946294 -0.08071255 0.066526644 -0.076171346 0.052120905 0.01821754 -0.06824049 0.04753948
0.07693671 -0.075756066 -0.011297999 -0.092580475 0.03032867 0.029739255 -0.050835766 -0.19541566
0.040858265 -0.09040848 0.079456985 0.0719332 0.015917292 0.21987128 0.07807888 0.008722014
0.14137547 0.057346467 0.056909844 -0.052100476 -0.07317337 0.037311297 0.05021187 0.048506454
0.18622048 -0.08456702 0.0080231065 -0.046330325 0.10629198 0.08229294 -0.07047853 0.06413114
-0.013886576 -0.011735171 0.11790608 0.11958953 -0.18283859 -0.17204161 -0.031927094 -0.09897798
-0.0702807 0.051023025 0.20781313 0.051983047 -0.11257596 -0.0971613 0.082117744 -0.15331747
-0.105422966 -0.07983256 0.0005235352 0.10157422 -0.023966115 -0.031042852 0.028200325 0.029758284
0.026227325 0.070327245 0.14977606 0.07960951 0.0751051 0.13816918 0.12805104 -0.08194893
00000000: 4858 69bc 3d46 07be 90fd 9a3c de65 94bc
00000010: 2a46 303d 765f 843c c979 0ebe 05a7 ba3d
00000020: b961 803d 38a3 823d d819 6a3d 8f29 b4bc
00000030: 9d99 a43d 4155 3a3c 2edb 203c b863 1e3d
00000040: c029 5e3d d8b9 e4bd b14c 3cbc 92e5 0d3d
00000050: 8a97 d2bd 7dc0 5d3d ea74 c3bd 2113 c63d
00000060: 6982 dbbc 5d41 58bd c97d 1e3e 9ddb 8ebb
00000070: a4c7 0e3e 9376 8abd 1276 7b3d ab09 b03d
00000080: 627d f13d 420d b9ba 5236 dfbd 247d b7bd
00000090: 39bf 6a3e 8658 bdbd 7c8c 13bd cae2 9abd
000000a0: 9354 c33d 12e9 76bc d92b 69bc 1652 2cbc
000000b0: 366e 7cbd cae2 163d e3c6 59bd 019d 38bb
000000c0: 1883 2c3c 8390 a33d 1c70 ccbd 5c91 593d
000000d0: 0ce2 3d3e 4d7b 60bd 519e 673d 2b42 4ebd
000000e0: 3cfc c23d 7092 c5bd 02d7 82bd 2507 543d
000000f0: 4288 7f3d af9e 7dbd d3bb 15be 7cb7 c03d
00000100: 0504 193e fe69 02be 255d 6e3d 3cb6 64bd
00000110: 3863 cd3d 593b 333d 601f 8f3d 6539 c9bd
00000120: 4510 4dbc 16af 93bd d11f c83d 9b40 7e3d
00000130: e73f b63d c7a0 d93d 0a14 b63b b850 943d
00000140: 1240 913c bd2a 1c3e aae9 663d e345 32bb
00000150: 220b 303d df3e f83d f5e4 a13d 2380 143c
00000160: 9927 083e 6a3e b1bd a0a9 2ebd f973 e13c
00000170: 77dd a6bc e7e9 f53c ee61 043d 2d3f e13d
00000180: ab82 dabd b4d3 f9bd db25 543d 2de7 2c3d
00000190: eb7e 0ebe dd0b debd cba4 b9bd 975b 7ebb
000001a0: 847f 5cbd 55bd 9ab9 bcc3 9c3d f2a9 9f3d
000001b0: 5526 73bd bab3 be3c 397c d73d 8a51 603c
000001c0: 8dde 3b3d 9827 13bc 64d9 b43d 6102 253e
000001d0: 4bee a13d 03f1 b03c 96fe c13b afea 2bbd
000001e0: 8674 4c3d b203 b2bd fb91 f83d d04f db3d
000001f0: c552 143e 1c73 37bc 4348 0d3e a064 07bd
00000200: 02a5 4ebd dc76 31be dd07 0cbe c39b b83d
00000210: 2c1b f03d d250 3b3d 818f 21be 5fab e43d
00000220: 8f05 cc3c 117b 4d3e 08fc 0c3e fa96 0abe
00000230: 16ed 403c 3343 d8bd fb48 a73d b5ab 86bd
00000240: 116b fe3d dbd2 c6bd ea67 4ebd c097 e6bd
00000250: 26d2 1fbe 8450 bb3d 274c 9fbd 11d6 ff3d
00000260: 5ec3 c1bc 3717 4ebc e99c b83c d5ed bd3a
00000270: abcc c13d dd2d 1c3d ff18 0b3e 31f1 b43c
00000280: 1c57 a33d 898e 09bd a00a cfbd d429 7cbd
00000290: f0c6 303d 8197 3abe 9f98 62bd 31df 8fbd
000002a0: bf83 163e 05f9 3dbe 26fb 133e 5cda 02bc
000002b0: 97e9 89bd 1e90 94bc 2e0b 083e de0c 1d3d
000002c0: f77d 66bd 09e0 0f3e 5f12 b9bd d81c ebbb
000002d0: dc72 c63d dcdb f1bd b585 9b3d 60ee 063d
000002e0: 1eda 023d 9f4c a5bd 1f3f 883d b9ff 9bbd
000002f0: bb7c 553d f33c 953c acc1 8bbd c2b8 423d
00000300: fe90 9d3d ff25 9bbd 3e1b 39bc d59a bdbd
00000310: d573 f83c bd9f f33c 2a39 50bd 0b1b 48be
00000320: ff5a 273d 1528 b9bd 58ba a23d b751 933d
00000330: fb64 823c f025 613e d2e7 9f3d c7e6 0e3c
00000340: bbc4 103e 21e4 6a3d 4c1a 693d 4f67 55bd
00000350: ebdb 95bd bbd3 183d f6aa 4d3d b4ae 463d
00000360: 95b0 3e3e 7931 adbd 5973 033c dec4 3dbd
00000370: 9caf d93d 3389 a83d 0c57 90bd 3057 833d
00000380: 8584 63bc e044 40bc be78 f13d 5beb f43d
00000390: 0a3a 3bbe ad2b 30be fcc5 02bd f8b4 cabd
000003a0: 54ef 8fbd 85fd 503d f7cc 543e 2dec 543d
000003b0: 3a8e e6bd 81fc c6bd 592d a83d 41ff 1cbe
000003c0: ffe7 d7bd 417f a3bd da3d 093a 2506 d03d
000003d0: 9654 c4bc 944d febc 5e04 e73c a5c7 f33c
000003e0: b0da d63c bb07 903d e55e 193e 500a a33d
000003f0: b4d0 993d 397c 0d3e d01f 033e d7d4 a7bd

bias f4 [4]
-0.24195397 -0.110773474 0.008234385 0.061604537
00000000: c8c2 77be 34dd e2bd 84e9 063c 0a55 7c3d
