dapg/examples/model/no_door-v0/model_discriminator.pt (torch, 143224 bytes, 7 tensors)

in_shift f4 [128]
0	0x00000000	0.0
1	0x00000000	0.0
2	0x00000000	0.0
3	0x00000000	0.0
4	0x00000000	0.0
5	0x00000000	0.0
6	0x00000000	0.0
7	0x00000000	0.0
8	0x00000000	0.0
9	0x00000000	0.0
10	0x00000000	0.0
11	0x00000000	0.0
12	0x00000000	0.0
13	0x00000000	0.0
14	0x00000000	0.0
15	0x00000000	0.0
16	0x00000000	0.0
17	0x00000000	0.0
18	0x00000000	0.0
19	0x00000000	0.0
20	0x00000000	0.0
21	0x00000000	0.0
22	0x00000000	0.0
23	0x00000000	0.0
24	0x00000000	0.0
25	0x00000000	0.0
26	0x00000000	0.0
27	0x00000000	0.0
28	0x00000000	0.0
29	0x00000000	0.0
30	0x00000000	0.0
31	0x00000000	0.0
32	0x00000000	0.0
33	0x00000000	0.0
34	0x00000000	0.0
35	0x00000000	0.0
36	0x00000000	0.0
37	0x00000000	0.0
38	0x00000000	0.0
39	0x00000000	0.0
40	0x00000000	0.0
41	0x00000000	0.0
42	0x00000000	0.0
43	0x00000000	0.0
44	0x00000000	0.0
45	0x00000000	0.0
46	0x00000000	0.0
47	0x00000000	0.0
48	0x00000000	0.0
49	0x00000000	0.0
50	0x00000000	0.0
51	0x00000000	0.0
52	0x00000000	0.0
53	0x00000000	0.0
54	0x00000000	0.0
55	0x00000000	0.0
56	0x00000000	0.0
57	0x00000000	0.0
58	0x00000000	0.0
59	0x00000000	0.0
60	0x00000000	0.0
61	0x00000000	0.0
62	0x00000000	0.0
63	0x00000000	0.0
64	0x00000000	0.0
65	0x00000000	0.0
66	0x00000000	0.0
67	0x00000000	0.0
68	0x00000000	0.0
69	0x00000000	0.0
70	0x00000000	0.0
71	0x00000000	0.0
72	0x00000000	0.0
73	0x00000000	0.0
74	0x00000000	0.0
75	0x00000000	0.0
76	0x00000000	0.0
77	0x00000000	0.0
78	0x00000000	0.0
79	0x00000000	0.0
80	0x00000000	0.0
81	0x00000000	0.0
82	0x00000000	0.0
83	0x00000000	0.0
84	0x00000000	0.0
85	0x00000000	0.0
86	0x00000000	0.0
87	0x00000000	0.0
88	0x00000000	0.0
89	0x00000000	0.0
90	0x00000000	0.0
91	0x00000000	0.0
92	0x00000000	0.0
93	0x00000000	0.0
94	0x00000000	0.0
95	0x00000000	0.0
96	0x00000000	0.0
97	0x00000000	0.0
98	0x00000000	0.0
99	0x00000000	0.0
100	0x00000000	0.0
101	0x00000000	0.0
102	0x00000000	0.0
103	0x00000000	0.0
104	0x00000000	0.0
105	0x00000000	0.0
106	0x00000000	0.0
107	0x00000000	0.0
108	0x00000000	0.0
109	0x00000000	0.0
110	0x00000000	0.0
111	0x00000000	0.0
112	0x00000000	0.0
113	0x00000000	0.0
114	0x00000000	0.0
115	0x00000000	0.0
116	0x00000000	0.0
117	0x00000000	0.0
118	0x00000000	0.0
119	0x00000000	0.0
120	0x00000000	0.0
121	0x00000000	0.0
122	0x00000000	0.0
123	0x00000000	0.0
124	0x00000000	0.0
125	0x00000000	0.0
126	0x00000000	0.0
127	0x00000000	0.0

in_scale f4 [128]
0	0x3f800000	1.0
1	0x3f800000	1.0
2	0x3f800000	1.0
3	0x3f800000	1.0
4	0x3f800000	1.0
5	0x3f800000	1.0
6	0x3f800000	1.0
7	0x3f800000	1.0
8	0x3f800000	1.0
9	0x3f800000	1.0
10	0x3f800000	1.0
11	0x3f800000	1.0
12	0x3f800000	1.0
13	0x3f800000	1.0
14	0x3f800000	1.0
15	0x3f800000	1.0
16	0x3f800000	1.0
17	0x3f800000	1.0
18	0x3f800000	1.0
19	0x3f800000	1.0
20	0x3f800000	1.0
21	0x3f800000	1.0
22	0x3f800000	1.0
23	0x3f800000	1.0
24	0x3f800000	1.0
25	0x3f800000	1.0
26	0x3f800000	1.0
27	0x3f800000	1.0
28	0x3f800000	1.0
29	0x3f800000	1.0
30	0x3f800000	1.0
31	0x3f800000	1.0
32	0x3f800000	1.0
33	0x3f800000	1.0
34	0x3f800000	1.0
35	0x3f800000	1.0
36	0x3f800000	1.0
37	0x3f800000	1.0
38	0x3f800000	1.0
39	0x3f800000	1.0
40	0x3f800000	1.0
41	0x3f800000	1.0
42	0x3f800000	1.0
43	0x3f800000	1.0
44	0x3f800000	1.0
45	0x3f800000	1.0
46	0x3f800000	1.0
47	0x3f800000	1.0
48	0x3f800000	1.0
49	0x3f800000	1.0
50	0x3f800000	1.0
51	0x3f800000	1.0
52	0x3f800000	1.0
53	0x3f800000	1.0
54	0x3f800000	1.0
55	0x3f800000	1.0
56	0x3f800000	1.0
57	0x3f800000	1.0
58	0x3f800000	1.0
59	0x3f800000	1.0
60	0x3f800000	1.0
61	0x3f800000	1.0
62	0x3f800000	1.0
63	0x3f800000	1.0
64	0x3f800000	1.0
65	0x3f800000	1.0
66	0x3f800000	1.0
67	0x3f800000	1.0
68	0x3f800000	1.0
69	0x3f800000	1.0
70	0x3f800000	1.0
71	0x3f800000	1.0
72	0x3f800000	1.0
73	0x3f800000	1.0
74	0x3f800000	1.0
75	0x3f800000	1.0
76	0x3f800000	1.0
77	0x3f800000	1.0
78	0x3f800000	1.0
79	0x3f800000	1.0
80	0x3f800000	1.0
81	0x3f800000	1.0
82	0x3f800000	1.0
83	0x3f800000	1.0
84	0x3f800000	1.0
85	0x3f800000	1.0
86	0x3f800000	1.0
87	0x3f800000	1.0
88	0x3f800000	1.0
89	0x3f800000	1.0
90	0x3f800000	1.0
91	0x3f800000	1.0
92	0x3f800000	1.0
93	0x3f800000	1.0
94	0x3f800000	1.0
95	0x3f800000	1.0
96	0x3f800000	1.0
97	0x3f800000	1.0
98	0x3f800000	1.0
99	0x3f800000	1.0
100	0x3f800000	1.0
101	0x3f800000	1.0
102	0x3f800000	1.0
103	0x3f800000	1.0
104	0x3f800000	1.0
105	0x3f800000	1.0
106	0x3f800000	1.0
107	0x3f800000	1.0
108	0x3f800000	1.0
109	0x3f800000	1.0
110	0x3f800000	1.0
111	0x3f800000	1.0
112	0x3f800000	1.0
113	0x3f800000	1.0
114	0x3f800000	1.0
115	0x3f800000	1.0
116	0x3f800000	1.0
117	0x3f800000	1.0
118	0x3f800000	1.0
119	0x3f800000	1.0
120	0x3f800000	1.0
121	0x3f800000	1.0
122	0x3f800000	1.0
123	0x3f800000	1.0
124	0x3f800000	1.0
125	0x3f800000	1.0
126	0x3f800000	1.0
127	0x3f800000	1.0

weight f4 [128, 128]
0	0x3db5ecbf	0.08883046
1	0xbd586755	-0.05283292
2	0xbd2218c7	-0.03957441
3	0x3d273a6e	0.040827207
4	0xbb8eace8	-0.004354108
5	0x3df94d2d	0.12172923
6	0x3d70335b	0.058642726
7	0xbd2f2968	-0.042764097
8	0xbdc66884	-0.096879035
9	0xbca54b4d	-0.020177508
10	0xbc4d31e4	-0.012524102
11	0xbcf32362	-0.029679958
12	0xbd4ba598	-0.04971847
13	0xbcc82d1c	-0.024435572
14	0xbd8ac240	-0.067753315
15	0x3d89459e	0.067027315
16	0x3e00715a	0.1254324
17	0x3df16c60	0.11788249
18	0xbd7ec90e	-0.06220346
19	0x3da3b88a	0.079941824
20	0x390c2d35	0.00013368281
21	0x3cd0da35	0.025494674
22	0xbd71bf1a	-0.05902014
23	0xbd8620c2	-0.06549217
24	0x3b443379	0.0029937907
25	0x3d093b39	0.033503745
26	0x3ccecdbb	0.025244584
27	0xbd1ab5c7	-0.037771013
28	0xbdb4d3ae	-0.08829437
29	0x3db6c95e	0.089251265
30	0xbd2e05a0	-0.042485833
31	0xbcb55c9f	-0.022138892
32	0xbc49548f	-0.012288227
33	0x3bb1b0a9	0.005422671
34	0x3cb2fa0e	0.021847751
35	0xbd8b4ad6	-0.06801383
36	0x3bd67881	0.006545127
37	0x3cff0a36	0.031132799
38	0xb9026cf7	-0.00012438359
39	0x3ceb3e8f	0.028716354
40	0x3c2f7caa	0.010710875
41	0xbd1f7e66	-0.038938902
42	0xbd816f50	-0.06320059
43	0xbce9061e	-0.0284453
44	0x3d9ddd8a	0.07708271
45	0xbd45343e	-0.048145525
46	0xbdde8b2f	-0.10866391
47	0xbdd9bdf3	-0.10631933
48	0xbd846649	-0.06464822
49	0x3d1b128f	0.037859496
50	0xbb8cdc7d	-0.004298745
51	0x3d86c2d4	0.06580129
52	0x3d2d62e9	0.042330656
53	0x3d2ba7e7	0.04190817
54	0xbcc15ac1	-0.023602845
55	0xbdb477c5	-0.08811907
56	0x3df91a96	0.12163274
57	0xbe155cfc	-0.14586252
58	0xbcbc38b3	-0.022976255
59	0x3db4fe54	0.08837572
60	0xbd0148b3	-0.031563472
61	0x3daccea6	0.084378526
62	0xbd8bb61a	-0.068218425
63	0xbda4b374	-0.080420405
64	0x3d8d346b	0.068947636
65	0xbc587315	-0.013211031
66	0xbd5ae69e	-0.05344259
67	0x3cbbbfc1	0.022918584
68	0xbd71f4c6	-0.059071325
69	0x3c629e02	0.013831617
70	0xbdbb527d	-0.09146593
71	0xbdcd1271	-0.10013283
72	0x3c92e689	0.017932193
73	0x3dab17cb	0.083541475
74	0x3d3478d2	0.044060536
75	0x3de7adfc	0.11312482
76	0xbc9dccea	-0.01926275
77	0x3d008f2b	0.031386536
78	0xbbc191e6	-0.005907285
79	0xbd2561f1	-0.040376607
80	0xbd49e136	-0.049287044
81	0x3c921821	0.017833771
82	0x3dd17603	0.10227587
83	0xbdb06508	-0.0861302
84	0xb94b976b	-0.00019415996
85	0x3bb3c0a8	0.005485613
86	0xbd275837	-0.040855613
87	0xbad38e50	-0.0016140435
88	0x3d92ec1c	0.071739405
89	0xbda908d3	-0.08253636
90	0x3d8563c7	0.06513172
91	0xbd0be6d5	-0.034155685
92	0xbd935dfd	-0.07195661
93	0xbce94af1	-0.028478118
94	0x3cb8c349	0.022554057
95	0xbdb7b054	-0.08969179
96	0xbd0ff3a5	-0.035144467
97	0x3c6331f1	0.013866887
98	0xbd168cd5	-0.0367554
99	0x3d9e807a	0.07739349
100	0x3d98817e	0.07446574
101	0xbd55538d	-0.052081633
102	0xbcf11f4d	-0.02943387
103	0x3dde2e67	0.10848694
104	0xbd3b7ab1	-0.045771305
105	0xbc8b1c1e	-0.01698118
106	0xbd5e57c2	-0.05428291
107	0x3d1932d9	0.037402008
108	0x3cfe9226	0.031075548
109	0x3dfc6553	0.123240136
110	0x3caaf082	0.020866636
111	0xbd2b44f8	-0.04181382
112	0x3dee6c1d	0.11641715
113	0xbc2109db	-0.00982901
114	0xb9c4d9ea	-0.00037546392
115	0x3c40edac	0.011775415
116	0xbdc27270	-0.094944835
117	0xbd9362d8	-0.07196587
118	0x3d82c402	0.06385042
119	0xbd109b5b	-0.03530441
120	0x3ba58f2e	0.0050524687
121	0xbddee258	-0.108830154
122	0xbcc47bba	-0.023984779
123	0xbd7ca35b	-0.061679225
124	0xbd3cfdb7	-0.0461404
125	0x3dee1da2	0.11626746
126	0x3da04264	0.07825163
127	0x3c6de7ca	0.014520595
128	0xbe00a209	-0.12561812
129	0xbdcea49b	-0.1008999
130	0x3e02051e	0.12697265
131	0x3d54e07d	0.0519719
132	0xbdc1f29d	-0.09470103
133	0xbd8991da	-0.06717272
134	0x3d786486	0.06064274
135	0xbd1fb44d	-0.038990308
136	0x3dde6147	0.10858398
137	0x3d4fe78b	0.050757926
138	0x3d5a19d1	0.053247277
139	0xbd193874	-0.037407354
140	0x3d5206fb	0.05127619
141	0xbd584657	-0.052801456
142	0x3d46737b	0.048449975
143	0x3d9a5477	0.07535642
144	0xbcafa9c0	-0.021443248
145	0x3d2c9dee	0.0421428
146	0xbd6b4e5c	-0.057447776
147	0xbd2b7add	-0.04186522
148	0x3d72adff	0.059247967
149	0x3ca1b850	0.019741207
150	0x3d576da4	0.052594796
151	0x3da2ba02	0.079456344
152	0x3ddd3656	0.108013794
153	0xbc901225	-0.017586777
154	0xbd9ddebd	-0.077084996
155	0xbcac5576	-0.021036845
156	0x3d74220f	0.059602793
157	0x3c478715	0.012178202
158	0x3ccd475d	0.025058443
159	0x3d91f964	0.071276456
160	0xbd507409	-0.05089191
161	0xbd07c5b7	-0.03314754
162	0xbdbd68a7	-0.092484765
163	0x3c609cc8	0.013709255
164	0xbd8388ac	-0.064225525
165	0x3b6770cc	0.0035315035
166	0xbd8fb8b4	-0.07017651
167	0x3d29dd3e	0.04147076
168	0xbb7e3be6	-0.0038793026
169	0x3cea1c56	0.028577965
170	0xbd1caa25	-0.0382482
171	0xbd182cc1	-0.037152056
172	0xbd8ded02	-0.06929971
173	0x3c5da88c	0.013528954
174	0x3db55718	0.088545024
175	0x3d75a8a7	0.059975293
176	0xbb02a78f	-0.0019936298
177	0x3cbb8f11	0.022895368
178	0x3c3d45b9	0.011552268
179	0xbd368380	-0.044559002
180	0xbdba986b	-0.09111103
181	0x3d7b874b	0.061408322
182	0xbd411b06	-0.047144912
183	0xbd7ae321	-0.061251763
184	0xbd8d06be	-0.068860516
185	0xbb5cb2fc	-0.003367602
186	0xbd32ace1	-0.0436219
187	0xbd93e730	-0.0722183
188	0xbdb1dbb8	-0.08684486
189	0xbd9d979b	-0.07694932
190	0xbbd46c44	-0.006482633
191	0xbad0646f	-0.0015899072
192	0x3d9b3619	0.07578678
193	0x3d6e596e	0.058190756
194	0xbdda81cc	-0.10669288
195	0x3bda5537	0.0066629904
196	0x3d09ec17	0.03367242
197	0xbdb6dc44	-0.08928731
198	0xbd42c3bc	-0.047549948
199	0x3ccb28f3	0.0247998
200	0xbd0584a7	-0.03259721
201	0xbda5d30b	-0.08096894
202	0xbcfe4e2b	-0.031043133
203	0xbdd2fedf	-0.10302519
204	0x3ced9204	0.02900029
205	0x3c97ea5c	0.018544368
206	0x3d2278ae	0.03966587
207	0xbc6d9653	-0.014501172
208	0x3d800a57	0.06251972
209	0xbcf91189	-0.03040387
210	0xbcb38285	-0.021912822
211	0x3ddd1403	0.107948326
212	0x3d64a6fe	0.05582332
213	0x3d1aeb95	0.037822325
214	0x3d99b5b0	0.07505357
215	0x3da3a77a	0.07990928
216	0x3d79126d	0.060808588
217	0xbcc78328	-0.024354532
218	0x3ca25e19	0.01982026
219	0xbb49c74a	-0.0030788952
220	0x3dd1e0dd	0.102479674
221	0x3d98375a	0.074324325
222	0x3d36d6b2	0.044638343
223	0xbd6c2129	-0.05764881
224	0x3d22b269	0.039720926
225	0xbd01e3b1	-0.031711284
226	0xbd1bb029	-0.038009796
227	0x3d3a19e4	0.045434847
228	0xbd8673d9	-0.06565065
229	0x3c66f498	0.014096402
230	0xbdb5f126	-0.08883886
231	0x3d32c8ec	0.043648645
232	0x3c78888c	0.015169274
233	0x3d199f08	0.03750518
234	0x3d01db2d	0.031703163
235	0xbd0f3912	-0.034966536
236	0x3d240d8d	0.040051986
237	0xbdca5b87	-0.09880739
238	0x3d334841	0.04377008
239	0x3d9ed6da	0.077558234
240	0xbc338eec	-0.010959368
241	0x3da25d6d	0.07927976
242	0xbd42245f	-0.047397967
243	0x3c7ac944	0.0153067745
244	0xbd971bad	-0.073783256
245	0x3c58ee95	0.013240476
246	0x3dd27765	0.10276679
247	0x3d81a8d1	0.06331027
248	0xbcf285da	-0.029604841
249	0x3dec32a6	0.11533098
250	0xbccafaf5	-0.024777869
251	0xbd483cc1	-0.048886064
252	0xbd5d48d5	-0.054024536
253	0x3d145045	0.036209363
254	0xbc501372	-0.012699949
255	0xbd1421b3	-0.03616495

bias f4 [128]
0	0xbd3096ee	-0.043112688
1	0x3dfea618	0.124340236
2	0x3c661b43	0.014044586
3	0xbe206b3a	-0.15665904
4	0xbe56e30d	-0.2098505
5	0xbe289486	-0.16462907
6	0x3e4044a3	0.18776183
7	0x3e26a4a8	0.16273749
8	0x3e3643a3	0.17799239
9	0xbe45d011	-0.19317652
10	0x3d88430d	0.06653414
11	0xbe3d50ef	-0.18487905
12	0x3e23413e	0.15942857
13	0x3e122fcd	0.14276047
14	0x3c5ad8b7	0.013357333
15	0x3d90e92a	0.070757225
16	0x3dcf9583	0.10135939
17	0x3d845a97	0.06462591
18	0xbe14f512	-0.14546612
19	0xbe436b3d	-0.19083877
20	0x3e069b5e	0.13145205
21	0x3e42be56	0.1901792
22	0x3e173054	0.1476453
23	0x3d3a0059	0.045410488
24	0x3df2a926	0.11848669
25	0xbda4386b	-0.080185734
26	0xbe44610f	-0.1917765
27	0x3e28f32a	0.1649901
28	0xbb33feef	-0.0027465185
29	0x3b5b5a6e	0.0033470648
30	0x3e2788ae	0.16360733
31	0x3c45ca12	0.012072103
32	0xbcc652a7	-0.024209334
33	0xbe4b8b4a	-0.19877353
34	0x3e1fec5e	0.1561751
35	0x3dbf1c36	0.09331553
36	0x3e0a5170	0.13507628
37	0x3dfefe2b	0.124508224
38	0x3e3b06d5	0.18264325
39	0xbe02c997	-0.12772213
40	0x3e3e5bae	0.1858966
41	0xbe2be985	-0.167883
42	0xbe2d8710	-0.16946054
43	0xbd2bb68c	-0.041922137
44	0x3c0cc79c	0.008592512
45	0x3dee3327	0.1163085
46	0xbe23c21b	-0.15992014
47	0xbd85dfe0	-0.065368414
48	0x3e2e11c6	0.16998968
49	0x3e0c73ab	0.13715999
50	0x3e22fef2	0.15917566
51	0xbd1c1853	-0.038109135
52	0xbe0df9a9	-0.13864769
53	0x3df4b59a	0.119487
54	0x3d903912	0.07042135
55	0xbe322a38	-0.17398918
56	0xbcb1cca2	-0.021704022
57	0xbdeda0b7	-0.116029195
58	0xbdce7dbf	-0.10082578
59	0x3dcdd455	0.10050265
60	0xbdd0d7bb	-0.10197397
61	0xbde59b5e	-0.112112746
62	0xbd401dbd	-0.04690336
63	0xbd8f56bb	-0.069989644
64	0x3db3cec6	0.08779673
65	0xbe3f9ded	-0.18712588
66	0x3d82a7d5	0.06379668
67	0x3e2589e4	0.16165882
68	0x3d97d297	0.07413214
69	0x3d02f999	0.031976316
70	0xbd9ae456	-0.07563083
71	0x3e2f30ae	0.17108414
72	0x3e42c662	0.1902099
73	0xbdb85618	-0.09000796
74	0xbe1efa1c	-0.15525097
75	0x3e47c319	0.19508018
76	0x3c928f13	0.017890489
77	0x3d596e92	0.053083964
78	0xbdf26775	-0.11836139
79	0xbe59d2c9	-0.21271814
80	0xbddbbdb8	-0.10729545
81	0x3d4ab5f4	0.04948993
82	0xbd20bfba	-0.039245345
83	0xbe28f096	-0.16498026
84	0xbd1319b4	-0.035913184
85	0xbc473384	-0.012158278
86	0xbdd35868	-0.103195965
87	0xbe4a0c7f	-0.1973133
88	0x3ddb02cc	0.10693893
89	0xbd024548	-0.031804353
90	0x3e2cce03	0.16875462
91	0xbde59ed7	-0.11211937
92	0x3e28b83e	0.16476533
93	0xbe5e9a05	-0.21738441
94	0x3e2d0eff	0.16900252
95	0x3e20d2c8	0.15705407
96	0x3d1544dc	0.036442623
97	0x3db454b2	0.08805217
98	0x3dae1b44	0.08501294
99	0x3de4b249	0.11166818
100	0xbd145670	-0.036215246
101	0x3e09a0e6	0.13440284
102	0xbe0d0540	-0.13771534
103	0xbd793bc5	-0.060848016
104	0x3df9ab4a	0.12190874
105	0xbe3b64e7	-0.1830021
106	0x3d3f94a1	0.046772603
107	0xbe0cd273	-0.13752155
108	0xbe389089	-0.18023886
109	0xbe11e6f4	-0.14248258
110	0xbcae0b28	-0.021245554
111	0xbe3581fe	-0.1772537
112	0x3da30a78	0.07960981
113	0xbda84829	-0.082168885
114	0x3c953aff	0.018216608
115	0xbcbff177	-0.02343057
116	0xbe36f291	-0.17865969
117	0x3e0a3315	0.13496049
118	0xbdcd5375	-0.10025684
119	0x3e1369cc	0.14395827
120	0x3e4101d0	0.18848348
121	0xbbe852fc	-0.0070899706
122	0x3d81167c	0.06303117
123	0x3e4b66fb	0.19863503
124	0xbe085f94	-0.1331771
125	0xbe56978c	-0.20956248
126	0xbe1d6b0e	-0.1537287
127	0x3dbd3389	0.09238345

weight f4 [128, 128]
0	0xbc9fb25f	-0.019494234
1	0x3dbed5f3	0.09318151
2	0x3c935e47	0.01798929
3	0xbdb654c3	-0.08902886
4	0xbe121c44	-0.14268595
5	0xbe0221f7	-0.12708269
6	0x3e24e774	0.16103917
7	0x3e185bfb	0.14878838
8	0x3db648a5	0.089005746
9	0xbe38f8cd	-0.1806366
10	0x3de682e9	0.11255438
11	0xbd641a9b	-0.055689435
12	0xbbcdee34	-0.0062844995
13	0x3d940d45	0.072290935
14	0x3c194cfe	0.009356735
15	0x3e0c4edd	0.13701959
16	0x3d054a5c	0.032541618
17	0x3e2cd800	0.16879272
18	0x3b6e2bd5	0.0036342044
19	0xbcb1f67e	-0.021723982
20	0x3dfaf45f	0.12253641
21	0x3d4cf516	0.05003842
22	0x3e2a058e	0.16603681
23	0x3c0f4b9b	0.008746053
24	0x3c925c0e	0.01786616
25	0xbc4ed224	-0.012623344
26	0xbce7e9d0	-0.028309733
27	0x3e06fc1c	0.1318211
28	0xbd8481eb	-0.064700924
29	0xbc47a4db	-0.012185301
30	0x3de29d60	0.11065173
31	0xbcf3e424	-0.029771872
32	0xbdd00b8d	-0.10158453
33	0xbdc93e23	-0.09826305
34	0xbd16b5d2	-0.03679449
35	0xbbbca3a3	-0.0057568117
36	0x3e11b17c	0.14227861
37	0x3c966ce9	0.01836248
38	0x3e0eff2f	0.13964532
39	0xbd173fab	-0.036925953
40	0x3e13d408	0.14436352
41	0xbe29aea9	-0.16570534
42	0xbdac5e0e	-0.08416377
43	0x39829abe	0.00024910824
44	0x3dc8e817	0.098098926
45	0x3d057b0f	0.03258806
46	0xbc2f99c9	-0.010717818
47	0x3cd12951	0.025532397
48	0x3ddbf4e8	0.107400715
49	0x3d09c40f	0.03363424
50	0x3b658cda	0.003502658
51	0x3d3c3976	0.045953237
52	0xbe22dd6e	-0.15904781
53	0x3ced0456	0.028932732
54	0x3cb04cfd	0.021521086
55	0xbc7d7c1a	-0.015471483
56	0x3d120177	0.03564593
57	0xbcdda2d4	-0.027055182
58	0xbd943cb8	-0.07238144
59	0x3de9f776	0.114241526
60	0xbced5e00	-0.028975487
61	0xbd41174b	-0.047141355
62	0xbcfd0869	-0.0308878
63	0xbda2f728	-0.079572976
64	0x3da57e04	0.08080676
65	0xbe1736f7	-0.14767061
66	0x3df7dced	0.12102685
67	0x3e2c94bd	0.16853614
68	0x3e125ec6	0.14293966
69	0x3d3e4ec9	0.046461854
70	0xbd1c2444	-0.038120523
71	0xbc512455	-0.01276501
72	0xbb3cf33c	-0.0028831502
73	0xbe0efa44	-0.13962656
74	0xbd752260	-0.059847236
75	0x3cf096c2	0.029368762
76	0x3d034965	0.032052416
77	0x3d9379e0	0.0720098
78	0x3c4fee59	0.012691104
79	0xbdfaa395	-0.12238232
80	0xbe055d73	-0.1302393
81	0x3e218e6d	0.15776987
82	0xbde1efde	-0.11032079
83	0xbe403277	-0.18769251
84	0xbd0bd551	-0.03413898
85	0xbdb08ca8	-0.08620578
86	0xbe11da97	-0.14243542
87	0xbe329caf	-0.17442583
88	0xbc64a042	-0.013954224
89	0xbd2a8aba	-0.041636206
90	0x3e03daab	0.12876384
91	0xbdcd3140	-0.10019159
92	0x3e25d1ae	0.16193268
93	0xbdea4cd1	-0.11440433
94	0x3d964188	0.07336718
95	0x3dc63057	0.09677189
96	0xbc0fa1ff	-0.00876665
97	0x3d1a558b	0.037679236
98	0x3d8be4f2	0.06830777
99	0xbbda65c2	-0.0066649625
100	0x3ccf414c	0.02529969
101	0x3d0a5285	0.033770103
102	0xbd568c38	-0.052379817
103	0x3d690e6c	0.05689852
104	0x3e3805e4	0.17970997
105	0xbda6b055	-0.081391014
106	0x3d5273f6	0.05138012
107	0xbdb779fa	-0.08958812
108	0xbe27e9f9	-0.16397847
109	0xbdd9699b	-0.10615846
110	0xbdb77a3c	-0.08958861
111	0xbda54a9c	-0.08070871
112	0x3d1cd67b	0.038290482
113	0xbcf2ebe4	-0.029653497
114	0x3c109428	0.008824386
115	0xbcc30265	-0.023804853
116	0xbd80bbbe	-0.06285809
117	0x3b9c3198	0.004766654
118	0xbd94e5d2	-0.07270397
119	0x3d840a31	0.06447256
120	0x3de32082	0.11090185
121	0xbd4af01a	-0.049545385
122	0x3dbe2651	0.09284652
123	0x3dbaa7b7	0.0911402
124	0xbc85a982	-0.01631618
125	0xbd8de4b9	-0.06928391
126	0xbd51b44c	-0.051197335
127	0xbc5bf01f	-0.013423949
128	0xbd3fd584	-0.046834484
129	0xbbb72b53	-0.0055898814
130	0x3db53d5e	0.088495955
131	0xbdc17e92	-0.094479695
132	0x3cbbfbf1	0.022947283
133	0xbd651207	-0.055925395
134	0x3dbcd91b	0.09221097
135	0x3e00b9b7	0.12570845
136	0x3d8a5a6a	0.06755526
137	0xbdaae0ae	-0.083436355
138	0xbd675e0d	-0.05648618
139	0xbe0894f8	-0.13338077
140	0xbd70efc1	-0.058822397
141	0x3dcb832e	0.0993713
142	0xbc7677c4	-0.015043203
143	0x3da4598e	0.08024894
144	0x3de92413	0.11383834
145	0x3db29d5c	0.0872142
146	0xbdcc2542	-0.09968044
147	0xbd6ec637	-0.0582945
148	0x3c9fd936	0.019512754
149	0x3aa82973	0.0012829736
150	0x3c404705	0.011735682
151	0x3db9542c	0.09049258
152	0xbc58f570	-0.013242111
153	0xbdf89d10	-0.12139332
154	0x3d392e16	0.045209967
155	0x3d0502a7	0.032473233
156	0x3b3866d6	0.0028137467
157	0x3dbdb292	0.09262575
158	0x3d3ad233	0.045610618
159	0x3d573a17	0.052545633
160	0x3d8ad3c0	0.06778669
161	0x3cbd11a3	0.023079699
162	0xbd0019f7	-0.031274762
163	0x3d3664dd	0.044529784
164	0x3d5ade7d	0.053434838
165	0x3cd40f9c	0.02588635
166	0xbc5b5753	-0.013387519
167	0xbd75e0f1	-0.060028974
168	0x3da15612	0.07877745
169	0xbdf10606	-0.11768727
170	0x3c9c2990	0.019062787
171	0xbde889e8	-0.113544285
172	0x3c697ba1	0.014250667
173	0x3dbdcb1a	0.09267254
174	0x3cec86b4	0.028872825
175	0xbd2e13fe	-0.042499535
176	0x3dd6e989	0.10493762
177	0xbd4524b2	-0.0481307
178	0x3d74fa90	0.059809268
179	0xbd859f05	-0.06524471
180	0x3bbabee8	0.0056990273
181	0x3db541a9	0.08850414
182	0x3da6cf67	0.081450276
183	0x3d305782	0.043052204
184	0xbd4ec7b8	-0.050483435
185	0x3d0acaeb	0.033884924
186	0xbd005acf	-0.0313366
187	0x3bcea2b1	0.0063060154
188	0xbc6baa36	-0.014383843
189	0x3d0f2de7	0.034955885
190	0xbdaca968	-0.08430749
191	0xbd9afc20	-0.0756762
192	0x3ab235c5	0.0013596347
193	0xbdb77c96	-0.0895931
194	0xbcaf2e42	-0.021384362
195	0xbb9f8606	-0.0048682718
196	0x3de60626	0.112316415
197	0x3da6eaa8	0.08150226
198	0xbd3bd41b	-0.045856576
199	0x3d597cc6	0.05309751
200	0x3c5ccc6a	0.0134764705
201	0xbd24c537	-0.04022714
202	0x3d260ff0	0.040542543
203	0x3e08b8e5	0.13351782
204	0x3dc9dcb0	0.09856546
205	0xbc7cdef0	-0.015434012
206	0x3cfda5c9	0.030962842
207	0xbde52d9b	-0.11190339
208	0xbbc1b082	-0.005910934
209	0x3d9279df	0.07152151
210	0x3d0fb566	0.035085104
211	0xbd628c57	-0.05530962
212	0xbce2bbcf	-0.027677445
213	0x3d0e0de3	0.034681212
214	0xbd0ad4ac	-0.033894226
215	0xbce7a368	-0.02827616
216	0xbbc92f38	-0.006139662
217	0xbd380a1e	-0.044931524
218	0x3dcd7ba4	0.10033348
219	0xbde00c67	-0.109398656
220	0x3bc8a3c3	0.0061230375
221	0xbdc26bb4	-0.09493199
222	0xbbdb5105	-0.006693008
223	0x3d276dc9	0.040876184
224	0x3d853d8c	0.0650588
225	0x3d3bcfcb	0.045852464
226	0xbc89a08a	-0.016800184
227	0x3afa0431	0.0019074735
228	0xbdd7daef	-0.10539805
229	0x3cd7b1a0	0.026329815
230	0xbc0eff80	-0.008727908
231	0x3d2752a0	0.04085028
232	0x3b046eec	0.0020207716
233	0xbdfb0c21	-0.12258173
234	0xbd1a9910	-0.037743628
235	0xbdb52e8e	-0.0884677
236	0xbdaec35f	-0.08533358
237	0xbd2d2e18	-0.042280287
238	0xbd43bccf	-0.047787484
239	0xbd514549	-0.051091466
240	0x3dac5a52	0.08415665
241	0xbd32ba53	-0.043634724
242	0xbc43a927	-0.0119421845
243	0x3b3aac97	0.002848422
244	0xbcd9d01b	-0.02658849
245	0x3d75f45d	0.060047496
246	0xbd4aa6ce	-0.049475484
247	0x3d1a1c73	0.037624788
248	0x3dec1659	0.115277
249	0x3cfa8a5f	0.030583559
250	0x3b3b3757	0.002856692
251	0x3e12846c	0.14308327
252	0xbdb18acf	-0.08669054
253	0xbde20d75	-0.11037723
254	0xbc461649	-0.012090274
255	0x3d935eee	0.07195841

bias f4 [128]
0	0x3dc0809c	0.0939953
1	0x3dad3f3a	0.08459325
2	0x3dc77232	0.09738578
3	0xbd0435bb	-0.032277804
4	0x3c52400e	0.012832655
5	0x3d9d89db	0.076923095
6	0x3d95fb61	0.07323337
7	0xbdfe937a	-0.12430473
8	0xbd9ee7d5	-0.07759062
9	0xbd8c1d0f	-0.0684148
10	0xbe07f5fc	-0.1327743
11	0x3a2a2f53	0.0006492037
12	0xbe06a346	-0.13148221
13	0x3c5f46df	0.013627737
14	0xbbd29eb5	-0.0064276108
15	0xbdcdbc61	-0.10045696
16	0xbe0e1764	-0.1387611
17	0xbdc603a5	-0.09668664
18	0xbc9e797c	-0.019345038
19	0x3d8f1900	0.0698719
20	0xbdb78a03	-0.089618705
21	0xbdd61383	-0.1045294
22	0xbddcbd91	-0.107783444
23	0x3d9a25b1	0.0752672
24	0x3dc26306	0.094915435
25	0xbd38facd	-0.045161057
26	0x3d75dd41	0.060025457
27	0xbde437f2	-0.11143483
28	0xbdd63a59	-0.10460348
29	0xbe1dc61e	-0.15407607
30	0xbdba5d0a	-0.09099777
31	0x3dd4f1e6	0.10397701
32	0xbc657162	-0.014004083
33	0x3d4b7e17	0.049680796
34	0xbda0857e	-0.078379616
35	0x3c773e7c	0.015090581
36	0x3dfa9a29	0.12236435
37	0xbb67d9f0	-0.0035377704
38	0x3ded12d0	0.11575854
39	0xbdb09ec5	-0.08624033
40	0xbd95b08a	-0.07309063
41	0xbdf4846d	-0.11939321
42	0x3d522ec0	0.051314116
43	0xbda0efef	-0.07858264
44	0xbc35335f	-0.011059611
45	0xbb8cecd7	-0.0043006944
46	0x3c537f30	0.012908742
47	0x3e080f56	0.132871
48	0xbd32be5d	-0.043638576
49	0x3d9adcd0	0.07561648
50	0x3bad86e3	0.0052956208
51	0xbcae1f15	-0.021255055
52	0xbd2397ff	-0.039939877
53	0xbd2108c5	-0.039315004
54	0xbda99e32	-0.082821265
55	0x3d7e2d8a	0.06205515
56	0xbdfc1841	-0.123093136
57	0x3da27d37	0.07934039
58	0x3cd6492b	0.026157936
59	0x3dbe5138	0.09292835
60	0x3d4de2fb	0.050265294
61	0x3ae2c513	0.0017301164
62	0x3d4ad4f0	0.04951948
63	0x3d4051b2	0.04695291
64	0x3acc3e66	0.0015582561
65	0x3d4ccdea	0.050001062
66	0xbdc22919	-0.09480495
67	0xbd9ba492	-0.07599749
68	0x3e18e0a3	0.14929442
69	0xbddbf5af	-0.1074022
70	0x3dd2499a	0.10267945
71	0xbd3938df	-0.045220252
72	0xbdc9305c	-0.09823677
73	0x3e1d5844	0.15365702
74	0xbd93f4ba	-0.07224412
75	0xbdccae70	-0.09994209
76	0x3d2d4e2e	0.042310886
77	0xbdcd6d60	-0.10030627
78	0xbdc4303d	-0.09579513
79	0xbd85f397	-0.06540602
80	0xbd3ef766	-0.046622656
81	0xbe104463	-0.14088587
82	0x3dd3ad9b	0.10335847
83	0xbdc99ca6	-0.098443314
84	0x3d889bb8	0.06670326
85	0xbe031c68	-0.12803805
86	0x3e103a42	0.14084724
87	0x3cf4f1ba	0.02990042
88	0xbb9b9f4c	-0.0047492143
89	0xbd77adbc	-0.06046842
90	0x3a9dcbe9	0.0012038919
91	0xbd2bfa89	-0.041986976
92	0x3daa76d7	0.08323448
93	0xbda89423	-0.0823138
94	0x3d64118b	0.055680793
95	0x3d653a0d	0.055963565
96	0x3ddd1b34	0.10796204
97	0x3c88ebdd	0.01671403
98	0x3df1b841	0.11802722
99	0x3d9a67ce	0.075393304
100	0xbde955f4	-0.113933474
101	0xbdf6c7a5	-0.12049798
102	0x3d91820b	0.07104882
103	0xbbdaf5bc	-0.006682126
104	0x3d6f2748	0.05838707
105	0xbe1596f6	-0.14608368
106	0xbe056392	-0.13026264
107	0xbad203be	-0.0016022844
108	0xbd243409	-0.040088687
109	0x3dace868	0.084427655
110	0xbe162291	-0.14661624
111	0xbdc92518	-0.09821528
112	0x3e072dbe	0.13201043
113	0xbd7dd91b	-0.061974626
114	0x3e0355c7	0.1282569
115	0xbd83e30f	-0.06439792
116	0xbe23c95d	-0.15994783
117	0x3d909dc9	0.07061345
118	0x3e0e0b5e	0.13871524
119	0x3d8230ca	0.06356962
120	0x3dadea72	0.084919825
121	0x3d738527	0.059453156
122	0x3e1baa70	0.15201735
123	0xbc889a15	-0.016675035
124	0xbd11c93d	-0.035592306
125	0xba180eb4	-0.0005800531
126	0x3cccfd1f	0.025023041
127	0xbcd8c370	-0.02646038

weight f4 [1, 128]
0	0xbe1740ea	-0.14770856
1	0xbe29cac9	-0.16581263
2	0xbdffaac7	-0.12483745
3	0x3e217892	0.1576865
4	0x3de426f6	0.11140244
5	0xbdee7765	-0.116438664
6	0xbe053cbc	-0.1301145
7	0x3daa7613	0.08323302
8	0x3e00f59f	0.12593697
9	0x3dcc8d74	0.099879175
10	0x3de375f4	0.11106482
11	0x3e299e28	0.16564238
12	0x3dc19eea	0.094541386
13	0xbe2bd815	-0.16781648
14	0x3e062286	0.13099107
15	0x3dde1904	0.10844615
16	0x3e1b0227	0.1513754
17	0x3db423bb	0.087958775
18	0x3e1d7c1e	0.15379378
19	0xbdf1f813	-0.118148945
20	0x3e0b3e80	0.1359806
21	0x3e16f993	0.14743643
22	0x3e0ee1f9	0.13953389
23	0xbdea917a	-0.11453529
24	0xbdc0c89e	-0.09413265
25	0x3dfa1467	0.12210923
26	0xbd9de98c	-0.07710561
27	0x3e14d86e	0.14535686
28	0x3de98a48	0.11403328
29	0x3dfb2645	0.12263159
30	0x3ddefab8	0.108876646
31	0xbe309df5	-0.17247756
32	0x3df51d1c	0.11968443
33	0xbdf57c22	-0.11986567
34	0x3e04323e	0.12909791
35	0x3deced10	0.115686536
36	0xbe0c2512	-0.13686016
37	0xbdcecf1c	-0.10098097
38	0xbe28ef20	-0.16497469
39	0x3e0ab6b2	0.13546255
40	0x3e0fe0fd	0.1405067
41	0x3e035eb0	0.12829089
42	0xbdbab335	-0.09116212
43	0x3df032e1	0.117284544
44	0x3dbed060	0.09317088
45	0x3dafb45e	0.08579324
46	0xbdddf707	-0.10838132
47	0xbdd5de0c	-0.10442743
48	0x3e0238d4	0.1271699
49	0xbddf0750	-0.108900666
50	0xbdb54221	-0.08850504
51	0x3d9c4651	0.07630599
52	0x3d926485	0.07148079
53	0x3db4449f	0.08802151
54	0x3dcd633b	0.10028692
55	0xbe1b814f	-0.15186046
56	0x3db04229	0.08606369
57	0xbdd43ec4	-0.10363534
58	0xbe00b5b5	-0.12569316
59	0xbd98b3c7	-0.07456165
60	0xbe0bf39e	-0.13667151
61	0xbda7414a	-0.0816675
62	0xbdf47178	-0.11935705
63	0xbd839cdd	-0.06426404
64	0x3e048d9a	0.12944642
65	0xbde734ee	-0.112893924
66	0x3e091001	0.13385011
67	0x3de30e6f	0.11086737
68	0xbdd54b4c	-0.10414752
69	0x3e13bdda	0.14427891
70	0xbe107cc3	-0.14110093
71	0x3dd00f65	0.10159186
72	0x3e1b9a7e	0.15195653
73	0xbe104b19	-0.14091147
74	0x3ded6bb1	0.11592806
75	0x3e0eccbe	0.1394529
76	0xbe15b2a6	-0.1461893
77	0x3de2f47b	0.11081787
78	0x3dda2e85	0.10653404
79	0x3e11208d	0.14172573
80	0x3e06bf5b	0.13158934
81	0x3e150fbe	0.14556786
82	0xbdd65467	-0.10465317
83	0x3dd836c8	0.10557324
84	0xbe0f2a9e	-0.13981101
85	0x3dc1f8f9	0.09471316
86	0xbdb0ffda	-0.0864255
87	0xbdf0f8f3	-0.11766233
88	0xbe152a1a	-0.14566842
89	0x3e257d34	0.16161042
90	0x3e1003ba	0.14063922
91	0x3e05eb05	0.13077934
92	0xbe1415d5	-0.14461453
93	0x3de1ba7b	0.110218965
94	0xbdd83cbd	-0.1055846
95	0xbdf094ba	-0.11747117
96	0xbe1e8f53	-0.15484361
97	0x3e07af17	0.13250385
98	0xbe1c26b6	-0.15249142
99	0xbdcbfce1	-0.09960342
100	0x3e0b9f99	0.136351
101	0x3da0bbe4	0.07848337
102	0xbdeafe5c	-0.114742965
103	0xbdf8bcc7	-0.121453814
104	0xbe034ce0	-0.12822294
105	0x3dfe72c8	0.124242365
106	0x3d86b8b5	0.06578199
107	0x3dfff710	0.12498295
108	0x3e216a6d	0.15763254
109	0xbdc0a2ab	-0.094060265
110	0x3d9e0332	0.07715453
111	0x3e2ddb51	0.16978194
112	0xbe1b7fc3	-0.15185456
113	0x3e1b8d5f	0.15190648
114	0xbdf4ad5a	-0.11947127
115	0x3de26024	0.110534936
116	0x3dc62b1a	0.0967619
117	0xbdeaa957	-0.1145808
118	0xbe10b777	-0.14132486
119	0xbe320caf	-0.17387651
120	0xbe1f0f1f	-0.15533112
121	0xbdf66895	-0.12031666
122	0xbe137d1c	-0.14403194
123	0x3db51bf7	0.088432245
124	0x3e1c0cb5	0.15239222
125	0xbe0957ad	-0.13412352
126	0xbe0b2654	-0.1358884
127	0x3db479ef	0.088123195
