dapg/examples/model/no_door-v0/model_classifier.pt (torch, 148333 bytes, 10 tensors)

in_shift f4 [128]
0.0 0.0 0.0 0.0 0.0 0.0 0.0 0.0
0.0 0.0 0.0 0.0 0.0 0.0 0.0 0.0
0.0 0.0 0.0 0.0 0.0 0.0 0.0 0.0
0.0 0.0 0.0 0.0 0.0 0.0 0.0 0.0
0.0 0.0 0.0 0.0 0.0 0.0 0.0 0.0
0.0 0.0 0.0 0.0 0.0 0.0 0.0 0.0
0.0 0.0 0.0 0.0 0.0 0.0 0.0 0.0
0.0 0.0 0.0 0.0 0.0 0.0 0.0 0.0
0.0 0.0 0.0 0.0 0.0 0.0 0.0 0.0
0.0 0.0 0.0 0.0 0.0 0.0 0.0 0.0
0.0 0.0 0.0 0.0 0.0 0.0 0.0 0.0
0.0 0.0 0.0 0.0 0.0 0.0 0.0 0.0
0.0 0.0 0.0 0.0 0.0 0.0 0.0 0.0
0.0 0.0 0.0 0.0 0.0 0.0 0.0 0.0
0.0 0.0 0.0 0.0 0.0 0.0 0.0 0.0
0.0 0.0 0.0 0.0 0.0 0.0 0.0 0.0
00000000: 0000 0000 0000 0000 0000 0000 0000 0000
00000010: 0000 0000 0000 0000 0000 0000 0000 0000
00000020: 0000 0000 0000 0000 0000 0000 0000 0000
00000030: 0000 0000 0000 0000 0000 0000 0000 0000
00000040: 0000 0000 0000 0000 0000 0000 0000 0000
00000050: 0000 0000 0000 0000 0000 0000 0000 0000
00000060: 0000 0000 0000 0000 0000 0000 0000 0000
00000070: 0000 0000 0000 0000 0000 0000 0000 0000
00000080: 0000 0000 0000 0000 0000 0000 0000 0000
00000090: 0000 0000 0000 0000 0000 0000 0000 0000
000000a0: 0000 0000 0000 0000 0000 0000 0000 0000
000000b0: 0000 0000 0000 0000 0000 0000 0000 0000
000000c0: 0000 0000 0000 0000 0000 0000 0000 0000
000000d0: 0000 0000 0000 0000 0000 0000 0000 0000
000000e0: 0000 0000 0000 0000 0000 0000 0000 0000
000000f0: 0000 0000 0000 0000 0000 0000 0000 0000
00000100: 0000 0000 0000 0000 0000 0000 0000 0000
00000110: 0000 0000 0000 0000 0000 0000 0000 0000
00000120: 0000 0000 0000 0000 0000 0000 0000 0000
00000130: 0000 0000 0000 0000 0000 0000 0000 0000
00000140: 0000 0000 0000 0000 0000 0000 0000 0000
00000150: 0000 0000 0000 0000 0000 0000 0000 0000
00000160: 0000 0000 0000 0000 0000 0000 0000 0000
00000170: 0000 0000 0000 0000 0000 0000 0000 0000
00000180: 0000 0000 0000 0000 0000 0000 0000 0000
00000190: 0000 0000 0000 0000 0000 0000 0000 0000
000001a0: 0000 0000 0000 0000 0000 0000 0000 0000
000001b0: 0000 0000 0000 0000 0000 0000 0000 0000
000001c0: 0000 0000 0000 0000 0000 0000 0000 0000
000001d0: 0000 0000 0000 0000 0000 0000 0000 0000
000001e0: 0000 0000 0000 0000 0000 0000 0000 0000
000001f0: 0000 0000 0000 0000 0000 0000 0000 0000

in_scale f4 [128]
1.0 1.0 1.0 1.0 1.0 1.0 1.0 1.0
1.0 1.0 1.0 1.0 1.0 1.0 1.0 1.0
1.0 1.0 1.0 1.0 1.0 1.0 1.0 1.0
1.0 1.0 1.0 1.0 1.0 1.0 1.0 1.0
1.0 1.0 1.0 1.0 1.0 1.0 1.0 1.0
1.0 1.0 1.0 1.0 1.0 1.0 1.0 1.0
1.0 1.0 1.0 1.0 1.0 1.0 1.0 1.0
1.0 1.0 1.0 1.0 1.0 1.0 1.0 1.0
1.0 1.0 1.0 1.0 1.0 1.0 1.0 1.0
1.0 1.0 1.0 1.0 1.0 1.0 1.0 1.0
1.0 1.0 1.0 1.0 1.0 1.0 1.0 1.0
1.0 1.0 1.0 1.0 1.0 1.0 1.0 1.0
1.0 1.0 1.0 1.0 1.0 1.0 1.0 1.0
1.0 1.0 1.0 1.0 1.0 1.0 1.0 1.0
1.0 1.0 1.0 1.0 1.0 1.0 1.0 1.0
1.0 1.0 1.0 1.0 1.0 1.0 1.0 1.0
00000000: 0000 803f 0000 803f 0000 803f 0000 803f
00000010: 0000 803f 0000 803f 0000 803f 0000 803f
00000020: 0000 803f 0000 803f 0000 803f 0000 803f
00000030: 0000 803f 0000 803f 0000 803f 0000 803f
00000040: 0000 803f 0000 803f 0000 803f 0000 803f
00000050: 0000 803f 0000 803f 0000 803f 0000 803f
00000060: 0000 803f 0000 803f 0000 803f 0000 803f
00000070: 0000 803f 0000 803f 0000 803f 0000 803f
00000080: 0000 803f 0000 803f 0000 803f 0000 803f
00000090: 0000 803f 0000 803f 0000 803f 0000 803f
000000a0: 0000 803f 0000 803f 0000 803f 0000 803f
000000b0: 0000 803f 0000 803f 0000 803f 0000 803f
000000c0: 0000 803f 0000 803f 0000 803f 0000 803f
000000d0: 0000 803f 0000 803f 0000 803f 0000 803f
000000e0: 0000 803f 0000 803f 0000 803f 0000 803f
000000f0: 0000 803f 0000 803f 0000 803f 0000 803f
00000100: 0000 803f 0000 803f 0000 803f 0000 803f
00000110: 0000 803f 0000 803f 0000 803f 0000 803f
00000120: 0000 803f 0000 803f 0000 803f 0000 803f
00000130: 0000 803f 0000 803f 0000 803f 0000 803f
00000140: 0000 803f 0000 803f 0000 803f 0000 803f
00000150: 0000 803f 0000 803f 0000 803f 0000 803f
00000160: 0000 803f 0000 803f 0000 803f 0000 803f
00000170: 0000 803f 0000 803f 0000 803f 0000 803f
00000180: 0000 803f 0000 803f 0000 803f 0000 803f
00000190: 0000 803f 0000 803f 0000 803f 0000 803f
000001a0: 0000 803f 0000 803f 0000 803f 0000 803f
000001b0: 0000 803f 0000 803f 0000 803f 0000 803f
000001c0: 0000 803f 0000 803f 0000 803f 0000 803f
000001d0: 0000 803f 0000 803f 0000 803f 0000 803f
000001e0: 0000 803f 0000 803f 0000 803f 0000 803f
000001f0: 0000 803f 0000 803f 0000 803f 0000 803f

out_shift f4 [4]
0.0 0.0 0.0 0.0
00000000: 0000 0000 0000 0000 0000 0000 0000 0000

out_scale f4 [4]
1.0 1.0 1.0 1.0
00000000: 0000 803f 0000 803f 0000 803f 0000 803f

weight f4 [128, 128]
-0.045562085 0.039459728 -0.00063409813 -0.055198167 -5.769462e-05 -0.011034747 0.019068561 -0.0478449
-0.009708543 0.081514895 0.017972901 0.037690308 -0.080384284 -0.08662709 0.024740193 0.04756349
0.047985975 -0.0048100227 -0.004861694 0.021875948 0.029697647 -0.04220609 0.03183653 0.031254057
0.03740584 0.033297658 -0.039685685 -0.102718465 0.009878879 0.028165912 -0.05414623 0.0022719773
-0.07014171 0.04815964 0.017868672 -0.05147587 0.031965878 -0.01271659 -0.026107235 0.014954121
-0.13256983 0.10506511 0.037201583 -0.021168623 -0.12418745 -0.028491724 -0.09183763 0.12951447
-0.05580028 -0.0885766 0.04706982 -0.09804759 -0.03471763 0.043557387 -0.10697322 -0.05889647
-0.04032262 0.058218338 -0.015343066 0.058470454 0.034281313 -0.040484693 0.10493677 0.07742731
0.04995683 0.06548509 0.010977866 -0.10460775 0.010188766 -0.09674245 -0.06696689 -0.06744273
-0.11302773 -0.08153155 0.005780803 -0.103410095 0.14528053 0.039066732 -0.02333579 9.730863e-05
0.101929754 0.03925717 -0.07814921 0.053295266 -0.030987721 0.07904211 -0.07062215 0.03749055
0.0013857248 0.11557814 0.026094211 0.051400404 -0.0075302087 0.0007864045 0.089856334 0.010668688
-0.020177359 0.050006505 -0.09359001 0.10991177 0.012139938 0.072155766 0.028276406 0.09290204
0.063052565 -0.0538583 0.014127066 0.028629376 0.0004220222 -0.08487068 0.13286954 -0.059925888
-0.046428394 0.08927617 -0.042687923 0.085100055 0.05911705 0.008804655 -0.08926227 0.09663222
0.010133602 0.040759925 -0.017133191 -0.05355495 0.0005368255 0.053877883 -0.043903146 0.087940626
-0.02172164 0.07856391 -0.029463353 0.0016403997 0.034801077 -0.017526986 -0.1294702 0.016279142
0.038427103 0.02841106 0.10202231 -0.044135172 0.03545615 0.0687419 0.04513738 -0.0014886643
0.099618144 0.037808146 0.045407187 -0.08710968 -0.06289967 -0.04715726 0.0568409 -0.030715726
-0.007052279 -0.06578827 0.081067756 0.0874165 -0.044491388 -0.064869046 -0.06058297 0.009541307
-0.072127685 0.038054544 -0.08371356 -0.035107218 0.058170956 -0.031157175 0.09698936 -0.041419614
0.021495914 -0.04854457 0.036444116 -0.03462755 -0.06625124 -0.05312857 -0.09999313 -0.10059977
-0.0039712004 -0.023658458 0.030883852 0.08493422 -0.030573739 0.018439643 -0.022968993 0.008118544
0.087779 0.06394964 -0.041745752 -0.025391929 0.025309442 0.18979862 -0.0938476 -0.02885807
0.10695548 -0.11477993 0.048258957 -0.0057338756 -0.04807422 0.028675487 -0.12244476 -0.05202238
-0.045368534 -0.05596458 0.08911205 -0.039643895 0.07844291 -0.014254555 -0.048354793 -0.11680123
-0.02687711 0.04160739 0.018835818 -0.06756602 -0.053081717 0.02858725 0.03851818 -0.11934975
0.0780907 0.0017360128 -0.026248218 -0.002781823 -0.020990325 0.13412862 0.063638024 0.01802091
-0.06959125 -0.037534095 -0.013239277 -0.017259343 -0.050297573 0.019569797 -0.03822173 -0.123314865
-0.053317722 0.0024258648 0.032602318 0.07137578 0.036615603 -0.01131252 0.06283918 0.052677758
-0.00051005185 0.06991797 0.06467606 -0.07095832 0.014531632 0.018635154 -0.022444919 0.10091521
0.12871419 -0.01830675 -0.08889231 -0.02615014 -0.0377931 0.013800064 -0.1087561 0.10863417
00000000: 4f9f 3abd 86a0 213d 9b39 26ba 7917 62bd
00000010: 20fd 71b8 15cb 34bc ac35 9c3c 04f9 43bd
00000020: 9510 1fbc 48f1 a63d e83b 933c 2761 1a3d
00000030: 84a0 a4bd 8b69 b1bd f2ab ca3c efd1 423d
00000040: f18c 443d 659d 9dbb d84e 9fbb 3035 b33c
00000050: 7b48 f33c 4be0 2cbd 0567 023d 4104 003d
00000060: de36 193d 2063 083d 758d 22bd 0f5e d2bd
00000070: 06db 213c 33bc e63c 70c8 5dbd 74e5 143b
00000080: 75a6 8fbd 0b43 453d 5261 923c 5dd8 52bd
00000090: a7ee 023d 3f59 50bc d7de d5bc 2102 753c
000000a0: 63c0 07be 602c d73d b060 183d d269 adbc
000000b0: fd55 febd 7a67 e9bc 5e15 bcbd 719f 043e
000000c0: d68e 64bd a667 b5bd 49cc 403d 2dcd c8bd
000000d0: 1334 0ebd 3b69 323d c714 dbbd 6d3d 71bd
000000e0: 5529 25bd 5a76 6e3d 7c61 7bbc b77e 6f3d
000000f0: 906a 0c3d 47d3 25bd 17e9 d63d 3692 9e3d
00000100: 889f 4c3d 0c1d 863d 82dc 333c 973c d6bd
00000110: c8ee 263c e820 c6bd f025 89bd 6a1f 8abd
00000120: 157b e7bd 03fa a6bd e46c bd3b acc8 d3bd
00000130: 6bc4 143e 7004 203d b32a bfbc 2c12 cc38
00000140: 8cc0 d03d 20cc 203d b10c a0bd 234c 5a3d
00000150: f6d9 fdbc d4e0 a13d 59a2 90bd b18f 193d
00000160: 35a1 b53a 3bb4 ec3d 87c3 d53c 3b89 523d
00000170: f8bf f6bb b626 4e3a 9906 b83d b9cb 2e3c
00000180: fd4a a5bc 9fd3 4c3d 1fac bfbd 6c19 e13d
00000190: 97e6 463c 67c6 933d eca3 e73c 6d43 be3d
000001a0: b421 813d 859a 5cbd 3675 673c 2788 ea3c
000001b0: dc42 dd39 aed0 adbd f40e 083e d974 75bd
000001c0: b32b 3ebd 6dd6 b63d 88d9 2ebd f048 ae3d
000001d0: b824 723d 6641 103c 23cf b6bd 1de7 c53d
000001e0: 6807 263c e1f3 263d e85a 8cbc 6f5c 5bbd
000001f0: c0b9 0c3a 0eaf 5c3d c9d3 33bd 371a b43d
00000200: 95f1 b1bc 1ee6 a03d 215d f1bc ae02 d73a
00000210: 938b 0e3d c194 8fbc d693 04be d65b 853c
00000220: bd65 1d3d 50be e83c 13f1 d03d 15c7 34bd
00000230: 783a 113d 8ec8 8c3d f9e1 383d 491f c3ba
00000240: 9904 cc3d b7dc 1a3d e3fc 393d 8f66 b2bd
00000250: 8bd1 80bd f927 41bd 01d2 683d 8c9f fbbc
00000260: ce16 e7bb 00bc 86bd da06 a63d 6c07 b33d
00000270: 9a3c 36bd 10da 84bd d925 78bd 2453 1c3c
00000280: aeb7 93bd 15df 1b3d 0472 abbd 96cc 0fbd
00000290: ab44 6e3d 553d ffbc 5ca2 c63d 9da7 29bd
000002a0: 3318 b03c acd6 46bd 6d46 153d 9ed5 0dbd
000002b0: bbae 87bd 589d 59bd 33c9 ccbd 4107 cebd
000002c0: d820 82bb 62cf c1bc 2200 fd3c fef1 ad3d
000002d0: c775 fabc bc0e 973c 7829 bcbc a403 053c
000002e0: 7ac5 b33d 07f8 823d 98fd 2abd bc02 d0bc
000002f0: bf55 cf3c 925a 423e 2c33 c0bd c267 ecbc
00000300: 7a0b db3d bd11 ebbd 2fab 453d 3ce3 bbbb
00000310: 79e9 44bd dbe8 ea3c 51c4 fabd 6b15 55bd
00000320: 5bd4 39bd 1e3b 65bd 6180 b63d a361 22bd
00000330: ada6 a03d f08b 69bc ad0f 46bd 7c35 efbd
00000340: 632d dcbc 836c 2a3d 934d 9a3c 0e60 8abd
00000350: 376c 59bd cf2f ea3c 3dc5 1d3d a46d f4bd
00000360: 04ee 9f3d ec8a e33a 8106 d7bc 3f4f 36bb
00000370: e7f3 abbc 0359 093e a754 823d 96a0 933c
00000380: db85 8ebd 5abd 19bd 8de9 58bc 7763 8dbc
00000390: d404 4ebd d750 a03c 648e 1cbd 818c fcbd
000003a0: af63 5abd 42fb 1e3b 028a 053d 772d 923d
000003b0: 3efa 153d 2658 39bc d4b1 803d a2c4 573d
000003c0: 00b5 05ba 2731 8f3d e274 843d 9852 91bd
000003d0: 1516 6e3c c0a8 983c 68de b7bc a2ac ce3d
000003e0: a7cd 033e 0af8 95bc 2c0d b6bd d238 d6bc
000003f0: f0cc 1abd aa19 623c 85bb debd 977b de3d

bias f4 [128]
0.013647459 -0.17937948 0.20518346 -0.0074529382 0.080886774 0.03670105 -0.15036905 0.20064707
0.10060241 -0.12985471 0.012455164 0.22459827 -0.03386371 -0.19752128 0.24308161 0.120846435
-0.08357549 -0.035297833 0.15169528 0.22101288 -0.0036886625 -0.123742245 0.17739722 -0.09463285
0.19860262 -0.090407796 0.12914687 -0.21030131 -0.14920695 -0.013633691 0.0614723 -0.2188331
0.25390908 -0.20764749 0.13747297 0.15132987 -0.060162563 -0.21056464 -0.22172622 0.06475491
0.060418773 0.28987083 -0.059639204 -0.20196524 0.15740795 0.03274538 -0.07478902 -0.14329582
0.19519858 -0.015230141 -0.005970871 0.19836614 0.059336316 0.13248631 -0.15308854 -0.001431438
-0.083574966 0.09514433 0.0925731 -0.01647669 0.2030686 -0.17307101 0.24702464 -0.08590157
0.19121505 -0.20961525 0.2046953 -0.009511002 -0.23983705 -0.059474543 0.13864447 -0.14996488
0.13768469 -0.03195112 0.18226627 -0.14465003 0.10623695 -0.052454174 -0.04745658 -0.19555381
-0.049127713 0.03562213 0.2348125 -0.20710872 0.14268796 -0.17008565 -0.1793385 -0.09222062
-0.20413886 0.035146464 -0.08035282 0.13289782 0.23756143 -0.03919588 -0.0031758237 0.24119444
0.20544475 0.21001628 -0.14620095 0.0624816 0.05431895 0.24131508 0.12590371 -0.21464837
0.10601253 0.22080314 -0.09829061 -0.20574966 0.05809058 -0.17073347 0.1550624 -0.17010681
-0.1865169 0.038758524 -0.18537274 0.14137284 -0.20859572 -0.115385525 -0.056481868 0.066652
-0.15022622 0.07052212 0.17979133 0.028695889 -0.2331982 -0.028473806 -0.17017162 0.05684813
00000000: 9899 5f3c 41af 37be 9d1b 523e c737 f4bb
00000010: f7a7 a53d d753 163d 58fa 19be 6d76 4d3e
00000020: a308 ce3d a2f8 04be bf10 4c3c 17fd 653e
00000030: acb4 0abd 0543 4abe 63ea 783e 567e f73d
00000040: a029 abbd 7694 10bd 0256 1b3e 3351 623e
00000050: 7dbd 71bb 936c fdbd 9ea7 353e dece c1bd
00000060: 7c5e 4b3e b927 b9bd 143f 043e 3a59 57be
00000070: b5c9 18be d85f 5fbc 61ca 7b3d c915 60be
00000080: 5f00 823e 8ba1 54be b7c5 0c3e 38f6 1a3e
00000090: 056d 76bd 429e 57be 330c 63be 399e 843d
000000a0: ad79 773d f369 943e 3d48 74bd facf 4ebe
000000b0: 8d2f 213e 0520 063d fc2a 99bd 24bc 12be
000000c0: 23e2 473e d787 79bc 4ca7 c3bb 7e20 4b3e
000000d0: a30a 733d 7eaa 073e 3ec3 1cbe 179f bbba
000000e0: 5a29 abbd 08db c23d f796 bd3d 20fa 86bc
000000f0: 37f1 4f3e 8739 31be 07f4 7c3e 2aed afbd
00000100: e1cd 433e 61a5 56be a59b 513e 09d4 1bbc
00000110: d897 75be 949b 73bd d1f8 0d3e 6590 19be
00000120: 37fd 0c3e 2ddf 02bd 02a4 3a3e 231f 14be
00000130: c292 d93d 30da 56bd d561 42bd 423f 48be
00000140: 243a 49bd 83e8 113d b072 703e 4f14 54be
00000150: cb1c 123e ef2a 2ebe 83a4 37be 2ade bcbd
00000160: c709 51be bdf5 0f3d 0590 a4bd 5e16 083e
00000170: 4e43 733e dc8b 20bd 7b21 50bb adfb 763e
00000180: 1c60 523e 820e 573e b4b5 15be b5ec 7f3d
00000190: 8c7d 5e3d 4d1b 773e e7ec 003e c8cc 5bbe
000001a0: 191d d93d 381a 623e 964c c9bd 0ab0 52be
000001b0: 63f0 6d3d c1d4 2ebe aec8 1e3e 7b30 2ebe
000001c0: 49fe 3ebe 42c1 1e3d 5ad2 3dbe 0bc4 103e
000001d0: 1e9a 55be 3f4f ecbd 8859 67bd d880 883d
000001e0: e7d4 19be e76d 903d 381b 383e a413 eb3c
000001f0: 82cb 6ebe e641 e9bc 7841 2ebe 96d9 683d

weight f4 [128, 128]
0.059502702 0.054567832 -0.015396104 -0.11422781 0.04093142 -0.08236395 -0.06044406 -0.060383424
-0.070772596 0.038374957 0.08146322 0.10167528 -0.09452304 0.0016190052 0.004816194 0.055304635
-0.035254445 -0.03781538 -0.0766336 -0.14079867 -0.1164809 -0.010435151 -0.093184926 0.04608608
-0.08295181 -0.021877673 0.040941104 0.024291348 0.11828254 -0.02260928 0.07459242 -0.0228907
-0.02235255 0.13433847 -0.058201205 -0.09044794 -0.037633497 -0.04411869 0.06994911 -0.11968523
-0.08543365 0.030035572 -0.041564547 -0.012168085 -0.058071915 -0.014121636 0.101294264 0.04276976
-0.05832253 0.061146025 -0.037218165 -0.02661729 0.04468393 -0.05901688 0.102667 -0.012453703
0.038954437 -0.05306694 -0.046966597 0.013636168 -0.10256088 -0.002148827 0.012144514 -0.019855458
-0.05269338 0.045652233 0.034355357 0.05556874 -0.03358988 0.0074818935 -0.07779871 -0.11296368
-0.031577524 0.027082572 -0.005975019 0.086150564 -0.046455607 0.016696377 0.029959619 0.07853368
0.008835526 0.033687495 -0.09592785 -0.0003505935 -0.084960714 -0.011084413 -0.071935184 -0.012462248
0.08246287 0.002104541 0.048979573 -0.10374386 0.017876793 -0.017437719 -0.1063558 -0.07210506
-0.0446439 0.044946205 0.07006602 -0.082527444 -0.013779223 0.019355934 0.06206328 0.050864715
-0.0746277 -0.05832051 0.01322576 0.08804 -0.07772546 0.055084556 -0.037997454 0.095911086
0.02104958 0.07954407 0.039042827 0.0070235906 0.022080248 0.10456126 -0.026230969 -0.073710315
0.066496834 -0.028838601 -0.016059948 0.017654749 -0.07681201 -0.029521678 -0.09367337 -0.082172796
-0.023746345 -0.036345873 0.04536905 0.0704773 -0.02928937 -0.055274215 -0.028965477 -0.09243329
0.11538345 -0.06537549 0.091848694 -0.041457407 -0.07780434 -0.0086954385 -0.02994355 -0.02777733
0.010928948 0.030629257 0.028121596 0.040633112 0.1169242 -0.07430254 0.06912433 0.040933635
-0.040901046 0.06916894 -0.026980482 -0.052706253 -0.055039473 0.031530216 0.095690854 0.021379555
-0.052416332 -0.031085497 0.01381152 -0.03782806 0.047783237 -0.034037378 0.0059718895 0.06353884
0.012845467 -0.044782605 -0.08523586 -0.020393284 0.10029718 -0.08702538 0.072151974 0.08355843
0.035978083 -0.007323313 -0.022271939 -0.024098305 0.04428304 -0.013979444 -0.03368735 -0.044888303
0.009957953 0.008232496 0.006855771 -0.12592724 0.049052242 0.063930996 -0.04618692 -0.06497762
0.031214422 0.047518235 -0.0027251889 -0.01293656 0.011896871 0.02036098 0.03336023 0.104474165
0.023026241 0.013908396 0.017722016 0.03830294 0.0332366 -0.0821675 0.045396797 0.021333866
-0.024536029 -0.06338141 -0.09077426 0.025292233 0.01294877 0.02576749 0.0870861 0.05859955
-0.034935724 0.017303567 0.008543757 0.001261541 -0.12656945 -0.09462787 0.051771667 0.117693156
0.035549678 0.10253702 -0.07789756 -0.045964897 0.06803032 -0.024251355 -0.04371194 0.037016667
-0.018340787 0.028159056 -0.15169759 -0.065267324 0.04962228 -0.009425418 -0.014234644 0.02899465
-0.02070262 -0.08773695 0.058441214 -0.035411265 -0.09016124 0.05701179 0.0011927852 -0.018128576
0.024897061 -0.032225143 0.07075736 0.120884605 0.10546336 -0.025090167 0.09524484 0.08842593
00000000: 1bb9 733d 8582 5f3d f13f 7cbc 45f0 e9bd
00000010: b4a7 273d 6eae a8bd 3194 77bd 9c54 77bd
00000020: 39f1 90bd 0f2f 1d3d 30d6 a63d 213b d03d
00000030: 4c95 c1bd cd34 d43a 2ad1 9d3b 1d87 623d
00000040: f766 10bd 4de4 1abd 14f2 9cbd 872d 10be
00000050: 8a8d eebd 32f8 2abc bdd7 bebd c2c4 3c3d
00000060: a3e2 a9bd ce38 b3bc dcb1 273d a6fe c63c
00000070: 1e3e f23d 1937 b9bc e9c3 983d 4785 bbbc
00000080: b21c b7bc 0690 093e 6364 6ebd c53c b9bd
00000090: 9525 1abd cdb5 34bd 7b41 8f3d 881d f5bd
000000a0: d6f7 aebd 290d f63c 963f 2abd a65c 47bc
000000b0: d1dc 6dbd 6f5e 67bc 5e73 cf3d 582f 2f3d
000000c0: 9be3 6ebd 4174 7a3d 1372 18bd 810c dabc
000000d0: 7f06 373d afbb 71bd 1343 d23d 9e0a 4cbc
000000e0: b08e 1f3d b85c 59bd 0c60 40bd 3c6a 5f3c
000000f0: 700b d2bd 56d3 0cbb c9f9 463c eaa7 a2bc
00000100: 03d5 57bd d6fd 3a3d 34b8 0c3d 0c9c 633d
00000110: 8b95 09bd ac2a f53b ee54 9fbd 8059 e7bd
00000120: 6f57 01bd 45dc dd3c 18ca c3bb b56f b03d
00000130: 3c48 3ebd d7c6 883c e06d f53c 44d6 a03d
00000140: e2c2 103c e6fb 093d d275 c4bd ddcf b7b9
00000150: e2ff adbd 669b 35bc c152 93bd 752e 4cbc
00000160: 4be2 a83d 57ec 093b ce9e 483d a977 d4bd
00000170: 5a72 923c 8cd9 8ebc 12d1 d9bd d1ab 93bd
00000180: 86dc 36bd 8319 383d c67e 8f3d 2604 a9bd
00000190: 40c2 61bc 5690 9e3c 1136 7e3d 8557 503d
000001a0: 68d6 98bd 7de1 6ebd dcb0 583c 514e b43d
000001b0: 872e 9fbd 58a0 613d 38a3 1bbd 086d c43d
000001c0: 2b70 ac3c 00e8 a23d 5feb 1f3d 2626 e63b
000001d0: a3e1 b43c 3724 d63d 54e2 d6bc 6ff5 96bd
000001e0: 7e2f 883d ee3e ecbc 2790 83bc b1a0 903c
000001f0: 9d4f 9dbd 72d7 f1bc d3d7 bfbd 364a a8bd
00000200: b287 c2bc 69df 14bd e6d4 393d 6756 903d
00000210: 43f0 efbc 3767 62bd 0249 edbc aa4d bdbd
00000220: 294e ec3d 96e3 85bd 2b1b bc3d 3ecf 29bd
00000230: e257 9fbd 5077 0ebc 2d4c f5bc 488d e3bc
00000240: 550f 333c 35ea fa3c 435f e63c e86e 263d
00000250: f475 ef3d ee2b 98bd 0f91 8d3d 07aa 273d
00000260: db87 27bd 72a8 8d3d 2c06 ddbc 83e2 57bd
00000270: 1271 61bd d425 013d 91f9 c33d 2d24 af3c
00000280: 82b2 56bd 03a7 febc b749 623c 99f1 1abd
00000290: 5bb8 433d c76a 0bbd d7af c33b a720 823d
000002a0: cb75 523c f76d 37bd 2390 aebd d10f a7bc
000002b0: 9c68 cd3d 5d3a b2bd 6ac4 933d af20 ab3d
000002c0: c15d 133d 67f8 efbb a473 b6bc cf69 c5bc
000002d0: 2262 353d 0a0a 65bc bffb 09bd ccdc 37bd
000002e0: af26 233c 97e1 063c 60a6 e03b 12f3 00be
000002f0: 01eb 483d 41ee 823d 7f2e 3dbd fd12 85bd
00000300: 63b5 ff3c 7ba2 423d 1599 32bb def3 53bc
00000310: 18eb 423c 12cc a63c bda4 083d 8df6 d53d
00000320: 87a1 bc3c 0ae0 633c c32d 913c 8be3 1c3d
00000330: 1a23 083d 6f47 a8bd fef1 393d 5cc4 ae3c
00000340: c8ff c8bc 1dce 81bd dbe7 b9bd a831 cf3c
00000350: 1427 543c 5816 d33c 325a b23d 1506 703d
00000360: c318 0fbd 36c0 8d3c 1dfb 0b3c 4b5a a53a
00000370: 6c9b 01be 42cc c1bd 870e 543d 1c09 f13d
00000380: 8a9c 113d eefe d13d c288 9fbd b045 3cbd
00000390: 7b53 8b3d c7aa c6bc 4b0b 33bd ca9e 173d
000003a0: 6b3f 96bc d2ad e63c 9d56 1bbe e0aa 85bd
000003b0: bb40 4b3d 126d 1abc 6d38 69bc 3086 ed3c
000003c0: 8a98 a9bc 6eaf b3bd 0e60 6f3d 670b 11bd
000003d0: 75a6 b8bd 3285 693d 3b57 9c3a 6182 94bc
000003e0: ecf4 cb3c 83fe 03bd 3ce9 903d 5992 f73d
000003f0: 2dfd d73d e589 cdbc ba0f c33d a718 b53d

bias f4 [128]
-0.27534956 -0.090418 0.0015018337 0.2067059 -0.24634753 0.15873763 0.19199231 0.22924869
0.07332036 -0.09334805 -0.21283433 0.18871945 0.18862873 -0.14859535 -0.17811239 0.19942184
-0.15785894 -0.05909033 0.28260452 0.15835533 -0.15858153 0.21158507 0.043635 0.26723915
-0.14607516 -0.019387154 0.13233964 0.2677461 0.23319924 -0.1828638 -0.24709831 -0.20691499
-0.1784557 0.15548554 -0.0132670915 -0.12367536 -0.07855902 -0.07915095 -0.16963126 0.20539562
0.17154746 0.21467787 -0.19745792 -0.0515914 -0.15973552 0.007861087 -0.24525209 0.23386435
0.101485945 -0.072757706 0.0869211 -0.17268148 -0.19729964 0.07758748 -0.026703171 0.19689038
0.17481378 -0.23289537 0.2807899 0.25159013 -0.02249899 0.15810964 -0.27091673 0.20474748
0.05728321 0.2831455 0.24728529 -0.08400005 0.1770593 0.17053165 -0.10892731 -0.28356227
-0.2755922 0.11126042 0.060755115 -0.11676943 0.16563188 0.09744024 -0.22282271 0.1648431
-0.02987676 -0.20867486 -0.22049746 0.020209182 -0.099168226 0.29329193 -0.13687429 -0.08195976
0.12407435 0.17672744 0.2965685 0.21292795 -0.11732923 -0.16354331 -0.09091339 -0.18731669
0.04405918 -0.27240402 0.16010028 -0.22781257 -0.035231754 0.09346728 -0.21608716 0.18938738
0.16068843 0.29084644 -0.2702048 0.20039788 0.21738133 -0.1294833 -0.2680003 0.24115708
0.105580166 0.04535792 -0.14236471 -0.2138775 0.11415434 -0.16894807 0.13033088 -0.19489357
0.20995265 0.13228597 -0.07288516 -0.06353226 0.2247298 -0.12512967 0.17578954 -0.07910041
00000000: 9efa 8cbe 132d b9bd 2dd9 c43a b6aa 533e
00000010: 8742 7cbe 1e8c 223e a299 443e 2bc0 6a3e
00000020: fc28 963d 432d bfbd 3ef1 59be ac3f 413e
00000030: e427 413e 6129 18be 1863 36be 3d35 4c3e
00000040: c6a5 21be b408 72bd 8ab1 903e e627 223e
00000050: 3263 22be c2a9 583e 9dba 323d 92d3 883e
00000060: ba94 15be cfd1 9ebc 0b84 073e 0416 893e
00000070: c8cb 6e3e a640 3bbe 5707 7dbe 86e1 53be
00000080: 17bd 36be 9a37 1f3e 375e 59bc 8249 fdbd
00000090: 8de3 a0bd e519 a2bd d1b3 2dbe 3b53 523e
000000a0: 23aa 2f3e 84d4 5b3e 6932 4abe 8151 53bd
000000b0: b591 23be cacb 003c 5d23 7bbe 237a 6f3e
000000c0: ddd7 cf3d fe01 95bd b103 b23d 6ad3 30be
000000d0: eb08 4abe 2fe6 9e3d 9cc0 dabc a29d 493e
000000e0: 6202 333e 207c 6ebe b2c3 8f3e 6cd0 803e
000000f0: cd4f b8bc 7ee7 213e 99b5 8abe 53a9 513e
00000100: cda1 6a3d 72f8 903e 5b38 7d3e 3808 acbd
00000110: 084f 353e d99f 2e3e 4815 dfbd 132f 91be
00000120: 6c1a 8dbe 81dc e33d 5bda 783d d024 efbd
00000130: 679b 293e c08e c73d a32b 64be a1cc 283e
00000140: 1bc0 f4bc ddae 55be 16ca 61be ba8d a53c
00000150: b618 cbbd 5c2a 963e c628 0cbe 85da a7bd
00000160: b11a fe3d 0af8 343e d4d7 973e c909 5a3e
00000170: 4f4a f0bd e677 27be cd30 babd f2cf 3fbe
00000180: 6677 343d 8a78 8bbe 54f1 233e b347 69be
00000190: 2c4f 10bd c66b bf3d f445 5dbe c4ee 413e
000001a0: 828b 243e d3e9 943e 4958 8abe 1a35 4d3e
000001b0: 3699 5e3e 4597 04be 5637 89be e2f1 763e
000001c0: 6a3a d83d 3ac9 393d 0ec8 11be b402 5bbe
000001d0: c0c9 e93d b900 2dbe 7575 053e 2e92 47be
000001e0: d4fd 563e f975 073e d144 95bd 341d 82bd
000001f0: 921f 663e fe21 00be 2c02 343e 65ff a1bd

weight f4 [4, 128]
-0.08303346 -0.06928091 0.048587393 0.102103874 -0.10165087 0.11114818 0.021882586 0.08346274
0.04369346 -0.13509001 -0.10114717 0.010705756 -0.014290402 0.04057771 -0.094195284 0.08413867
-0.06370072 -0.0811792 0.10768621 0.13983543 -0.03313942 -0.03630792 0.04428466 0.11192908
-0.03234269 0.057550397 -0.034927964 0.12659682 0.07704559 -0.038539346 -0.022483667 -0.09247788
-0.03919517 0.04522342 0.07698793 -0.08375923 -0.020785727 -0.0044425256 -0.058157463 0.05262595
-0.04435755 0.10212794 -0.023713933 -0.039642178 0.035250224 -0.059107926 -0.0692128 0.03756775
0.0074927225 -0.099712744 0.01025833 -0.013439795 0.09360136 0.11664996 -0.02631492 0.070141315
0.10700946 -0.06500471 0.107723415 0.009306216 0.051602744 0.057384398 -0.07657142 0.09669268
0.049177844 -0.026276907 0.037176944 -0.09642376 0.010869075 -0.0014435239 -0.050905246 -0.038003173
-0.010943651 -0.03483942 0.07332632 -0.09907224 0.13306388 0.029450055 -0.022152632 0.063482516
0.04838579 -0.017748352 -0.016979251 -0.011355658 -0.11793038 0.07620767 -0.08388213 -0.03844004
-0.04025406 0.0043162317 0.07730101 0.06346653 0.078795224 -0.056006163 -0.037802283 0.019529108
-0.02300505 -0.108750165 0.025503896 0.052211743 -0.058686398 0.08071914 -0.034343388 -0.028507726
0.09963233 0.077332556 -0.095972285 0.08647001 -0.07518343 -0.06716213 -0.14352424 0.04095227
-0.025713868 -0.039564382 -0.092276484 -0.02710793 0.12142065 -0.07679542 0.07328168 -0.03728331
-0.011464206 0.0673914 -0.07983746 -0.016533986 0.12658204 0.004540798 0.07784612 -0.02052755
0.06848068 -0.019555496 -0.08748975 -0.11370846 0.19410865 -0.056514498 -0.01739556 -0.17415102
-0.11648764 0.022285393 -0.019812005 -0.0922776 0.040389035 0.06534738 0.024826305 -0.1361429
0.098676346 0.046284463 -0.059474126 -0.040784415 0.06169069 -0.026153753 -0.040492248 -0.0944918
0.06758594 -0.08047355 -0.12470922 -0.015142157 -0.089682385 0.10843429 0.1757013 0.15217477
-0.012032513 -0.11389459 -0.043344714 0.00034487425 0.02952232 -0.014536144 0.063044585 -0.21057074
-0.15628776 -0.17254502 0.057288542 0.052961085 0.01832602 0.07629633 0.013191598 -0.13408378
-0.12735082 0.0020813488 -0.09641507 0.042935725 0.06078058 -0.0033855021 -0.103290066 -0.15099879
-0.058100514 0.120081425 -0.22835352 0.012407708 -0.046763383 -0.09267201 0.19292419 -0.06068051
-0.087354176 -0.11247412 -0.07955143 0.03873283 -0.037785422 0.03768758 0.17094782 0.2169494
0.15543987 -0.035297614 0.013801373 0.052952196 -0.035329968 -0.05011747 0.16994962 -0.10515547
0.111441396 0.046689063 0.068141684 -0.021777444 0.038215 -0.15661334 0.093474 0.022407237
-0.06410344 -0.096408196 -0.05611279 -0.05412627 0.055509884 0.06382478 0.039087072 0.09138336
-0.086062156 0.08375817 -0.15887196 0.024562519 0.005128761 -0.059744168 0.024412263 -0.099240735
-0.12779477 -0.10748731 0.20204912 0.0028066046 -0.07096342 0.007290792 0.034132056 -0.037512228
-0.013594348 -0.032522548 0.076496504 0.021931998 -0.001396392 0.0784522 -0.06538924 0.12886773
-0.13211219 -0.10105884 0.09745815 0.029322565 -0.045253932 0.076558545 -0.15328312 0.0024280655
00000000: 720d aabd 26e3 8dbd 9303 473d d61b d13d
00000010: 552e d0bd a8a1 e33d 1c43 b33c 83ee aa3d
00000020: eaf7 323d 0955 0abe 3f26 cfbd 3267 2f3c
00000030: 4a22 6abc d034 263d 75e9 c0bd e550 ac3d
00000040: 8675 82bd 4841 a6bd 968a dc3d 0531 0f3e
00000050: 33bd 07bd 9db7 14bd d563 353d 133b e53d
00000060: c579 04bd f7b9 6b3d a010 0fbd 99a2 013e
00000070: 14ca 9d3d 6fdb 1dbd ab2f b8bc 0b65 bdbd
00000080: 1d8b 20bd 313c 393d d9ab 9d3d f689 abbd
00000090: d446 aabc 9b92 91bb 8536 6ebd 4f8e 573d
000000a0: 43b0 35bd 7428 d13d b943 c2bc d65f 22bd
000000b0: 8a62 103d 271b 72bd 71bf 8dbd a4e0 193d
000000c0: 8385 f53b 3236 ccbd 8e12 283c 9632 5cbc
000000d0: 12b2 bf3d 2de6 ee3d 6392 d7bc 40a6 8f3d
000000e0: c727 db3d 3021 85bd 189e dc3d 1979 183c
000000f0: 665d 533d e70b 6b3d 7ad1 9cbd d006 c63d
00000100: b56e 493d ab42 d7bc da46 183d d279 c5bd
00000110: 3414 323c a034 bdba 0582 50bd 37a9 1bbd
00000120: 004d 33bc c8b3 0ebd 1c2c 963d 63e6 cabd
00000130: e641 083e 3e41 f13c 7079 b5bc 1f03 823d
00000140: 2e30 463d fe64 91bc 1218 8bbc 150d 3abc
00000150: 7c85 f1bd c412 9c3d 65ca abbd 4e73 1dbd
00000160: 71e1 24bd 2d6f 8d3b fe4f 9e3d bdfa 813d
00000170: 645f a13d b866 65bd 91d6 1abd 82fb 9f3c
00000180: 1675 bcbc 68b8 debd 8ced d03c fbdb 553d
00000190: 2661 70bd 1450 a53d a7ab 0cbd 0989 e9bc
000001a0: 090c cc3d 8860 9e3d 1e8d c4bd 3017 b13d
000001b0: c5f9 99bd 4c8c 89bd 05f8 12be 91bd 273d
000001c0: e4a5 d2bc 430e 22bd 74fb bcbd 7311 debc
000001d0: 64ab f83d eb46 9dbd b514 963d 62b6 18bd
000001e0: 5dd4 3bbc 8104 8a3d d281 a3bd 4872 87bc
000001f0: b99e 013e f9ca 943b c96d 9f3d 6429 a8bc
00000200: 993f 8c3d d932 a0bc d32d b3bd fbdf e8bd
00000210: 6bc4 463e bf7b 67bd 2281 8ebc a554 32be
00000220: 1291 eebd db8f b63c c94c a2bc 0afc bcbd
00000230: f96e 253d d9d4 853d 8960 cb3c 0b69 0bbe
00000240: d316 ca3d c794 3d3d 249b 73bd 8f0d 27bd
00000250: 61af 7c3d 6540 d6bc 33db 25bd eb84 c1bd
00000260: 7f6a 8a3d 51cf a4bd 8c67 ffbd cf16 78bc
00000270: 66ab b7bd cc12 de3d 0beb 333e b4d3 1b3e
00000280: 0424 45bc 9141 e9bd 3a8a 31bd 3dd0 b439
00000290: cbd8 f13c 0229 6ebc 851d 813d db9f 57be
000002a0: e609 20be a4af 30be 64a7 6a3d b9ed 583d
000002b0: 7320 963c 4041 9c3d 9221 583c 424d 09be
000002c0: 4168 02be 3d67 083b 4475 c5bd 5fdd 2f3d
000002d0: 0ff5 783d 4ddf 5dbb be89 d3bd 6d9f 1abe
000002e0: cefa 6dbd 40ed f53d 81d5 69be b349 4b3c
000002f0: f68a 3fbd d3ca bdbd eb8d 453e 208c 78bd
00000300: bfe6 b2bd d558 e6bd dceb a2bd 51a6 1e3d
00000310: e3c4 1abd 4b5e 1a3d f20c 2f3e fc27 5e3e
00000320: a12b 1f3e 3b94 10bd 271f 623c 67e4 583d
00000330: 28b6 10bd fa47 4dbd 4607 2e3e c05b d7bd
00000340: 633b e43d 083d 3f3d de8d 8b3d 9c66 b2bc
00000350: 5587 1c3d 3f5f 20be 4c6f bf3d 628f b73c
00000360: aa48 83bd a971 c5bd 86d6 65bd 82b3 5dbd
00000370: 555e 633d 91b6 823d c419 203d 3327 bb3d
00000380: 5b41 b0bd 6789 ab3d 55af 22be 5637 c93c
00000390: 2a0f a83b 4db6 74bd 3afc c73c ba3e cbbd
000003a0: a2dc 02be 4f22 dcbd f7e5 4e3e 03ef 373b
000003b0: 4555 91bd 99e7 ee3b 0ece 0b3d 6ca6 19bd
000003c0: d4ba 5ebc 5d36 05bd 33aa 9c3d bcaa b33c
000003d0: 2407 b7ba 8cab a03d cbea 85bd e7f5 033e
000003e0: 6b48 07be f0f7 cebd 2398 c73d e035 f03c
000003f0: 305c 39bd baca 9c3d 40f6 1cbe 2e20 1f3b

bias f4 [4]
0.07609204 -0.05636695 -0.007885727 -0.2218032
00000000: 25d6 9b3d 08e1 66bd 2333 01bc 6120 63be
