dapg/examples/jit_model/no_relocate-v0/model_classifier.pt (torch, 148333 bytes, 10 tensors)

in_shift f4 [128]
000000 00 00 00 00 00 00 00 00 00 00 00 00 00 00 00 00
       0.0 0.0 0.0 0.0
000010 00 00 00 00 00 00 00 00 00 00 00 00 00 00 00 00
       0.0 0.0 0.0 0.0
000020 00 00 00 00 00 00 00 00 00 00 00 00 00 00 00 00
       0.0 0.0 0.0 0.0
000030 00 00 00 00 00 00 00 00 00 00 00 00 00 00 00 00
       0.0 0.0 0.0 0.0
000040 00 00 00 00 00 00 00 00 00 00 00 00 00 00 00 00
       0.0 0.0 0.0 0.0
000050 00 00 00 00 00 00 00 00 00 00 00 00 00 00 00 00
       0.0 0.0 0.0 0.0
000060 00 00 00 00 00 00 00 00 00 00 00 00 00 00 00 00
       0.0 0.0 0.0 0.0
000070 00 00 00 00 00 00 00 00 00 00 00 00 00 00 00 00
       0.0 0.0 0.0 0.0
000080 00 00 00 00 00 00 00 00 00 00 00 00 00 00 00 00
       0.0 0.0 0.0 0.0
000090 00 00 00 00 00 00 00 00 00 00 00 00 00 00 00 00
       0.0 0.0 0.0 0.0
0000a0 00 00 00 00 00 00 00 00 00 00 00 00 00 00 00 00
       0.0 0.0 0.0 0.0
0000b0 00 00 00 00 00 00 00 00 00 00 00 00 00 00 00 00
       0.0 0.0 0.0 0.0
0000c0 00 00 00 00 00 00 00 00 00 00 00 00 00 00 00 00
       0.0 0.0 0.0 0.0
0000d0 00 00 00 00 00 00 00 00 00 00 00 00 00 00 00 00
       0.0 0.0 0.0 0.0
0000e0 00 00 00 00 00 00 00 00 00 00 00 00 00 00 00 00
       0.0 0.0 0.0 0.0
0000f0 00 00 00 00 00 00 00 00 00 00 00 00 00 00 00 00
       0.0 0.0 0.0 0.0
000100 00 00 00 00 00 00 00 00 00 00 00 00 00 00 00 00
       0.0 0.0 0.0 0.0
000110 00 00 00 00 00 00 00 00 00 00 00 00 00 00 00 00
       0.0 0.0 0.0 0.0
000120 00 00 00 00 00 00 00 00 00 00 00 00 00 00 00 00
       0.0 0.0 0.0 0.0
000130 00 00 00 00 00 00 00 00 00 00 00 00 00 00 00 00
       0.0 0.0 0.0 0.0
000140 00 00 00 00 00 00 00 00 00 00 00 00 00 00 00 00
       0.0 0.0 0.0 0.0
000150 00 00 00 00 00 00 00 00 00 00 00 00 00 00 00 00
       0.0 0.0 0.0 0.0
000160 00 00 00 00 00 00 00 00 00 00 00 00 00 00 00 00
       0.0 0.0 0.0 0.0
000170 00 00 00 00 00 00 00 00 00 00 00 00 00 00 00 00
       0.0 0.0 0.0 0.0
000180 00 00 00 00 00 00 00 00 00 00 00 00 00 00 00 00
       0.0 0.0 0.0 0.0
000190 00 00 00 00 00 00 00 00 00 00 00 00 00 00 00 00
       0.0 0.0 0.0 0.0
0001a0 00 00 00 00 00 00 00 00 00 00 00 00 00 00 00 00
       0.0 0.0 0.0 0.0
0001b0 00 00 00 00 00 00 00 00 00 00 00 00 00 00 00 00
       0.0 0.0 0.0 0.0
0001c0 00 00 00 00 00 00 00 00 00 00 00 00 00 00 00 00
       0.0 0.0 0.0 0.0
0001d0 00 00 00 00 00 00 00 00 00 00 00 00 00 00 00 00
       0.0 0.0 0.0 0.0
0001e0 00 00 00 00 00 00 00 00 00 00 00 00 00 00 00 00
       0.0 0.0 0.0 0.0
0001f0 00 00 00 00 00 00 00 00 00 00 00 00 00 00 00 00
       0.0 0.0 0.0 0.0

in_scale f4 [128]
000000 00 00 80 3f 00 00 80 3f 00 00 80 3f 00 00 80 3f
       1.0 1.0 1.0 1.0
000010 00 00 80 3f 00 00 80 3f 00 00 80 3f 00 00 80 3f
       1.0 1.0 1.0 1.0
000020 00 00 80 3f 00 00 80 3f 00 00 80 3f 00 00 80 3f
       1.0 1.0 1.0 1.0
000030 00 00 80 3f 00 00 80 3f 00 00 80 3f 00 00 80 3f
       1.0 1.0 1.0 1.0
000040 00 00 80 3f 00 00 80 3f 00 00 80 3f 00 00 80 3f
       1.0 1.0 1.0 1.0
000050 00 00 80 3f 00 00 80 3f 00 00 80 3f 00 00 80 3f
       1.0 1.0 1.0 1.0
000060 00 00 80 3f 00 00 80 3f 00 00 80 3f 00 00 80 3f
       1.0 1.0 1.0 1.0
000070 00 00 80 3f 00 00 80 3f 00 00 80 3f 00 00 80 3f
       1.0 1.0 1.0 1.0
000080 00 00 80 3f 00 00 80 3f 00 00 80 3f 00 00 80 3f
       1.0 1.0 1.0 1.0
000090 00 00 80 3f 00 00 80 3f 00 00 80 3f 00 00 80 3f
       1.0 1.0 1.0 1.0
0000a0 00 00 80 3f 00 00 80 3f 00 00 80 3f 00 00 80 3f
       1.0 1.0 1.0 1.0
0000b0 00 00 80 3f 00 00 80 3f 00 00 80 3f 00 00 80 3f
       1.0 1.0 1.0 1.0
0000c0 00 00 80 3f 00 00 80 3f 00 00 80 3f 00 00 80 3f
       1.0 1.0 1.0 1.0
0000d0 00 00 80 3f 00 00 80 3f 00 00 80 3f 00 00 80 3f
       1.0 1.0 1.0 1.0
0000e0 00 00 80 3f 00 00 80 3f 00 00 80 3f 00 00 80 3f
       1.0 1.0 1.0 1.0
0000f0 00 00 80 3f 00 00 80 3f 00 00 80 3f 00 00 80 3f
       1.0 1.0 1.0 1.0
000100 00 00 80 3f 00 00 80 3f 00 00 80 3f 00 00 80 3f
       1.0 1.0 1.0 1.0
000110 00 00 80 3f 00 00 80 3f 00 00 80 3f 00 00 80 3f
       1.0 1.0 1.0 1.0
000120 00 00 80 3f 00 00 80 3f 00 00 80 3f 00 00 80 3f
       1.0 1.0 1.0 1.0
000130 00 00 80 3f 00 00 80 3f 00 00 80 3f 00 00 80 3f
       1.0 1.0 1.0 1.0
000140 00 00 80 3f 00 00 80 3f 00 00 80 3f 00 00 80 3f
       1.0 1.0 1.0 1.0
000150 00 00 80 3f 00 00 80 3f 00 00 80 3f 00 00 80 3f
       1.0 1.0 1.0 1.0
000160 00 00 80 3f 00 00 80 3f 00 00 80 3f 00 00 80 3f
       1.0 1.0 1.0 1.0
000170 00 00 80 3f 00 00 80 3f 00 00 80 3f 00 00 80 3f
       1.0 1.0 1.0 1.0
000180 00 00 80 3f 00 00 80 3f 00 00 80 3f 00 00 80 3f
       1.0 1.0 1.0 1.0
000190 00 00 80 3f 00 00 80 3f 00 00 80 3f 00 00 80 3f
       1.0 1.0 1.0 1.0
0001a0 00 00 80 3f 00 00 80 3f 00 00 80 3f 00 00 80 3f
       1.0 1.0 1.0 1.0
0001b0 00 00 80 3f 00 00 80 3f 00 00 80 3f 00 00 80 3f
       1.0 1.0 1.0 1.0
0001c0 00 00 80 3f 00 00 80 3f 00 00 80 3f 00 00 80 3f
       1.0 1.0 1.0 1.0
0001d0 00 00 80 3f 00 00 80 3f 00 00 80 3f 00 00 80 3f
       1.0 1.0 1.0 1.0
0001e0 00 00 80 3f 00 00 80 3f 00 00 80 3f 00 00 80 3f
       1.0 1.0 1.0 1.0
0001f0 00 00 80 3f 00 00 80 3f 00 00 80 3f 00 00 80 3f
       1.0 1.0 1.0 1.0

out_shift f4 [4]
000000 00 00 00 00 00 00 00 00 00 00 00 00 00 00 00 00
       0.0 0.0 0.0 0.0

out_scale f4 [4]
000000 00 00 80 3f 00 00 80 3f 00 00 80 3f 00 00 80 3f
       1.0 1.0 1.0 1.0

weight f4 [128, 128]
000000 1e 81 91 bd e3 25 70 bc 98 ed 67 bd ae e0 69 bd
       -0.07104705 -0.01465747 -0.05662307 -0.057099037
000010 03 4c ef 3c 9a 96 84 bd db af 39 bc 96 56 e2 bd
       0.02921105 -0.064740375 -0.011333431 -0.11051671
000020 5a 35 3b be 33 56 e3 3d 4f d1 10 3d 48 cc 0a bd
       -0.18282071 0.111004256 0.035355862 -0.033886224
000030 62 f7 50 3d 7b 96 c3 bd b6 d3 00 3e 3b fe 9f bc
       0.051017173 -0.09550186 0.12580761 -0.019530406
000040 69 99 c5 3d 3a ca 29 bd be e1 fa 3c 44 ef 3f bd
       0.09648401 -0.041452624 0.03062522 -0.04685904
000050 cb 74 14 be 3d b3 98 bc 72 d6 df bd 2c a7 cb bb
       -0.14497678 -0.018640155 -0.10929574 -0.006214997
000060 5f ff b4 bc 7b cd 52 bd 1f f8 fa 3b 04 a8 8a bd
       -0.022094427 -0.051465493 0.007658973 -0.06770328
000070 a1 c1 83 bd 40 f8 1c bd 21 13 b0 bd ee 7f 5c bd
       -0.06433416 -0.038322687 -0.085973985 -0.05383294
000080 6d 0e 97 3d f7 40 4f bc e2 08 a3 bb f8 ca 47 bd
       0.073757984 -0.012649766 -0.004975424 -0.04877755
000090 f0 1a 2a bd 51 cf ae bc eb 65 14 3d 69 50 4a bd
       -0.041529596 -0.02133909 0.03623001 -0.04939309
0000a0 f5 03 a6 bd 91 f7 8d 3d 4c 71 a6 3b 76 34 e0 3b
       -0.081062235 0.06931985 0.005079424 0.0068421913
0000b0 06 01 c6 3c 77 8e 35 be de af ef 3c 1d 34 08 bd
       0.02417041 -0.17730127 0.029258665 -0.033252824
0000c0 59 90 93 3d 23 71 46 bb 69 0e 74 bc 02 01 1a 3d
       0.072052665 -0.0030279837 -0.014896014 0.037598617
0000d0 1b bb 0b bd 1d 0b 9c bd eb 55 fa bb de f8 b8 bd
       -0.034113985 -0.07619307 -0.0076396368 -0.09031843
0000e0 07 12 43 3a 43 74 e8 3a 46 c7 3b 3d ed c1 f3 bc
       0.0007441346 0.0017734844 0.04584434 -0.029755557
0000f0 b4 ff 68 bd cb 7f 82 bd a3 1d 98 3d 2b 2a 86 3c
       -0.056884483 -0.06372031 0.07427528 0.01637753
000100 d7 93 b3 bc bf 17 f6 bd 0a 10 04 3d 53 f7 a8 bc
       -0.021921081 -0.12016248 0.03224186 -0.020625746
000110 2d 0f 15 3d 3d 99 7a bb 46 57 16 bc 54 2d 4b 3c
       0.036391426 -0.003823831 -0.009176081 0.012400944
000120 96 4a 3f bd a8 f3 75 3d b6 22 1a bd 35 50 c9 bb
       -0.04670199 0.06004682 -0.03763076 -0.0061435946
000130 66 38 3c bd 64 63 f3 3c 86 d6 34 3c f0 80 80 3d
       -0.045952223 0.02971048 0.0110374745 0.06274593
000140 8f ba 93 3d ff 5d 1a bd 63 ff a3 3c 38 77 6d 3d
       0.072133176 -0.037687298 0.020019239 0.057975024
000150 87 68 f6 3c 5d 34 86 bd 68 c3 77 bc fa 34 ab 3d
       0.03007914 -0.06552956 -0.015122272 0.08359714
000160 e5 0c ca 3d dd 1d 35 bc 38 37 be bc 01 5a 8c bd
       0.09865741 -0.011054483 -0.02321969 -0.068531044
000170 f0 68 ff bd 9e fb 6d bc a0 41 10 bd 22 f8 86 bd
       -0.12471187 -0.014525322 -0.035218835 -0.06590296
000180 da 02 10 bd 65 70 4f bd df b8 a3 bd 7c 9d 96 bd
       -0.03515897 -0.050644297 -0.07994246 -0.073542565
000190 4f 15 70 3d 92 ab eb 3b b0 ba 8a 3c 1e ac 2e 3d
       0.05861407 0.0071920836 0.016934723 0.042644612
0001a0 d3 d2 9e 3d 73 ec 12 3c ba 3e 31 3d f0 c0 c8 ba
       0.07755055 0.008967507 0.04327271 -0.0015316289
0001b0 1c 63 8f bd 25 cb 18 3d 7c f9 aa 3c 19 61 51 3c
       -0.070013255 0.03730311 0.020870917 0.012779498
0001c0 d8 32 4f bd 41 ab 00 3d fa be 07 3d 36 b0 7f bd
       -0.050585598 0.03141332 0.033141114 -0.062423907
0001d0 de 2e 81 3d ed 5e e2 bc 85 91 51 3d ff ae 85 bc
       0.06307767 -0.027633155 0.05116417 -0.016318796
0001e0 d6 9b a3 3c 20 14 31 bb fe 43 39 bd d5 82 cc bc
       0.01997177 -0.0027020052 -0.045230858 -0.02496473
0001f0 8e 70 96 3c 41 1c 61 bd 19 fc 3b bd 9f 02 84 3d
       0.018364217 -0.054958586 -0.045894716 0.064458124
000200 bb c9 79 bd ce 24 6b 3d 46 ae 0d bd a7 6b 91 3d
       -0.0609834 0.057408147 -0.03459003 0.07100611
000210 da 3e a8 3d d8 da 98 ba 43 c8 c5 bd 3e a8 a0 bc
       0.08215113 -0.00116619 -0.096573375 -0.019611474
000220 b5 6a 6d bd 1d 5a 51 bc 2b 59 2e bc 06 b7 82 3d
       -0.057963092 -0.012777832 -0.0106413765 0.06382565
000230 3c 7f fc bd 21 70 62 3d ea d0 ed 3d 19 80 bf 3d
       -0.123289555 0.055282716 0.11612113 0.093506046
000240 da b3 5f 3d 96 21 1c bd 3c 06 a2 3d 50 38 81 3d
       0.05461488 -0.038117968 0.07911345 0.06309569
000250 5a 28 88 39 c4 26 fb bc 65 29 e2 bc c1 ca 0f bd
       0.00025970006 -0.030658133 -0.02760763 -0.03510547
000260 15 a0 ea bc 39 76 89 3c 31 9d 15 bd bc b2 f7 3d
       -0.028640786 0.016780006 -0.036526863 0.12094638
000270 c4 cd ff 3d 1c 8f bb bd fb 7f ac bd 57 5c dc bc
       0.124904186 -0.09158155 -0.08422848 -0.0268995
000280 87 6c 10 3e 63 4b 21 bd f7 fa 6f 3b 5a af e1 bc
       0.141039 -0.039378535 0.0036618093 -0.027549434
000290 14 22 64 bc 26 44 8f bc c7 8c 42 bc da 5b ef 3a
       -0.0139241405 -0.01748855 -0.011874384 0.0018261627
0002a0 d6 fc 73 bd 8e b7 33 3d f6 f3 b3 3d dc 2c a3 b7
       -0.059567295 0.043876223 0.08786766 -1.9452003e-05
0002b0 d6 bf ae bc 21 aa a2 bc a3 71 65 3c 53 d3 f1 bd
       -0.021331709 -0.019856514 0.014004144 -0.11807885
0002c0 8d a4 e7 3c b3 f5 45 3d f6 d0 84 bd 22 e8 6a 3d
       0.028276706 0.04833002 -0.06485169 0.057350285
0002d0 05 60 f8 bc ee 23 68 3d 1a ba b2 bd 1e f5 f1 bd
       -0.030319223 0.05667489 -0.08726902 -0.118143305
0002e0 33 f9 25 bd 19 2b 95 bd 73 b7 0f bd f9 92 27 be
       -0.040520858 -0.07283611 -0.03508706 -0.1636466
0002f0 d1 f1 72 3b 55 ca b9 3c a3 30 cd bd 96 34 0a 3a
       0.0037070403 0.022679487 -0.10019042 0.0005272118
000300 19 c6 5c 3c e9 14 79 3d 95 2c c1 bc 8f 1f ed bd
       0.013474965 0.060810957 -0.023580829 -0.11578285
000310 c7 ab 8a bc 9f 66 3b bd b6 f3 a4 bd 39 51 52 3d
       -0.016927613 -0.045752164 -0.08054297 0.05134699
000320 33 5d fc bc b9 0b 2c 3c b2 67 ca bc 7b 77 8b bd
       -0.03080616 0.010500842 -0.024707649 -0.068098985
000330 2e f5 ba bb d4 df 24 bc 2b 8f 67 3d ba 5b ec bd
       -0.005705497 -0.01006313 0.05653302 -0.11540933
000340 89 84 af 3d 75 02 37 be c2 82 66 3b f1 be 0a bd
       0.08570201 -0.17872031 0.0035173153 -0.033873502
000350 c2 9b d1 bc c4 c1 f6 3d 0a 9b 66 3c 02 75 30 bc
       -0.025586966 0.120486766 0.01407505 -0.010770084
000360 84 8b 25 bd 12 7c ab bd b7 bb 0c 3e 06 9b 2d bc
       -0.040416256 -0.08373274 0.13743483 -0.0105960425
000370 9e 03 9f bd 6c aa 61 bc d0 da 71 3d e5 74 88 3d
       -0.07764362 -0.013773542 0.059046566 0.06662921
000380 b0 c4 46 3d 46 14 86 3d 52 79 4c bd 16 9c 86 bd
       0.04852742 0.065468356 -0.049920388 -0.0657274
000390 ee bb 83 3d ec 2e 42 bd 22 8a 7f bb 73 2f ab bc
       0.06432329 -0.04740803 -0.0038992246 -0.020896649
0003a0 79 56 85 bd 90 30 de bc fa 62 e2 bd 83 68 27 be
       -0.06510634 -0.027122766 -0.110540345 -0.16348462
0003b0 99 3c dd 3c 1b 07 5d 3d a6 45 09 3d 4c 58 c0 bc
       0.027006434 0.053961854 0.033513688 -0.023479603
0003c0 63 e2 a9 bd 99 f9 a3 3c 02 d1 f7 bc 13 c2 d6 bc
       -0.08295133 0.020016478 -0.03025103 -0.026215589
0003d0 82 5f 8b 3d e2 18 81 bd ba da 1b 3b 83 3c 76 bd
       0.06805326 -0.06303574 0.0023781494 -0.060116302
0003e0 5a 9d 14 3d fd 62 71 bd 61 da 3e bd a6 64 86 bd
       0.036282875 -0.058932293 -0.04659498 -0.06562166
0003f0 db 08 13 3e 33 78 ff 3d f1 d0 58 bc 0c e9 5c 3d
       0.14358847 0.12474098 -0.013233409 0.05393319

bias f4 [128]
000000 63 24 2c be 21 0a 18 be da 4d 6c be 96 88 f4 bd
       -0.16810755 -0.14847614 -0.23076573 -0.11940114
000010 33 30 35 be 40 fb 03 bd 9e 43 93 bd f8 3b 83 bd
       -0.17694168 -0.032222033 -0.07190631 -0.064079225
000020 80 a1 a9 bc a4 a7 40 be 37 c8 5c be df 28 70 3d
       -0.020706892 -0.1881395 -0.21560751 0.058632728
000030 c6 7d 6a 3e 11 e8 48 be c2 af 33 3d fa 37 30 3e
       0.22899541 -0.19619776 0.043868788 0.17208853
000040 87 d5 35 3e 86 24 af 3d 2b 72 61 3d 5a 53 63 be
       0.17757235 0.08551888 0.05504052 -0.22199765
000050 8b 03 cb 3d d5 be b4 3d af a7 18 3e 21 85 11 be
       0.09912785 0.08825461 0.14907716 -0.14210941
000060 76 da c9 3d fd d6 05 be 9c 5f 80 3d ac 99 1d 3e
       0.09856121 -0.13070293 0.06268236 0.15390652
000070 83 37 2a 3e e2 03 16 3d 09 bb 92 3e 81 cd 71 be
       0.16622739 0.036624797 0.28658321 -0.2361355
000080 4a 9e 85 3e 6e ab 5d 3e 8e d5 16 3e 11 da 7b 3c
       0.26097327 0.21647426 0.14729902 0.015371815
000090 b3 92 67 3d a4 af 15 3e 45 0f 8c 3d 7e 0d 05 3e
       0.056536388 0.14617783 0.0683885 0.12993428
0000a0 44 70 7b be 1c d1 05 3d 9b 04 09 bd d4 8d 23 3e
       -0.24554545 0.032670125 -0.033451658 0.15972072
0000b0 11 12 6b 3e 43 3c 68 3e db 27 0f 3e 9b ec 13 3e
       0.2295611 0.22679238 0.13980047 0.14445727
0000c0 36 8a a0 bd ec 7b 0d be 0a b6 57 be 99 53 5b be
       -0.07838862 -0.13816804 -0.21065536 -0.21418609
0000d0 ef f0 03 3d 1e 09 49 be 5f 67 2b be 20 60 ec 3d
       0.032212194 -0.19632384 -0.16738652 0.11541772
0000e0 f7 57 06 be c6 df 38 3e 00 98 aa 3d 3b 64 8d 3d
       -0.13119493 0.18054113 0.08329773 0.06903883
0000f0 4b 9f 15 be cc 5a 0d 3e 6b b4 b9 3d d6 c5 c7 bb
       -0.14611547 0.13804168 0.09067615 -0.006096582
000100 d9 8e 21 be 4d bf 28 3e d9 48 86 3d 38 56 4b be
       -0.15777148 0.16479225 0.06556863 -0.19857109
000110 4d b5 c1 3d 91 df 58 3d 52 47 22 be 8c b0 ae 3d
       0.094584085 0.052947585 -0.15847519 0.085297674
000120 06 65 8b 3d 46 a7 d0 bc 3c c3 06 3c c4 b7 db bd
       0.06806378 -0.025470387 0.008225258 -0.1072841
000130 bc e5 39 be 7f 02 28 be ef d5 56 be 18 e9 53 3e
       -0.18154043 -0.16407202 -0.20980047 0.20694387
000140 46 0e 4c 3e b4 7c 61 be b3 f1 3a 3d aa b9 ae bd
       0.1992732 -0.22020227 0.04564066 -0.08531506
000150 bb d2 f9 bd 82 10 5a be 75 ac 4b be b0 0d db 3d
       -0.12198397 -0.2129536 -0.19890006 0.1069597
000160 89 0c 97 bd 5d eb 2f be 62 cc 9e 3c ee f0 86 bd
       -0.07375438 -0.17179628 0.019384567 -0.065889224
000170 1d ae 2f 3c c7 4d 62 3e 51 a0 9c 3d 4e b6 04 bd
       0.010722664 0.22099982 0.076477654 -0.03240042
000180 91 5c e8 bd 08 8b 24 3e 32 94 3c 3e 0c b4 e1 bb
       -0.11345781 0.16068661 0.18415907 -0.0068879183
000190 7a 60 65 bd 89 e1 59 3e a0 c4 07 3e 52 47 fa bd
       -0.05600021 0.21277441 0.132586 -0.122206345
0001a0 1f 71 75 3e 37 56 4d be ba dd d8 bd 88 c3 2b 3e
       0.23968934 -0.2005242 -0.10589166 0.16773808
0001b0 20 dc 86 be 16 dc d3 3d cd 50 4c bd 3d 4f 96 3d
       -0.26339817 0.103447124 -0.049881745 0.07339332
0001c0 89 ab b8 3d 7c 35 1e be 4b 91 b3 3c ab 38 55 3e
       0.09017093 -0.1545009 0.021919867 0.20822398
0001d0 06 44 9e bd d7 71 96 bc 48 1f 5b be 79 d5 79 3e
       -0.07727818 -0.01836483 -0.21398652 0.2439784
0001e0 a9 76 5a bd 7f f0 c8 bb a7 5e bc 3d 0e 96 f2 3c
       -0.05333582 -0.006132185 0.09197741 0.029612567
0001f0 85 be 0e be c8 63 8f 3d 7b 0a 3b 3e 9e 04 c6 3d
       -0.13939865 0.07001454 0.18265717 0.096688494

weight f4 [128, 128]
000000 46 33 cf bd 2f 08 98 bd 06 2e c4 bd a0 93 cb 3d
       -0.101172015 -0.07423436 -0.09579091 0.099402666
000010 8f 75 07 3b 22 3f a2 3d f6 ca ad 3d da a3 af 3c
       0.0020669436 0.07922198 0.08485977 0.021440435
000020 3a 99 77 bd 1a be bd bc 74 34 33 3b 91 d9 75 bd
       -0.060448863 -0.023161937 0.0027344497 -0.06002194
000030 e9 62 ca 3d 32 5c a3 bd 28 3d 82 bd ff 87 1c 3d
       0.09882147 -0.07976569 -0.06359321 0.038215633
000040 fe d7 7b 3d 4c dd 0b 3e 67 fb af 3d 01 96 e7 bd
       0.061485283 0.13658637 0.08592873 -0.11307908
000050 1b b1 71 bd ba 19 37 3d b8 f1 1d bd f4 02 46 bc
       -0.05900679 0.04470227 -0.0385606 -0.012085665
000060 d8 31 88 bc da af ca 3d 01 9c 9c bd 2f c2 0b 3d
       -0.01662533 0.09896822 -0.07646943 0.034120735
000070 d4 a6 4e 3d a0 f2 d6 3d 39 9f b3 bc b5 fd 1d bd
       0.05045207 0.10495496 -0.02192651 -0.038572032
000080 16 7c 81 bb ea 88 27 bd 47 a1 c2 bd 8d 5c 0c 3d
       -0.00395156 -0.040902056 -0.095034175 0.03426795
000090 15 dc 56 3d 05 35 57 3c 09 4b 68 3b 80 e3 c0 bd
       0.05245598 0.013135199 0.0035445115 -0.09418392
0000a0 0b 73 7c bd dd 1b a8 3d 0a 52 07 3d 85 5b 60 3d
       -0.06163315 0.082084395 0.033037223 0.05477478
0000b0 65 86 ae 3a 06 7c 6b 3d 9c b0 76 3d e1 a9 06 3e
       0.0013315199 0.057491325 0.06022702 0.13150741
0000c0 e7 9c 0c 3d 52 87 a3 3d 6a b9 c1 bd cc e0 f0 bd
       0.03432932 0.07984795 -0.09459193 -0.117616266
0000d0 6d 89 1d 3d 77 d4 cf ba 52 41 8d bd de c1 8f 3d
       0.038461138 -0.0015856166 -0.068972245 0.07019399
0000e0 4d 61 05 3d d3 cd 79 3d 65 d2 5a bb e0 67 4e bb
       0.032563496 0.060987305 -0.0033389565 -0.003149502
0000f0 4d f4 c2 bd ff f3 50 3d 65 54 0a bd 27 79 ca ba
       -0.09519253 0.051013943 -0.03377189 -0.0015447483
000100 cc da 4d bd 5b ee 69 3c 82 56 02 bd ff 6b 21 3b
       -0.05025749 0.01427802 -0.03182078 0.002463102
000110 60 32 db 3d f7 5c b0 3d 90 aa a0 bd 4b 84 bc 3d
       0.10702968 0.08611482 -0.07845032 0.092049204
000120 5c 4b f5 bc f3 13 1a 3d 33 64 02 bd a9 e3 85 3d
       -0.02994316 0.03761668 -0.03183384 0.06537563
000130 46 94 c0 bc d0 46 99 bd 0e 85 06 bd 21 8d cd 3d
       -0.023508202 -0.074842095 -0.032841735 0.10036684
000140 fc 3c 9e bc 13 11 b3 bd 85 b2 f4 3c 80 c2 8b ba
       -0.019316189 -0.08743491 0.029870281 -0.0010662824
000150 ad 95 1d 3d 92 fe fb bc 26 15 90 bc 40 6a fe 3d
       0.03847282 -0.030761037 -0.01758821 0.12422609
000160 56 7b ed bc 08 1d c1 b9 f2 21 83 bd 95 13 c5 3d
       -0.028989475 -0.0003683346 -0.06402959 0.096228756
000170 c9 3a 0c 3d 06 6d b1 3d 27 0b bc bd e0 ae b7 3d
       0.03423575 0.08663373 -0.09181815 0.08968902
000180 a6 c3 e6 bb 2e 4f 1a 3d 55 c1 1c 3d ca d1 86 3c
       -0.007042366 0.037673168 0.038270313 0.016457457
000190 90 75 21 be f5 59 22 3d 63 e1 6f bd 89 78 9a bd
       -0.15767503 0.03963657 -0.058564555 -0.075425215
0001a0 e2 df e1 3d 84 87 18 bc ba d4 b2 bd 60 65 27 bd
       0.110290304 -0.009309653 -0.087319806 -0.040868163
0001b0 b9 e7 bf bc c0 35 a4 3d 2b a6 66 3d 85 6a 17 3d
       -0.023425924 0.080180645 0.056310814 0.03696682
0001c0 35 ce ab 3d d5 c6 8b bc 53 f2 27 bd 00 38 58 3d
       0.0838894 -0.017062584 -0.041002583 0.05278778
0001d0 ad 90 49 3d 62 9e 03 be 24 6f cb bd 72 8b 6e 3d
       0.04921024 -0.12853387 -0.09933308 0.058238454
0001e0 f1 ca 94 bd b6 0a 12 bd a5 ad 69 3d 92 f0 3c 3d
       -0.072652705 -0.035654746 0.057050366 0.046127863
0001f0 a0 30 ea 3c 4e e8 b1 bc 88 76 c4 bc bb 5b 02 3c
       0.02858764 -0.021717217 -0.023982301 0.007956441
000200 74 6d 1b 3e f4 ee b4 3b 84 11 f0 3d 88 d0 c3 bd
       0.15178472 0.0055216495 0.11722091 -0.095612586
000210 7e 6b 3c bd cf a5 f0 bd 36 d6 4b bd eb 38 85 bb
       -0.04600095 -0.117503755 -0.049764834 -0.004065623
000220 44 bc 3c 3d 0b dc ba 3c 3f 7d 50 3d 49 79 d7 bd
       0.04607798 0.022810003 0.050900694 -0.1052118
000230 46 28 82 3d dd d7 8b 3c e3 14 06 be cf 90 ad bc
       0.06355338 0.017070705 -0.13093905 -0.021187214
000240 4d f9 5f 3b 18 54 df bd 37 b7 ae bd 8a 26 11 3e
       0.0034175694 -0.109047115 -0.08531039 0.14174858
000250 de f0 01 bd 5f 1a 0a bd d8 94 ae bd 4c 17 0e 3e
       -0.03172385 -0.033716556 -0.085244834 0.13876075
000260 74 48 51 3d 58 4b aa 3c f9 7c 0a 3e f1 ba 1a bd
       0.051094487 0.02078788 0.13524236 -0.037775937
000270 02 98 b4 3d 9b 26 87 3c e1 e6 05 be 34 cd 96 3d
       0.08818056 0.0164979 -0.13076355 0.07363358
000280 f4 b3 0b bd 2f 5d 74 3d f7 d8 a8 bd f7 90 a9 bd
       -0.034107164 0.05965918 -0.08244508 -0.08279603
000290 01 c0 6f bd 27 f6 4f 3d 90 65 a9 3d 04 b7 c4 bd
       -0.05853272 0.05077186 0.08271325 -0.0960522
0002a0 c9 ee 8a 3d 0a 43 08 3e 4c fd a5 bd 43 ce cf bc
       0.06783826 0.13306823 -0.08104953 -0.025366908
0002b0 e4 3b 84 bc 60 59 da bc 56 55 87 bd 55 e4 cf 3d
       -0.01614184 -0.026653945 -0.066080734 0.10150973
0002c0 12 25 87 bb 2e eb 05 3d ed 61 3a bb 7c e7 09 3e
       -0.004124292 0.032694988 -0.0028439716 0.1346721
0002d0 d4 37 1a be b9 19 c0 3d a1 0e 14 3e fb 0a 38 3d
       -0.15060359 0.09379906 0.14458705 0.044932347
0002e0 37 06 ce bd 05 c3 ac 3d 25 78 3f bd 74 33 6d bd
       -0.10059779 0.084356345 -0.046745438 -0.057910398
0002f0 a7 f5 e0 3c 14 af ec bb 88 cf 1c 3e 9a 32 e5 3d
       0.027460886 -0.0072230194 0.15313542 0.11191292
000300 62 09 33 3e 10 d2 8b bd 11 06 b8 3d af de dc bd
       0.17484048 -0.068271756 0.08985532 -0.10784661
000310 90 d5 2f 3b bd 75 10 3e 8c 8d d6 bd fa 8e 39 bd
       0.0026830174 0.14107414 -0.10476217 -0.04530237
000320 ea d4 0e be 55 bf 79 3c ae d5 50 bd 42 0c b6 3d
       -0.13948408 0.015243371 -0.05098503 0.08889057
000330 24 86 82 3c a3 1d 66 bd 5c c0 e6 3c ab 9d 31 3d
       0.015933104 -0.056180608 0.028167896 0.043363255
000340 80 55 29 be 22 12 4b 3d 5c 2e 04 bc 08 3b 53 bd
       -0.16536522 0.04957784 -0.008067694 -0.05156997
000350 b3 4d a5 3d a3 c0 03 3d 77 3a e2 3d 8e 26 e9 bd
       0.080714606 0.032166135 0.110463075 -0.11384307
000360 51 6f 28 bb ae c5 21 bc 27 8c 15 bd fc 27 24 be
       -0.0025701115 -0.009873791 -0.036510613 -0.16030878
000370 8c 83 dd bd d4 4b 9e bd 0d 6f 50 3d 78 be 59 3d
       -0.10816106 -0.07729307 0.050887156 0.05316016
000380 7b 1b 1f 3d 95 2d bc 3d 50 5d 3b bd 9b 67 12 be
       0.038844567 0.091883816 -0.045743287 -0.14297335
000390 0b 96 8f bd 33 c9 ec bc 59 c3 32 bd 8a d1 4d 3e
       -0.0701104 -0.028904533 -0.04364333 0.20099464
0003a0 a1 3a b0 bd dc de 3b 3d 10 ee 40 3d 4c 7e ad bc
       -0.086049326 0.045866832 0.047102034 -0.021178387
0003b0 37 9d 37 3e 98 58 93 bd 2e 57 27 bc 67 ed 4e 3c
       0.17931066 -0.07194632 -0.010213656 0.012629843
0003c0 c7 76 d7 3c 99 4a 05 3c bd ad cc 3d ba 8b 31 bd
       0.026301755 0.008135461 0.099940754 -0.043346144
0003d0 b3 ee b8 bb 5a 19 20 bd d4 4d 73 3d 64 3c 54 bd
       -0.0056436895 -0.039086677 0.059400395 -0.051815405
0003e0 12 9d 97 bd 91 31 0a be 20 27 d7 3c 76 03 63 bb
       -0.07403006 -0.1349547 0.026263773 -0.0034639514
0003f0 4f ed 7c 3d 5d b2 a7 bd 4d 52 83 3d f3 1a 46 bd
       0.061749753 -0.08188317 0.06412182 -0.048365545

bias f4 [128]
000000 cb 12 5b 3e 00 36 99 bd 1a 2c c5 bd 04 7e fb 3c
       0.21393888 -0.07481003 -0.09627552 0.030699737
000010 37 03 ef bc 76 1f 32 3d e0 cf 79 3b 3a 98 07 3e
       -0.029176338 0.043487035 0.0038118288 0.13241664
000020 00 88 37 bc 80 88 16 3e d0 43 59 3d bc 0b 76 3d
       -0.0112018585 0.14700508 0.053043187 0.060069785
000030 0c 1f 2c bc 9b a7 54 bc 7d 72 5a 3d da a0 12 3e
       -0.010505449 -0.012979413 0.05333184 0.14319173
000040 e3 95 50 be 07 b2 4f bd ca 94 00 3e cc fb 31 3e
       -0.20369677 -0.05070689 0.12556759 0.17381209
000050 9b 11 b1 3d 30 b1 5b 3e cf 07 d2 3d 0e 66 dd bd
       0.08645936 0.2145431 0.102553956 -0.10810481
000060 58 26 58 bc 79 81 4d be 82 de d0 bd 89 30 4e bd
       -0.013192736 -0.20068921 -0.1019869 -0.050339255
000070 97 dd dc bd 28 d1 2c 3e 2d 9f db bd aa 8d 33 bc
       -0.107844524 0.16876662 -0.1072372 -0.010959068
000080 d7 2d 38 3d 7e cc 45 be 33 32 0d bd 03 03 66 be
       0.04496559 -0.19316289 -0.0344717 -0.22462086
000090 f0 fc fb 3c 8b eb be bc 61 3c 4a be 44 94 2a 3d
       0.030760258 -0.023305675 -0.19749595 0.041645303
0000a0 47 95 e4 bb 73 33 21 3e ca 3f b4 3c c2 18 c3 bc
       -0.006975803 0.15742283 0.022003073 -0.023815516
0000b0 bb 6d 26 3e 5f ba 01 bd 8a cf 57 be 76 54 3b 3e
       0.16252796 -0.031671878 -0.21075264 0.18293938
0000c0 9d 1a fa bd e7 4e 30 be 7e 43 80 3c 02 ca 45 3e
       -0.12212107 -0.17217599 0.015657183 0.19315341
0000d0 4a e9 3d bd 0f e5 31 bd 69 3d 45 3e d9 e9 46 3d
       -0.04636506 -0.043431338 0.19261707 0.04856286
0000e0 81 9f 00 be b2 0d 5b be d6 02 8f bc d3 cc 4f bd
       -0.12560846 -0.21391943 -0.017457407 -0.050732445
0000f0 ea d4 97 3d 47 b5 5e bc 3b 35 22 be 46 3e ab bd
       0.07413657 -0.013593025 -0.15840618 -0.08361487
000100 17 b5 90 bd 9a a1 8e bd 3e 81 16 bc 4a 05 c3 3c
       -0.0706579 -0.06964417 -0.009186087 0.023806233
000110 60 55 27 3e 3d e0 e2 bc e4 75 f5 bd 05 1e a8 3d
       0.16341162 -0.027694816 -0.119853765 0.08208851
000120 70 a9 d1 3d 3c 2c 17 3e 2f 39 a7 3c 2c 8f 10 be
       0.10237396 0.14762968 0.02041301 -0.14117116
000130 f7 18 83 3d ba e6 fd bc 21 6d 32 3d 94 16 01 bd
       0.06401246 -0.030993808 0.043561105 -0.031515673
000140 a8 76 51 bc 8d 83 e3 bd ed 9a 13 be 47 a1 84 3c
       -0.0127846375 -0.11109076 -0.14414568 0.016190184
000150 f1 c0 d5 3c 50 a0 3b bc bc 0b 03 3e 8e 33 2f 3e
       0.026092978 -0.011451796 0.12797445 0.1710951
000160 85 30 e0 bd 7e 9d 70 bd 58 16 e6 bd 91 77 2f 3e
       -0.10946754 -0.058743946 -0.112347305 0.17135455
000170 89 1a 15 be c1 86 3e be 05 71 a6 bd 2f 1d 69 3d
       -0.14560904 -0.18606092 -0.081270255 0.056912597
000180 de 87 a7 3d ac 44 55 3d 03 70 b5 bd c6 48 99 bb
       0.081802115 0.052067444 -0.08859255 -0.0046778647
000190 f3 a5 23 be 32 6a 9c bd 9c ea a2 3c 86 e9 01 3d
       -0.15981273 -0.07637443 0.019887261 0.031716846
0001a0 a4 f8 1f 3d 34 13 92 3d 5f ba 2f be c8 cf 58 3c
       0.03905548 0.07132569 -0.17160939 0.013233133
0001b0 5c d1 e0 3d 92 c2 09 3e 69 71 0c be 28 a4 00 bc
       0.10977432 0.13453129 -0.13715138 -0.007851638
0001c0 dd 56 30 bc fd ce 07 3c eb 5b 0d be 24 d3 45 3e
       -0.010762897 0.008289096 -0.13804595 0.19318825
0001d0 64 c0 bb 3d b6 49 14 bd 8f 5f e2 3d 0a 0d 35 be
       0.09167555 -0.03620311 0.110533826 -0.17680755
0001e0 21 55 4f bc 7e 5d 0e be 52 d7 c7 3d 6a d4 39 be
       -0.012654574 -0.13902852 0.09757866 -0.18147436
0001f0 39 65 80 bd 13 c7 41 3d 8b 9e e4 bd b9 53 6a 3d
       -0.06269307 0.047308993 -0.11163052 0.05720875

weight f4 [4, 128]
000000 a6 a3 d8 bd ff 82 2c bb 65 ea 8f 3d 69 85 c9 bb
       -0.105780885 -0.0026323197 0.07027129 -0.006149937
000010 56 71 ae 3c 11 21 5a bd d2 d6 12 3e 70 12 e3 bd
       0.021294277 -0.05325419 0.1433976 -0.11087501
000020 14 0c 89 bc 75 22 28 be e0 dd e8 bd 89 d9 06 3c
       -0.016729392 -0.16419394 -0.11370444 0.008230575
000030 52 01 70 bb a0 39 61 3c e7 90 5e 3d 9b ce 0e bd
       -0.003662188 0.013746649 0.05433741 -0.034865003
000040 7e 3a 49 3e a6 a6 14 3e 25 67 eb bd 27 13 5f bd
       0.19651219 0.14516696 -0.11494283 -0.054461624
000050 60 61 d5 bd 74 21 a8 bc 59 01 05 be 38 9e 25 3e
       -0.104189634 -0.020523764 -0.12988795 0.16173637
000060 80 20 8b bd 6f 18 2f 3e 09 9e 1d 3e 7a e0 cc 3d
       -0.06793308 0.17099164 0.15392317 0.10003753
000070 9e 25 c3 3d 4d 47 1c bb e8 4c 0e 3e 26 40 a2 bd
       0.09528659 -0.002384621 0.13896525 -0.079223916
000080 17 b8 1b bd aa 90 8a 3d f5 c2 a3 3d 5b f2 39 3e
       -0.03801736 0.06765874 0.079961695 0.18158858
000090 af 55 f2 bd e0 f0 01 3d 86 c5 28 3e b8 2e 45 be
       -0.11832749 0.031723857 0.16481599 -0.19256103
0000a0 52 c6 b3 bd 03 c6 ad bd 06 35 f2 3d 23 fb 4f 3d
       -0.08778061 -0.08485033 0.1182652 0.050776612
0000b0 b1 72 b8 bd eb cc c4 bc f8 03 b7 3d 83 1c 00 be
       -0.09006251 -0.024023494 0.08936304 -0.12510876
0000c0 b8 15 2d 3e 78 85 35 3d 4b e9 a2 bd 07 ed b1 bd
       0.16902816 0.04431674 -0.07954653 -0.086877875
0000d0 23 bc eb bd 22 17 d4 3d 05 44 48 be f8 1b e7 bd
       -0.115104936 0.10355975 -0.19557197 -0.112846315
0000e0 3f c9 1d 3e 41 bd 47 3e f2 3b 56 3d 44 72 bf bc
       0.154088 0.19505788 0.052303262 -0.023369916
0000f0 a5 bf d2 bd db ba 80 3d d8 1f c9 3d fa 97 77 3d
       -0.102904595 0.0628564 0.09820527 0.06044767
000100 c3 d4 72 3d 39 00 8b bd 5b c2 08 bd 76 69 ad bd
       0.059284937 -0.06787152 -0.033388477 -0.08467381
000110 73 1a c3 bd aa a4 2d 3d 50 20 53 3d 4c 4b dd bd
       -0.09526529 0.042393364 0.051544487 -0.10805377
000120 c0 12 2f be 64 1f ee bd c3 c1 f3 bd b7 da f7 3c
       -0.17096996 -0.11627081 -0.119021915 0.030255659
000130 e2 b2 c3 ba 81 4f 71 3d c5 fe be bc 48 29 34 3e
       -0.001493063 0.05891371 -0.023314843 0.17593873
000140 87 cd bf bd f6 12 48 3c 63 1c 94 3d 28 52 26 3e
       -0.09365373 0.012211552 0.07231977 0.16242278
000150 76 79 1b be 5f b0 95 3d 91 4a 1c be 65 94 2e be
       -0.15183052 0.07309031 -0.1526282 -0.17048796
000160 8f 86 31 bc 4a 07 67 3c 52 2a ca 3d d3 b2 00 be
       -0.010835304 0.014100859 0.09871353 -0.12568216
000170 78 3a 4b 3e 06 1c 89 3d 34 64 1e 3e 44 93 2d bd
       0.19846523 0.06694798 0.15467912 -0.04237677
000180 8e 7e 23 be dc 66 da bd cc 4e 9c 3d b7 b9 89 3d
       -0.15966246 -0.1066415 0.07632217 0.067248754
000190 a5 c0 75 3d b0 ea 1a 3e f1 d7 34 bd c7 c7 f2 bd
       0.059998173 0.15128589 -0.04415125 -0.11854511
0001a0 21 2f 2c bc 77 aa 75 bd 6b 2f 3b 3e be 0e c9 3d
       -0.010509283 -0.05997702 0.18279807 0.09817265
0001b0 c9 3a bf bd 56 b6 b2 bd 2d 44 8d 3d 91 f0 14 bd
       -0.09337384 -0.08726184 0.06897769 -0.036362235
0001c0 e6 3f 24 3e f8 54 e4 bd d2 26 95 3d 6c 49 99 bd
       0.1604 -0.11149019 0.07282795 -0.07484707
0001d0 40 85 c1 bd 51 ec ae 3d 78 8a 71 3c c8 b6 07 3e
       -0.094492435 0.085411675 0.014742486 0.1325332
0001e0 fb 08 91 bd 9b f0 35 3d 16 a2 06 be a6 a1 d9 3d
       -0.07081791 0.044418912 -0.13147768 0.10626535
0001f0 11 05 df 3d 8e ab 09 be 3a 6b 4f 3e 42 e2 a6 3a
       0.10889638 -0.13444349 0.20255747 0.0012732225
000200 3c 87 16 be 8c 02 c4 3d 65 1a 11 3e a6 d2 9e bc
       -0.14700025 0.09570798 0.14170225 -0.019387554
000210 49 a6 79 3d 05 9c 0c be 63 b0 ed 3d 3b fa 91 bd
       0.060949598 -0.13731392 0.11605909 -0.07127806
000220 47 c3 78 bd 56 3a 29 be 2b 7f 76 bd c2 e8 f8 bd
       -0.060733106 -0.1652616 -0.06017987 -0.1215377
000230 e5 b5 e5 3c 64 be 07 3e 40 87 13 3c 90 c8 ac bd
       0.028040836 0.13256222 0.009004414 -0.08436692
000240 c5 40 e1 3d e1 b3 5b 3b 55 67 2e be 00 7f 17 be
       0.10998682 0.0033523964 -0.17031606 -0.1479454
000250 6e e8 a2 bc 48 21 4c bd f9 54 14 be 57 46 2c 3e
       -0.019886222 -0.049836427 -0.1448554 0.16823708
000260 cb e7 ff bd e0 bf 2e 3e cb 86 5c 3d 61 89 23 3e
       -0.12495383 0.17065382 0.053839486 0.15970375
000270 71 22 c8 bb 5b 37 a6 bc eb 78 d9 3d 23 63 c2 b8
       -0.0061076214 -0.020290067 0.106187664 -9.2691065e-05
000280 3d 05 88 bc a3 ec 17 3e ba a8 81 bd 9a d8 26 3e
       -0.01660406 0.14836363 -0.0633101 0.16293564
000290 f3 04 f5 bc f1 54 d9 3d ea 29 80 3d cb 91 44 be
       -0.029909587 0.106119044 0.062579945 -0.1919624
0002a0 c1 45 19 be 12 55 0e 3d 8a 3a 9a 3c 59 8f ff 3d
       -0.14968015 0.034749098 0.018826742 0.12478513
0002b0 4f b4 50 bd 1b 42 01 3e 4a 24 a0 3d ff 19 81 bd
       -0.050953206 0.12622873 0.078194216 -0.063037865
0002c0 dc f2 8b 3d a7 4d 6d 3d ba 23 dd bc d3 19 38 be
       0.06833431 0.057935383 -0.026994575 -0.17978601
0002d0 5c b3 c8 bd e6 8f 08 3e f8 88 55 bd 26 7f 56 bd
       -0.09799835 0.13336143 -0.052132577 -0.052367352
0002e0 91 93 de 3d f6 47 29 3e c6 bb 59 3c e0 73 1d bd
       0.1086799 0.16531357 0.013289398 -0.038440585
0002f0 06 06 41 3b 84 d1 08 3d 8f 0b ff 3d 99 77 aa 3c
       0.0029453053 0.033402935 0.124533765 0.020808982
000300 d3 98 0f 3c 61 d8 7a bc 13 ed 7a bd c0 40 0d be
       0.0087644635 -0.015310378 -0.061261248 -0.13794231
000310 1c a0 8d bd 95 02 f6 bc 56 b8 06 3e 7e 40 db bd
       -0.06915304 -0.030030528 0.13156256 -0.1070566
000320 72 d2 f8 bd 2a fc 49 bd 2c c8 52 3d b8 b8 2a 3e
       -0.12149514 -0.049312748 0.05146043 0.16672027
000330 fe 55 60 bd e4 3b 14 3c 38 88 25 be 01 10 a1 3c
       -0.05476951 0.009047482 -0.16165245 0.019660952
000340 59 5c b4 bb 59 81 1c 3e 78 41 e7 3d 2f 0d b8 3d
       -0.0055041728 0.15283717 0.11291784 0.089868896
000350 b9 ee ef bd d1 19 bb bd c4 7c 2d be ff de 61 bd
       -0.117154546 -0.091357835 -0.16942126 -0.055144306
000360 e9 e2 36 bd da ee 5e 3c 0a 04 97 3d d5 9d bf bd
       -0.044649992 0.013606751 0.07373817 -0.09356276
000370 3a 12 4f 3e fe fe 47 3d 6a 67 86 3d 43 ad d9 3d
       0.20221797 0.048827164 0.065626934 0.1062875
000380 75 d9 01 be 79 51 0f be c6 e0 c0 3d 29 52 0e 3e
       -0.1268061 -0.13995923 0.09417872 0.13898529
000390 84 ad b8 3d b8 55 1e 3e 33 f0 70 bd e3 9b a1 bd
       0.090174705 0.15462387 -0.05882282 -0.07891061
0003a0 75 ab db ba a4 6a 88 bd ec cc 45 3d f2 1e 89 3d
       -0.0016759472 -0.06660965 0.04829113 0.066953555
0003b0 43 69 31 3d 9e f6 c3 3c 08 b5 ad bc f7 83 8b 3c
       0.043313276 0.023921307 -0.021204486 0.0170307
0003c0 e0 34 31 3d 3d 5e 1c bd 10 95 f3 3d 99 f3 52 bd
       0.043263316 -0.03817581 0.11893666 -0.051501844
0003d0 56 a6 d5 bd 46 c7 d3 3d b4 d2 15 be 27 ce 58 3e
       -0.10432117 0.10340743 -0.14631158 0.21172391
0003e0 ab 71 a5 bd 67 06 2e 3e 2c 77 76 bd 8f 0c 09 3d
       -0.08078321 0.1699463 -0.060172245 0.033459242
0003f0 b8 b1 b6 3d b5 fe 0a be b5 78 38 3e 9d 7a 4d bd
       0.08920616 -0.13573726 0.18014796 -0.05016576

bias f4 [4]
000000 c1 07 97 bc 1f 69 24 3c f1 0e e0 3d 68 dd cb 3d
       -0.018436315 0.010034828 0.1094035 0.09954339
