dapg/examples/model/no_hammer-v0/model_discriminator.pt (torch, 143224 bytes, 7 tensors)

in_shift f4 [128]
00000000: 0000 0000 0000 0000 0000 0000 0000 0000
00000010: 0000 0000 0000 0000 0000 0000 0000 0000
00000020: 0000 0000 0000 0000 0000 0000 0000 0000
00000030: 0000 0000 0000 0000 0000 0000 0000 0000
00000040: 0000 0000 0000 0000 0000 0000 0000 0000
00000050: 0000 0000 0000 0000 0000 0000 0000 0000
00000060: 0000 0000 0000 0000 0000 0000 0000 0000
00000070: 0000 0000 0000 0000 0000 0000 0000 0000
00000080: 0000 0000 0000 0000 0000 0000 0000 0000
00000090: 0000 0000 0000 0000 0000 0000 0000 0000
000000a0: 0000 0000 0000 0000 0000 0000 0000 0000
000000b0: 0000 0000 0000 0000 0000 0000 0000 0000
000000c0: 0000 0000 0000 0000 0000 0000 0000 0000
000000d0: 0000 0000 0000 0000 0000 0000 0000 0000
000000e0: 0000 0000 0000 0000 0000 0000 0000 0000
000000f0: 0000 0000 0000 0000 0000 0000 0000 0000
00000100: 0000 0000 0000 0000 0000 0000 0000 0000
00000110: 0000 0000 0000 0000 0000 0000 0000 0000
00000120: 0000 0000 0000 0000 0000 0000 0000 0000
00000130: 0000 0000 0000 0000 0000 0000 0000 0000
00000140: 0000 0000 0000 0000 0000 0000 0000 0000
00000150: 0000 0000 0000 0000 0000 0000 0000 0000
00000160: 0000 0000 0000 0000 0000 0000 0000 0000
00000170: 0000 0000 0000 0000 0000 0000 0000 0000
00000180: 0000 0000 0000 0000 0000 0000 0000 0000
00000190: 0000 0000 0000 0000 0000 0000 0000 0000
000001a0: 0000 0000 0000 0000 0000 0000 0000 0000
000001b0: 0000 0000 0000 0000 0000 0000 0000 0000
000001c0: 0000 0000 0000 0000 0000 0000 0000 0000
000001d0: 0000 0000 0000 0000 0000 0000 0000 0000
000001e0: 0000 0000 0000 0000 0000 0000 0000 0000
000001f0: 0000 0000 0000 0000 0000 0000 0000 0000
0.0 0.0 0.0 0.0 0.0 0.0 0.0 0.0
0.0 0.0 0.0 0.0 0.0 0.0 0.0 0.0
0.0 0.0 0.0 0.0 0.0 0.0 0.0 0.0
0.0 0.0 0.0 0.0 0.0 0.0 0.0 0.0
0.0 0.0 0.0 0.0 0.0 0.0 0.0 0.0
0.0 0.0 0.0 0.0 0.0 0.0 0.0 0.0
0.0 0.0 0.0 0.0 0.0 0.0 0.0 0.0
0.0 0.0 0.0 0.0 0.0 0.0 0.0 0.0
0.0 0.0 0.0 0.0 0.0 0.0 0.0 0.0
0.0 0.0 0.0 0.0 0.0 0.0 0.0 0.0
0.0 0.0 0.0 0.0 0.0 0.0 0.0 0.0
0.0 0.0 0.0 0.0 0.0 0.0 0.0 0.0
0.0 0.0 0.0 0.0 0.0 0.0 0.0 0.0
0.0 0.0 0.0 0.0 0.0 0.0 0.0 0.0
0.0 0.0 0.0 0.0 0.0 0.0 0.0 0.0
0.0 0.0 0.0 0.0 0.0 0.0 0.0 0.0

in_scale f4 [128]
00000000: 0000 803f 0000 803f 0000 803f 0000 803f
00000010: 0000 803f 0000 803f 0000 803f 0000 803f
00000020: 0000 803f 0000 803f 0000 803f 0000 803f
00000030: 0000 803f 0000 803f 0000 803f 0000 803f
00000040: 0000 803f 0000 803f 0000 803f 0000 803f
00000050: 0000 803f 0000 803f 0000 803f 0000 803f
00000060: 0000 803f 0000 803f 0000 803f 0000 803f
00000070: 0000 803f 0000 803f 0000 803f 0000 803f
00000080: 0000 803f 0000 803f 0000 803f 0000 803f
00000090: 0000 803f 0000 803f 0000 803f 0000 803f
000000a0: 0000 803f 0000 803f 0000 803f 0000 803f
000000b0: 0000 803f 0000 803f 0000 803f 0000 803f
000000c0: 0000 803f 0000 803f 0000 803f 0000 803f
000000d0: 0000 803f 0000 803f 0000 803f 0000 803f
000000e0: 0000 803f 0000 803f 0000 803f 0000 803f
000000f0: 0000 803f 0000 803f 0000 803f 0000 803f
00000100: 0000 803f 0000 803f 0000 803f 0000 803f
00000110: 0000 803f 0000 803f 0000 803f 0000 803f
00000120: 0000 803f 0000 803f 0000 803f 0000 803f
00000130: 0000 803f 0000 803f 0000 803f 0000 803f
00000140: 0000 803f 0000 803f 0000 803f 0000 803f
00000150: 0000 803f 0000 803f 0000 803f 0000 803f
00000160: 0000 803f 0000 803f 0000 803f 0000 803f
00000170: 0000 803f 0000 803f 0000 803f 0000 803f
00000180: 0000 803f 0000 803f 0000 803f 0000 803f
00000190: 0000 803f 0000 803f 0000 803f 0000 803f
000001a0: 0000 803f 0000 803f 0000 803f 0000 803f
000001b0: 0000 803f 0000 803f 0000 803f 0000 803f
000001c0: 0000 803f 0000 803f 0000 803f 0000 803f
000001d0: 0000 803f 0000 803f 0000 803f 0000 803f
000001e0: 0000 803f 0000 803f 0000 803f 0000 803f
000001f0: 0000 803f 0000 803f 0000 803f 0000 803f
1.0 1.0 1.0 1.0 1.0 1.0 1.0 1.0
1.0 1.0 1.0 1.0 1.0 1.0 1.0 1.0
1.0 1.0 1.0 1.0 1.0 1.0 1.0 1.0
1.0 1.0 1.0 1.0 1.0 1.0 1.0 1.0
1.0 1.0 1.0 1.0 1.0 1.0 1.0 1.0
1.0 1.0 1.0 1.0 1.0 1.0 1.0 1.0
1.0 1.0 1.0 1.0 1.0 1.0 1.0 1.0
1.0 1.0 1.0 1.0 1.0 1.0 1.0 1.0
1.0 1.0 1.0 1.0 1.0 1.0 1.0 1.0
1.0 1.0 1.0 1.0 1.0 1.0 1.0 1.0
1.0 1.0 1.0 1.0 1.0 1.0 1.0 1.0
1.0 1.0 1.0 1.0 1.0 1.0 1.0 1.0
1.0 1.0 1.0 1.0 1.0 1.0 1.0 1.0
1.0 1.0 1.0 1.0 1.0 1.0 1.0 1.0
1.0 1.0 1.0 1.0 1.0 1.0 1.0 1.0
1.0 1.0 1.0 1.0 1.0 1.0 1.0 1.0

weight f4 [128, 128]
00000000: 3adc 8f3c de97 ea3c eef6 4abd da0d 023e
00000010: 0628 253d f241 d1bd 5d6d ba3d be32 71bd
00000020: 68d9 59bc a62f 12bc 9215 b13d bc5d 99bd
00000030: 1a75 fabd 872e 42bd 1f8f fdbd 7a6d 1abd
00000040: 2c80 983c e15a 693d db1d edbd 6094 4b3d
00000050: 3b7c 6d3d 7c8e b2b8 f3f1 dabb 943b 08bd
00000060: d3ad 973a 80cc b83b e5ab cfbc 5d9b abbd
00000070: d75b 093e d784 8c3d 0130 58bc e9b2 353d
00000080: 6d12 953d e734 84bd 5f46 f2bc 76ca 763d
00000090: 5de1 233d fced adbc 2d2d a9bd 7e24 363d
000000a0: d8c5 253e 8216 9b3d 8675 bfbc 718f 45bc
000000b0: fff2 80bd 994c 8a3d d15c f6bd 051d a6bc
000000c0: 53ba e13b 330e 77bd 52f5 823d 1181 ffbc
000000d0: b9ca 07be e020 573d 7305 06bd 9541 a73b
000000e0: de07 90bc 9180 80bd 3b74 97bd b697 4cbd
000000f0: 20bd 21bb a8a7 62bd 7c00 d83c 17fd aabd
00000100: f407 833d f577 5c3b 4b07 54bd a66c 943d
00000110: d869 843c e0c2 abbd fc35 d03a 28fd 91bd
00000120: b8f1 5e3d 4b0d 7abc 0259 5c3d 5d1e a23d
00000130: 7f57 423d 8930 6c3d 4904 eb3c f3ac 9fbc
00000140: 051f 65ba cb81 b03c 2913 d03c 00cd 5a3c
00000150: 9f40 973d f4d1 dbbd b79d ce3d a3d4 0a3d
00000160: 82e6 99bc 6403 03bd 0184 cabc ffb6 203d
00000170: 4c27 793d e2ae 96bd 39c2 2f3d baa0 013d
00000180: 5530 1e3c d1ae a0bd 0607 5cbd dc23 503b
00000190: 08ae 08bd 6fd8 e83c 21e0 823d 0f30 54bc
000001a0: 2ae2 e4bd ed06 ecbc 8433 94bd 65f5 14be
000001b0: dd9d 42ba 8126 7d3c 2ba8 88bc dc1f 84bd
000001c0: ed9d 823c b5a0 ccbd 6615 d23b d8ed ed3b
000001d0: cbce 723d c425 6d3d 7a64 8e3d 77ac 8abc
000001e0: 63d7 13bd 2a22 77bd 73be 423d 7bd2 04bc
000001f0: ad4e 5c3c bd1d 603d 2252 1bbd b08b bd3c
00000200: ed46 2cbd 0edd 103d dfe1 9ebd 91a1 583d
00000210: 4b49 95bd 763a 463d 87b0 8fbd be55 54bc
00000220: c53c 72bd fbd1 51bd 394b 68bd be79 76bc
00000230: 2870 883d c82e 76bd e82a a2bb 50c9 41bd
00000240: 1aae c2bc d8a3 49bd 79c2 57bc 9410 1b3d
00000250: 5321 9f3d 6b00 483d 697d 98bd a4fe a43d
00000260: 5cee 6abd e9ab 9f3d f5f8 e7bc c357 ca3d
00000270: f5e9 cd3c 7859 0cbc 907c ab3d c237 62bd
00000280: d41d c03d be61 a1bd bef1 f23b aebd 14bd
00000290: 13ef a4bd f343 b73d 0d72 8ebd 91d3 cabd
000002a0: 007f 11bd d0c6 553d c150 803d 685b 7d3d
000002b0: 1f9a 2ebd a533 cfbd 3eff 6a3c 0d25 cd3d
000002c0: d969 7c3d 1999 f53d 2daa 933d d191 463d
000002d0: e7a6 b43d 29cf cebc 476b 1bbd 53e3 13bb
000002e0: 0190 8fbd 681c a63c c562 c2bc 2cad 36bc
000002f0: 82a9 40bb 2392 86bd 12a2 3fbd 7f2a b03d
00000300: acbd 4a3d 0b61 dfbb 1f2d 3cbd 6c43 7ebd
00000310: 1780 ac3d 4c91 f83b 12d7 003b abaa 103c
00000320: 87eb 1a3d 1d94 de3b a8ab 36bc 4c58 31be
00000330: 283e bc3d e59b 143d 2bda e53c 3f06 e6bc
00000340: 4d0a e53d 8d82 253c 16c3 fbbd 463b eebc
00000350: 79b7 93bd 8eed ecbb 536f 173d 3545 8ebd
00000360: 34de 8dbb fe32 343b 1333 94bd 66a1 293c
00000370: 6ecf 2a3d 1916 7bbd 8c38 5abc 01f7 d43d
00000380: 26b3 623d 78a5 84bc 6b73 3a3d 6061 873d
00000390: 25b4 68bd 6bfd 17bd 3a23 263d ff2f 51bd
000003a0: 679c d1bc 0fcc fd37 f620 323d c63d 103e
000003b0: 5424 7fbc 5863 623d a366 35bc b901 14bd
000003c0: 2855 3ebd 655c 253d 206c 163d c979 c3bd
000003d0: a485 f5bd 486f e5bc 5e1a 5d3d 222b 91bd
000003e0: f049 653c 312e 7a3d d64a b239 f89e d1bd
000003f0: 5f5c ac3d afe9 9cbd 2ddd edbc 3f42 73bb
0.017561067 0.028636869 -0.049551897 0.12700596 0.040321372 -0.10217656 0.09102891 -0.058886282
-0.013296463 -0.008922493 0.08646692 -0.074885815 -0.122293666 -0.047407653 -0.12380814 -0.03770206
0.018615805 0.056971435 -0.1157796 0.04970205 0.057979804 -8.514241e-05 -0.0066816746 -0.033259943
0.0011572189 0.0056396127 -0.02535052 -0.083792426 0.1341394 0.06861275 -0.013195039 0.044360075
0.07278905 -0.06455403 -0.029574571 0.060251676 0.040009845 -0.021231644 -0.0826057 0.044468395
0.16188753 0.075726524 -0.02337147 -0.012058125 -0.06296348 0.06752891 -0.12029422 -0.02027751
0.0068886667 -0.060316276 0.063944474 -0.031189473 -0.13260926 0.052521586 -0.03272004 0.0051042535
-0.017581876 -0.06274522 -0.07395216 -0.04994937 -0.0024679378 -0.05533567 0.026367418 -0.08349054
0.06398001 0.0033640836 -0.051764768 0.072472855 0.016163751 -0.08386779 0.0015885229 -0.07128364
0.05442974 -0.015261958 0.053795822 0.079159476 0.047446724 0.057663474 0.028688567 -0.019491648
-0.0008740279 0.021546265 0.025399761 0.01335454 0.07385372 -0.10733405 0.100886755 0.033894192
-0.018786673 -0.031985655 -0.024721147 0.03923702 0.060828492 -0.07357575 0.042909835 0.03164742
0.009655078 -0.078458436 -0.053717636 0.0031759655 -0.033369094 0.028423516 0.063904054 -0.012950911
-0.1117595 -0.028811896 -0.07236388 -0.14546736 -0.0007424036 0.015451075 -0.016681751 -0.06451389
0.015944446 -0.0999159 0.0064112423 0.007261019 0.059279244 0.057897344 0.06952758 -0.01692794
-0.03609408 -0.060335316 0.047544908 -0.008106823 0.013446492 0.05471586 -0.037920125 0.023137897
-0.042059828 0.035367064 -0.07757925 0.052888457 -0.0728937 0.048395596 -0.07016092 -0.012959896
-0.059139986 -0.051225644 -0.056712363 -0.015043674 0.06662017 -0.060103208 -0.0049489625 -0.047311127
-0.023764659 -0.04922852 -0.0131689245 0.037857607 0.07770028 0.048828524 -0.07445795 0.08056381
-0.057356223 0.07796461 -0.028316954 0.098800205 0.025135973 -0.008566253 0.08373368 -0.055228956
0.09380689 -0.07879971 0.007414072 -0.036313705 -0.08053412 0.08948507 -0.06955347 -0.09903634
-0.035521507 0.052191556 0.062654026 0.06185475 -0.04262745 -0.10117272 0.014343081 0.100168325
0.06162438 0.11992092 0.07210193 0.048478905 0.088208966 -0.025245266 -0.037944105 -0.0022565916
-0.070098884 0.020277217 -0.023728738 -0.011149686 -0.002939791 -0.06570842 -0.04678542 0.086018555
0.04949729 -0.0068169883 -0.04594147 -0.062076017 0.08422869 0.00758568 0.0019659442 0.008829753
0.037822273 0.006792559 -0.0111493245 -0.17318839 0.09191543 0.036281485 0.028058132 -0.02807915
0.11183605 0.0101019265 -0.12293069 -0.029080998 -0.07212729 -0.007230467 0.0369714 -0.06946794
-0.004329467 0.0027496214 -0.07236304 0.010353422 0.041701727 -0.06130037 -0.013319146 0.10398675
0.05534663 -0.016192183 0.045520227 0.0661037 -0.056812424 -0.037106913 0.04056094 -0.051071163
-0.025587274 3.0254972e-05 0.043488465 0.14086065 -0.015572626 0.055270523 -0.011071834 -0.036134455
-0.04646793 0.040371317 0.03672421 -0.09544713 -0.119883806 -0.028007165 0.053980224 -0.07088305
0.013994679 0.061079208 0.00034006563 -0.10235399 0.08416056 -0.07661759 -0.029036129 -0.0037118343

bias f4 [128]
00000000: 57a0 2e3e 6885 7abd 3d9b f03d d138 1a3d
00000010: a549 d63d dfd2 a33d 8572 353e d0ca b33d
00000020: dbc9 f8bc 92af 543e 00a9 693e 223d 3f3d
00000030: 3f98 273e f4f6 40be 0021 ebbd 7af9 30be
00000040: a598 013d d174 1ebd 5e8b 15be 7ac5 a23d
00000050: fedf 9c3d d92c d3bd f538 003e 7b64 65bd
00000060: 7083 fe3d 8a77 fbbd 0d15 143e fa4e 0f3e
00000070: cae8 b0bd 47d1 e63d b7d5 06be bed2 fdbd
00000080: 9b2b 9abd 4e23 693d 4505 45be 5af9 3dbd
00000090: 8bef 87bd 2f85 00be 2098 adbd 1885 f83d
000000a0: a571 6d3d c2e2 61bd d190 373e ff20 773c
000000b0: c5f0 15be e07c 103e 40a9 ad3d 92a6 d2bd
000000c0: 5f2a 9e3d 1fb3 df3d 719f 37be ffc1 923d
000000d0: 5377 32be f751 05be 6aa2 703d 71e1 29bc
000000e0: 0751 98bd 1fd4 273e 1523 48bd b2e4 b3bc
000000f0: 875b a9bd 6daa f7bd 7e15 453e e721 b3bd
00000100: dbad 293e 7c11 37be 0ab2 403e ceb0 9fbd
00000110: f177 2ebe eb21 5e3e efbb edbd 63b2 23be
00000120: b253 073e c7cf 37be f9c1 22bd ebd0 04be
00000130: fc7e 7abd 6d6d 12be b6d9 7fbd be93 583e
00000140: 40ef 393e d9a6 233e 1811 e63d bc0f 533d
00000150: 92ad bfbd b734 b03d 9590 8ebd e4fa 20be
00000160: a57f 95bd 53b9 373e 4f3a c9bd 9a68 2abe
00000170: aa8f 21be 10fd c0bd e28d 143e bb81 2e3e
00000180: 53b0 02be 621c 703d 064f 303d 4886 3ebe
00000190: c53b a03d c6ec c5bd 6b5a 2b3e f652 413e
000001a0: b3b3 e13d 0137 803d 41bf 453e cfd4 b1bd
000001b0: d1bd 3d3e eb92 bfbd 8036 6a3d b85c 103e
000001c0: efeb 0e3e 0764 21be a273 cd3c 4193 82bd
000001d0: 27f0 293e 58a3 29be d8a5 89bd 67a7 d13d
000001e0: eae1 293e dbc1 493e 1621 013e e915 ef3c
000001f0: 714d 26be 6687 38bd 0910 6f3d 98c5 1abe
0.17053352 -0.061162382 0.11748359 0.03765184 0.10463265 0.07999205 0.17719467 0.08778918
-0.03036969 0.207701 0.22818375 0.04668916 0.16366671 -0.18844205 -0.114809036 -0.17282668
0.031639714 -0.038685624 -0.14603946 0.07947822 0.076599106 -0.103112884 0.12521727 -0.05600403
0.124274135 -0.1227866 0.14461155 0.13994971 -0.08638151 0.11270385 -0.13167463 -0.123937115
-0.07527848 0.056918435 -0.19240291 -0.04638038 -0.06637486 -0.12550806 -0.08476281 0.121347606
0.057969708 -0.055147894 0.17926337 0.0150835505 -0.14642628 0.14110136 0.084795475 -0.10285677
0.077229254 0.109228365 -0.17931916 0.07165908 -0.17428331 -0.13019548 0.05874864 -0.010368691
-0.0743733 0.16389512 -0.04886158 -0.021959636 -0.082694106 -0.12093053 0.1924648 -0.08746701
0.16570227 -0.17877764 0.18817917 -0.07797395 -0.17037942 0.21692626 -0.11608111 -0.15986018
0.13215521 -0.17950355 -0.039735768 -0.12970321 -0.061156258 -0.14299555 -0.062463485 0.21150109
0.18157673 0.15981616 0.11233729 0.051528677 -0.09359278 0.086038046 -0.069611706 -0.15720707
-0.07299737 0.1794179 -0.098255746 -0.16641465 -0.1577746 -0.09423268 0.14507249 0.17041676
-0.12762575 0.058620818 0.043044113 -0.18605912 0.078239 -0.096643016 0.1673371 0.18879303
0.11020603 0.06260491 0.19311239 -0.08683168 0.1852944 -0.09354194 0.05718088 0.1409787
0.13957189 -0.15760814 0.025079552 -0.06375743 0.16595517 -0.16566217 -0.06721085 0.102370076
0.16590086 0.19702856 0.12610278 0.029185252 -0.16240479 -0.045051 0.0583649 -0.15114439

weight f4 [128, 128]
00000000: 0469 a23d b5a5 b7bd 8750 1fbd 63da c1bc
00000010: 44a6 833d 4751 8b3d 99a2 d43d bdc7 183d
00000020: eb05 7eba ce48 923d 899f c03d 6e81 db3d
00000030: d657 30bb cfeb 0abe 2391 ebbd a694 c2bd
00000040: 9f41 a73d 4deb 16bd 49f5 00be dc2f 8b3d
00000050: 3daa 29bc 8769 673b 6067 c5bc aa80 a53c
00000060: 1bfa f53c d6e1 01be 23bb c43d 6d97 ecbc
00000070: 7bcd d7bd 5190 893d 8c49 5e3c 8822 7dbd
00000080: 73ca 00be 3e0a d53d c576 04bd 233d f13c
00000090: 5153 23bd 62a7 0bbd 9e84 7abc 04d4 123c
000000a0: 98cb cf3c e4d0 a0bd a3a5 8b3d 1f55 ba3d
000000b0: 8cf5 3a3c 4828 c63d 0a7c e43d c0ef b9bc
000000c0: 34a3 e33d 494c 7e3c 4482 61bd 6c6b 273d
000000d0: 4483 a3bd 1429 bdbd b776 e33b cb74 24bd
000000e0: 17c4 91bd fbe8 0b3d 20b7 2dbd 85be 5abd
000000f0: 9c59 e13c 7ac5 b2bb c4c8 dc3c cfa2 c9bd
00000100: 6870 623b 8a8d eebd c079 6d3d b440 6abc
00000110: a913 90bd bc4a b53d a208 a1bd 615c f7bd
00000120: dd59 003e f4e8 c93c bc3d c1bd 0c4b 01be
00000130: d2f6 e4bc 057e 333d 7889 adbc 58a4 323e
00000140: 9801 e03d 72d8 293d 9e1b 41bd b4a7 e03c
00000150: 1bf2 77bd a290 bf3d 8268 e3bd 8054 c8bc
00000160: 8335 65bc b58c 413c 9b90 e1bd 72a7 85bc
00000170: c74a 86bd 8066 6a3d 9c43 433d 4cd4 553d
00000180: daff 40bc 58c5 6cbc f2ac 9b3d 0f05 18be
00000190: 887e 793c eab8 1b3d aaa6 f83d dbe5 883c
000001a0: 8f58 493c 1add 3f3d a161 023d 15b0 8d3c
000001b0: 7c16 e83c 5d4a 5d3d df53 f8bc aa1d db3d
000001c0: 557b 023e 3c1a 09bd 4be5 aebb b769 a5bd
000001d0: 7e3e 563d 5693 d0bd 4524 e8bb 7c8c c0bc
000001e0: cff2 b5bc b8b9 ca3d 5641 013e a0ce bf3d
000001f0: 16a9 e8bd f3a2 f1bc 7a22 e63d 7d91 893d
00000200: 9246 163e c794 abbd 9c2b 483d f629 10bd
00000210: 6efd a03c a3d5 17bb 10d3 0e3e abe4 2dbd
00000220: acb3 79bc caba da3d c4be ec3d 6252 f33d
00000230: 5c75 1d3d 7287 27be 673f ba3c 26a6 b8bd
00000240: e9fe 2b3d 8df0 e1bd 20a4 24be 9104 cf3d
00000250: e6b6 903c f277 66bd a136 b33d f59a 0abe
00000260: d032 cf3d c655 f5bd ef22 563d e072 013e
00000270: a6e9 173b b129 113d db50 58bd 9995 94bd
00000280: bb95 d7bd b014 05bc 60c1 45be c92d bdbd
00000290: 5b58 0fbd edef a93a 5de6 cabd db05 953d
000002a0: 6f0c 78bc 2f4e 553d dc68 213e 2795 79bc
000002b0: a3e1 edbd 3500 8f3d f599 dc3d acd8 96bd
000002c0: ebb8 89bb 60b7 b83d 2d51 203c fed8 733c
000002d0: 0749 18bd 3e4e 183c c1b0 963d d415 7fbd
000002e0: 9fe2 c8bd 6984 f13d 5935 523c e3f6 98bd
000002f0: ab5b 05be a75a e0bc a813 993d e98b 8abd
00000300: aca1 103e 93bf c5bd 63ab a23d 12aa 93bd
00000310: 4f0f b1bd 241b d33d 5152 6bbd 8a24 a3bc
00000320: bd1f 923d 31de c5bd 675d f1b8 6d3d f9bd
00000330: 5649 36bc 4408 083b eefa eebd 5160 7c3d
00000340: a0a7 213e 6f05 303e 8c7f b0bb 9365 db3d
00000350: be32 61bd 074c 57bb e0a6 f5bc f9dc 15bd
00000360: 9544 9ebc 6b72 3e3d 0e19 56bc af52 4c3c
00000370: 0f2b babd 08ab 383d d8bb b03d c1d3 0abc
00000380: b94f 97bc a575 d73c 85c4 a63c 8634 33be
00000390: 0cc5 a8bb b81b 8abd d115 cf3d 1e70 063d
000003a0: 674a d83d 0385 d53b 226a 0d3e 772a f0bb
000003b0: fd3a 403d ee8c 02be 5f2f 803c c24d bb3d
000003c0: 9b7d 773d 62ad 36bd 0f58 c93d 6967 bc3b
000003d0: cdf3 093d 49af 12be 6bf7 80bd 7704 8f3c
000003e0: 8858 8a3d f609 d93d 4f33 d63d 5f3c e03d
000003f0: 2dde 9ebc bcbf 0ebe d0db 943d b0b5 a1ba
0.079301864 -0.08967153 -0.038895156 -0.023663705 0.06428197 0.06802612 0.103825755 0.03729986
-0.0009690213 0.07142793 0.09405429 0.10718046 -0.0026907823 -0.13566516 -0.11502292 -0.09501009
0.08166813 -0.036845494 -0.12593569 0.06796238 -0.010355529 0.0035310702 -0.024097145 0.020202953
0.030026486 -0.12683806 0.09606006 -0.0288808 -0.10537239 0.06716979 0.01356734 -0.06180051
-0.12577228 0.10402344 -0.03233983 0.029448098 -0.03987438 -0.034095176 -0.015290407 0.008961681
0.025365636 -0.07852343 0.06818702 0.09098267 0.011411082 0.09675652 0.11156471 -0.02269733
0.11115113 0.0155211175 -0.05505587 0.04087393 -0.07984021 -0.09236351 0.006941642 -0.040150445
-0.07117479 0.034157734 -0.04241097 -0.05340435 0.02750855 -0.00545567 0.026951201 -0.098455064
0.0034551863 -0.1164809 0.057977438 -0.014297653 -0.07035 0.08852145 -0.07862975 -0.12078167
0.1253428 0.024647214 -0.09435603 -0.12626284 -0.027949724 0.043821353 -0.021183714 0.17445505
0.10937804 0.041466184 -0.04714548 0.027423717 -0.060533624 0.093537584 -0.11103918 -0.024454355
-0.013989809 0.011813332 -0.110139094 -0.016315196 -0.065572314 0.057226658 0.0476719 0.052204415
-0.01177975 -0.014451347 0.07601346 -0.1484568 0.015227921 0.038018145 0.12141164 0.016711166
0.01228918 0.04684172 0.031831387 0.017295877 0.028331034 0.054025996 -0.03031343 0.10699017
0.1274236 -0.033472285 -0.0053373924 -0.08076804 0.05230569 -0.10184352 -0.007084402 -0.023504488
-0.022210507 0.09898704 0.1262258 0.093655825 -0.113603756 -0.029496646 0.11237045 0.06717203
0.14675358 -0.083779864 0.048869714 -0.035196267 0.019652095 -0.002316811 0.13947701 -0.042454403
-0.015240591 0.106801584 0.11559823 0.11880948 0.038442 -0.16360262 0.02273531 -0.09016065
0.04199115 -0.110322095 -0.16078234 0.10108293 0.017665338 -0.056266733 0.08750654 -0.13535674
0.101171136 -0.119792506 0.05227941 0.12641478 0.0023180037 0.03544015 -0.052811485 -0.07255096
-0.10526606 -0.008122608 -0.19312048 -0.092372485 -0.03499637 0.001296518 -0.099072196 0.072765075
-0.015139683 0.052076515 0.15762657 -0.015233315 -0.116153024 0.06982461 0.107715525 -0.07365546
-0.004202952 0.09019351 0.009784979 0.014883278 -0.03717902 0.009295998 0.07357932 -0.062276676
-0.098088495 0.11792833 0.012830102 -0.07468965 -0.1302325 -0.027386976 0.07474452 -0.06764967
0.14124173 -0.096556805 0.07942846 -0.07210173 -0.08645498 0.10307911 -0.05745155 -0.019914884
0.0713496 -0.0966152 -0.00011509173 -0.12169919 -0.011125883 0.002075688 -0.11668955 0.061615292
0.157866 0.17189573 -0.0053862985 0.10712733 -0.054980032 -0.0032851712 -0.029986799 -0.03658769
-0.019319812 0.046495836 -0.013067497 0.012470885 -0.09090244 0.045084983 0.08629578 -0.008473338
-0.018470632 0.026301214 0.02035738 -0.17500505 -0.005150443 -0.06743568 0.10111583 0.032821767
0.10561066 0.0065161004 0.13810018 -0.007329281 0.046931256 -0.12749073 0.015647588 0.091456905
0.06042252 -0.044598944 0.09831249 0.005749632 0.033679772 -0.14324678 -0.06297191 0.017458184
0.06755167 0.10597603 0.10459005 0.10949015 -0.019393051 -0.13940328 0.072684884 -0.0012337472

bias f4 [128]
00000000: 1447 5c3d 9ca6 153e 917e 73bd 36ca d73d
00000010: 04e9 a03d 4fac 333d 5c94 1e3d a658 9e3a
00000020: 8fd7 ee3d caf2 e43d 9e0b 0f3d 3775 f43d
00000030: 43cf 13bd 51db 353d b577 8ebc cbc1 db3d
00000040: e248 f13d f60e e83d 366f 043e 923e 343d
00000050: fdd3 9dbd 3c50 06be 3b6d e23d a50c 593c
00000060: f3b3 283e 8751 d2bb e55a 02be 168c 8dbd
00000070: bf90 a63b 779f 9abc 94c5 ff3c 5d0c ac3d
00000080: e519 ecbd f178 fd3d 26a3 27bd ef20 88bd
00000090: daa7 d73d f173 e73d 1825 ae3c cbc6 143e
000000a0: a338 013e fa6c 04be f409 81bc a1b9 f53d
000000b0: 3cd9 a9bd 9fe5 9a3d 546e e23d 99fd f23d
000000c0: bb78 dd3d 58a0 1dbe c964 503c 3193 0ebe
000000d0: 0ea4 f33d 0cdd 7abd 18dc 963d 7236 073e
000000e0: e6d1 c63c e1b2 053e f338 9d3d d25d 0f3e
000000f0: fee9 6a3c adbd 1b3e 62bf 0abc 16e4 4c3b
00000100: 7388 15be c474 173d fd91 cabb ebb4 e43c
00000110: b11f e63d bc34 323d 69a7 acbd 6d51 bdbd
00000120: 12a1 65bd 7427 9bbd 32d3 5ebd 5d17 393e
00000130: 80b9 11bd d39c ccbd 0396 683c 8369 2abb
00000140: 0d72 ca3d e698 fe3c 9994 9abd 97c5 11be
00000150: 331a e1bd 9e8d 0ebc 4f9d c33c 10d1 c23c
00000160: ac87 0c3e 5468 023e 172c b5b9 ba4a babd
00000170: 8485 123e fab6 69bc 6acf 4f3b 78dd 11be
00000180: 6724 34be 3e40 b0bd 80cf 02be f292 09be
00000190: 587e acbd c306 06be b682 8bbd 7139 ebbd
000001a0: 7c80 0d3e 7c9f 5c3d fb33 d83d c6b4 9d3d
000001b0: 6d13 17be 4127 84bd 1023 503d 6504 b53c
000001c0: e4b9 653c 8f2e 67bc 459e 0dbe 8113 97bc
000001d0: 344e 083e 495c e23d 2150 0abe 339b a3bd
000001e0: ea37 683b 9aa1 2b3c e09c e43d 63ec 19be
000001f0: a36e aebd 1088 293e 14ca e8bd c05f 103e
0.053778723 0.14614338 -0.059446875 0.105366156 0.07856944 0.0438655 0.038715705 0.0012080863
0.11662208 0.11179121 0.03492319 0.119364195 -0.036086332 0.04439861 -0.017391065 0.107303225
0.117814794 0.113309786 0.12933049 0.044004984 -0.07706449 -0.13116544 0.1105599 0.013247644
0.16474895 -0.00641841 -0.12729986 -0.06911485 0.005083173 -0.018874867 0.031222142 0.084007956
-0.115283765 0.12376583 -0.040927075 -0.066469066 0.10530062 0.11301411 0.021257922 0.14528958
0.12619261 -0.12932196 -0.015751816 0.119982965 -0.08293387 0.07563328 0.110562 0.11864776
0.10814043 -0.15393198 0.012719342 -0.13923337 0.11896525 -0.061245963 0.07366198 0.13204363
0.02427001 0.13056518 0.07676878 0.14000633 0.014338015 0.15209074 -0.008468481 0.003126388
-0.14602832 0.03697659 -0.006181954 0.0279183 0.112365134 0.043507323 -0.084303685 -0.09244046
-0.05606181 -0.075758845 -0.05440063 0.18075319 -0.035577297 -0.09990849 0.014195922 -0.0026002831
0.09885035 0.031078767 -0.07547874 -0.14235531 -0.10991325 -0.008700756 0.023878722 0.02378133
0.1372363 0.1273511 -0.0003455586 -0.09096284 0.14308745 -0.014264816 0.0031709322 -0.1424464
-0.17592011 -0.08606003 -0.12774467 -0.13434961 -0.08422536 -0.13088517 -0.068120405 -0.114855655
0.13818544 0.053863034 0.105567895 0.077004954 -0.14753504 -0.064527996 0.05081469 0.022096822
0.014021371 -0.0141102215 -0.13829906 -0.018441917 0.13311082 0.11052758 -0.13507129 -0.07988586
0.0035433718 0.0104755405 0.11162734 -0.1503158 -0.08517196 0.1655581 -0.11366668 0.14099026

weight f4 [1, 128]
00000000: 1324 b1bd 4ac7 fbbd d156 0d3e 4f71 08be
00000010: 5364 02be e3c5 06be f8c0 1abe 0888 843d
00000020: a4ac a8bd 0300 17be bba0 eabd 73fc 10be
00000030: 27b5 fc3d 7fd8 0bbe 65a7 e53d c5d1 12be
00000040: d226 0cbe 78f5 e5bd fb88 03be d28c 9ebd
00000050: 4d40 2d3e d4a3 0a3e 4444 f1bd 98d7 163e
00000060: 7890 e9bd 4f25 f23d 7d37 ea3d 6826 f73d
00000070: 4f3c eebd c0ca c53d 6ef9 e8bd 0fe2 f0bd
00000080: 4d0d e13d 0fd4 efbd 4c77 083e 2563 e43d
00000090: 374e 04be d63c f0bd 11bf 19be 14e0 edbd
000000a0: 50cd 8abd ac74 0d3e 3480 e2bd 18da c6bd
000000b0: 4935 fb3d f7b4 e7bd 1688 00be bee0 27be
000000c0: d033 ebbd 2381 ce3d 6a68 003e 2eac ec3d
000000d0: b34a 12be cc6a f73d c325 1bbe eb3e 09be
000000e0: c662 c8bd 466b abbd d814 dcbd 28d2 febd
000000f0: 4707 05be 858a babd 3b4e 05be 3447 cdbd
00000100: b704 213e ba5a b3bd 57b9 f73d f992 01be
00000110: a582 e6bd f2f7 a8bd 6035 813d 5f42 a33d
00000120: 377a ea3d c185 063e fb5b fb3d e919 00be
00000130: 358f 1f3e 9738 133e a84c e5bd be23 193e
00000140: 7843 adbd 2c93 d4bd dd16 003e a014 ba3d
00000150: cb61 0e3e 9926 b23d 12e2 e7bd fb3b d8bd
00000160: d57a ccbd 77e6 9cbd c0e9 24be 1ed8 0e3e
00000170: 9719 22be 9f18 033e 1591 f13d 05d2 f93d
00000180: 6317 f33d e483 ed3d 5ccf 143e 4250 073e
00000190: 934e d33d 47b7 133e b3ef 233e 613f f23d
000001a0: 3995 8cbd 389c 15be 0b3d 0cbe 2c35 dfbd
000001b0: 24d1 1a3e d9fc ce3d 0d5b 32be c7a2 0abe
000001c0: d9c9 23be e3dd d83d 22c8 8e3d c67d eebd
000001d0: 0e0a 00be 8016 14be 73dd e13d 35e5 163e
000001e0: 6e14 bdbd b863 99bd 15b6 0bbe 7b12 813d
000001f0: 1d32 9c3d 7e71 21be 86f6 ab3d b657 f1bd
-0.08649459 -0.12293871 0.13802649 -0.13324474 -0.12733583 -0.13161425 -0.15112674 0.064712584
-0.082360536 -0.14746098 -0.11456438 -0.14158802 0.123392396 -0.13656805 0.112135686 -0.14337833
-0.13686684 -0.1122846 -0.12845223 -0.07741703 0.1691906 0.13539058 -0.11780599 0.1473068
-0.11404508 0.11823522 0.11436365 0.12067872 -0.11632597 0.09657812 -0.113757 -0.11761867
0.10988865 -0.11710369 0.13326758 0.11151723 -0.12920462 -0.117303535 -0.15014292 -0.11615005
-0.067774415 0.13814038 -0.11059609 -0.09709567 0.12266023 -0.11313813 -0.12551913 -0.16394326
-0.11484492 0.100832246 0.12539831 0.11556278 -0.14286308 0.12080917 -0.15151124 -0.13402908
-0.097844645 -0.0837007 -0.10746163 -0.12442428 -0.12991057 -0.09108452 -0.13018124 -0.100233465
0.15724455 -0.08757539 0.12095898 -0.12653722 -0.11255387 -0.08250417 0.063090086 0.07971644
0.11449092 0.1313696 0.12273403 -0.12509884 0.15581973 0.14377056 -0.11196262 0.14955041
-0.08460134 -0.10379633 0.12508722 0.09085965 0.13904493 0.08698768 -0.11322416 -0.10558315
-0.09984366 -0.07661145 -0.16104794 0.1394963 -0.15830074 0.12802361 0.1179525 0.12198261
0.11869695 0.11597422 0.14532226 0.1321421 0.10317721 0.14425384 0.16009407 0.11828495
-0.068643995 -0.14610374 -0.13695161 -0.108988136 0.15118843 0.101068206 -0.17417546 -0.13538657
-0.15994968 0.105891965 0.06971766 -0.11645083 -0.12503836 -0.14461708 0.11028566 0.14735873
-0.09232412 -0.07489723 -0.13643678 0.06302353 0.07626746 -0.1576595 0.0839663 -0.11784308
