dapg/examples/dapg_jit_model/no_door-v0/model_feature.pt (torch, 179982 bytes, 10 tensors)

in_shift f4 [72]
000000 00 00 00 00 00 00 00 00 00 00 00 00 00 00 00 00
       0.0 0.0 0.0 0.0
000010 00 00 00 00 00 00 00 00 00 00 00 00 00 00 00 00
       0.0 0.0 0.0 0.0
000020 00 00 00 00 00 00 00 00 00 00 00 00 00 00 00 00
       0.0 0.0 0.0 0.0
000030 00 00 00 00 00 00 00 00 00 00 00 00 00 00 00 00
       0.0 0.0 0.0 0.0
000040 00 00 00 00 00 00 00 00 00 00 00 00 00 00 00 00
       0.0 0.0 0.0 0.0
000050 00 00 00 00 00 00 00 00 00 00 00 00 00 00 00 00
       0.0 0.0 0.0 0.0
000060 00 00 00 00 00 00 00 00 00 00 00 00 00 00 00 00
       0.0 0.0 0.0 0.0
000070 00 00 00 00 00 00 00 00 00 00 00 00 00 00 00 00
       0.0 0.0 0.0 0.0
000080 00 00 00 00 00 00 00 00 00 00 00 00 00 00 00 00
       0.0 0.0 0.0 0.0
000090 00 00 00 00 00 00 00 00 00 00 00 00 00 00 00 00
       0.0 0.0 0.0 0.0
0000a0 00 00 00 00 00 00 00 00 00 00 00 00 00 00 00 00
       0.0 0.0 0.0 0.0
0000b0 00 00 00 00 00 00 00 00 00 00 00 00 00 00 00 00
       0.0 0.0 0.0 0.0
0000c0 00 00 00 00 00 00 00 00 00 00 00 00 00 00 00 00
       0.0 0.0 0.0 0.0
0000d0 00 00 00 00 00 00 00 00 00 00 00 00 00 00 00 00
       0.0 0.0 0.0 0.0
0000e0 00 00 00 00 00 00 00 00 00 00 00 00 00 00 00 00
       0.0 0.0 0.0 0.0
0000f0 00 00 00 00 00 00 00 00 00 00 00 00 00 00 00 00
       0.0 0.0 0.0 0.0
000100 00 00 00 00 00 00 00 00 00 00 00 00 00 00 00 00
       0.0 0.0 0.0 0.0
000110 00 00 00 00 00 00 00 00 00 00 00 00 00 00 00 00
       0.0 0.0 0.0 0.0

in_scale f4 [72]
000000 00 00 80 3f 00 00 80 3f 00 00 80 3f 00 00 80 3f
       1.0 1.0 1.0 1.0
000010 00 00 80 3f 00 00 80 3f 00 00 80 3f 00 00 80 3f
       1.0 1.0 1.0 1.0
000020 00 00 80 3f 00 00 80 3f 00 00 80 3f 00 00 80 3f
       1.0 1.0 1.0 1.0
000030 00 00 80 3f 00 00 80 3f 00 00 80 3f 00 00 80 3f
       1.0 1.0 1.0 1.0
000040 00 00 80 3f 00 00 80 3f 00 00 80 3f 00 00 80 3f
       1.0 1.0 1.0 1.0
000050 00 00 80 3f 00 00 80 3f 00 00 80 3f 00 00 80 3f
       1.0 1.0 1.0 1.0
000060 00 00 80 3f 00 00 80 3f 00 00 80 3f 00 00 80 3f
       1.0 1.0 1.0 1.0
000070 00 00 80 3f 00 00 80 3f 00 00 80 3f 00 00 80 3f
       1.0 1.0 1.0 1.0
000080 00 00 80 3f 00 00 80 3f 00 00 80 3f 00 00 80 3f
       1.0 1.0 1.0 1.0
000090 00 00 80 3f 00 00 80 3f 00 00 80 3f 00 00 80 3f
       1.0 1.0 1.0 1.0
0000a0 00 00 80 3f 00 00 80 3f 00 00 80 3f 00 00 80 3f
       1.0 1.0 1.0 1.0
0000b0 00 00 80 3f 00 00 80 3f 00 00 80 3f 00 00 80 3f
       1.0 1.0 1.0 1.0
0000c0 00 00 80 3f 00 00 80 3f 00 00 80 3f 00 00 80 3f
       1.0 1.0 1.0 1.0
0000d0 00 00 80 3f 00 00 80 3f 00 00 80 3f 00 00 80 3f
       1.0 1.0 1.0 1.0
0000e0 00 00 80 3f 00 00 80 3f 00 00 80 3f 00 00 80 3f
       1.0 1.0 1.0 1.0
0000f0 00 00 80 3f 00 00 80 3f 00 00 80 3f 00 00 80 3f
       1.0 1.0 1.0 1.0
000100 00 00 80 3f 00 00 80 3f 00 00 80 3f 00 00 80 3f
       1.0 1.0 1.0 1.0
000110 00 00 80 3f 00 00 80 3f 00 00 80 3f 00 00 80 3f
       1.0 1.0 1.0 1.0

out_shift f4 [128]
000000 00 00 00 00 00 00 00 00 00 00 00 00 00 00 00 00
       0.0 0.0 0.0 0.0
000010 00 00 00 00 00 00 00 00 00 00 00 00 00 00 00 00
       0.0 0.0 0.0 0.0
000020 00 00 00 00 00 00 00 00 00 00 00 00 00 00 00 00
       0.0 0.0 0.0 0.0
000030 00 00 00 00 00 00 00 00 00 00 00 00 00 00 00 00
       0.0 0.0 0.0 0.0
000040 00 00 00 00 00 00 00 00 00 00 00 00 00 00 00 00
       0.0 0.0 0.0 0.0
000050 00 00 00 00 00 00 00 00 00 00 00 00 00 00 00 00
       0.0 0.0 0.0 0.0
000060 00 00 00 00 00 00 00 00 00 00 00 00 00 00 00 00
       0.0 0.0 0.0 0.0
000070 00 00 00 00 00 00 00 00 00 00 00 00 00 00 00 00
       0.0 0.0 0.0 0.0
000080 00 00 00 00 00 00 00 00 00 00 00 00 00 00 00 00
       0.0 0.0 0.0 0.0
000090 00 00 00 00 00 00 00 00 00 00 00 00 00 00 00 00
       0.0 0.0 0.0 0.0
0000a0 00 00 00 00 00 00 00 00 00 00 00 00 00 00 00 00
       0.0 0.0 0.0 0.0
0000b0 00 00 00 00 00 00 00 00 00 00 00 00 00 00 00 00
       0.0 0.0 0.0 0.0
0000c0 00 00 00 00 00 00 00 00 00 00 00 00 00 00 00 00
       0.0 0.0 0.0 0.0
0000d0 00 00 00 00 00 00 00 00 00 00 00 00 00 00 00 00
       0.0 0.0 0.0 0.0
0000e0 00 00 00 00 00 00 00 00 00 00 00 00 00 00 00 00
       0.0 0.0 0.0 0.0
0000f0 00 00 00 00 00 00 00 00 00 00 00 00 00 00 00 00
       0.0 0.0 0.0 0.0
000100 00 00 00 00 00 00 00 00 00 00 00 00 00 00 00 00
       0.0 0.0 0.0 0.0
000110 00 00 00 00 00 00 00 00 00 00 00 00 00 00 00 00
       0.0 0.0 0.0 0.0
000120 00 00 00 00 00 00 00 00 00 00 00 00 00 00 00 00
       0.0 0.0 0.0 0.0
000130 00 00 00 00 00 00 00 00 00 00 00 00 00 00 00 00
       0.0 0.0 0.0 0.0
000140 00 00 00 00 00 00 00 00 00 00 00 00 00 00 00 00
       0.0 0.0 0.0 0.0
000150 00 00 00 00 00 00 00 00 00 00 00 00 00 00 00 00
       0.0 0.0 0.0 0.0
000160 00 00 00 00 00 00 00 00 00 00 00 00 00 00 00 00
       0.0 0.0 0.0 0.0
000170 00 00 00 00 00 00 00 00 00 00 00 00 00 00 00 00
       0.0 0.0 0.0 0.0
000180 00 00 00 00 00 00 00 00 00 00 00 00 00 00 00 00
       0.0 0.0 0.0 0.0
000190 00 00 00 00 00 00 00 00 00 00 00 00 00 00 00 00
       0.0 0.0 0.0 0.0
0001a0 00 00 00 00 00 00 00 00 00 00 00 00 00 00 00 00
       0.0 0.0 0.0 0.0
0001b0 00 00 00 00 00 00 00 00 00 00 00 00 00 00 00 00
       0.0 0.0 0.0 0.0
0001c0 00 00 00 00 00 00 00 00 00 00 00 00 00 00 00 00
       0.0 0.0 0.0 0.0
0001d0 00 00 00 00 00 00 00 00 00 00 00 00 00 00 00 00
       0.0 0.0 0.0 0.0
0001e0 00 00 00 00 00 00 00 00 00 00 00 00 00 00 00 00
       0.0 0.0 0.0 0.0
0001f0 00 00 00 00 00 00 00 00 00 00 00 00 00 00 00 00
       0.0 0.0 0.0 0.0

out_scale f4 [128]
000000 00 00 80 3f 00 00 80 3f 00 00 80 3f 00 00 80 3f
       1.0 1.0 1.0 1.0
000010 00 00 80 3f 00 00 80 3f 00 00 80 3f 00 00 80 3f
       1.0 1.0 1.0 1.0
000020 00 00 80 3f 00 00 80 3f 00 00 80 3f 00 00 80 3f
       1.0 1.0 1.0 1.0
000030 00 00 80 3f 00 00 80 3f 00 00 80 3f 00 00 80 3f
       1.0 1.0 1.0 1.0
000040 00 00 80 3f 00 00 80 3f 00 00 80 3f 00 00 80 3f
       1.0 1.0 1.0 1.0
000050 00 00 80 3f 00 00 80 3f 00 00 80 3f 00 00 80 3f
       1.0 1.0 1.0 1.0
000060 00 00 80 3f 00 00 80 3f 00 00 80 3f 00 00 80 3f
       1.0 1.0 1.0 1.0
000070 00 00 80 3f 00 00 80 3f 00 00 80 3f 00 00 80 3f
       1.0 1.0 1.0 1.0
000080 00 00 80 3f 00 00 80 3f 00 00 80 3f 00 00 80 3f
       1.0 1.0 1.0 1.0
000090 00 00 80 3f 00 00 80 3f 00 00 80 3f 00 00 80 3f
       1.0 1.0 1.0 1.0
0000a0 00 00 80 3f 00 00 80 3f 00 00 80 3f 00 00 80 3f
       1.0 1.0 1.0 1.0
0000b0 00 00 80 3f 00 00 80 3f 00 00 80 3f 00 00 80 3f
       1.0 1.0 1.0 1.0
0000c0 00 00 80 3f 00 00 80 3f 00 00 80 3f 00 00 80 3f
       1.0 1.0 1.0 1.0
0000d0 00 00 80 3f 00 00 80 3f 00 00 80 3f 00 00 80 3f
       1.0 1.0 1.0 1.0
0000e0 00 00 80 3f 00 00 80 3f 00 00 80 3f 00 00 80 3f
       1.0 1.0 1.0 1.0
0000f0 00 00 80 3f 00 00 80 3f 00 00 80 3f 00 00 80 3f
       1.0 1.0 1.0 1.0
000100 00 00 80 3f 00 00 80 3f 00 00 80 3f 00 00 80 3f
       1.0 1.0 1.0 1.0
000110 00 00 80 3f 00 00 80 3f 00 00 80 3f 00 00 80 3f
       1.0 1.0 1.0 1.0
000120 00 00 80 3f 00 00 80 3f 00 00 80 3f 00 00 80 3f
       1.0 1.0 1.0 1.0
000130 00 00 80 3f 00 00 80 3f 00 00 80 3f 00 00 80 3f
       1.0 1.0 1.0 1.0
000140 00 00 80 3f 00 00 80 3f 00 00 80 3f 00 00 80 3f
       1.0 1.0 1.0 1.0
000150 00 00 80 3f 00 00 80 3f 00 00 80 3f 00 00 80 3f
       1.0 1.0 1.0 1.0
000160 00 00 80 3f 00 00 80 3f 00 00 80 3f 00 00 80 3f
       1.0 1.0 1.0 1.0
000170 00 00 80 3f 00 00 80 3f 00 00 80 3f 00 00 80 3f
       1.0 1.0 1.0 1.0
000180 00 00 80 3f 00 00 80 3f 00 00 80 3f 00 00 80 3f
       1.0 1.0 1.0 1.0
000190 00 00 80 3f 00 00 80 3f 00 00 80 3f 00 00 80 3f
       1.0 1.0 1.0 1.0
0001a0 00 00 80 3f 00 00 80 3f 00 00 80 3f 00 00 80 3f
       1.0 1.0 1.0 1.0
0001b0 00 00 80 3f 00 00 80 3f 00 00 80 3f 00 00 80 3f
       1.0 1.0 1.0 1.0
0001c0 00 00 80 3f 00 00 80 3f 00 00 80 3f 00 00 80 3f
       1.0 1.0 1.0 1.0
0001d0 00 00 80 3f 00 00 80 3f 00 00 80 3f 00 00 80 3f
       1.0 1.0 1.0 1.0
0001e0 00 00 80 3f 00 00 80 3f 00 00 80 3f 00 00 80 3f
       1.0 1.0 1.0 1.0
0001f0 00 00 80 3f 00 00 80 3f 00 00 80 3f 00 00 80 3f
       1.0 1.0 1.0 1.0

weight f4 [128, 72]
000000 cc 84 c3 bd ba 66 ec bd 05 7b 91 3d aa b1 38 be
       -0.09546813 -0.11543031 0.07103542 -0.18036523
000010 e0 b7 32 be 54 0d c8 bd e6 53 6a bc f4 45 10 bd
       -0.17452955 -0.09768167 -0.0143022295 -0.035222962
000020 05 7e 03 bd 45 0c a8 bd 69 69 14 3e 28 4a f4 bd
       -0.032102603 -0.08205465 0.14493336 -0.11928207
000030 c1 be 17 bb b5 41 6f 3d b6 0b 59 bd d5 b7 c3 3d
       -0.002315447 0.058412272 -0.052989684 0.095565476
000040 39 7b 59 bd dd ed 40 bb 64 f0 16 be e2 71 f3 3d
       -0.05309603 -0.0029438653 -0.14740139 0.11886956
000050 11 53 c6 bd e6 d7 62 be ed a6 bf 3b 82 51 a7 bd
       -0.096838124 -0.22152671 0.0058487565 -0.08169843
000060 91 b8 e2 bd 84 a0 18 be 50 e4 5d bd 88 29 6a bd
       -0.110703595 -0.14904982 -0.054172814 -0.057168514
000070 d8 80 bb 3c db 83 a8 bd 35 34 b3 3d e8 82 b6 bc
       0.022888586 -0.082282744 0.08750192 -0.022279218
000080 ab a6 ac 3c 9f c4 b5 bd d7 4a c0 3c 94 a2 ca 3b
       0.021075567 -0.08875393 0.023473186 0.0061839316
000090 67 b7 ee 3d ee 9b a6 3b b6 76 20 be ba 7e d3 3c
       0.11656075 0.0050845062 -0.15670285 0.025817264
0000a0 7e f7 df bd 9c ef b1 bc c1 60 d0 bd 68 2d 55 3c
       -0.10935877 -0.0217207 -0.10174704 0.013011314
0000b0 a0 8b f8 bc 56 b5 d5 bd de 62 bb bd 53 ed df 3b
       -0.030340016 -0.10434978 -0.09149717 0.006833711
0000c0 b4 55 d4 bd 8f 91 09 bd 41 d2 5a bd d4 9d ff bd
       -0.10367909 -0.03358608 -0.05342317 -0.12481275
0000d0 f9 d4 72 bd ae 2f ad bc e3 97 44 3d 5e 45 04 bd
       -0.059285138 -0.0211409 0.047996413 -0.032292716
0000e0 6d a7 29 3d b8 c7 1e bd 0a 02 44 3e 42 ca f4 bd
       0.041419435 -0.038764685 0.19141403 -0.1195264
0000f0 30 bb 92 3d 4b a9 55 3d c4 2b 80 3d 4e 2e cf 3c
       0.071646094 0.052163403 0.06258348 0.025290634
000100 3c 35 e8 3c e1 6c 27 be 13 7f 10 bd 7b c6 a1 3c
       0.028345697 -0.16350128 -0.035277437 0.019747963
000110 51 52 7a 3d 96 0d 5c bd c8 c3 86 3d 37 3f 60 bc
       0.06111366 -0.053723894 0.06580311 -0.013686947
000120 e3 84 a0 3d 01 8f 83 bd 87 0a de bc 40 95 9a 3d
       0.07837846 -0.0642376 -0.02710463 0.075479984
000130 3c 71 de bd c1 b0 d2 bd 58 3d 90 bd 43 00 eb bd
       -0.108614415 -0.102876194 -0.070429504 -0.11474659
000140 c4 26 0e bd b2 82 cb 3d 80 e3 d2 bd ff ff 1a 3d
       -0.03470494 0.099370375 -0.102972984 0.037841793
000150 c2 1b 5b bc cc 9c f2 3c 25 ff 27 3d 98 93 b0 3c
       -0.013373317 0.029615782 0.04101481 0.021554753
000160 c6 e4 c8 bd aa e9 b1 3d a5 40 95 bd 08 71 e4 bd
       -0.0980926 0.08687146 -0.072877206 -0.111543715
000170 d9 c2 b2 bc 88 61 b5 3c 62 cd cc bd 4f b6 75 3d
       -0.021821426 0.022141233 -0.10000111 0.059988316
000180 66 89 f0 bb a9 ae eb 3d b5 11 3d bc 99 7a d8 3c
       -0.007340598 0.11507923 -0.011539866 0.026425647
000190 a7 14 7c bd b4 6a 51 3b a3 66 b0 bd f3 fc a4 bc
       -0.061543133 0.003195447 -0.086133264 -0.020140147
0001a0 46 33 02 3d f6 91 3e bd 7b 8c 83 bc a5 1e cd 3d
       0.03178718 -0.046525918 -0.016058197 0.100156106
0001b0 ec 9d 81 bd 0e b6 95 bd c0 03 d3 bd 0f 05 14 bc
       -0.06328949 -0.07310115 -0.1030345 -0.009034409
0001c0 ad 52 d4 3b 0e 9f 88 3d 95 07 29 bc 2f d1 f9 bd
       0.0064795823 0.06670962 -0.010316749 -0.12198102
0001d0 1d 58 ce 3d 52 73 ad 3c a8 af e9 bd 21 22 0a bd
       0.100754 0.021173153 -0.11410457 -0.033723954
0001e0 09 20 7c 3d db 95 c0 bb 5e bc 93 bd 88 ee c0 3d
       0.06155399 -0.005877239 -0.072136626 0.09420496
0001f0 30 f9 82 3d 61 96 b2 bd 01 b6 8b 3d 3a 94 c3 3d
       0.06395185 -0.08720089 0.06821824 0.09549756
000200 06 ab f4 bb 83 8c 3f 3b 34 24 2a 3d 26 b4 f3 bc
       -0.0074666766 0.0029228039 0.041538432 -0.029748987
000210 75 4e dd bc bf 15 c4 3d 22 5d aa 3d 6c c6 28 be
       -0.02701495 0.0957446 0.08318545 -0.16481942
000220 b4 77 d1 bd 7f b0 a0 bd 15 7b bb bd 75 77 d6 3d
       -0.1022791 -0.07846164 -0.091543354 0.10472003
000230 b2 2c e9 3d ec ca 04 3e 9f 5d 2c 3c 3b 7a 4d bc
       0.11385478 0.12968034 0.010520368 -0.012541349
000240 43 d4 82 3d 3e e7 bd 3d f1 88 34 bd 06 4e 4d 3d
       0.06388142 0.092726216 -0.04407591 0.050123237
000250 93 84 12 bc 1e 23 bc 3b 92 00 c0 3c 5f a5 a4 3d
       -0.008942741 0.005741491 0.023437772 0.080393545
000260 d3 ba 89 bd fc 5e 97 3d d7 44 93 bd 69 e4 0c bd
       -0.06725087 0.07391164 -0.071908645 -0.034397516
000270 03 17 ee bc 9f e1 06 3d 5b b5 bf bc bd 8c 04 3e
       -0.029063707 0.032930013 -0.023401907 0.12944312
000280 b0 bd 81 3d 63 1f 76 bd 11 e9 7c 3d 9a 6d e3 bd
       0.06335008 -0.060088526 0.061745707 -0.11104889
000290 57 58 93 bc da 67 93 3d d8 f8 85 bc 90 f9 e5 bd
       -0.01798646 0.071975425 -0.01635401 -0.11229241
0002a0 07 65 c2 bc 60 03 6c 3d 32 c4 d6 bd 84 2c 76 bc
       -0.023729814 0.057620406 -0.1048664 -0.015025262
0002b0 e2 c2 8d 3d 87 fc 94 3d ee 31 29 bd 80 b1 92 bd
       0.069219366 0.07274728 -0.041307382 -0.07162762
0002c0 69 04 9a 3c 04 f7 0b bd 41 b6 ab bd 39 a3 a0 bc
       0.018800931 -0.03417112 -0.083843715 -0.01960908
0002d0 44 4b a2 3d 43 08 48 3d 7c e0 ce 3d 97 35 dd 3d
       0.07924512 0.048836004 0.10101411 0.10801237
0002e0 b8 c1 c5 3b 2e 93 ca bc 82 15 76 3d 6e 3a ef bd
       0.006035056 -0.024728384 0.060079105 -0.116810665
0002f0 0e 08 be 3d fa 85 0b 3e cc 7d 27 3d 05 a6 c3 3d
       0.0927888 0.13625327 0.040891454 0.0955315
000300 0d dd b4 bc 79 a0 40 3e fe 1f 90 bc ac 41 cd 3c
       -0.022078061 0.18811215 -0.01759338 0.025055729
000310 c8 c9 57 bd 89 47 e6 3c fd b9 1c 3e ad 8f cf 3b
       -0.052682668 0.028110282 0.15305324 0.006334266
000320 ac 59 f9 3d 4f 47 54 3d f5 a4 9f bd 2f aa 9f 3d
       0.12175307 0.051825818 -0.07795135 0.07796132
000330 78 09 4a 3d 2b 86 f4 3c a0 3d d5 3d bd b2 a5 bd
       0.049325436 0.029849133 0.10412145 -0.08090732
000340 d0 7e 16 3c 1f dd 4b 3b e9 d8 c5 3d 0e dd e5 bd
       0.009185508 0.003110714 0.09660513 -0.112238035
000350 a2 fc 4c bd f9 6d 85 3d 70 f5 d4 bd 27 26 83 3d
       -0.050045617 0.06515116 -0.10398376 0.06403761
000360 25 ff 66 3d 74 42 f7 bd 49 be a9 3c 1c a0 12 bd
       0.05639567 -0.12073222 0.020720618 -0.035797223
000370 48 ec fe bd 28 7b a3 3d 5c e0 34 bc ae 91 24 3d
       -0.12447411 0.079824746 -0.01103982 0.040177993
000380 f3 a5 89 3c 0a f2 cc bc 49 b1 08 3e 5d 71 fe 3c
       0.016802764 -0.025017757 0.13348879 0.031059915
000390 5b 99 f3 3b c0 34 78 3d 82 bb e6 bd 68 a0 d8 3c
       0.007434053 0.06059718 -0.11266233 0.026443675
0003a0 94 a8 1d be 06 f3 3e bd cc 8d 1a be 41 98 c5 3d
       -0.15396339 -0.046618484 -0.15093154 0.09648181
0003b0 8b 34 c4 bc 91 5a f0 3b 8f 94 bf bd 9d 84 68 bd
       -0.023950836 0.007335015 -0.09354507 -0.056767095
0003c0 a8 86 34 3e 95 a6 6c bd f7 74 10 3d 48 8f ce bd
       0.17629492 -0.057776053 0.035267796 -0.100859225
0003d0 cb c4 4c 3d cb 8f 1d bd 8c 45 0f 3e e6 32 69 3d
       0.049992364 -0.03846721 0.13991374 0.056933306
0003e0 d2 ee 44 bd 2c 33 93 bd 55 2b 93 3d 08 4c 85 3d
       -0.04807932 -0.07187495 0.07185999 0.065086424
0003f0 e0 3c 33 3d da 78 8d 3d 52 07 2b bd cb e1 06 3d
       0.043759227 0.06907816 -0.041755028 0.032930177

bias f4 [128]
000000 fb 46 ea bd 22 b0 e1 3d 08 22 0b 3e 62 4f 2d bd
       -0.1143932 0.11019923 0.135872 -0.042312033
000010 37 25 d9 3c 3b 99 f4 3d 42 10 63 3d 31 e0 cc bc
       0.026507003 0.11943289 0.055435427 -0.025009247
000020 f0 1f a1 bd 3a 7b 6d 3d b5 98 d4 bd e9 d9 07 be
       -0.0786742 0.057978846 -0.10380689 -0.1326672
000030 37 3b f6 bc bf 71 81 bd 6e 4d d2 bd b7 b1 72 3d
       -0.030057533 -0.063205235 -0.10268675 0.059251513
000040 96 92 f6 3d bc 4c cf bd d0 53 1a 3d d5 f1 93 bd
       0.12039678 -0.10122058 0.037677586 -0.0722386
000050 1f 58 75 bd 0a fb 47 3d e1 7f 74 bd 46 63 c5 3c
       -0.059898492 0.048823394 -0.059692267 0.024095189
000060 46 c9 3f 3d d1 79 2d bc 7c 2a 9f 3d 3a ba 9e 3d
       0.04682281 -0.010588125 0.07771775 0.07750364
000070 67 d1 7d 3d 76 37 88 3d 44 26 a7 3d 1f 75 4a 3d
       0.06196728 0.06651203 0.081615955 0.0494281
000080 0a c9 b6 3d 4d 86 e1 3d b8 f7 bd bd 6f 06 84 bd
       0.08925064 0.11011944 -0.09275764 -0.064465396
000090 f9 fb 95 3d 05 cb 00 3d 48 72 37 bd b7 5c 9d bd
       0.073234506 0.031443615 -0.04478672 -0.076836996
0000a0 ea 44 17 3d 32 58 e3 bd 64 91 56 bd 32 42 ec bc
       0.036930956 -0.11100806 -0.05238475 -0.028840158
0000b0 00 e7 0a 3e fc 5e ad 3d c6 70 0e 3c 44 1a ee bc
       0.13564682 0.084653825 0.0086938795 -0.029065259
0000c0 8c 2c dc 3d 6b d1 18 3d 54 08 07 3e 4d db 00 bd
       0.10750684 0.03730909 0.1318677 -0.03145914
0000d0 7f ad 88 3d 15 7f 9d bd a6 5b a5 bd e0 ff 84 3d
       0.06673717 -0.076902546 -0.08074121 0.06494117
0000e0 bd 84 e5 bd cf fc 91 3d cc 52 b8 bd c1 f8 83 bd
       -0.112069584 0.071282975 -0.09000167 -0.064439304
0000f0 84 78 04 3d b9 5d f1 3d 93 10 f9 3d fd 95 fc 3d
       0.032341495 0.11785454 0.121613644 0.123332955
000100 fe cd ae 3d bd 51 ca 3d b0 6b b3 bd ca 6a 9a 3b
       0.08535384 0.098788716 -0.08760774 0.0047124373
000110 cf 81 e6 3c 2e 3b 74 bd b2 de 9b 3c ef 4d dc 3a
       0.02813807 -0.05962675 0.019027088 0.0016807894
000120 ba b8 8c bd c1 1d 6d 3d 89 14 95 3d 68 d5 de 3c
       -0.06871171 0.057889704 0.072793074 0.02720137
000130 dd 40 b2 bd b3 df 5b bc 3e 47 9d bd 2e 69 3a 3d
       -0.08703778 -0.013420033 -0.07679604 0.045510463
000140 f0 f2 d4 bd 50 4f dd bc e8 89 9e bd fb 91 f1 bd
       -0.10397899 -0.027015358 -0.07741147 -0.11795422
000150 91 49 00 3d e4 69 39 bd 5b cf 68 bd af 50 cd bd
       0.03132016 -0.045267 -0.056838375 -0.10025155
000160 2e 89 82 3d 47 6b 51 3d df c5 25 3d e1 73 c1 3d
       0.06373821 0.0511277 0.040471908 0.0944593
000170 1e ac a4 bd 61 0e ed bd 2c e5 5c bd 9d 54 a2 3d
       -0.08040641 -0.11575008 -0.053929493 0.07926295
000180 27 24 13 3e ac 70 a5 3d c4 11 24 bd c4 47 27 be
       0.1436926 0.08078131 -0.040056005 -0.1633597
000190 0b 37 d1 3d e6 3e 1a 3d 63 11 f6 3d 97 02 e2 3d
       0.10215577 0.03765764 0.12015035 0.1103565
0001a0 bb 48 8b 3d 87 e0 23 3d cc d0 a2 bd 26 e9 6a bd
       0.068009816 0.040009048 -0.07949981 -0.057351254
0001b0 56 e1 8a bd b4 ea 55 3d 67 e6 4e 3d f4 42 84 bd
       -0.06781261 0.052225783 0.050512698 -0.06458083
0001c0 00 a5 6f bc 79 e9 d1 3c 51 95 10 bd e8 e5 de ba
       -0.014626741 0.025624024 -0.03529865 -0.0017005773
0001d0 80 c7 d1 3d f4 2e af bd 36 c5 41 bd 69 ca 0f 3e
       0.1024313 -0.085538775 -0.047307216 0.14042057
0001e0 87 a7 b6 bd 85 87 06 3e a6 08 d5 3d b0 42 bf 3d
       -0.08918672 0.13137634 0.1040204 0.093388915
0001f0 f3 5b b3 3b 0c cc 68 3c db 1c 2b 3d 0d 21 36 3d
       0.0054736077 0.014208805 0.041775566 0.044465113

weight f4 [128, 128]
000000 70 83 9d 3d 25 5b bf 3b 70 20 79 3d a2 72 c7 bd
       0.07691085 0.0058397227 0.06082195 -0.09738661
000010 7b b0 a3 3d 8d f4 8d 3d bc 54 fb bd 89 1d aa 3d
       0.07992645 0.0693141 -0.12272021 0.08306415
000020 86 5e 82 bd 59 81 8b bd c4 77 85 bd c0 27 55 3d
       -0.06365685 -0.068117805 -0.06516984 0.05203986
000030 2a 8e 81 bd 22 7f 41 3d 0d 8e 32 3d ea 03 1e bd
       -0.06325944 0.047240384 0.0435925 -0.03857795
000040 cb 27 5f bd 74 02 89 3d 41 68 0d bd 23 cb a6 bd
       -0.05448131 0.06689921 -0.034523252 -0.08144214
000050 27 2a 37 3d 6e 67 ea bc a0 ea d3 bc f8 94 07 be
       0.044717934 -0.028613772 -0.025868714 -0.13240421
000060 d9 2b ee 3d 6d 22 f3 3d 98 64 7f bd d6 4a fa 3b
       0.11629457 0.118718006 -0.062351793 0.0076383157
000070 d6 80 ab 3c a0 0d 13 3d 94 a0 cb 3c 3b 48 6b bc
       0.020935457 0.035901666 0.024856843 -0.014360483
000080 73 54 67 bd 58 5a 82 3d c0 d0 01 3d 06 61 58 bd
       -0.05647702 0.06364888 0.03169322 -0.052826904
000090 9a 59 47 bd 0e b0 04 3d d2 61 a8 3c 87 7b 56 3d
       -0.048669435 0.03239446 0.020554457 0.0523639
0000a0 bd 7d 94 3d cd 49 fd 3d b2 09 9c 3c b8 a7 09 3e
       0.07250545 0.12367592 0.019047592 0.13442886
0000b0 4d 98 80 3d a8 2e 9c bc 68 5e 15 3e 7c cf f9 bc
       0.06279049 -0.019065216 0.14586794 -0.030494444
0000c0 66 9b 17 3e b3 88 45 bd 7a 7b 81 bd 95 76 57 bd
       0.14805374 -0.04822607 -0.063223794 -0.052603323
0000d0 23 98 5a 3d 1d 26 36 3d 28 53 d3 3c e8 d5 08 3c
       0.053367745 0.04446994 0.025796488 0.0083517805
0000e0 92 37 02 bc 09 9a 8f 3d 82 36 14 bd aa 1c 81 3d
       -0.007947819 0.07011802 -0.036184795 0.06304295
0000f0 5f 54 05 3e e9 62 22 bd 5d 08 3c 3d 89 35 ae 3c
       0.13020466 -0.03964511 0.045906413 0.021265762
000100 6a 58 1c bd f9 65 05 bd fb 5f 83 bd f2 fd 7a 3c
       -0.038170256 -0.03256795 -0.06414791 0.015319334
000110 c7 3d 3d bd 1a 00 56 bd 90 2f ea 3b 97 f3 f2 3b
       -0.046201494 -0.05224619 0.007146783 0.007414292
000120 a8 09 34 bc f7 ab 4b bd 64 f2 9a bd d8 62 96 3b
       -0.01098863 -0.049724545 -0.075657636 0.00458942
000130 4b 80 37 3c f7 a0 61 3c 2c 8f c1 bd 05 cc 18 3d
       0.011200021 0.013771287 -0.09451136 0.037303943
000140 89 d0 51 3b 5e 24 8f 3d 4d 21 14 bd eb fc cf bd
       0.0032015166 0.06989358 -0.03616457 -0.10155662
000150 68 11 92 3d 58 cb 6c bd f6 6a 5b 3c 2a 58 63 bd
       0.07132226 -0.05781111 0.013392201 -0.055504
000160 16 1b d7 3c 70 51 3c 3c 81 72 1f 3b 8d dd d7 bc
       0.026258033 0.011494026 0.0024329724 -0.02635076
000170 b3 39 27 bd a9 89 d3 3c f1 78 87 3c 2d 1d d1 bd
       -0.04082651 0.025822477 0.016537162 -0.10210643
000180 94 33 d6 3c b6 3e a9 3d cd 14 e5 3c 7c 71 9d bd
       0.026147641 0.08263914 0.02796402 -0.07687661
000190 88 b8 9d bb 8c f8 9e 3d 2b 22 57 3d a4 a6 54 ba
       -0.0048132576 0.0776225 0.05252282 -0.00081119896
0001a0 44 da 4a 3c 39 f0 86 3d 00 32 d0 3c 41 ad 7a 3d
       0.01238114 0.065887876 0.025414467 0.061200384
0001b0 9f cf 2c 3d 85 07 e1 bb 0d 95 a7 3d 8c 83 f4 3d
       0.04219019 -0.0068673515 0.08182726 0.11939153
0001c0 33 e5 b9 bc 97 1e 48 bd fe 7d ee 3c c7 1e 6a bd
       -0.022692299 -0.048857298 0.029112812 -0.057158258
0001d0 65 09 07 3e 16 d0 38 3d 24 cd 5e b9 ec 87 74 bc
       0.13187177 0.04512032 -0.0002124799 -0.014924984
0001e0 dd 26 93 bd 3c 43 87 3d 0b 0c ad 3d 2a c3 19 3c
       -0.07185147 0.06604621 0.08449563 0.00938491
0001f0 8e aa 07 3d d8 24 c1 3d c3 14 4a 3d b2 9b 85 bd
       0.033121638 0.094308555 0.049336206 -0.06523837
000200 48 4d 6a 3b ab 6b f7 3d 8e f5 e0 bc c7 1b 44 3c
       0.003575163 0.12081083 -0.02746084 0.011969513
000210 b1 f6 1a bd 5d 2a c9 bc 4f 4f 07 be e2 1f a9 3c
       -0.03783292 -0.024556333 -0.13213848 0.020645086
000220 7b d3 34 bd 3e 5d 3e 3d 16 d4 bf bd 0b a1 08 3d
       -0.044146996 0.04647564 -0.09366624 0.033356708
000230 cc 7e fc bd 7a c2 88 3c bf 4a b6 3c 7a 17 8b bc
       -0.12328872 0.016694296 0.022252439 -0.016978968
000240 0d c8 ca 3c d9 0f 9a 3d cb e8 fd bd 36 35 21 3d
       0.024753595 0.07522554 -0.12397917 0.039357387
000250 64 23 c5 bd 82 bd 0d 3d 47 81 66 bd 5f aa 94 bc
       -0.09625891 0.034604557 -0.056275632 -0.018147646
000260 66 c4 86 3c af 09 06 bc 3c 62 93 3c 52 22 64 3d
       0.016451072 -0.00818102 0.017991178 0.055696793
000270 5f 87 e9 3c fd 17 2f 3d d0 80 d3 bd 57 88 1b be
       0.028506933 0.042747486 -0.103273034 -0.15188728
000280 01 b3 0b 3d 95 63 3d 3d 9e 73 78 bc a9 5d d3 bd
       0.03410626 0.046237547 -0.015164284 -0.10320599
000290 a6 da 37 bd a4 03 dc 3d 4d c6 e4 3d ac 35 27 bd
       -0.044886254 0.10742882 0.11170635 -0.04082267
0002a0 db 19 da 3c e7 c9 8c bd bb 27 e0 3d 82 a2 05 3d
       0.026623657 -0.06874447 0.10945078 0.032625683
0002b0 50 26 eb 3c 9b 6d 3c bd bf c6 82 3d 1c 1c c4 3d
       0.028704792 -0.046002965 0.06385564 0.09575674
0002c0 2f 07 c8 3d 29 69 86 3d 92 dc 41 bc ca 3b 91 3c
       0.09766995 0.065630265 -0.011832373 0.017728705
0002d0 8e ee 66 3c 4c e7 02 3e 86 2b 20 3e f8 b3 ea bb
       0.014094962 0.12783545 0.15641603 -0.007162567
0002e0 a8 dd 21 3d 8a ba f0 ba 18 e5 fe bc d6 ee 0d 3c
       0.03951803 -0.001836614 -0.0311151 0.0086629
0002f0 55 82 6e 3c 56 e4 b7 3d 2b b4 0b 3e ac 36 27 3c
       0.014557441 0.089790985 0.13642947 0.010205906
000300 1b 88 3c bd c3 02 80 bd 01 11 c4 3d 10 d0 71 3d
       -0.046028238 -0.06250527 0.09573556 0.059036314
000310 3f c6 bf bc 60 fe 26 3c e4 90 aa 3d af 48 5c bd
       -0.02340996 0.010192484 0.08328417 -0.053780254
000320 59 a5 4f 3d bf e9 ee 3d 1f e6 71 3c 44 b2 5c 3c
       0.050694797 0.11665677 0.014764338 0.013470236
000330 ae cd 0b be a4 6d 90 bd bf d4 94 bd dd 60 12 3d
       -0.1365268 -0.07052162 -0.072671406 0.035736907
000340 c4 ff 1d 3d ed ce 30 3d 0c 77 c7 bc e9 1c 25 be
       0.038573995 0.04316609 -0.024348758 -0.1612431
000350 86 97 6b 3c 72 87 9f bd da 9f 2d 3d f9 90 28 3d
       0.014379388 -0.07789506 0.042388774 0.04115388
000360 bf ad 5c 3b 09 1f 2d 3d 3c cb ff bd f2 8b 33 3c
       0.0033672897 0.042265926 -0.12489936 0.0109586585
000370 0c a2 31 3d 8c 52 81 bc 69 83 d4 3c 78 ad 72 3d
       0.04336743 -0.015786432 0.025941567 0.059247464
000380 7a 62 73 bd 5d e0 be 3d 94 1a 16 be 16 e2 88 bd
       -0.059420086 0.09320138 -0.14658576 -0.066837475
000390 1b 50 1c 3c 4d be 2d 3c 37 f0 be 3d 4b a8 d3 3d
       0.009540583 0.010604453 0.09323161 0.10334834
0003a0 eb 2c c9 bd 85 22 f6 3c 84 6b bd 3c 3e 17 d0 bd
       -0.098230205 0.030045757 0.023122557 -0.10160683
0003b0 d4 68 90 bd 6a b8 1f 3a 7e 76 91 3c 95 08 98 bd
       -0.070512444 0.00060928485 0.017756697 -0.07423512
0003c0 91 96 4d bd 53 16 67 3b 00 90 d0 bd 53 74 9f bd
       -0.05019242 0.003526111 -0.10183716 -0.07785859
0003d0 ea 85 23 bc 06 48 d3 3c 12 a9 4f be da 29 f0 3d
       -0.009980658 0.02579118 -0.20279339 0.117267326
0003e0 36 e9 ff bc bf 57 b2 3d 1d ae bb bc b4 1c c5 3c
       -0.031239133 0.087081425 -0.022910172 0.024061538
0003f0 12 8f eb bd 44 3a 87 3c c5 22 10 3d 39 73 95 3c
       -0.11501898 0.016507275 0.03518941 0.018243419

bias f4 [128]
000000 db 9a a2 3d a9 81 f4 3c 4e 29 a2 3c 47 0b 73 bd
       0.079396926 0.029846983 0.019795086 -0.059336927
000010 01 c9 9f 3d 5d 0c 52 3c 6a 1d 91 3c 43 d7 39 3c
       0.0780201 0.01282033 0.017714221 0.011342826
000020 3a 15 c3 bc aa 10 0a 3c 70 1b 49 bd 22 a5 8a 3d
       -0.023813833 0.008426825 -0.049098432 0.06769778
000030 61 ca 25 bd 95 ee 9f bd f7 a0 a4 3c 14 51 72 3c
       -0.040476207 -0.07809178 0.020096285 0.014789838
000040 2f 68 84 bd 88 f9 ce 3c d2 a2 8d bc f1 a9 01 bc
       -0.06465184 0.02526547 -0.017289553 -0.007914052
000050 dc e4 83 3d fb f5 2b 3d 9f 5c 1e 3d 70 09 9b bd
       0.06440136 0.041982632 0.03866255 -0.075701594
000060 ef ee 8d bd 09 ed fa 3c c9 31 d6 bc bc 0b 4e bd
       -0.069303386 0.030630605 -0.026146786 -0.05030416
000070 ec 5b 3e 3d f2 b8 34 3d 6f 10 93 bc 41 82 19 3d
       0.046474382 0.04412169 -0.017952172 0.037477735
000080 0c d8 0e bb c3 0a d0 bd 54 85 68 3c 0e 92 36 bd
       -0.0021796254 -0.10158303 0.014191944 -0.044572882
000090 4d 5d 03 3d 58 48 f6 bc 39 25 a3 bd 0f 6b b8 3c
       0.0320714 -0.030063793 -0.07966084 0.022511987
0000a0 67 6b 2f bd 31 ca 57 3c 37 36 06 bd 30 f1 af bd
       -0.042827036 0.013170765 -0.032766547 -0.08590925
0000b0 fa 95 ca bd ac 28 84 3d b3 4d aa bc 68 5d 4a 3d
       -0.09891887 0.0645307 -0.020789003 0.049405485
0000c0 0a 65 31 3c e1 ca 6e bd d3 46 57 3d cd 6c f4 bc
       0.010827312 -0.05829895 0.052557778 -0.029837037
0000d0 96 7f 01 3d eb 39 80 3d 69 c6 9c 3d 28 d0 86 3d
       0.031615816 0.06261047 0.07655031 0.065826714
0000e0 22 5e 29 bd cb 9e 5a bd 55 0b df 3c 1d 5d fc 3d
       -0.041349538 -0.053374093 0.027227083 0.123224474
0000f0 60 a0 f5 bd 03 00 2b bc 36 01 b7 bd 34 e9 ac bd
       -0.1199348 -0.0104370145 -0.08935778 -0.084429175
000100 38 f1 66 3d 84 4f 54 bd e3 41 7f 3d 5f 36 aa 3d
       0.056382388 -0.051833645 0.062318694 0.08311152
000110 c4 49 ae bd 71 0b 79 3d a3 fc 47 bd e1 0d 6e bd
       -0.085101634 0.060801927 -0.048824918 -0.058118705
000120 80 35 94 3d 92 0e 02 3b 7e 6f 2b 3c e0 68 a1 bb
       0.07236767 0.001984511 0.0104635935 -0.004925832
000130 1d 56 e2 3d 33 7e ab bc 58 9e 56 3d 6d 49 f9 3c
       0.11051581 -0.0209342 0.052397102 0.03043052
000140 74 57 42 bd f1 0c 60 bd eb 1d a1 bd c1 08 79 3d
       -0.047446683 -0.054699842 -0.078670345 0.060799364
000150 49 26 a2 3d 49 dd 27 3d 82 0b 61 3d f6 8d 8f 3b
       0.079174586 0.04098252 0.054942615 0.0043809367
000160 7d fb 98 bd 25 9b 08 3d 8b 68 b3 bc 87 50 65 3c
       -0.074698426 0.033351082 -0.021900436 0.01399625
000170 26 79 9f 3c 49 e0 ec 3d 4a 47 f2 bc 35 c2 66 bb
       0.019466948 0.115662165 -0.029575009 -0.0035210971
000180 19 11 6c 3d 92 e3 66 bd cd c5 83 3d 1a a2 97 bd
       0.057633493 -0.05636937 0.06434212 -0.07403965
000190 c3 27 b6 3c 54 87 07 3d c5 05 50 bd 7c 84 d6 bc
       0.022235757 0.033088043 -0.050786752 -0.02618622
0001a0 88 90 0e bd 7f 46 78 3c 70 e0 88 3b 71 bc 41 3c
       -0.034805804 0.015153526 0.0041771457 0.011824713
0001b0 72 1e 48 3c 89 e0 6f 3d a6 22 33 3d 8c 01 48 3d
       0.01221429 0.058563743 0.043734215 0.0488296
0001c0 39 05 0a bd 47 7b ee bc 12 e7 9b bd e7 70 24 bc
       -0.033696387 -0.029111518 -0.076124325 -0.010036684
0001d0 d9 9d 0f 3c 0e 81 83 bd 7c 73 bd bd 18 b3 dc 3c
       0.008765661 -0.064210996 -0.092505425 0.026940867
0001e0 57 76 b0 bd 8e d9 c9 3d 51 be aa 3d 8d 28 55 3d
       -0.086163215 0.098559484 0.08337081 0.052040625
0001f0 bf 20 06 3d 95 15 95 3d 0d 69 9f bc 85 f7 4e 3d
       0.032746073 0.07279507 -0.019459272 0.05052902

weight f4 [128, 128]
000000 62 89 1e bc b2 b6 d4 3d 8b e8 5a 3d 1b d1 dc 3c
       -0.009676309 0.10386409 0.053444427 0.026955178
000010 70 80 fc bc 5b a5 ea bc 5e 1d b3 bd 0f db 91 3d
       -0.030822963 -0.0286433 -0.08745836 0.0712186
000020 b0 5b c5 bc b7 b0 60 3d 77 8d 7e 3d 87 12 00 be
       -0.024091572 0.05485603 0.06214663 -0.12507068
000030 99 76 d3 bd a1 21 2e 3d ba 12 04 bd 1e 7f a9 bc
       -0.10325355 0.04251254 -0.03224442 -0.020690497
000040 e8 50 8a 3c 38 b5 d3 bc 38 a6 f1 3d 31 cb 87 bd
       0.016884282 -0.025843248 0.11799282 -0.066305526
000050 40 8c fc 3b 82 11 b9 bd 03 13 83 3d 4f f1 9f bd
       0.007707149 -0.090365425 0.064001106 -0.07809698
000060 0a 6d ab bd 55 fa 6b bd 49 1b 10 be 7f b4 5f bd
       -0.08370407 -0.057611782 -0.14072908 -0.054615494
000070 19 64 b1 3c 38 2c b5 3c 35 bd 38 3d cd 3b a1 bd
       0.021654176 0.022115812 0.045102317 -0.07872734
000080 12 f5 e3 bc 2c ef e6 3c 12 5e 2f 3d 64 a0 9f bd
       -0.02782682 0.028190218 0.04281432 -0.07794264
000090 44 e2 d1 3c 8b 73 11 3d c2 17 94 bd a0 eb f9 bd
       0.025620587 0.03551058 -0.07231094 -0.12203145
0000a0 eb 32 fb 3d d7 2b 14 3d 50 0a 8f 3d 6f f7 bd bc
       0.12265571 0.03617462 0.06984389 -0.023189275
0000b0 ff a1 24 bd c3 25 bd bc a6 e2 94 3d 3b c3 db bc
       -0.040193554 -0.023089295 0.07269792 -0.026826492
0000c0 33 da a2 bd 55 3c 81 bd 8b ef 22 bc d1 60 95 3c
       -0.079517744 -0.063103355 -0.009944807 0.018234642
0000d0 3d fc cb 3d 97 e9 31 bd 38 b3 38 3e c7 06 c7 3d
       0.0996022 -0.04343566 0.18037117 0.097180896
0000e0 06 69 d2 bd 2a bf 33 bd c6 16 cb 3d 36 e4 16 3d
       -0.10273938 -0.04388348 0.09916453 0.036838733
0000f0 50 62 d6 ba c1 8f b6 bb de f2 19 3d 2d a3 1f 3d
       -0.0016356204 -0.005571336 0.03758513 0.038973976
000100 32 8d 00 3e fe af dc bc 52 7a c4 3c 8c 45 18 3d
       0.12553862 -0.026939388 0.023984108 0.0371757
000110 fa d6 85 bd aa d0 b9 bd 4a 4e 61 3d c3 76 ea bc
       -0.06535144 -0.09073003 0.055006303 -0.028621083
000120 e6 4b 80 bd 90 95 84 3c 82 ca 6d bd 0a f0 bf bc
       -0.062644765 0.016184598 -0.058054455 -0.02342989
000130 76 4c 00 bd 80 01 35 bd 22 4f 5d bd 49 1a 91 3c
       -0.03132292 -0.044190884 -0.054030545 0.017712729
000140 04 85 36 bd e8 c6 a2 3c b1 6b 9e 3c 88 81 2a bd
       -0.044560447 0.019870237 0.01933846 -0.041627437
000150 a7 04 19 3d 2e 5a 91 3d e7 0a ba 3c 79 c0 2b 3d
       0.037357952 0.070972785 0.022710277 0.041931603
000160 4c ff 34 bd 42 9f 35 3d 7e 80 dc 3d 46 cf 82 3d
       -0.044188783 0.044341333 0.107666954 0.063871905
000170 7a 36 82 bc b9 40 d9 3d d4 56 a1 3c ee 13 4a 3d
       -0.015895117 0.10608048 0.019694723 0.049335413
000180 89 2f a0 bb 87 d1 99 bd e4 17 d3 3d 97 1c c6 bd
       -0.004888479 -0.07510667 0.10307291 -0.09673422
000190 a7 50 91 3d 12 57 f5 3c 4b 21 b3 bd df 2b 9b bb
       0.07095461 0.029948745 -0.087465845 -0.0047354545
0001a0 6e 5f a3 3c 46 a7 ec 3c 29 a7 e1 bc f6 35 c2 bd
       0.019942965 0.028888356 -0.027545528 -0.094829485
0001b0 28 84 ca 3d 96 15 6e bd 63 54 a7 bc 35 35 4e 3c
       0.09888488 -0.058126055 -0.02042598 0.012585928
0001c0 6d 89 21 3d f0 48 c2 bd bb 8c 73 3d 58 09 f9 3d
       0.0394377 -0.09486568 0.059460383 0.12159985
0001d0 04 c2 c6 3c e8 36 58 bc a2 6a 5c 3d 11 43 66 bd
       0.024262436 -0.013196684 0.05381263 -0.056216303
0001e0 92 e6 79 3d 8d 49 17 3b 0c 50 c4 bc 97 c3 35 bb
       0.061010905 0.0023084611 -0.02396395 -0.0027734989
0001f0 2e 63 d5 bd b5 22 d3 3d 5c 36 34 be 6b d4 4b 3d
       -0.10419308 0.10309354 -0.17598861 0.049763124
000200 e2 f0 8f bd ad 10 b1 bb 6a ab 93 bd 4e 4c a4 bc
       -0.070283666 -0.0054035992 -0.07210429 -0.020055916
000210 fa f6 8c 3d 3c 24 42 bd 1f ac e2 bd b1 be 7f bb
       0.068830445 -0.047397837 -0.11067986 -0.0039023573
000220 b1 c7 ae 3c 70 81 9a bc 72 b2 b7 3b bf bd 8b bc
       0.021335455 -0.018860549 0.005605989 -0.017058251
000230 f0 63 1e 3d 27 c3 2b 3d 0f 40 19 3d c7 b1 87 bd
       0.038669527 0.04193416 0.037414607 -0.06625705
000240 af 76 20 bd 03 12 75 bd 0f e3 1b 3d 80 27 8d bd
       -0.039175685 -0.05983163 0.038058337 -0.068923
000250 e4 88 17 be ef 3c 56 3d 37 7d c8 3d be 61 0c bc
       -0.14798313 0.052304205 0.09789508 -0.008568225
000260 79 1c ab 3d e5 87 18 bd 62 9e 92 3d 84 f8 dd bc
       0.0835504 -0.037238974 0.071591154 -0.02709604
000270 11 c8 8c bd 95 4b c7 3d 38 6f 56 3d 73 ae 06 be
       -0.06874097 0.09731213 0.05235216 -0.13152485
000280 2a 97 c1 3b ed 50 cb bd fa 14 ad bc db 6d f9 bd
       0.0059079127 -0.09927545 -0.021128166 -0.121791564
000290 3d c9 42 3d 2b 9a cf 3d 35 53 05 3e 04 78 9d bd
       0.047555197 0.10136827 0.13020022 -0.07688907
0002a0 af 58 18 bc 2e 51 4b bc 5f 3f b7 bd a0 d5 bf bd
       -0.009298488 -0.012409491 -0.08947634 -0.093669176
0002b0 4a 38 03 3c 7b d3 5b 3d 60 38 a3 3d d0 1c 5d 3b
       0.008009026 0.05366848 0.07969737 0.0033739097
0002c0 de 88 d4 bc 2b b0 ba 3a c0 c8 84 3d 15 fc 16 be
       -0.02594417 0.0014243176 0.064836025 -0.14744599
0002d0 01 70 ed bc 4b c3 3b 3b d2 9d 27 3d 74 3a 0a 3c
       -0.028984072 0.002865034 0.040921994 0.008436788
0002e0 b3 99 6d bd ad 29 60 bd ff b4 d5 bd ae 52 b0 3d
       -0.058007907 -0.054727245 -0.10434913 0.0860952
0002f0 b8 73 0f bd ea 60 32 bd 4e 63 ce 3c 6b 08 0c 3d
       -0.035022467 -0.043549456 0.025193837 0.034187716
000300 f8 31 af 3c 54 af a5 bd 8e ea 6c 3d f3 a4 54 3d
       0.021386132 -0.08090082 0.057840876 0.05191512
000310 20 6e c6 bd 70 af f6 bd 4d 0a 34 3d 37 82 ff bb
       -0.096889734 -0.12045181 0.043955136 -0.0077975052
000320 f3 41 7e 3b 91 bd 9e bc 95 b6 75 3d 96 7a 18 3e
       0.0038796633 -0.019377502 0.059988577 0.14890513
000330 a8 80 94 3d 53 fd 77 3d a5 a6 1c 3d 2c a9 48 3d
       0.07251102 0.060544323 0.038244862 0.04898946
000340 a2 76 af bd 83 9b 63 3d c8 8a 18 be 7c 93 5b bd
       -0.08567549 0.05556823 -0.14896691 -0.05360745
000350 5f d0 78 bd 94 e8 b3 bc 73 2f 23 bd 56 2e 90 3d
       -0.060745593 -0.021961488 -0.039840173 0.07040088
000360 5e f4 2a be 7f d9 97 bd d4 a4 a1 bd 79 51 06 be
       -0.16694781 -0.07414531 -0.078927666 -0.13117017
000370 c8 78 97 bc 81 d3 c7 3d 59 3f 8f bd f1 76 74 bc
       -0.01849021 0.09757138 -0.069945045 -0.014920936
000380 ad d5 33 3c 9e d4 27 bd 47 e7 61 3d ac d4 fe bb
       0.010976237 -0.040974252 0.055152204 -0.0077768173
000390 3b 3e c1 bb 74 9f 84 bd 05 e2 c1 3c 59 e2 a2 3d
       -0.005897311 -0.06475726 0.023667345 0.07953329
0003a0 59 9f 55 bc c5 a9 b8 3c fa ca 9e 3b ca 07 57 3d
       -0.01303848 0.02254189 0.004845974 0.052497663
0003b0 ab 4e 12 3d 94 9b 5a bd 52 61 f8 3b ed 93 f2 3d
       0.035719555 -0.053371027 0.007579961 0.11844621
0003c0 76 37 f4 3c ab c0 05 3d 15 03 c4 bd da 02 0c bc
       0.029811602 0.032654446 -0.095709 -0.008545602
0003d0 d5 0b 71 3d 6e d7 95 bc 40 0e 88 3c ed 1d 1c bb
       0.058849175 -0.018291201 0.016608357 -0.0023821548
0003e0 74 76 29 bd 0e 78 72 3b 21 a3 31 bd 0a be 71 bd
       -0.04137273 0.0036997828 -0.043368462 -0.059019126
0003f0 51 c1 ec bb 51 f6 6f 3d 2c 76 61 bd bc da b3 3c
       -0.0072251935 0.058584515 -0.055044338 0.021954887

bias f4 [128]
000000 5d d1 5b bd 96 a5 4d bd 83 6d 37 3d de 59 06 bd
       -0.05366646 -0.050206743 0.044782173 -0.032800548
000010 c6 0d fb 3c a7 be 8b 3b 60 ab 9e 3d ec 5e e5 3c
       0.030646216 0.004264671 0.07747531 0.027999364
000020 6f 1d bb 3d 97 49 39 3d 01 08 34 bd 65 86 54 bd
       0.091364734 0.045236196 -0.043952946 -0.05188598
000030 e6 1e 14 3d 23 37 78 bd ae 1d 97 3d d8 1c 7a bc
       0.03616228 -0.060599457 0.07378708 -0.015265666
000040 89 34 36 3d d7 8a b1 bd b8 d1 0e bc 9b 7b 97 bd
       0.044483695 -0.0866906 -0.008716993 -0.07396623
000050 9d a5 15 3d f4 b2 88 bd 6d dc 88 bc 8e f0 a5 bd
       0.036534894 -0.066747576 -0.01670667 -0.08102523
000060 23 d8 b3 3d 5c 18 96 3d 68 fa 5d bd 56 a1 86 bc
       0.08781459 0.07328865 -0.054193884 -0.016434353
000070 60 6d 86 bc 34 25 2c 3d 4f 91 22 bd 7a ba 3c 3d
       -0.016409576 0.042027667 -0.03968936 0.046076275
000080 f1 a3 2b bc a0 62 f5 3c bd a1 20 3d 02 c5 60 bd
       -0.010476098 0.029954255 0.039216746 -0.05487538
000090 17 63 8a bd ac db 0b 3d 0c da eb 3c 5b 3a 6e bc
       -0.06757181 0.034145042 0.028790496 -0.01454028
0000a0 a8 4d 9b 3c 2d 48 5d bb 6b 63 17 3d b7 85 71 bc
       0.018957928 -0.0033764944 0.036960047 -0.014741353
0000b0 46 9a 21 bb 40 2c a9 3d c0 e5 62 bd cd 99 62 3d
       -0.0024658605 0.08260393 -0.055394888 0.055322457
0000c0 ef 3b b3 3d b5 c2 18 bd b4 5c e8 ba eb d3 b4 3d
       0.08751666 -0.037295062 -0.0017727823 0.08829483
0000d0 13 61 a6 3d 6c 99 a0 bc c0 96 07 3d 68 1c 89 bd
       0.08123984 -0.019604407 0.03310275 -0.06694871
0000e0 c2 a4 dd bc ce 87 fd bc c5 7b 8f 3c a3 ef 8b 3d
       -0.027056102 -0.030948546 0.017515073 0.068328165
0000f0 75 96 0d 3d 06 65 36 bd 2b 6d ab 3d 20 72 5d 3d
       0.034567315 -0.044529937 0.083704315 0.054063916
000100 db b2 bd bc bd ce d2 bc 3d 05 fd 3c e8 ce 32 3c
       -0.023156574 -0.025733346 0.030886287 0.010913588
000110 0e 16 eb bb 7b 93 af bc 2c e0 89 3c b2 ff 90 bd
       -0.00717426 -0.021432629 0.016830526 -0.0708002
000120 07 61 9f 3c 64 c5 7e 3d 6e c9 0e 3c 5d bd b6 3c
       0.019455446 0.062199965 0.008715017 0.022307092
000130 96 56 62 3c 64 bb 0f 3c 24 fb 7c bd ba 73 73 bc
       0.013814589 0.008772705 -0.061762944 -0.014859134
000140 b9 b8 2a bd d0 f8 47 bb aa ea 0d bc 0e c7 aa 3c
       -0.04168007 -0.0030513294 -0.008661905 0.02084687
000150 ac f4 ac 3d cb d3 09 3c c5 3b 81 3d 2a 97 5d 3d
       0.08445105 0.008412312 0.06310228 0.05409924
000160 e0 9b f1 3c a8 42 b3 3d 57 a5 d1 3b 42 01 9a 3d
       0.029493272 0.08752948 0.006397884 0.07519771
000170 2d 6c 38 bd 43 9d c6 3c eb 02 a5 3d 4a 80 bc 3d
       -0.04502504 0.02424491 0.08057197 0.09204157
000180 eb 03 63 bd d2 c7 b0 3d bc 8d e2 3c ba 77 27 3d
       -0.05542366 0.08631863 0.027655475 0.040885665
000190 d9 33 20 3d c9 d9 8e bc 71 0c fd bc e7 6d b0 3d
       0.039111946 -0.017437832 -0.030889722 0.08614712
0001a0 2f 15 aa bc e3 b2 5a bd 73 29 a5 bd d2 b2 f4 3c
       -0.020762054 -0.053393256 -0.080645464 0.029870424
0001b0 f8 94 a8 bc 13 86 1b 3b 29 f0 3f bd 1d 08 6d bd
       -0.020578846 0.0023731038 -0.046859894 -0.057869066
0001c0 b7 f5 11 3d 55 ee b8 3c 47 5f 4c bc 9e 1a df bc
       0.035634723 0.022574583 -0.012473888 -0.027234372
0001d0 dd e8 38 3d 3b b7 49 bd 72 e0 c1 bd a0 13 a0 3d
       0.04514395 -0.049247008 -0.09466638 0.07816243
0001e0 4d 8e bd 3d 77 2b 3b ba 47 ee fe bc 11 d6 5e bc
       0.09255657 -0.00071399607 -0.031119479 -0.013600842
0001f0 05 61 96 bd 43 87 2f bd 3d bf 99 3d 95 df 13 3d
       -0.07342724 -0.042853605 0.07507179 0.036101896
