dapg/examples/dapg_jit_model/no_door-v0/model_discriminator.pt (torch, 143224 bytes, 7 tensors)

in_shift f4 [128]
00000000: 0000 0000 0000 0000 0000 0000 0000 0000
00000010: 0000 0000 0000 0000 0000 0000 0000 0000
00000020: 0000 0000 0000 0000 0000 0000 0000 0000
00000030: 0000 0000 0000 0000 0000 0000 0000 0000
00000040: 0000 0000 0000 0000 0000 0000 0000 0000
00000050: 0000 0000 0000 0000 0000 0000 0000 0000
00000060: 0000 0000 0000 0000 0000 0000 0000 0000
00000070: 0000 0000 0000 0000 0000 0000 0000 0000
00000080: 0000 0000 0000 0000 0000 0000 0000 0000
00000090: 0000 0000 0000 0000 0000 0000 0000 0000
000000a0: 0000 0000 0000 0000 0000 0000 0000 0000
000000b0: 0000 0000 0000 0000 0000 0000 0000 0000
000000c0: 0000 0000 0000 0000 0000 0000 0000 0000
000000d0: 0000 0000 0000 0000 0000 0000 0000 0000
000000e0: 0000 0000 0000 0000 0000 0000 0000 0000
000000f0: 0000 0000 0000 0000 0000 0000 0000 0000
00000100: 0000 0000 0000 0000 0000 0000 0000 0000
00000110: 0000 0000 0000 0000 0000 0000 0000 0000
00000120: 0000 0000 0000 0000 0000 0000 0000 0000
00000130: 0000 0000 0000 0000 0000 0000 0000 0000
00000140: 0000 0000 0000 0000 0000 0000 0000 0000
00000150: 0000 0000 0000 0000 0000 0000 0000 0000
00000160: 0000 0000 0000 0000 0000 0000 0000 0000
00000170: 0000 0000 0000 0000 0000 0000 0000 0000
00000180: 0000 0000 0000 0000 0000 0000 0000 0000
00000190: 0000 0000 0000 0000 0000 0000 0000 0000
000001a0: 0000 0000 0000 0000 0000 0000 0000 0000
000001b0: 0000 0000 0000 0000 0000 0000 0000 0000
000001c0: 0000 0000 0000 0000 0000 0000 0000 0000
000001d0: 0000 0000 0000 0000 0000 0000 0000 0000
000001e0: 0000 0000 0000 0000 0000 0000 0000 0000
000001f0: 0000 0000 0000 0000 0000 0000 0000 0000
0.0 0.0 0.0 0.0 0.0 0.0 0.0 0.0
0.0 0.0 0.0 0.0 0.0 0.0 0.0 0.0
0.0 0.0 0.0 0.0 0.0 0.0 0.0 0.0
0.0 0.0 0.0 0.0 0.0 0.0 0.0 0.0
0.0 0.0 0.0 0.0 0.0 0.0 0.0 0.0
0.0 0.0 0.0 0.0 0.0 0.0 0.0 0.0
0.0 0.0 0.0 0.0 0.0 0.0 0.0 0.0
0.0 0.0 0.0 0.0 0.0 0.0 0.0 0.0
0.0 0.0 0.0 0.0 0.0 0.0 0.0 0.0
0.0 0.0 0.0 0.0 0.0 0.0 0.0 0.0
0.0 0.0 0.0 0.0 0.0 0.0 0.0 0.0
0.0 0.0 0.0 0.0 0.0 0.0 0.0 0.0
0.0 0.0 0.0 0.0 0.0 0.0 0.0 0.0
0.0 0.0 0.0 0.0 0.0 0.0 0.0 0.0
0.0 0.0 0.0 0.0 0.0 0.0 0.0 0.0
0.0 0.0 0.0 0.0 0.0 0.0 0.0 0.0

in_scale f4 [128]
00000000: 0000 803f 0000 803f 0000 803f 0000 803f
00000010: 0000 803f 0000 803f 0000 803f 0000 803f
00000020: 0000 803f 0000 803f 0000 803f 0000 803f
00000030: 0000 803f 0000 803f 0000 803f 0000 803f
00000040: 0000 803f 0000 803f 0000 803f 0000 803f
00000050: 0000 803f 0000 803f 0000 803f 0000 803f
00000060: 0000 803f 0000 803f 0000 803f 0000 803f
00000070: 0000 803f 0000 803f 0000 803f 0000 803f
00000080: 0000 803f 0000 803f 0000 803f 0000 803f
00000090: 0000 803f 0000 803f 0000 803f 0000 803f
000000a0: 0000 803f 0000 803f 0000 803f 0000 803f
000000b0: 0000 803f 0000 803f 0000 803f 0000 803f
000000c0: 0000 803f 0000 803f 0000 803f 0000 803f
000000d0: 0000 803f 0000 803f 0000 803f 0000 803f
000000e0: 0000 803f 0000 803f 0000 803f 0000 803f
000000f0: 0000 803f 0000 803f 0000 803f 0000 803f
00000100: 0000 803f 0000 803f 0000 803f 0000 803f
00000110: 0000 803f 0000 803f 0000 803f 0000 803f
00000120: 0000 803f 0000 803f 0000 803f 0000 803f
00000130: 0000 803f 0000 803f 0000 803f 0000 803f
00000140: 0000 803f 0000 803f 0000 803f 0000 803f
00000150: 0000 803f 0000 803f 0000 803f 0000 803f
00000160: 0000 803f 0000 803f 0000 803f 0000 803f
00000170: 0000 803f 0000 803f 0000 803f 0000 803f
00000180: 0000 803f 0000 803f 0000 803f 0000 803f
00000190: 0000 803f 0000 803f 0000 803f 0000 803f
000001a0: 0000 803f 0000 803f 0000 803f 0000 803f
000001b0: 0000 803f 0000 803f 0000 803f 0000 803f
000001c0: 0000 803f 0000 803f 0000 803f 0000 803f
000001d0: 0000 803f 0000 803f 0000 803f 0000 803f
000001e0: 0000 803f 0000 803f 0000 803f 0000 803f
000001f0: 0000 803f 0000 803f 0000 803f 0000 803f
1.0 1.0 1.0 1.0 1.0 1.0 1.0 1.0
1.0 1.0 1.0 1.0 1.0 1.0 1.0 1.0
1.0 1.0 1.0 1.0 1.0 1.0 1.0 1.0
1.0 1.0 1.0 1.0 1.0 1.0 1.0 1.0
1.0 1.0 1.0 1.0 1.0 1.0 1.0 1.0
1.0 1.0 1.0 1.0 1.0 1.0 1.0 1.0
1.0 1.0 1.0 1.0 1.0 1.0 1.0 1.0
1.0 1.0 1.0 1.0 1.0 1.0 1.0 1.0
1.0 1.0 1.0 1.0 1.0 1.0 1.0 1.0
1.0 1.0 1.0 1.0 1.0 1.0 1.0 1.0
1.0 1.0 1.0 1.0 1.0 1.0 1.0 1.0
1.0 1.0 1.0 1.0 1.0 1.0 1.0 1.0
1.0 1.0 1.0 1.0 1.0 1.0 1.0 1.0
1.0 1.0 1.0 1.0 1.0 1.0 1.0 1.0
1.0 1.0 1.0 1.0 1.0 1.0 1.0 1.0
1.0 1.0 1.0 1.0 1.0 1.0 1.0 1.0

weight f4 [128, 128]
00000000: 818a 463d c923 4dbd a6a4 013d bd3f 293c
00000010: b3b7 66bc c9b2 693d e384 8d3d dc8f 79bc
00000020: b217 3e3b e196 27bd 174c a63d c1f1 fc3d
00000030: a19d 82bc 3339 9fbd 31a0 bcbd e838 c5bd
00000040: 29d0 213d 8a53 a5bd 7bea 073a 98b4 1c3d
00000050: 10b9 57bd 3c63 4e3d 083e d8bd 9443 02bd
00000060: 39c0 aa3d 710a 17bd 2b5e d0bc 5176 69bd
00000070: e4d7 5bbd ee8d f93d b458 253d 012a 273d
00000080: 1f1b e03b 99be f6bc 2377 edbd 4832 4b3c
00000090: 2f32 8cbd da1f 513d cd1c 4f3d 01bf 48bc
000000a0: 92ea b4bc c598 94bc 2d58 af3d f6e2 adbd
000000b0: 8ecc 32bd 37da 75bd 04d3 6c3d 0e91 a9ba
000000c0: bdcf 9fbc ad75 d9bc a808 223c 5650 413d
000000d0: b496 833b bee1 afbb 517d 4c3b e9d3 f83c
000000e0: dc52 a0bd 05f1 893c f1f9 d13d e772 a7bd
000000f0: 7706 89bc cb05 35bd f8e2 2abd 1f2f 033c
00000100: 1d65 ac3d 4975 213d 12c2 683d df52 8abd
00000110: f308 a3bd afb5 69bd d2c2 f93d 8119 183d
00000120: c6fa 6f3d 3168 bb3a b6e5 cfbd f68e da3c
00000130: aee0 a03d 7e64 acbd d5de 833c e165 a2bb
00000140: 9760 e0bd 79b3 d2bd f71a c93c 358d f93d
00000150: d95e 89bd 7893 3c3c fab1 46bd a19f 75bd
00000160: 39d4 243d 5c15 33bd 13a8 bcbd 124b b0bd
00000170: 497f f1bc 3f30 7bbd 3d66 e53b 8f03 95bd
00000180: c817 1d3d 42ef ad3d f495 a63c f1bd 563d
00000190: d757 febc 7f81 8cbd c99d 89bd 4197 e13c
000001a0: 6ac3 07bd 5a19 8c3c 8d92 8cbd 12e5 0a3d
000001b0: 72e9 e83d 33ba 16bc eefc dc3c a19c 4d3d
000001c0: 20b5 283d 5875 89bd c72f ca3d d6da 00be
000001d0: d6f3 00bd 257b 143c 8847 2dbe 00ab 423d
000001e0: 28af 1a3e a936 763c 00bb 8d3d 5953 403d
000001f0: c5a0 1cbe 828d 7e3d 4904 253d 1118 edbc
00000200: 274a 253d cdc4 703c e625 e9bd 345a ce3d
00000210: 1c6e ebb8 b537 c03c c05c 01be d987 01bd
00000220: 74f7 8d3d b0c9 0bbd 5335 b8bc dd7f 2fbd
00000230: 6269 73bd 34ae b13d 5240 0dbd c215 4a3d
00000240: f888 65bd e683 fb3c 587c b3bc 6514 c13c
00000250: d4ca 94bc 65f1 c43b 326c 873d 6bc4 9c3d
00000260: 6921 a03c 9dfb 4a3d a612 e7bd 743b b03c
00000270: 3d41 243e bd5c 8cbd 7215 f0ba bc55 813d
00000280: efe7 513d 0ba5 893d 3aae 7ebd dbae 0c3d
00000290: 16cc 993d d8bc 613d 54ef aebc 13d4 5bbd
000002a0: 687f 01be 45ee 49bc 76ac 36bd 3f37 813d
000002b0: 91de c13d f550 f73c 7905 c53c 1ebe 853d
000002c0: 4dc2 fc3d 0d59 443c 1047 b53c a4ef 8e3d
000002d0: e82c 403d 3485 80bc c6d0 19be 6c5b a73c
000002e0: ca8c ff3c a314 bbbd 5d7d b5bd 0429 813d
000002f0: 6f39 da3b 6795 fdbc 0ded 12bd 1a72 bbbd
00000300: 30ce dfbc c840 15bd 9383 39bd 5cee 873d
00000310: 8d24 72bd 9393 fb3c b4dd 63bd f32e f5bc
00000320: 99b2 403d 844b 983c feb7 563b c499 e43a
00000330: 99aa 433d 20b6 3dbd 335e 183d c30d dbbc
00000340: 2db9 e33d ee58 f4bb dfd4 18bd 6b64 17be
00000350: 5d56 903d 7885 04bd 6096 85bd 4410 e63a
00000360: 12a2 443d df37 a83b a49f dc3a 88fe 9a3c
00000370: 5d19 3c3d dbd2 1b3d ec34 0d3d cb81 a1bd
00000380: c040 bebd c9c0 93bd 1e75 cb3c 4bd2 33bd
00000390: 7cb8 9f3d 98cf dd3a d9cb 37bd 9ddc 5e3d
000003a0: dee1 49bd 2fd4 9ebd 23f8 153d b21f f8bd
000003b0: cb3f 9d3d 40f4 1f3d 1b1d 0cbe bfa8 ad3c
000003c0: d08b d33d 079d a73d 18d8 6fbc 2342 043e
000003d0: e577 9ebc bcbf 9e3d 1d23 0f3e 932a 72bd
000003e0: 8af1 19be d7f3 e5bd 5c16 41bd d2c2 29bd
000003f0: ff3e b23d 9d06 63bd a62c b6bd c0ae c83c
0.04847193 -0.050082956 0.03165116 0.010330138 -0.014081883 0.05705527 0.06910112 -0.015232053
0.0029005823 -0.040915374 0.08119982 0.123507984 -0.015944304 -0.07774582 -0.092102416 -0.09629995
0.039505158 -0.080725744 0.00051847816 0.038258165 -0.052666724 0.050387606 -0.105587065 -0.03180273
0.08337445 -0.036875192 -0.025435528 -0.0569976 -0.053672686 0.12185274 0.040367797 0.040811542
0.0068391706 -0.03012018 -0.11594989 0.012402125 -0.06845509 0.051055767 0.050564576 -0.01225257
-0.022084508 -0.018139252 0.0856174 -0.08490555 -0.04365211 -0.06002256 0.057818428 -0.0012936906
-0.019508237 -0.02654537 0.009889759 0.047195755 0.004015768 -0.0053674867 0.0031202624 0.030374484
-0.07828304 0.01683856 0.10252751 -0.08176213 -0.016726715 -0.044194978 -0.04172036 0.00800684
0.08417723 0.039418492 0.056825705 -0.06754088 -0.07960691 -0.057058033 0.12195362 0.037133697
0.058588766 0.0014298019 -0.10151236 0.026679497 0.07855354 -0.08417605 0.016097466 -0.0049559926
-0.10955923 -0.10288138 0.02454899 0.12185136 -0.06707544 0.011509769 -0.048509575 -0.059966687
0.040241454 -0.04372154 -0.09211745 -0.086080685 -0.02947964 -0.061325308 0.007000713 -0.072760694
0.038352758 0.084929004 0.020335175 0.052427236 -0.031047745 -0.06860637 -0.06719548 0.027537944
-0.033145346 0.017101932 -0.0686389 0.033909865 0.11372651 -0.009199667 0.026976075 0.0501982
0.04118836 -0.06711835 0.09872394 -0.1258348 -0.03148254 0.009062563 -0.16921818 0.04752636
0.1510588 0.01502768 0.06920433 0.046954487 -0.15295704 0.06214667 0.04028729 -0.02894214
0.04035392 0.014695358 -0.11384182 0.10075799 -0.00011226183 0.023464063 -0.12633038 -0.031623695
0.069319636 -0.03412789 -0.022486364 -0.04284655 -0.059426673 0.08675805 -0.03448517 0.049337156
-0.056038827 0.030702543 -0.021909878 0.023569295 -0.018163122 0.006010222 0.066124335 0.07654651
0.019547181 0.049556363 -0.11282854 0.021512724 0.16040511 -0.06853626 -0.0018316938 0.06315181
0.05124658 0.067209326 -0.062177874 0.034346443 0.075096294 0.055111736 -0.021354355 -0.053669047
-0.12646258 -0.012324874 -0.044598065 0.063093655 0.09466279 0.03018997 0.024050461 0.065304026
0.123417474 0.011984122 0.022128612 0.069793016 0.046917826 -0.015688516 -0.15021047 0.020429336
0.031195063 -0.091347955 -0.08861802 0.06306651 0.0066596786 -0.03095503 -0.0358706 -0.091526225
-0.027319998 -0.036438733 -0.045291495 0.0663726 -0.05911689 0.030710017 -0.055631354 -0.029929614
0.047045324 0.018590696 0.0032763476 0.0017440845 0.047770116 -0.046316266 0.03719921 -0.02673996
0.11119304 -0.0074568903 -0.037312385 -0.147844 0.070477225 -0.03235385 -0.065228224 0.0017552455
0.048006125 0.0051336135 0.0016832245 0.018920198 0.045922626 0.038042884 0.0344743 -0.07886084
-0.09289694 -0.07214505 0.02483612 -0.043901723 0.077988595 0.001692283 -0.04487214 0.054409612
-0.04928767 -0.077553146 0.036613595 -0.121154204 0.07678183 0.039051294 -0.13682978 0.021198628
0.103294015 0.081842475 -0.014638923 0.12915854 -0.01934428 0.07751414 0.13978238 -0.059122633
-0.15033546 -0.112281494 -0.047140464 -0.04144556 0.08703422 -0.05542623 -0.08895235 0.02449739

bias f4 [128]
00000000: 4aa8 34be 519d f83d 347b 233e 215a 433c
00000010: e8b4 da3d 129b ae3d 9370 f53c 93fd c2bd
00000020: e8ea fe3d 654c e0bc 1b34 9d3c fa4e bbbd
00000030: e649 dc3d 275b eb3d caf2 403d fbcc ed3d
00000040: 98ec 41bd 2eb7 13be 435d b63c 638e f63d
00000050: 595b f5bd e600 9f3d 2667 a4bd c792 14be
00000060: 03a4 30be 08c4 e03c 03e2 61bd b717 a7bc
00000070: b993 b23d 84dc 9d3d a339 84bd 3315 103e
00000080: 780b 08be 03a0 d53d 22f8 edbd d741 0e3e
00000090: d87d c53d 8dd2 b6bc c014 93bb 269f 29be
000000a0: 7e98 3a3e 0bc6 24be eb9e 353d 6970 303e
000000b0: f062 583d 970c 54bd d973 fdbd 8ff7 0c3e
000000c0: 4427 52bd f7bf 22be 02e1 0dbe 6681 2ebe
000000d0: 292c c63d 1572 b23a f5b8 da3d 2911 2ebe
000000e0: 24fc 383d 3cd1 85bb 7f1f 8c3d a257 ec3d
000000f0: 5b25 c53d 9f06 193e 54b3 b8bd 41eb 003a
00000100: 073a cebd 46e8 c1bd 30ca 133c b011 1fbe
00000110: 9f86 ffbd b2e0 343e c0f8 d7bd 447e 113e
00000120: eae8 b43d 6f8d 2ebe 10f1 30bd c1bd 803d
00000130: e4b4 dd3d c3fa 3d3c f3b7 1d3e 63ec fd3d
00000140: 6160 b43d c209 39be c242 21be 7a3a 153e
00000150: 01ad 1d3e 2d35 00be 8804 9b3d 89e0 0b3e
00000160: a709 9fbd 9cbe b5bc 06db ccbd 3649 233e
00000170: 1366 0dbe 3aa5 473e 0ce7 8cbd 6048 1a3e
00000180: 0c30 96bd 7319 23bc 44c3 4f3b 2382 ef3d
00000190: 1f82 a13d 67d8 12bd dbbf fb3d d679 1d3b
000001a0: 7215 91bc e560 973d 2a94 5ebd b35d b73d
000001b0: 0fe0 213e f17c 25bc 1a5c 8d3c 0c95 833d
000001c0: 13a7 07be fb8a 68bb 88c1 a83d 78eb 203e
000001d0: 55fe 063e d059 16be a4f8 173e 80ca f6bc
000001e0: a03c 243e ebfc 833d 01d1 293e 332a 3d3d
000001f0: a132 aebd 9eb8 2d3e 326f 0d3d ed9c 95bd
-0.17642322 0.12139381 0.15964967 0.011923344 0.106790364 0.08525671 0.029960906 -0.09521022
0.124471486 -0.027380178 0.019189885 -0.09145923 0.107562825 0.11491995 0.04710654 0.116113625
-0.047344774 -0.14425346 0.022261268 0.12038877 -0.11980314 0.07763843 -0.080274865 -0.14509116
-0.17250066 0.027437225 -0.055147182 -0.02039705 0.08719582 0.07708076 -0.06456306 0.14070587
-0.13285625 0.104309104 -0.11619593 0.13892303 0.096431434 -0.022317195 -0.0044885576 -0.16564617
0.18222234 -0.16091172 0.04434101 0.17230381 0.05282873 -0.05176982 -0.12375612 0.13766311
-0.051306978 -0.15893541 -0.13855365 -0.17041549 0.09676392 0.0013614321 0.10679809 -0.16998734
0.045162335 -0.0040837806 0.06841945 0.11540152 0.096262656 0.14943932 -0.09018579 0.0004917868
-0.100696616 -0.09468131 0.009020373 -0.15534091 -0.12476849 0.1766384 -0.10545492 0.14208323
0.08833487 -0.1704614 -0.043198645 0.06286193 0.10825518 0.011595431 0.15402202 0.12398603
0.08807445 -0.18070129 -0.15748122 0.14573088 0.15398027 -0.12520285 0.07569224 0.13659872
-0.07765513 -0.022185616 -0.10002713 0.15945897 -0.1380847 0.19496623 -0.06880006 0.15066671
-0.07333383 -0.009954798 0.003170208 0.116947435 0.07886147 -0.03585091 0.12292453 0.0024028919
-0.017710421 0.07391528 -0.05434052 0.089534186 0.15808128 -0.010100589 0.017255832 0.06424913
-0.13247328 -0.003548323 0.08240038 0.15714824 0.13182957 -0.14682698 0.14840943 -0.030125856
0.16038752 0.06444725 0.16583635 0.046182822 -0.085057504 0.16964957 0.034529872 -0.07305322

weight f4 [128, 128]
00000000: b1a6 24bd 456c f43d 1ec1 7b3d 4989 cb3d
00000010: 9055 b23d f79e 873b b71d 143c 5102 8bbd
00000020: 2a59 9b3d 324d b5bd 9072 38bc adc9 023d
00000030: 07bf b23c 1027 27bd 710f acbc b938 d33d
00000040: f24e 84bd b8d9 793c 54d5 be3c 7ebc cc3b
00000050: ca0e 0dbe 26a4 1d3c 74da 0bbd af10 0abd
00000060: 999e f2bd 233b e63c 7e46 e7bc 8e15 d0bd
00000070: f4c6 953b 1b21 5d3c 1669 c5bd 2674 473d
00000080: c4d7 643d 62b4 0abd f5cd dcbd 3ccd 8e3d
00000090: c5e1 383d 499d b0bd 029d 7bbc de3f aabd
000000a0: ef75 dc3d 3614 adbd 3a9b a43b a895 28bd
000000b0: 17fe f6bc a7a6 e33b cf71 9ebc 1ee8 72bc
000000c0: 273e 91bd 330c 94bd 9c53 02bc 5f02 36be
000000d0: 503d 623d c89d 84bc 52e3 843c 7080 89bd
000000e0: 7d89 bd3d e15e 8e3d 2e56 c23b 8fb1 e13d
000000f0: 8aea 633c f0f7 fcbc 22aa cfbc 42a3 6fbd
00000100: e0a5 413d 274e d9bc 4e8c 193d 8594 9abd
00000110: 41d1 43bd 894b f23c d23d a73a 9fb2 4b3d
00000120: 9165 de3d 2b17 b1bd f7bb 2abc 00d2 1ebd
00000130: 26a5 7f3d 5636 883d 0a17 d2bc dd19 d73d
00000140: 6e78 ff3d 7dee 08be c6c0 f0bd 7451 cd3b
00000150: c1b5 5c3d 2097 adbd 0381 83bb 9c67 813d
00000160: 7ab3 21bd e191 0a3d 4848 4cbd 4a5d 193e
00000170: 3535 89bd 5f89 4b3c 4e6d c9bd 3f58 7c3d
00000180: 5025 0dbe d8e1 023b 7703 76bd 85a3 94bc
00000190: ef0d a13c 20aa 0bbc e99a de3d 7cbb 353b
000001a0: 7de2 b4bc 411e e83d 607a 703c 6d3f 1f3c
000001b0: 433a 17bc bab5 0fbd ecf6 1dbd ccfc b1bc
000001c0: bd15 d5bc 1641 0bbd ba35 253d 222a 853d
000001d0: 07ba e539 62c0 3fbc 45d7 853d 151a c7bd
000001e0: f160 bb3d 85a5 6abd c294 113d e20e 9e3c
000001f0: 2dde 77bc cd26 983d 0155 4abd 0e58 cf3b
00000200: 5d89 ce3d 740d 70bd 74f1 5cbc cd1b e43c
00000210: f2ed ae3c 6d66 453d 60cc 5abd 8e0c 483e
00000220: 6318 c93b 876b 453d 8e32 33bd 487c 96bb
00000230: 616d f53b 06a1 07bc 180e 89bd 06da 403c
00000240: 373d 2c3d fd06 553d 0a70 7b3d 3445 eebd
00000250: d486 193d dd96 b8bc 6843 053e 2bb6 bdbb
00000260: b326 a63d 91f4 1fbd e4bb 87bd 2226 bf3d
00000270: 7b07 fabd f41b 23be 9039 5e3d dc88 35be
00000280: 0cb5 a33d cfd2 eabd c07c 493d 205c 16bd
00000290: 0213 9bbd 8027 2f3c d27a 6b3d 6504 df3c
000002a0: 1927 e7bd aa5f d4bb 4543 5ebd 40e2 eebd
000002b0: 0e47 a8bd 99d4 f83d 4637 173c a0d2 1fbd
000002c0: a600 12bd e13d b93d be98 913d a347 e23d
000002d0: 3251 c3bd 6480 e9bb f756 d73c 4fbe b03d
000002e0: 9ff9 02bd 477d dfbc d158 4fbc e224 fabd
000002f0: cd77 fabd cf51 0abe 81d3 8a3d eb6d 55bc
00000300: e5f2 9f3d 8a2a ad3d 5578 c43c bfe5 9c3d
00000310: 35c8 163d ddbe 00bd b1c9 18bd 3465 ffbd
00000320: 567f a3bc 057c 993d a83b 3c3d 07e4 a8bb
00000330: 7d19 8ebc e875 8a3c faf0 973c 5f17 f6bd
00000340: 09ad c9bc b32a 153e c903 413d 8e4e 74bd
00000350: d77c 97bd bbbb 9ebc bec7 1ebd 5821 56bc
00000360: 2762 c53d 8b5b 903d fe64 923d 8df6 0dbe
00000370: ca8e 833d 1f89 fbbd 37fe b93d aca6 c7bd
00000380: fc4c 3a3e 9720 cb3d 43df febd 343b 81bd
00000390: d322 91bd 7f04 493d 3ad7 8cbd 0c4d 4a3d
000003a0: 6ba7 493d c9c2 31bd a6d1 123e 10ed 14bd
000003b0: d60e 0abe 1e2c 9cbd 0e99 9cbd aa53 a5bd
000003c0: 4d7b 963d 8f5d 1cba 1a58 e73b 2ed6 75bd
000003d0: 685e 00be ee16 153d fba8 0cbe a840 c0bc
000003e0: 326f f6bd 07e8 e13a fe0d 62bd c740 c3bd
000003f0: 2332 9e3d 8c11 07be 5458 09be 1b85 1e3d
-0.04019803 0.11934713 0.061463468 0.099382944 0.08707726 0.004138823 0.009040288 -0.06787551
0.07585366 -0.088526145 -0.011257783 0.031930614 0.021819605 -0.040808737 -0.021003457 0.10313553
-0.0646037 0.015249662 0.023295082 0.006248056 -0.13775173 0.009621656 -0.03414388 -0.033707317
-0.11846656 0.02810437 -0.028231855 -0.10160361 0.004570836 0.0134966625 -0.09639184 0.048694752
0.055869833 -0.033863433 -0.10781471 0.06972739 0.045137186 -0.0862375 -0.015357258 -0.08312963
0.107646815 -0.084511206 0.0050233873 -0.04115835 -0.030150456 0.0069473567 -0.019341378 -0.014825849
-0.07091933 -0.07228889 -0.007954504 -0.17774342 0.055234253 -0.016188517 0.016221676 -0.06713951
0.092547394 0.069516905 0.0059306836 0.11020195 0.013910899 -0.030879945 -0.02534968 -0.058505304
0.04727733 -0.026526524 0.03748732 -0.07547859 -0.047806982 0.029577034 0.0012759513 0.049730893
0.10859216 -0.08646997 -0.010420791 -0.03877449 0.062413357 0.06650989 -0.025645752 0.1050298
0.12474142 -0.13372226 -0.117555186 0.0062658135 0.05388427 -0.084760904 -0.004013182 0.0631859
-0.039477803 0.033830527 -0.04987362 0.14976993 -0.066996016 0.012422889 -0.09835301 0.061607596
-0.13783765 0.001997104 -0.060061898 -0.018144378 0.019659964 -0.008524448 0.108693905 0.0027730158
-0.022080654 0.113338955 0.014677614 0.009719712 -0.009230199 -0.035085417 -0.03856556 -0.021726988
-0.026011342 -0.033997618 0.04033444 0.06502177 0.00043816885 -0.0117035825 0.065352 -0.09721772
0.091493495 -0.057286758 0.035542257 0.019294206 -0.015128654 0.07429276 -0.049397472 0.0063276356
0.10084794 -0.05860658 -0.013485301 0.027845288 0.021353696 0.048193384 -0.053417563 0.19536039
0.0061369403 0.04819825 -0.043749385 -0.004592452 0.0074898456 -0.008278137 -0.06692141 0.011770731
0.042050567 0.052008618 0.061386146 -0.11634293 0.037482098 -0.022532875 0.13013995 -0.0057895384
0.0811285 -0.039051596 -0.06627634 0.09333445 -0.12208458 -0.15928632 0.054254115 -0.17727989
0.07993516 -0.1146599 0.049191236 -0.03670895 -0.07571985 0.01069057 0.057490177 0.027223775
-0.11286754 -0.0064811306 -0.054263372 -0.116642475 -0.082166776 0.12149925 0.009229487 -0.039019227
-0.03564515 0.090450056 0.071092114 0.1104882 -0.09536971 -0.007125901 0.026286585 0.086300485
-0.03197634 -0.027281417 -0.012655453 -0.12214066 -0.122298814 -0.1350777 0.067786224 -0.013026695
0.0781 0.08455379 0.02398316 0.07661008 0.036812026 -0.03143202 -0.037301723 -0.12470475
-0.01995818 0.07494358 0.04595533 -0.005154136 -0.017346138 0.016901925 0.018547524 -0.120161764
-0.024618642 0.1456707 0.04712275 -0.059645228 -0.07396858 -0.019376626 -0.038764708 -0.013069473
0.09637862 0.070487104 0.07148169 -0.13863583 0.06423719 -0.12282013 0.09081691 -0.09748587
0.1819343 0.099183254 -0.124449275 -0.0631012 -0.0708672 0.049076553 -0.06876989 0.049389884
0.049231928 -0.043398652 0.14337787 -0.036358893 -0.13482222 -0.07625602 -0.0764638 -0.08072598
0.073477365 -0.0005964869 0.007060063 -0.06001871 -0.12536013 0.03639882 -0.13736336 -0.02346833
-0.120329276 0.0017235287 -0.055189125 -0.0953384 0.077244066 -0.13190287 -0.13412601 0.038701158

bias f4 [128]
00000000: 6379 e73d f456 ebbd 59be ecbc decf 0c3d
00000010: 2527 39bc 8578 a9bd 1ae5 6c3d 2e5f 93bd
00000020: 13d5 af3d dc12 bcbc b02f e9bd 6eef 863c
00000030: 64af 6b3c 0b74 efbb 23a2 bfbd 85bd 9cbd
00000040: 9423 61bc b841 01be 2022 053c fcde 7abd
00000050: 0484 efbd 002b f9bd 78df 0d3b f7d0 b23d
00000060: 71e5 d6bd 535a 95bd e50a 0d3e f41f 13bb
00000070: 8a91 17bc 4f05 dcbd 589e 85bd 392b ec3a
00000080: 7bcc 27bd 858d 3e3c 7589 11bd 036c b93d
00000090: c577 4d3c 916a d63d d1cc c43c f66a 0cbd
000000a0: 7c12 623c 84d2 e23d cdff 0cbd 2dd9 dbbd
000000b0: 354e 6cbd 6f3a 0d3e c292 f2bd 7551 2c3d
000000c0: 3cf7 b8bd 27bf 853d dae5 dd3d c417 a3bc
000000d0: 3596 0a3e 902f 123e de43 e4bd 1705 aebd
000000e0: 35e7 9fbd 39b2 dd3d e865 e8bc 08f6 abbc
000000f0: 99d2 5dbd 8a2e 8c3c bbd8 153d 49a3 df3c
00000100: 290e 593d b55c 0cbc 8bc1 e2bd cc1b 983d
00000110: 42ce 9d3c 81b0 5dbd 7bf7 83bc 946d b53d
00000120: a47c 323d 70e3 963b 8b70 373e 470c 67bd
00000130: 4995 84bd 3e1d 36bd 8dd1 0e3e 5766 f2bd
00000140: a32a c6bb 574d 2e3d f6ff a6bd ef42 953c
00000150: e270 463d e587 263a 09d1 94bc 6ad5 9fbc
00000160: 2858 87bc 3078 873d 46fd a33c 4dec 8dbd
00000170: 2329 4a3d 6ef6 dfbb 9e26 54bd 4705 e3bd
00000180: ac10 5bbc 3cfd e53d 288f ca3b decf 993d
00000190: 448c 85bd 101d aabd a84e ff3d ff3d f23c
000001a0: 837b 9ebd 7fe5 343c 4384 1a3d c7bd 41bd
000001b0: e2a6 743c cf2c 2ebd e1b0 ea3a 5e6d d13d
000001c0: a69f 51bc af3f 013d 2fda 083e 6a54 26bd
000001d0: 2cb7 1a3d e644 9e3d 1d6a ec3c eeaf afbd
000001e0: 4209 d83d fcdc 633d 62bb 233c 687e b53d
000001f0: de5e 02be a890 493d cd08 5ebd 31da 213d
0.113024496 -0.11491194 -0.028899359 0.034377925 -0.011300837 -0.082749404 0.057835676 -0.071958885
0.085855626 -0.022958212 -0.11386049 0.01647159 0.014385078 -0.0073075346 -0.09357097 -0.076533355
-0.013741393 -0.12622726 0.008125812 -0.06124781 -0.11695102 -0.12166405 0.002164809 0.08731263
-0.10492981 -0.072926186 0.13773687 -0.0022449465 -0.009251008 -0.107432 -0.06524342 0.0018018252
-0.040966492 0.011630421 -0.03553148 0.09053805 0.012540762 0.10469545 0.024023445 -0.034281693
0.013798352 0.11075309 -0.034423638 -0.10734782 -0.05769177 0.13791822 -0.11844398 0.04206987
-0.09031531 0.065306 0.10834856 -0.019908793 0.13533862 0.14275956 -0.11145757 -0.084970646
-0.07807771 0.10825009 -0.028368905 -0.02099134 -0.05415592 0.017112035 0.036583643 0.02729954
0.05299202 -0.008567025 -0.11072072 0.07427177 0.01926339 -0.054123405 -0.016109219 0.08858791
0.043575898 0.0046047494 0.17914025 -0.056408193 -0.064737864 -0.04446148 0.13947125 -0.11835926
-0.006047563 0.042554226 -0.081542894 0.018220393 0.048447497 0.00063526473 -0.018166082 -0.019510943
-0.016521528 0.06614721 0.020018231 -0.069298364 0.049355637 -0.0068347966 -0.05179464 -0.11084991
-0.013370674 0.11229941 0.0061816163 0.07510351 -0.06520894 -0.083063245 0.12466174 0.029570578
-0.07738402 0.011041044 0.03772379 -0.047300126 0.014932366 -0.0425232 0.0017905497 0.10225938
-0.012794411 0.031554874 0.1336448 -0.040607847 0.037772343 0.07727985 0.028859193 -0.08578478
0.10548641 0.05563067 0.009993406 0.08862001 -0.12731501 0.04921022 -0.05420761 0.039514724

weight f4 [1, 128]
00000000: 72d7 0cbe 9241 fd3d 6ed3 b73d 08a5 42be
00000010: b61c 07be eea0 993d 158f ccbd 7e62 b03d
00000020: b1f4 04be 9fe9 9dbd fcad 233e 1127 f33d
00000030: 231a 9abd bf34 a4bd 4e82 983d 9590 953d
00000040: be6e c83d 2e48 0d3e f511 85bd 3e97 f43d
00000050: d834 be3d 80e3 de3d 4008 c3bd 5ada dfbd
00000060: b9ef 903d 5c53 223e 38d5 66bd 85f9 e03d
00000070: 1f3c d9bd b95b be3d e0f4 da3d 43c2 ddbd
00000080: d9dd d13d 665e 4dbe 1b80 13be 6703 b7bd
00000090: b127 ebbd 4084 05be d44e c1bd 51d0 8f3d
000000a0: c97d 91bd 9220 12be ddc6 06be c42a b83d
000000b0: 1557 083e b258 d0bd ea5e 063e 8ca6 ffbd
000000c0: 7bea 0e3e 61ed b3bd eddc b4bd 0d09 033e
000000d0: a673 bdbd 5357 c0bd b9b1 e33d 930a dc3d
000000e0: 200d 073e dbe9 0fbe c9e3 a83d ed9d c8bd
000000f0: 09cc 7f3d 53de 1bbe fbe6 073e 0495 72bd
00000100: 0a72 0abe 52ad 0f3e 5796 fa3d d885 e9bd
00000110: 8313 42be 48b1 9c3d 634e 7c3d 67df 0dbe
00000120: c6b6 f1bd 9992 c83d abc3 39be 2de5 2f3e
00000130: 5e0c 973d eaf9 ae3d 5fa9 dbbd 929a e73d
00000140: bb5f 91bd 59d5 8bbd f543 eb3d d2a9 d93d
00000150: e96a 0dbe 664d 1cbe 44e1 88bd 3ab0 05be
00000160: 1222 10be 27c2 06be 6168 1abe f48d ca3d
00000170: 04e1 91bd d078 e53d 3463 e63d 1c6f 9a3d
00000180: c6f1 013e 7051 eebd 26ae e7bd a479 dcbd
00000190: 12bc cb3d 8b2c 113e 3f51 ecbd aa87 173e
000001a0: fb1c 9d3d d27f 2bbe 39a1 b3bd 5f41 de3d
000001b0: 2fb3 d2bd 52da 013e 3c14 8bbd 4662 b5bd
000001c0: d79e b0bd 2ca5 15be 731e dbbd a786 e53d
000001d0: ba2e 9bbd 57c4 43be 2ee3 fa3d 7a87 053e
000001e0: 5944 babd 0afa 05be ce77 0f3e 6013 f0bd
000001f0: 5cb8 da3d 8db9 4ebe 1539 823d 1f35 52be
-0.13754061 0.12366022 0.08975874 -0.19008267 -0.13194546 0.07501398 -0.09988228 0.08612536
-0.12983967 -0.07710575 0.15984339 0.11872686 -0.075245164 -0.08017873 0.07446729 0.073029675
0.097867474 0.13797066 -0.06497566 0.1194291 0.09287423 0.10883236 -0.09523058 -0.10930319
0.070769735 0.15852112 -0.056355685 0.10985092 -0.1060717 0.092948385 0.106912374 -0.10828068
0.10247392 -0.20055541 -0.14404337 -0.08936196 -0.1148218 -0.1303873 -0.094388634 0.07022155
-0.0710407 -0.14270237 -0.13161798 0.08992532 0.13314469 -0.10173167 0.13122144 -0.12482938
0.13956635 -0.08785511 -0.08831201 0.12796421 -0.09250574 -0.09391656 0.11117882 0.10744204
0.131886 -0.14054053 0.082465716 -0.09795747 0.062450442 -0.15221529 0.13271706 -0.059224144
-0.13520065 0.1403096 0.12235706 -0.11402482 -0.18952756 0.07651001 0.061598193 -0.13854752
-0.118024394 0.09793586 -0.18141048 0.17177267 0.07375406 0.08543761 -0.10725664 0.11308779
-0.07098337 -0.06827802 0.11487571 0.10628094 -0.13810314 -0.152639 -0.06683591 -0.13055506
-0.14075497 -0.1316 -0.1507888 0.09890357 -0.071229964 0.11204684 0.1124939 0.07540724
0.12689885 -0.11636627 -0.11312513 -0.107653886 0.09947981 0.14177148 -0.11538934 0.14797845
0.07671543 -0.16747978 -0.08770985 0.10852312 -0.10288083 0.12680939 -0.06790969 -0.08856635
-0.08624046 -0.1461379 -0.10699167 0.112073235 -0.07577272 -0.19117866 0.12250362 0.13039961
-0.090950675 -0.13083664 0.14010546 -0.117224455 0.10679695 -0.2018797 0.06358544 -0.20528077
