dapg/examples/dapg_jit_model/no_door-v0/model_classifier.pt (torch, 148333 bytes, 10 tensors)

in_shift f4 [128]
000000 00 00 00 00 00 00 00 00 00 00 00 00 00 00 00 00
       0.0 0.0 0.0 0.0
000010 00 00 00 00 00 00 00 00 00 00 00 00 00 00 00 00
       0.0 0.0 0.0 0.0
000020 00 00 00 00 00 00 00 00 00 00 00 00 00 00 00 00
       0.0 0.0 0.0 0.0
000030 00 00 00 00 00 00 00 00 00 00 00 00 00 00 00 00
       0.0 0.0 0.0 0.0
000040 00 00 00 00 00 00 00 00 00 00 00 00 00 00 00 00
       0.0 0.0 0.0 0.0
000050 00 00 00 00 00 00 00 00 00 00 00 00 00 00 00 00
       0.0 0.0 0.0 0.0
000060 00 00 00 00 00 00 00 00 00 00 00 00 00 00 00 00
       0.0 0.0 0.0 0.0
000070 00 00 00 00 00 00 00 00 00 00 00 00 00 00 00 00
       0.0 0.0 0.0 0.0
000080 00 00 00 00 00 00 00 00 00 00 00 00 00 00 00 00
       0.0 0.0 0.0 0.0
000090 00 00 00 00 00 00 00 00 00 00 00 00 00 00 00 00
       0.0 0.0 0.0 0.0
0000a0 00 00 00 00 00 00 00 00 00 00 00 00 00 00 00 00
       0.0 0.0 0.0 0.0
0000b0 00 00 00 00 00 00 00 00 00 00 00 00 00 00 00 00
       0.0 0.0 0.0 0.0
0000c0 00 00 00 00 00 00 00 00 00 00 00 00 00 00 00 00
       0.0 0.0 0.0 0.0
0000d0 00 00 00 00 00 00 00 00 00 00 00 00 00 00 00 00
       0.0 0.0 0.0 0.0
0000e0 00 00 00 00 00 00 00 00 00 00 00 00 00 00 00 00
       0.0 0.0 0.0 0.0
0000f0 00 00 00 00 00 00 00 00 00 00 00 00 00 00 00 00
       0.0 0.0 0.0 0.0
000100 00 00 00 00 00 00 00 00 00 00 00 00 00 00 00 00
       0.0 0.0 0.0 0.0
000110 00 00 00 00 00 00 00 00 00 00 00 00 00 00 00 00
       0.0 0.0 0.0 0.0
000120 00 00 00 00 00 00 00 00 00 00 00 00 00 00 00 00
       0.0 0.0 0.0 0.0
000130 00 00 00 00 00 00 00 00 00 00 00 00 00 00 00 00
       0.0 0.0 0.0 0.0
000140 00 00 00 00 00 00 00 00 00 00 00 00 00 00 00 00
       0.0 0.0 0.0 0.0
000150 00 00 00 00 00 00 00 00 00 00 00 00 00 00 00 00
       0.0 0.0 0.0 0.0
000160 00 00 00 00 00 00 00 00 00 00 00 00 00 00 00 00
       0.0 0.0 0.0 0.0
000170 00 00 00 00 00 00 00 00 00 00 00 00 00 00 00 00
       0.0 0.0 0.0 0.0
000180 00 00 00 00 00 00 00 00 00 00 00 00 00 00 00 00
       0.0 0.0 0.0 0.0
000190 00 00 00 00 00 00 00 00 00 00 00 00 00 00 00 00
       0.0 0.0 0.0 0.0
0001a0 00 00 00 00 00 00 00 00 00 00 00 00 00 00 00 00
       0.0 0.0 0.0 0.0
0001b0 00 00 00 00 00 00 00 00 00 00 00 00 00 00 00 00
       0.0 0.0 0.0 0.0
0001c0 00 00 00 00 00 00 00 00 00 00 00 00 00 00 00 00
       0.0 0.0 0.0 0.0
0001d0 00 00 00 00 00 00 00 00 00 00 00 00 00 00 00 00
       0.0 0.0 0.0 0.0
0001e0 00 00 00 00 00 00 00 00 00 00 00 00 00 00 00 00
       0.0 0.0 0.0 0.0
0001f0 00 00 00 00 00 00 00 00 00 00 00 00 00 00 00 00
       0.0 0.0 0.0 0.0

in_scale f4 [128]
000000 00 00 80 3f 00 00 80 3f 00 00 80 3f 00 00 80 3f
       1.0 1.0 1.0 1.0
000010 00 00 80 3f 00 00 80 3f 00 00 80 3f 00 00 80 3f
       1.0 1.0 1.0 1.0
000020 00 00 80 3f 00 00 80 3f 00 00 80 3f 00 00 80 3f
       1.0 1.0 1.0 1.0
000030 00 00 80 3f 00 00 80 3f 00 00 80 3f 00 00 80 3f
       1.0 1.0 1.0 1.0
000040 00 00 80 3f 00 00 80 3f 00 00 80 3f 00 00 80 3f
       1.0 1.0 1.0 1.0
000050 00 00 80 3f 00 00 80 3f 00 00 80 3f 00 00 80 3f
       1.0 1.0 1.0 1.0
000060 00 00 80 3f 00 00 80 3f 00 00 80 3f 00 00 80 3f
       1.0 1.0 1.0 1.0
000070 00 00 80 3f 00 00 80 3f 00 00 80 3f 00 00 80 3f
       1.0 1.0 1.0 1.0
000080 00 00 80 3f 00 00 80 3f 00 00 80 3f 00 00 80 3f
       1.0 1.0 1.0 1.0
000090 00 00 80 3f 00 00 80 3f 00 00 80 3f 00 00 80 3f
       1.0 1.0 1.0 1.0
0000a0 00 00 80 3f 00 00 80 3f 00 00 80 3f 00 00 80 3f
       1.0 1.0 1.0 1.0
0000b0 00 00 80 3f 00 00 80 3f 00 00 80 3f 00 00 80 3f
       1.0 1.0 1.0 1.0
0000c0 00 00 80 3f 00 00 80 3f 00 00 80 3f 00 00 80 3f
       1.0 1.0 1.0 1.0
0000d0 00 00 80 3f 00 00 80 3f 00 00 80 3f 00 00 80 3f
       1.0 1.0 1.0 1.0
0000e0 00 00 80 3f 00 00 80 3f 00 00 80 3f 00 00 80 3f
       1.0 1.0 1.0 1.0
0000f0 00 00 80 3f 00 00 80 3f 00 00 80 3f 00 00 80 3f
       1.0 1.0 1.0 1.0
000100 00 00 80 3f 00 00 80 3f 00 00 80 3f 00 00 80 3f
       1.0 1.0 1.0 1.0
000110 00 00 80 3f 00 00 80 3f 00 00 80 3f 00 00 80 3f
       1.0 1.0 1.0 1.0
000120 00 00 80 3f 00 00 80 3f 00 00 80 3f 00 00 80 3f
       1.0 1.0 1.0 1.0
000130 00 00 80 3f 00 00 80 3f 00 00 80 3f 00 00 80 3f
       1.0 1.0 1.0 1.0
000140 00 00 80 3f 00 00 80 3f 00 00 80 3f 00 00 80 3f
       1.0 1.0 1.0 1.0
000150 00 00 80 3f 00 00 80 3f 00 00 80 3f 00 00 80 3f
       1.0 1.0 1.0 1.0
000160 00 00 80 3f 00 00 80 3f 00 00 80 3f 00 00 80 3f
       1.0 1.0 1.0 1.0
000170 00 00 80 3f 00 00 80 3f 00 00 80 3f 00 00 80 3f
       1.0 1.0 1.0 1.0
000180 00 00 80 3f 00 00 80 3f 00 00 80 3f 00 00 80 3f
       1.0 1.0 1.0 1.0
000190 00 00 80 3f 00 00 80 3f 00 00 80 3f 00 00 80 3f
       1.0 1.0 1.0 1.0
0001a0 00 00 80 3f 00 00 80 3f 00 00 80 3f 00 00 80 3f
       1.0 1.0 1.0 1.0
0001b0 00 00 80 3f 00 00 80 3f 00 00 80 3f 00 00 80 3f
       1.0 1.0 1.0 1.0
0001c0 00 00 80 3f 00 00 80 3f 00 00 80 3f 00 00 80 3f
       1.0 1.0 1.0 1.0
0001d0 00 00 80 3f 00 00 80 3f 00 00 80 3f 00 00 80 3f
       1.0 1.0 1.0 1.0
0001e0 00 00 80 3f 00 00 80 3f 00 00 80 3f 00 00 80 3f
       1.0 1.0 1.0 1.0
0001f0 00 00 80 3f 00 00 80 3f 00 00 80 3f 00 00 80 3f
       1.0 1.0 1.0 1.0

out_shift f4 [4]
000000 00 00 00 00 00 00 00 00 00 00 00 00 00 00 00 00
       0.0 0.0 0.0 0.0

out_scale f4 [4]
000000 00 00 80 3f 00 00 80 3f 00 00 80 3f 00 00 80 3f
       1.0 1.0 1.0 1.0

weight f4 [128, 128]
000000 7c 9e 56 3d 20 08 b0 bd 80 26 d0 3d 59 8c 70 bd
       0.052397236 -0.085953 0.10163593 -0.058727596
000010 b8 af e8 bc 91 32 cd bd 0b 73 9d 3d fd b5 9c 3d
       -0.028404102 -0.100194104 0.07687958 0.07651899
000020 13 04 e9 3d ff d5 23 3d 8a 31 e5 bd 59 73 19 3d
       0.1137773 0.039999004 -0.111910895 0.03746352
000030 27 e7 10 bd c1 09 6c bc 32 34 90 bd 03 e7 21 3d
       -0.035376694 -0.014406622 -0.070412055 0.03952695
000040 6b f7 3e bb 8e 75 34 bc c8 ad 46 bd 90 6d 95 bc
       -0.0029139172 -0.011014355 -0.048505574 -0.01824072
000050 37 b0 fc bc 4b 22 60 3d d9 d2 66 bd fa 73 53 bd
       -0.030845745 0.054720204 -0.056353424 -0.051624276
000060 91 0e a8 3d 7e e8 cc 3d 0b 61 24 3d e9 ec 39 bc
       0.08205903 0.10005282 0.04013161 -0.011347988
000070 92 03 66 3c c1 4c fe bc 73 01 80 bd 70 cf 5a bd
       0.014038937 -0.031042458 -0.062502764 -0.053420484
000080 b1 57 01 3e af 9e e7 3d ce d9 34 bd 2b 50 96 bd
       0.12631108 0.11309563 -0.044153027 -0.073395096
000090 9f 4a 32 3c 1a 8c a3 bc 7c 32 a3 bd 77 f7 97 bd
       0.010882049 -0.019964267 -0.079686135 -0.07420247
0000a0 b1 f1 ac bd cd de a2 bd 8f 75 a2 3c 9b c2 cc bd
       -0.084445365 -0.07952652 0.019831447 -0.099980555
0000b0 43 15 a7 39 31 19 c4 bd 1d 24 95 3c aa 55 18 3d
       0.00031868563 -0.095751174 0.018205697 0.03719107
0000c0 15 57 c8 bb 60 a3 d9 3d 4d 04 21 3c ab af 8b 3c
       -0.0061138966 0.106268644 0.009827686 0.017051538
0000d0 cb 2b 0c 3c 11 8e 95 3d 63 38 bd bc 52 b9 2b bd
       0.008555363 0.07302488 -0.023098176 -0.041924782
0000e0 6b 06 c0 ba 21 52 7d bd 10 cb e8 3c 80 ac e8 3c
       -0.001465035 -0.061845902 0.02841714 0.028402567
0000f0 0b 1f 09 3e be 7e cb bc e0 76 c2 3d 2d 1d 8c bd
       0.13390748 -0.024840709 0.0949533 -0.06841502
000100 24 05 be bc b8 28 35 3d 56 9d bd 3d 90 9d fd bd
       -0.02319581 0.044228286 0.09258525 -0.12383568
000110 1c 25 a1 bd 64 0e a7 bd 65 6e 76 bd 2e 5a a1 bc
       -0.07868406 -0.08157042 -0.060163874 -0.019696321
000120 4e a4 37 3d f9 80 81 3d 6e 38 e0 bd 4f 09 da bc
       0.044834428 0.06323428 -0.10948263 -0.026615767
000130 3a 62 2a bc 7b fc ae 3d 23 7c 05 3d bf 4e b1 bd
       -0.010399396 0.085442506 0.03258909 -0.08657598
000140 b6 3a 53 bb 41 59 50 3b ab ff f4 3c e2 44 a2 3d
       -0.003223104 0.003179148 0.029907068 0.079232946
000150 0a fe 68 3d 61 96 79 bc 8e 94 48 bc 56 b4 fe 3c
       0.056882896 -0.015233607 -0.012242449 0.03109185
000160 9a 0d 91 3c 32 11 36 3d d6 21 c2 3d b5 a1 e7 bc
       0.017706681 0.044449992 0.0947911 -0.02827535
000170 b8 e5 6a 3c c1 2c cc bb bf b5 2f bd f8 84 dd 39
       0.014336996 -0.006230921 -0.042897936 0.00042251474
000180 63 24 e3 bc 85 d0 fb 3d 53 47 b3 3c 25 11 a1 bb
       -0.027727311 0.12295631 0.021884596 -0.004915374
000190 f7 05 e3 3d 83 0e a2 bc 43 0f b6 3d 31 66 3d 3c
       0.11085122 -0.01978231 0.0888963 0.011560009
0001a0 93 d0 92 3c bd 62 4e 3d 25 02 8b bc e4 42 71 3c
       0.017921722 0.050387133 -0.016968796 0.014725421
0001b0 ba 7f 58 bd 71 cf 9d 3d 68 51 b1 bc ef 1a 5b 3c
       -0.052856185 0.07705582 -0.021645263 0.013373121
0001c0 f3 25 07 bd 73 fd 5e ba 32 5e 63 bd 45 76 36 3d
       -0.032995176 -0.0008506395 -0.055509754 0.044546384
0001d0 d9 72 5c 3d 12 a4 49 3d b4 10 fd 3c 7a 94 de ba
       0.053820465 0.049228735 0.030891754 -0.0016981505
0001e0 f8 15 c5 bd b8 95 8c 3d 90 03 db bc 01 b8 0c be
       -0.09623331 0.06864494 -0.026735097 -0.13742067
0001f0 10 a3 e5 3d 10 2b 14 3d d2 3c cb bd 2b 05 9a bd
       0.11212742 0.03617388 -0.0992371 -0.07520517
000200 a7 35 1a be ef 71 49 bd 9c 2a 8c bd 96 52 28 3c
       -0.15059529 -0.04918092 -0.068440646 0.010273596
000210 71 e1 86 3c 72 e6 75 3d 24 aa 96 ba 19 58 88 bd
       0.01646492 0.060034223 -0.0011494798 -0.06657428
000220 6f 01 a1 bb cc b7 4a bd 82 a8 20 3e 8b 15 94 3c
       -0.004913501 -0.04949169 0.1568928 0.018076679
000230 7f cd ef bc 8c ba 9c 3c 53 64 f6 3c 58 dc 93 bd
       -0.029272793 0.019131921 0.030077135 -0.072197616
000240 f2 c6 c2 3c 16 6f df 3d 34 f9 b8 3c 3c 60 ed 3c
       0.023776505 0.1090986 0.022579767 0.028976552
000250 1d b7 19 3d 82 74 ee 3d 8c d4 80 3c fa 3d 6e bd
       0.037528146 0.11643316 0.01572635 -0.058164574
000260 79 cc 41 bd f8 62 86 bd bd ff 3c 3d 5f 78 bf bc
       -0.04731414 -0.065618455 0.04614233 -0.023372827
000270 1e f1 de bc 3f c7 f5 3c 6a f1 20 bd 97 ce 2a be
       -0.027214583 0.030002235 -0.03929273 -0.1668037
000280 d2 d9 0b bd 9b 0d e2 bd 2b 81 ef 3d e2 a2 53 bb
       -0.034143277 -0.11037751 0.11694559 -0.003229313
000290 88 ae 66 bd b9 15 37 3c f6 dc 86 bc b4 95 78 3d
       -0.05631879 0.011174613 -0.016462784 0.060689643
0002a0 a6 1d d8 3d 74 1c 31 bd 20 61 3b 3c 8e 1d 00 3d
       0.1055253 -0.043240026 0.011436731 0.031278186
0002b0 3f 45 7f bd 38 f1 40 bd 80 d8 18 bd 68 0a 72 bd
       -0.062321898 -0.047105044 -0.037315845 -0.059091955
0002c0 cf 6d 92 3d 51 50 93 bd fc 6f 49 3d 98 05 52 bd
       0.071498506 -0.071930535 0.049179062 -0.051274866
0002d0 0f 2e 06 be 3b d0 57 bd e1 f0 f8 bb 30 08 4f 3d
       -0.13103507 -0.05268882 -0.0075970744 0.050544918
0002e0 f4 eb bf bd e9 45 ce 3c 7e 3e 1e 3c 28 b5 4f bd
       -0.09371176 0.02517982 0.009658454 -0.050709873
0002f0 2c 14 80 bb c9 a0 33 3d ed 00 56 bb 33 49 86 3d
       -0.0039086547 0.04385451 -0.003265436 0.065569304
000300 9a 1d 6e 3d 71 98 bd bc 0f d2 91 bd 93 c8 1e 3d
       0.0581337 -0.023143979 -0.071201436 0.0387655
000310 08 db 04 bd d5 5b 21 3d 36 12 37 bd 1d 28 66 3d
       -0.032435447 0.03939422 -0.0446951 0.0561906
000320 7f 33 86 3d 4f d8 d9 bb 33 7b 83 3d 86 54 ec 3c
       0.06552791 -0.0066481004 0.06419983 0.028848898
000330 78 4d e6 bc 63 91 4d 3d 08 44 ae bd aa bc a9 bc
       -0.028113112 0.05018748 -0.0850907 -0.020719845
000340 18 2f 1a bc 0d d4 2f 3c cf de 4b 3d 97 7f 97 bd
       -0.009410642 0.010731709 0.049773034 -0.07397383
000350 9f e7 95 3c 24 03 1a 3d ce c8 b2 bd 45 20 9c 3d
       0.018298922 0.03760065 -0.08729707 0.076233424
000360 ad 19 01 3e d5 98 8a 3d 10 8e b9 bd 5e 3b 95 3c
       0.12607451 0.06767432 -0.090602994 0.018216785
000370 7c ed 84 3c 2f 43 0b 3c bc 17 26 3d c7 6e 39 3d
       0.016226523 0.008499905 0.04054998 0.04527166
000380 5c 19 73 bd 3f a9 0f ba 69 c7 e2 bd 4c 3e 85 3d
       -0.059350356 -0.0005480237 -0.11073191 0.06506023
000390 5d 7e 7f bb de b7 ae 3b 11 b3 a4 3d 68 43 00 bd
       -0.003898523 0.0053319773 0.08041967 -0.031314284
0003a0 2c 4a 9d bd 8a b5 9b bd dd 1c c0 bc 9f 15 d2 bc
       -0.07680163 -0.07602985 -0.023451263 -0.025645075
0003b0 66 a5 84 3a 09 d2 61 bd 08 8b 98 3d 06 c2 41 bd
       0.0010120093 -0.055131946 0.07448393 -0.047304176
0003c0 dd 01 9b bd d4 95 5e bc 6f c6 95 bd f2 13 bd 3c
       -0.07568715 -0.0135855265 -0.07313239 0.0230808
0003d0 e0 f2 31 b8 e5 05 f8 bc 2b b6 1d bd b9 59 8f bd
       -4.2426283e-05 -0.030276248 -0.038503807 -0.06999535
0003e0 15 42 0d 3d 67 cb e8 bd 20 57 15 bd b8 96 cb 3d
       0.03448685 -0.11366921 -0.036460042 0.09940857
0003f0 88 ed 31 3c 74 48 ea bc d8 6b 9f 3c 8f 9c d6 3c
       0.0108598545 -0.028599001 0.019460604 0.0261977

bias f4 [128]
000000 07 eb bf 3d 75 e9 e8 bd f3 d8 d2 3d 69 67 4c 3c
       0.09371 -0.113726534 0.10295286 0.012475827
000010 ea 2c f9 bc 92 63 f5 bc 3e 4f 3d 3e 67 20 66 3b
       -0.030416925 -0.029954705 0.1848726 0.0035114528
000020 a6 d6 7c bd f6 2f 0d 3e 4e f9 a7 3d 25 20 b4 3d
       -0.061728142 0.13787827 0.08201848 0.087951936
000030 60 e0 10 be 56 55 33 be 25 68 81 3d 6b de 5b 3d
       -0.14148092 -0.17513022 0.06318692 0.05367891
000040 ef a9 3d bd 4e 72 f9 bd 16 a8 6f be 0b 49 6b 3e
       -0.04630464 -0.12180005 -0.23403963 0.22977082
000050 07 bd 43 3c a1 a9 99 bd be 46 f8 bb de f3 26 bd
       0.011946923 -0.07503057 -0.0075767925 -0.040759914
000060 af 85 ce bd 18 53 20 bd e5 8d 14 be 83 f2 50 3e
       -0.10084092 -0.039141744 -0.14507253 0.20405011
000070 1f c8 a0 3c e8 5a 15 3e de 08 ab bd 56 ae 53 3e
       0.019626675 0.14585459 -0.08351301 0.20671973
000080 e5 1b 8d 3e 8d 84 46 bc ee d5 47 be 65 69 fe bd
       0.27560344 -0.0121165635 -0.19515201 -0.12422446
000090 3f 2b 4c bd 22 84 03 be 4e 02 30 3d fd 60 42 be
       -0.04984593 -0.12843373 0.042970948 -0.1898231
0000a0 9a a1 f3 3d 14 da 31 3e 13 25 09 be 1f 3f 08 3e
       0.118960574 0.17368346 -0.13393049 0.13305329
0000b0 0c e7 bc ba 2a ae 19 bd 06 40 fd bd d8 0c 3c 3e
       -0.0014412119 -0.03751961 -0.12365727 0.18364275
0000c0 d7 b4 7c be a2 d9 23 3d 55 a2 4e be 67 78 5b bc
       -0.2467836 0.040002473 -0.20179112 -0.013395405
0000d0 59 97 a3 3d d8 d3 06 3c 58 7d d0 bd 7c 84 5e bd
       0.07987852 0.008229218 -0.101801574 -0.054325566
0000e0 7b de 6d bd a2 a1 01 be 11 45 94 3d 8b b5 aa 3c
       -0.058073502 -0.12659314 0.07239736 0.02083852
0000f0 72 11 ca bc 3f d7 90 3d 70 d0 cb bc e0 3f 8d ba
       -0.024666522 0.07072305 -0.024879664 -0.0010776483
000100 94 fc ba bd a3 a0 7d be ce 2c 43 3d ad dc 29 be
       -0.09130207 -0.2476831 0.04765015 -0.16588087
000110 f3 2e 3f be e9 73 2c be db 20 68 be d2 54 a1 bd
       -0.18670253 -0.16841091 -0.22668783 -0.07877506
000120 6c bb 55 bd af 0b 24 bd 09 e5 c6 bd 27 ec 0e 3e
       -0.052180693 -0.040050205 -0.09711654 0.13957272
000130 00 db 12 be ac 50 c5 bd a2 e9 1f be 39 19 8c bd
       -0.14341354 -0.096345276 -0.15616468 -0.06840748
000140 b2 5d cb bd 41 b7 49 3d 43 b3 95 be 65 c2 e8 bd
       -0.0992998 0.04924703 -0.29238328 -0.11365203
000150 1f 1c 12 3e a2 4e 52 bd 6a 94 48 bd ab 14 aa bc
       0.1426854 -0.05134452 -0.048969664 -0.020761808
000160 5a 15 3e be c6 57 ff bd 23 27 f1 3a b1 e4 dd bd
       -0.18562832 -0.12467913 0.0018398504 -0.10834635
000170 c1 a8 64 3d 4f 40 38 3e 7a 96 23 be fa 85 19 be
       0.055825 0.17993282 -0.15975371 -0.14992514
000180 f7 8e 08 3d 86 80 67 3d ee 0a 2c 3e 22 f6 89 bd
       0.033339467 0.056519054 0.16801044 -0.06736399
000190 79 0e 82 be 84 7f 15 be 57 40 07 3e e4 a4 a7 bd
       -0.25401667 -0.14599425 0.13208137 -0.08185747
0001a0 cf f5 a8 3d 20 80 68 be c1 de 32 3d b7 cf d9 bd
       0.08250009 -0.22705126 0.043669466 -0.106353216
0001b0 40 a7 27 3e 88 ef 0c be f9 b8 17 3e 91 0f 4a be
       0.16372395 -0.13763249 0.14816655 -0.197325
0001c0 21 02 18 be fe 34 80 3e c6 6c 2d be 0f 68 3a 3e
       -0.14844562 0.2504043 -0.16936025 0.18203758
0001d0 ce fe 8a 3d a7 fe 12 3e a3 65 e8 3d 78 fe 14 bd
       0.067868814 0.14354955 0.11347511 -0.036375493
0001e0 02 26 89 3e 90 bc c2 bd 62 0f 57 3e 69 aa 36 3d
       0.2678681 -0.09508622 0.21001962 0.04459611
0001f0 17 82 36 be 2c 24 43 bc e8 7e 52 3d 5a 39 22 be
       -0.17823063 -0.0119104795 0.05139056 -0.1584219

weight f4 [128, 128]
000000 b0 56 c3 3d 2d 39 9a 3b 6b 33 42 bd 2a 23 84 bc
       0.09538019 0.004706523 -0.047412317 -0.016130049
000010 f5 8a 9d bd 31 64 97 3d 0f 21 d5 bc e5 b9 d3 bc
       -0.076925196 0.07392157 -0.02601674 -0.025845477
000020 88 af 48 3d 3f f9 85 3c 55 b5 2d 3d f2 0d 3d 3d
       0.048995525 0.016354201 0.04240926 0.046155877
000030 20 7d ae bc 32 91 00 3d 5a ef df 3d 5b e8 8c 3d
       -0.021299899 0.03138847 0.109343246 0.06880256
000040 57 52 45 3d 7e 2f 7b 3c 02 12 38 bd 67 da 19 3d
       0.04817423 0.015331147 -0.04493905 0.0375618
000050 91 ca 71 3d ef 8d 97 3d c4 7e de bd 59 97 85 bc
       0.059031073 0.074001186 -0.108640224 -0.01630752
000060 b0 33 96 bb ff 1c ba 3c 54 f6 d0 3b 92 dc 1c 3b
       -0.0045837983 0.022718905 0.006377021 0.002393518
000070 0d 32 58 3d d2 86 a4 3b e1 9a 83 bd 0b 29 0d bd
       0.052782107 0.0050209546 -0.06426025 -0.03446297
000080 57 d1 a3 3d de 49 ee bd f1 89 73 3d 9a 56 92 3a
       0.07998913 -0.11635183 0.059457723 0.0011164725
000090 fb 15 a8 3d c5 17 ac bd dc 3d df bd 94 0b cd 3d
       0.082073174 -0.08402971 -0.109004706 0.10011974
0000a0 73 2b b7 3d 29 44 82 bd fe 3f 81 bd 74 7c aa 3d
       0.08943834 -0.06360657 -0.06311034 0.08324519
0000b0 09 9c 55 bd 50 32 51 bd 0b 92 0b bd 11 be d0 bc
       -0.05215076 -0.051073372 -0.034074824 -0.025481256
0000c0 26 6f a2 3d e1 aa 01 bd 67 50 ee bc 47 71 0e 3d
       0.07931356 -0.031657103 -0.029091073 0.034776
0000d0 be 4d 22 bd e3 2a 1d 3d 43 7a ac bb c3 5b 1b 3d
       -0.039624922 0.038370978 -0.005263598 0.037929308
0000e0 47 06 4f bd cf f1 68 bd 2f 8e 51 3d 56 20 59 bd
       -0.050543096 -0.05687123 0.051160987 -0.053009354
0000f0 17 dd bd 3d c4 63 57 3d e8 75 81 bd cb 45 fd 3c
       0.09270685 0.05258538 -0.06321317 0.030917069
000100 21 65 10 3c 38 a7 c3 bd 09 48 67 bb 2f e5 b0 3d
       0.0088131735 -0.09553379 -0.003529074 0.08637463
000110 c6 76 b6 3d 6d c4 73 bd b8 21 e0 bc d4 62 18 3d
       0.08909373 -0.059513498 -0.027359828 0.037203625
000120 6f 35 05 bd ed ef f1 bc 36 ba 23 3d 6b a3 7f bd
       -0.03252166 -0.02953335 0.039972506 -0.062411707
000130 64 76 4d bd ae 31 d7 3c c4 16 d4 3c 41 9a 89 bd
       -0.050161734 0.026268806 0.025889762 -0.06718875
000140 c3 7a 9f 3d 2d 86 44 bc 63 7f fd 3c ac 79 81 b9
       0.07787087 -0.011994881 0.030944532 -0.0002469545
000150 50 4d e7 3d 48 1a 43 3c e5 23 eb 3d 24 67 4e bd
       0.11294043 0.011908121 0.11481456 -0.05039133
000160 6d 0e 8b bc e7 af 8a bd 18 0e 2d 3d 12 dd 80 3c
       -0.016974652 -0.06771832 0.04224977 0.015730415
000170 57 37 4a bc 59 96 aa 3c 31 67 06 3d 45 97 0a bd
       -0.012342296 0.020823644 0.032813255 -0.033835668
000180 7b a2 cf 3d a7 31 d0 bc c9 30 b7 bc f0 54 74 3d
       0.101384126 -0.025414301 -0.02236213 0.059651315
000190 19 59 9c 3d 32 bc 07 be 21 95 1a bc 45 d0 00 3e
       0.076341815 -0.13255385 -0.009434969 0.12579449
0001a0 fd b4 d0 bd ff a9 61 bd 6f 76 b2 3d de 7a 9f bd
       -0.10190771 -0.05509376 0.08713996 -0.07787107
0001b0 69 85 39 bd dc ba 8e bc 23 42 82 bd 07 06 1d bc
       -0.045293245 -0.017423086 -0.06360271 -0.009583957
0001c0 12 5a 2b 3c 94 cc c5 3d 6f 2f 82 3d 28 c9 8f 3d
       0.010458486 0.09658161 0.063567035 0.070207894
0001d0 38 a1 98 bc b1 be 54 3d d3 0d f4 bc a4 0d 26 3d
       -0.018631563 0.05193967 -0.029791748 0.040540352
0001e0 05 c9 78 3d 01 9a 1c 3d 3a 30 53 3d e3 a5 ad 3c
       0.060738582 0.038232807 0.051559664 0.021197265
0001f0 e9 97 e0 3c 1e b1 8e 3d 82 9f 9e 3d d6 36 1d bb
       0.027416186 0.06967376 0.077452675 -0.0023988984
000200 32 ad 04 3e 29 7d 0d be 05 e0 f6 3b 69 11 7a 3d
       0.12956694 -0.13817276 0.0075340294 0.06105176
000210 12 72 65 bd a4 d3 53 bd 38 90 06 3e 5e a2 3c bd
       -0.05601699 -0.051715508 0.13140953 -0.046053283
000220 54 b8 35 bd 2a 29 12 3e ea 01 44 3d 60 50 4c bd
       -0.044365242 0.14273515 0.047853388 -0.04988134
000230 c9 a4 2f 3d 88 f2 67 3d 77 12 30 3d bc 95 a8 bc
       0.04288176 0.05662778 0.04298636 -0.020579211
000240 92 9b 70 bb f5 cc a1 3d cb 80 18 be dc 80 11 bd
       -0.003671382 0.079004206 -0.1489288 -0.03552328
000250 93 e7 91 ba 3c 04 a4 bd 6f df b9 bd dd 91 21 3d
       -0.0011131637 -0.0800862 -0.0907582 0.039445747
000260 99 84 ee 3b 09 a8 34 bd 1c c3 2e bd 07 3a 48 3d
       0.0072789905 -0.044105563 -0.04266654 0.048883464
000270 70 df 3c 3d a4 67 72 bc e9 fc 75 3d 58 43 1b 3d
       0.046111524 -0.014795218 0.060055647 0.03790602
000280 f7 2f 14 3d 0b 3d 9b bd 85 b8 aa bd a0 39 a3 bd
       0.036178555 -0.075800024 -0.083359756 -0.079699755
000290 a5 13 a4 3d dd 50 f6 bd d1 89 ce bd cd b1 f2 bc
       0.080115594 -0.12027142 -0.1008488 -0.029625798
0002a0 ae 7f a3 3c 57 05 e8 3c ad 51 82 bd ac c1 17 3e
       0.019958343 0.028322859 -0.06363235 0.14819974
0002b0 47 d1 52 bd ef 5f 6c bd 1e cb c8 3c 20 bf 38 3d
       -0.051469114 -0.057708677 0.024510916 0.045104146
0002c0 60 16 a3 3c f0 8d 0c be 2d 86 d6 bc 82 9f c4 bd
       0.01990813 -0.1372602 -0.026187027 -0.09600736
0002d0 40 86 42 bc 95 04 12 bd bc 88 28 3c ec d9 b6 3c
       -0.011872828 -0.0356489 0.010286506 0.02232071
0002e0 58 3b 97 bd fa 8a a4 bd 0f 89 1c 3c a6 e0 67 bd
       -0.07384366 -0.0803432 0.009554162 -0.056610726
0002f0 0c 51 f2 3d 95 59 f1 3c ad cf fa bd 13 13 42 bd
       0.11831865 0.029461661 -0.12246642 -0.04738147
000300 d8 36 5b 3d d5 ed 96 bc aa 68 12 be e7 bd 8a bd
       0.0535191 -0.018423954 -0.14297739 -0.06774502
000310 22 93 b3 bd 01 a6 91 bc a8 f8 0a 3e b8 7a c2 bd
       -0.08768298 -0.017779352 0.13571417 -0.09496063
000320 fa 81 c3 bc a3 78 27 bd d4 e9 1e 3d 98 1d 79 3d
       -0.023865689 -0.040886533 0.038797215 0.06081924
000330 c9 5c b6 bd 45 62 b3 bd 0a 68 71 bd f2 50 97 3d
       -0.08904416 -0.08758978 -0.05893711 0.07388486
000340 c1 66 37 bc ef 6c 8c 3d 9a af 95 bd b8 f1 ce 3a
       -0.011193932 0.06856715 -0.07308884 0.001578859
000350 5b bb 86 bd de 49 d3 bd 29 4e 47 3c f8 87 8f 3d
       -0.06578704 -0.103168234 0.012164631 0.07008356
000360 a3 71 7e 3d c6 fd 9a bd ff 1b 04 be b4 6a 5c bd
       0.06212009 -0.07567935 -0.12901305 -0.053812698
000370 eb f3 de bc ff 46 3f bd 98 41 b4 3c 14 d5 04 3e
       -0.027215919 -0.046698567 0.022003934 0.12971908
000380 61 49 51 3e ed e3 5c bd 09 79 ef 3d 34 d2 d9 ba
       0.20438148 -0.053928304 0.116930075 -0.0016618432
000390 cd 60 85 bd 1e b2 86 3d a3 32 cd 3d 16 4f 99 3d
       -0.06512604 0.06576942 0.10019424 0.074857876
0003a0 f3 8e e3 bd 46 76 fe bd 9f b7 9e 3d 49 57 43 be
       -0.1111125 -0.124249026 0.07749867 -0.19076265
0003b0 0c c2 97 3d 9b 7c 02 bd 9a 13 4c 3c c7 28 92 3d
       0.074100584 -0.031857114 0.012455845 0.07136684
0003c0 4a 17 8e bd 0d 7e 8f 3d fb 12 16 bd 3f 76 8d bd
       -0.06938036 0.07006464 -0.036639195 -0.06907319
0003d0 7d 30 1f bd f3 ed 97 3d df f2 9d bd 29 0f 36 bd
       -0.0388646 0.07418432 -0.077123396 -0.04444805
0003e0 a4 8a 34 3d 14 56 47 3c 59 c4 52 3d d4 55 9d 3d
       0.04407753 0.012166519 0.051456783 0.07682386
0003f0 14 60 cb bd 82 81 ed bc b7 e4 9d 3d b3 bd 1a bd
       -0.09930435 -0.028992418 0.077096395 -0.037778568

bias f4 [128]
000000 b4 9d c0 3d de d8 22 bc 17 cc a3 3e 0d 0b 9e 3e
       0.094050795 -0.0099394005 0.31991646 0.30867806
000010 3c c8 81 bd 87 e9 c9 3c 21 ee 03 bb b4 1b b4 bd
       -0.0633702 0.024647487 -0.002013095 -0.087943465
000020 a2 19 3b be 71 f3 21 3d 08 78 27 3d a0 c4 81 3e
       -0.18271497 0.039538804 0.040885955 0.25345325
000030 2f 35 89 be 4a 7b 73 3d c3 25 02 be eb 1b 54 3e
       -0.26798388 0.05944375 -0.12709717 0.20713775
000040 d0 7c 6b 3e 52 2a 87 be 7e a8 f1 3d b6 a6 92 3e
       0.22996831 -0.26399475 0.117997155 0.28642815
000050 09 6e d1 bd bb d5 fe 3d f2 ff ce 3d 8b a2 1a be
       -0.10226066 0.124431096 0.101074114 -0.15101068
000060 59 28 f5 3d 75 64 50 be 87 1b 33 be b0 d7 f0 bd
       0.11970586 -0.20350821 -0.1749097 -0.11759889
000070 45 bc 42 be ed 53 63 3d 96 b9 8e be c0 f8 36 3e
       -0.19017132 0.05549996 -0.27875966 0.17868328
000080 ab 66 43 3e a8 b1 39 be c2 d6 59 be ed 19 18 be
       0.19082133 -0.18134177 -0.2127333 -0.1485364
000090 e7 fe c5 bd 4c 61 26 be ef dd 8b 3e d4 8f 78 3e
       -0.096677594 -0.16248053 0.2731776 0.24273616
0000a0 c6 9f ec bd b8 9b ca 3d 74 dc 82 3d 5c 6d 28 be
       -0.11553912 0.09892982 0.06389704 -0.16447967
0000b0 9f de 41 be 5b 54 48 3d 53 7f 1a be b3 c4 15 be
       -0.1893258 0.048908573 -0.15087633 -0.14625816
0000c0 56 b9 90 3e a8 5c 1c 3e 01 dd 4f 3e 88 7d 30 3e
       0.282664 0.1526972 0.2029915 0.17235386
0000d0 66 8c 3a 3d 30 4f 29 be 21 b5 9d 3d e7 54 6c 3e
       0.04554405 -0.16534114 0.07700563 0.23079263
0000e0 48 22 1b bd 95 63 f5 bd 37 09 80 be 2d c7 6d bc
       -0.03787449 -0.119818844 -0.2500703 -0.014512819
0000f0 49 6f e5 3d 66 4e 39 3e 9c f8 0f 3e bf ce c7 bc
       0.112028666 0.18096313 0.1405968 -0.024390576
000100 f2 41 08 be 0c 8c 34 be 89 9c 86 3e ae 65 90 3e
       -0.13306406 -0.17631549 0.26291302 0.28202575
000110 9c f2 8a be 48 42 12 bc 3c c8 e4 3a 61 19 74 be
       -0.2713822 -0.0089269355 0.0017454694 -0.23837806
000120 9d 97 76 be 1d 73 3c be 07 33 46 3e 4e 77 53 3e
       -0.24081273 -0.18403287 0.19355403 0.2065098
000130 96 97 a0 bd 3a 62 ed bd 3c b7 cf ba 3e 6c 83 be
       -0.07841413 -0.11591001 -0.0015847455 -0.2566852
000140 a1 71 02 3e 92 b2 7d be c1 15 4e bd bf 49 67 bd
       0.12738658 -0.2477515 -0.050313715 -0.056466814
000150 6d 96 ef 3d 9a 42 66 3e 39 0b 3c 3e 20 d5 9b bd
       0.11698613 0.22486344 0.18363656 -0.0760901
000160 e5 51 01 be 41 37 65 be 50 2b 98 3d ee 19 8d 3d
       -0.12628897 -0.22384359 0.07430136 0.06889711
000170 ca 9a 71 3e bc 92 28 be 63 68 dc 3d 52 71 2d 3e
       0.23594204 -0.16462225 0.10762098 0.1693776
000180 af 14 d7 3d 01 c8 09 3e e7 c8 81 be 91 05 e6 bd
       0.10501992 0.13455202 -0.2534859 -0.112315305
000190 b5 aa 95 bc fc 1a d2 3d 5e ae fa bd 81 12 a0 3e
       -0.018269876 0.10259053 -0.12240289 0.31264117
0001a0 cc 61 86 3e ba 8b 3d be a8 1f fa bd a1 ef 98 be
       0.26246488 -0.18510333 -0.12213069 -0.29870322
0001b0 2b dd 46 3e 43 f0 97 3d 7f 26 86 be bc 7d bf 3d
       0.19420306 0.07418873 -0.26201245 0.09350154
0001c0 2f f4 fa 3d ae d4 d4 3d 81 eb 97 3d 92 78 0d 3e
       0.122536056 0.10392128 0.07417966 0.13815525
0001d0 ba 45 a2 bd a9 9c 46 be b1 84 5b be 2e 95 25 3d
       -0.079234555 -0.19395699 -0.21437337 0.040425472
0001e0 b2 51 7c 3d 4a 60 f5 3d 2e ec 23 3e e7 ae 9a be
       0.06160135 0.11981256 0.16008064 -0.30211565
0001f0 6a f9 78 be 88 10 33 bd 13 7c 8c be 74 7a f2 3d
       -0.24313894 -0.043716937 -0.2743841 0.11839762

weight f4 [4, 128]
000000 bb 2e 86 3d af 22 03 3e 79 e9 2c 3d 0d 7b 65 3d
       0.06551882 0.128062 0.042214844 0.056025553
000010 fd ba a1 bc 15 23 04 3d 60 e9 5c bc fd 25 67 bd
       -0.019742483 0.03226002 -0.013483375 -0.056432713
000020 7a 62 a5 3c 37 e4 ff bd 26 37 52 3d ef c2 cf 3d
       0.020188559 -0.124947004 0.051322125 0.101446025
000030 67 89 4d bc 61 eb 84 3d 66 17 0c 3d 4d d1 eb 3c
       -0.012544966 0.064902075 0.034202002 0.028786326
000040 6c bd 65 3d 5b c8 55 ba 55 04 ba 3d 92 73 19 3d
       0.05608885 -0.00081551605 0.090828575 0.037463732
000050 61 fc 97 bd f6 cf 81 3d b1 39 ae bc b2 16 35 3d
       -0.07421184 0.063384935 -0.021267744 0.044211097
000060 91 bb b2 3c 3d e5 2f bd 58 ae 92 bd 77 67 8b 3d
       0.021817954 -0.042943228 -0.0716216 0.06806844
000070 56 71 7d bd a4 90 26 3d 15 e9 d3 bd 8d a3 3c 3c
       -0.061875664 0.040665284 -0.10347191 0.011513603
000080 8b dd 94 3d 5b d5 e6 3b 25 b1 9d bd e4 14 30 3d
       0.072688185 0.007044477 -0.07699803 0.042988673
000090 3a 3b db bd e3 7e b4 bb e7 07 25 ba 4e ff 96 3d
       -0.10704656 -0.00550829 -0.0006295428 0.07372914
0000a0 a8 4e 85 bd 98 42 4e 3d 88 29 0e bd 62 10 02 bd
       -0.06509143 0.050356477 -0.034707576 -0.031753905
0000b0 38 f5 e6 3b ed d9 b9 3d cc 2c 5f bc 68 11 2b bd
       0.0070482753 0.09074769 -0.01362152 -0.041764647
0000c0 99 0b 4a 3a 4b 81 96 3d 24 35 c9 3d e7 25 4f bd
       0.00077074167 0.073488794 0.09824589 -0.050573256
0000d0 8d cc c4 3d c4 1f c3 3b b6 1f 16 3d 96 c7 62 3d
       0.096093275 0.0059547145 0.036651336 0.05536612
0000e0 81 d3 bf bc 16 06 aa bd c6 cb ae bd ee d5 e4 3d
       -0.023416283 -0.08301942 -0.085349604 0.11173616
0000f0 19 df 78 bd c4 08 04 3d 34 6d d6 3d fe e0 08 3c
       -0.060759638 0.032234922 0.104700476 0.008354424
000100 5f e4 c5 3c db ed b8 bd f7 7e 4b 3d bc 28 e0 3c
       0.024156747 -0.09029742 0.04968163 0.027363174
000110 bd 73 83 bd e8 ae 3a 3d 73 2b f2 3c 04 dc 9e bd
       -0.0641856 0.04557696 0.029561734 -0.077568084
000120 dd 95 9f bd 35 df 0c 3d 97 bd 3d 3d c8 c5 a7 3d
       -0.07792256 0.034392554 0.046323385 0.08192021
000130 60 78 d2 bd db 30 0a 3d ff a4 a3 3d 8c 7a 08 bd
       -0.10276866 0.033738 0.07990455 -0.033319995
000140 07 91 83 3d fc be a8 bc 3e 93 d9 bd 0d 04 1f bd
       0.06424146 -0.020598881 -0.10623787 -0.038822223
000150 bc 13 ae 3d 4e 6a e3 3c 64 79 a0 3d a0 39 3b bd
       0.08499858 0.027760651 0.078356534 -0.045709252
000160 f1 89 80 3d 5f c0 ce bd c5 dd cc 3d c6 fd 4a 3d
       0.0627631 -0.100952856 0.10003237 0.049558423
000170 3f 0c 93 3d 3d a8 bb 3d 15 de 14 3d b2 ab 50 3d
       0.0718007 0.09162948 0.036344606 0.05094499
000180 3d 6b a8 bc f7 f2 be bc 3f 60 91 bd 24 f5 65 bd
       -0.020558948 -0.023309214 -0.070984356 -0.056141987
000190 b5 4e 9b bc 0e 6c b4 3d 31 6b 61 bd 47 c3 30 3d
       -0.018958429 0.08809672 -0.055033866 0.04315498
0001a0 61 59 37 3d a5 48 13 bc 56 e4 85 b9 f3 06 8e 3b
       0.044762973 -0.008989488 -0.0002553786 0.0043343245
0001b0 cf 20 5f 3b 6f fa c7 bc 26 4f da bd 89 fb 7e bc
       0.0034046655 -0.024411408 -0.106596276 -0.0155629
0001c0 7f 38 3f bd 47 47 5c bb 62 c8 3c 3d 9c 99 a3 3d
       -0.04668474 -0.003361182 0.046089537 0.07988283
0001d0 4d d6 ac 3c 11 7a 5b 3d 51 a0 ee bc c7 d9 b8 bc
       0.02109828 0.05358321 -0.02912918 -0.022564782
0001e0 bc 85 b6 3c 8d 06 fe 3d b8 3b 2a 3d 66 2b 15 bd
       0.022280566 0.12403593 0.04156086 -0.03641834
0001f0 99 e2 9d 3d 33 f6 d7 bd 38 f6 c7 bd 26 d4 bc 3c
       0.07709236 -0.10545006 -0.097637594 0.023050379
000200 3d ce f1 3b 7e 24 6e bd a8 e0 92 bd 66 3b c4 bd
       0.007379322 -0.05814027 -0.07171756 -0.09581642
000210 a7 9d d6 3d 68 fb 6c bd 2c 8a a3 bb f6 e4 e9 3d
       0.104792885 -0.057856947 -0.0049908366 0.11420624
000220 bb 0c f4 3d 93 19 b4 3c 4f 61 b0 bc ac 49 7e bd
       0.11916491 0.021984851 -0.021530775 -0.062081978
000230 f7 98 b1 3d 6d 7c 3c bd bb 4a e7 3d 5e 0c c4 bc
       0.08671754 -0.0460171 0.112935506 -0.023931678
000240 55 e8 a9 bd e7 12 07 3e 83 94 3e 3c 1e 68 22 be
       -0.08296267 0.13190804 0.011632088 -0.1586003
000250 b8 9a e8 bc 0e 0f 05 bd c9 7d 04 be 05 01 18 3d
       -0.028394088 -0.03248506 -0.12938608 0.037110347
000260 05 d1 bd 3d 85 56 c5 3d 61 ee 50 3c df df 22 bd
       0.09268383 0.09635643 0.012752146 -0.03976428
000270 79 5d 67 3d 5f d8 a1 3d c1 e8 31 3e a1 0c 06 be
       0.056485627 0.07902598 0.17373945 -0.13090755
000280 d2 fc 16 be e7 c4 10 3d 0d ce 8f 3d 0f 46 88 bb
       -0.14744881 0.03534403 0.07021723 -0.0041587423
000290 17 3f a5 3c 97 9e 2c 3e 3c d1 6d be ff c9 1d bd
       0.020171685 0.16857372 -0.23224348 -0.038522717
0002a0 74 4d 35 bd 0e 9a 53 36 29 a4 d4 bd ee a6 86 3d
       -0.04426332 3.1531122e-06 -0.103828736 0.06574808
0002b0 5d 90 0f 3d b1 f4 04 3d 43 cd 32 3d db c1 a4 3d
       0.035049785 0.03245992 0.043652784 0.080447875
0002c0 18 d0 14 be fd 51 af bd a4 0b eb bd 8a b7 0a be
       -0.14532506 -0.0856056 -0.1147683 -0.13546577
0002d0 2f f9 d8 bd ed bb ee 3d ea 71 f2 bd e5 94 2e 3b
       -0.10594403 0.11656938 -0.11838134 0.002663904
0002e0 5b ae 8b bc ce 14 9b 3d dd 4b 20 3e 77 c8 c7 bc
       -0.017050913 0.075723276 0.1565394 -0.024387581
0002f0 65 8d bc 3d a9 ee 3a be 14 34 d3 bd 9e 4c 7e bd
       0.09206656 -0.18255104 -0.103126675 -0.062084787
000300 1d 16 23 3e 12 22 08 3d a3 16 0f be ae 31 86 bd
       0.15926404 0.033235617 -0.13973479 -0.065524444
000310 c4 cc 95 3d d8 ab 72 3d e3 b5 ec bc 4d 3a 7f 3d
       0.073144466 0.059245914 -0.028895324 0.06231146
000320 de db 8b 3d a5 4e 13 3e ca 99 a1 bd 60 d3 da bd
       0.06829046 0.1438547 -0.07890661 -0.10684848
000330 6d 09 ac b9 71 d3 d8 bc f2 cb f2 3b 83 00 12 3e
       -0.0003281342 -0.02646801 0.007409566 0.14258008
000340 f2 60 70 bd 24 cf c4 3d 0e ae 8a bc 3f 5e 74 3d
       -0.058686204 0.096098214 -0.016928699 0.059660193
000350 2e 1f 5f bd a0 b3 af bd de 93 55 bd 22 9b 9e 3d
       -0.054473095 -0.085791826 -0.05214297 0.07744433
000360 af 1a b2 3d 16 95 1f 3e 98 05 58 bd ae 9c 9e bb
       0.08696496 0.15584216 -0.05273971 -0.004840455
000370 0d a8 45 bd 45 b9 72 3d f2 11 99 3d 4c 39 01 3d
       -0.04825597 0.059258718 0.07474126 0.031548783
000380 6d f1 85 bd 05 dc dc bd 3a 54 c1 3c 91 0f 0c 3e
       -0.06540189 -0.10784153 0.023599733 0.13677813
000390 93 aa b1 3d 36 c3 c9 bd 78 a6 4a 3d 31 28 f6 bc
       0.086751126 -0.09851687 0.049475163 -0.030048462
0003a0 94 ec a8 bd f5 ca f9 3d 4f 6e 03 3e 66 5c 0f 3e
       -0.08248249 0.12196914 0.12835048 0.14000091
0003b0 85 a8 d0 bd e1 91 1d be 18 e9 c3 3d 92 32 d6 3c
       -0.101883925 -0.1538768 0.095659435 0.02614716
0003c0 4d 38 00 be ca d9 b5 bd 3e 23 8e 3d 68 2f 2c bd
       -0.12521477 -0.088794306 0.06940316 -0.042037398
0003d0 40 96 cc ba 90 a7 06 3e e2 2e fc 3c 1d d6 c1 b9
       -0.0015608743 0.13149858 0.030784074 -0.00036971355
0003e0 7b 74 9b bd a6 44 6f bc c5 75 1d bd b2 36 63 3d
       -0.07590576 -0.014603769 -0.038442392 0.055472083
0003f0 54 8f 72 3b ba e7 35 3d ef 72 03 3e cd 54 ac bb
       0.00370117 0.044410445 0.12836812 -0.0052591325

bias f4 [4]
000000 54 ae 86 3d b1 48 a0 bd 17 1e c9 3d b7 a2 a3 be
       0.06576219 -0.07826365 0.09820192 -0.3196008
