dapg/examples/dapg_jit_model/no_hammer-v0/model_classifier.pt (torch, 148333 bytes, 10 tensors)

in_shift f4 [128]
0	0x00000000	0.0
1	0x00000000	0.0
2	0x00000000	0.0
3	0x00000000	0.0
4	0x00000000	0.0
5	0x00000000	0.0
6	0x00000000	0.0
7	0x00000000	0.0
8	0x00000000	0.0
9	0x00000000	0.0
10	0x00000000	0.0
11	0x00000000	0.0
12	0x00000000	0.0
13	0x00000000	0.0
14	0x00000000	0.0
15	0x00000000	0.0
16	0x00000000	0.0
17	0x00000000	0.0
18	0x00000000	0.0
19	0x00000000	0.0
20	0x00000000	0.0
21	0x00000000	0.0
22	0x00000000	0.0
23	0x00000000	0.0
24	0x00000000	0.0
25	0x00000000	0.0
26	0x00000000	0.0
27	0x00000000	0.0
28	0x00000000	0.0
29	0x00000000	0.0
30	0x00000000	0.0
31	0x00000000	0.0
32	0x00000000	0.0
33	0x00000000	0.0
34	0x00000000	0.0
35	0x00000000	0.0
36	0x00000000	0.0
37	0x00000000	0.0
38	0x00000000	0.0
39	0x00000000	0.0
40	0x00000000	0.0
41	0x00000000	0.0
42	0x00000000	0.0
43	0x00000000	0.0
44	0x00000000	0.0
45	0x00000000	0.0
46	0x00000000	0.0
47	0x00000000	0.0
48	0x00000000	0.0
49	0x00000000	0.0
50	0x00000000	0.0
51	0x00000000	0.0
52	0x00000000	0.0
53	0x00000000	0.0
54	0x00000000	0.0
55	0x00000000	0.0
56	0x00000000	0.0
57	0x00000000	0.0
58	0x00000000	0.0
59	0x00000000	0.0
60	0x00000000	0.0
61	0x00000000	0.0
62	0x00000000	0.0
63	0x00000000	0.0
64	0x00000000	0.0
65	0x00000000	0.0
66	0x00000000	0.0
67	0x00000000	0.0
68	0x00000000	0.0
69	0x00000000	0.0
70	0x00000000	0.0
71	0x00000000	0.0
72	0x00000000	0.0
73	0x00000000	0.0
74	0x00000000	0.0
75	0x00000000	0.0
76	0x00000000	0.0
77	0x00000000	0.0
78	0x00000000	0.0
79	0x00000000	0.0
80	0x00000000	0.0
81	0x00000000	0.0
82	0x00000000	0.0
83	0x00000000	0.0
84	0x00000000	0.0
85	0x00000000	0.0
86	0x00000000	0.0
87	0x00000000	0.0
88	0x00000000	0.0
89	0x00000000	0.0
90	0x00000000	0.0
91	0x00000000	0.0
92	0x00000000	0.0
93	0x00000000	0.0
94	0x00000000	0.0
95	0x00000000	0.0
96	0x00000000	0.0
97	0x00000000	0.0
98	0x00000000	0.0
99	0x00000000	0.0
100	0x00000000	0.0
101	0x00000000	0.0
102	0x00000000	0.0
103	0x00000000	0.0
104	0x00000000	0.0
105	0x00000000	0.0
106	0x00000000	0.0
107	0x00000000	0.0
108	0x00000000	0.0
109	0x00000000	0.0
110	0x00000000	0.0
111	0x00000000	0.0
112	0x00000000	0.0
113	0x00000000	0.0
114	0x00000000	0.0
115	0x00000000	0.0
116	0x00000000	0.0
117	0x00000000	0.0
118	0x00000000	0.0
119	0x00000000	0.0
120	0x00000000	0.0
121	0x00000000	0.0
122	0x00000000	0.0
123	0x00000000	0.0
124	0x00000000	0.0
125	0x00000000	0.0
126	0x00000000	0.0
127	0x00000000	0.0

in_scale f4 [128]
0	0x3f800000	1.0
1	0x3f800000	1.0
2	0x3f800000	1.0
3	0x3f800000	1.0
4	0x3f800000	1.0
5	0x3f800000	1.0
6	0x3f800000	1.0
7	0x3f800000	1.0
8	0x3f800000	1.0
9	0x3f800000	1.0
10	0x3f800000	1.0
11	0x3f800000	1.0
12	0x3f800000	1.0
13	0x3f800000	1.0
14	0x3f800000	1.0
15	0x3f800000	1.0
16	0x3f800000	1.0
17	0x3f800000	1.0
18	0x3f800000	1.0
19	0x3f800000	1.0
20	0x3f800000	1.0
21	0x3f800000	1.0
22	0x3f800000	1.0
23	0x3f800000	1.0
24	0x3f800000	1.0
25	0x3f800000	1.0
26	0x3f800000	1.0
27	0x3f800000	1.0
28	0x3f800000	1.0
29	0x3f800000	1.0
30	0x3f800000	1.0
31	0x3f800000	1.0
32	0x3f800000	1.0
33	0x3f800000	1.0
34	0x3f800000	1.0
35	0x3f800000	1.0
36	0x3f800000	1.0
37	0x3f800000	1.0
38	0x3f800000	1.0
39	0x3f800000	1.0
40	0x3f800000	1.0
41	0x3f800000	1.0
42	0x3f800000	1.0
43	0x3f800000	1.0
44	0x3f800000	1.0
45	0x3f800000	1.0
46	0x3f800000	1.0
47	0x3f800000	1.0
48	0x3f800000	1.0
49	0x3f800000	1.0
50	0x3f800000	1.0
51	0x3f800000	1.0
52	0x3f800000	1.0
53	0x3f800000	1.0
54	0x3f800000	1.0
55	0x3f800000	1.0
56	0x3f800000	1.0
57	0x3f800000	1.0
58	0x3f800000	1.0
59	0x3f800000	1.0
60	0x3f800000	1.0
61	0x3f800000	1.0
62	0x3f800000	1.0
63	0x3f800000	1.0
64	0x3f800000	1.0
65	0x3f800000	1.0
66	0x3f800000	1.0
67	0x3f800000	1.0
68	0x3f800000	1.0
69	0x3f800000	1.0
70	0x3f800000	1.0
71	0x3f800000	1.0
72	0x3f800000	1.0
73	0x3f800000	1.0
74	0x3f800000	1.0
75	0x3f800000	1.0
76	0x3f800000	1.0
77	0x3f800000	1.0
78	0x3f800000	1.0
79	0x3f800000	1.0
80	0x3f800000	1.0
81	0x3f800000	1.0
82	0x3f800000	1.0
83	0x3f800000	1.0
84	0x3f800000	1.0
85	0x3f800000	1.0
86	0x3f800000	1.0
87	0x3f800000	1.0
88	0x3f800000	1.0
89	0x3f800000	1.0
90	0x3f800000	1.0
91	0x3f800000	1.0
92	0x3f800000	1.0
93	0x3f800000	1.0
94	0x3f800000	1.0
95	0x3f800000	1.0
96	0x3f800000	1.0
97	0x3f800000	1.0
98	0x3f800000	1.0
99	0x3f800000	1.0
100	0x3f800000	1.0
101	0x3f800000	1.0
102	0x3f800000	1.0
103	0x3f800000	1.0
104	0x3f800000	1.0
105	0x3f800000	1.0
106	0x3f800000	1.0
107	0x3f800000	1.0
108	0x3f800000	1.0
109	0x3f800000	1.0
110	0x3f800000	1.0
111	0x3f800000	1.0
112	0x3f800000	1.0
113	0x3f800000	1.0
114	0x3f800000	1.0
115	0x3f800000	1.0
116	0x3f800000	1.0
117	0x3f800000	1.0
118	0x3f800000	1.0
119	0x3f800000	1.0
120	0x3f800000	1.0
121	0x3f800000	1.0
122	0x3f800000	1.0
123	0x3f800000	1.0
124	0x3f800000	1.0
125	0x3f800000	1.0
126	0x3f800000	1.0
127	0x3f800000	1.0

out_shift f4 [4]
0	0x00000000	0.0
1	0x00000000	0.0
2	0x00000000	0.0
3	0x00000000	0.0

out_scale f4 [4]
0	0x3f800000	1.0
1	0x3f800000	1.0
2	0x3f800000	1.0
3	0x3f800000	1.0

weight f4 [128, 128]
0	0xbd7e2d14	-0.06205471
1	0xbc9ad1c2	-0.018898848
2	0xbd29d6c4	-0.041464582
3	0x3d5e95d5	0.05434211
4	0x3dcdc8c3	0.10048058
5	0x3c621446	0.013798779
6	0x3d968914	0.07350364
7	0x3c47d878	0.012197606
8	0xbc4f86f1	-0.01266645
9	0xbc9a9709	-0.018870847
10	0x3d7908a3	0.060799252
11	0xbcf19751	-0.029491099
12	0x3dea0944	0.114275485
13	0xbd5eebd8	-0.054424137
14	0x3da738c9	0.08165128
15	0x3c58d218	0.013233684
16	0xbdea7110	-0.11447346
17	0x3dbc547a	0.091958
18	0xbdf01340	-0.11722422
19	0x3d075bbb	0.033046465
20	0xbbc3f18c	-0.0059797224
21	0xbd539e51	-0.051664654
22	0x3c8df657	0.017329378
23	0x3dbf9289	0.09354121
24	0xbdba6e94	-0.09103122
25	0xbd002161	-0.031281833
26	0xbc8398b8	-0.016064033
27	0xbc4c99a9	-0.012487807
28	0x3baf5acd	0.0053514005
29	0x3d2ffcae	0.042965584
30	0x3bbb1f34	0.005710507
31	0x3d0bf369	0.03416768
32	0xbddebc08	-0.10875708
33	0x3caf0b4b	0.02136769
34	0xbdbdae17	-0.09261721
35	0x3d8a530d	0.06754122
36	0xbc8410d6	-0.01612131
37	0x3d8b719d	0.068087794
38	0xbdc2b6c8	-0.09507519
39	0x3d0c7ca2	0.034298547
40	0x3c4c8c4c	0.012484621
41	0xbc0724c0	-0.008248508
42	0x3c0e4921	0.0086844275
43	0x3dd31fd3	0.10308804
44	0x3d726b80	0.05918455
45	0x3d3bfc6c	0.045895025
46	0x3d6b5788	0.057456523
47	0x3ced3a58	0.028958485
48	0x3ca3c14d	0.019989634
49	0xbd9ff5b1	-0.07810534
50	0x3d376a8d	0.04477935
51	0x3de68354	0.112555176
52	0xbcb86ed3	-0.022513783
53	0xbcda7d9a	-0.02667122
54	0x3cb5fa97	0.022214217
55	0x3cccff2d	0.025024021
56	0xbe1effc3	-0.15527253
57	0xbd38fd79	-0.045163605
58	0x3d3b0848	0.045662194
59	0xbb1907d2	-0.0023350609
60	0xbb62e337	-0.0034620294
61	0x3c6f82e9	0.014618614
62	0x3c139972	0.009008752
63	0x39fc68b3	0.00048143193
64	0xbe18cfbd	-0.14922996
65	0xbc840d4f	-0.016119627
66	0x3dc4b10c	0.096040815
67	0x3cee75e3	0.029108947
68	0xbe091ed8	-0.13390672
69	0xbdf5eafe	-0.12007712
70	0xbdb2e672	-0.0873536
71	0xbcafabb2	-0.021444175
72	0x3ddc21b5	0.107486166
73	0x3d8e4518	0.06946772
74	0x3d80aa73	0.062825106
75	0xbcf0d470	-0.029398173
76	0x3d2ae7f0	0.0417251
77	0x3ade892b	0.0016978135
78	0x3c900a84	0.01758314
79	0x3d68256d	0.056676317
80	0x3e04815c	0.12939972
81	0x3d4c5527	0.049885895
82	0x3d0e3a9a	0.034723856
83	0xbda0964e	-0.07841168
84	0x3c8418d4	0.01612512
85	0xbd93adc2	-0.07210876
86	0xbb80cb58	-0.0039304905
87	0xbd9cbf26	-0.07653646
88	0xbc93405f	-0.01797503
89	0xbde88447	-0.11353355
90	0x3d1d8773	0.038459253
91	0x3d068ac1	0.03284717
92	0xbd22f18e	-0.039781146
93	0xbd4626df	-0.048376914
94	0xbdf064b8	-0.117379606
95	0xbb16998f	-0.0022979712
96	0xbd89a157	-0.06720226
97	0xbdf52836	-0.1197056
98	0xbbef06b0	-0.0072944984
99	0x3dc996df	0.098432295
100	0x3d6ccdce	0.05781346
101	0xbc3c9989	-0.011511215
102	0xbd6b9436	-0.05751439
103	0xbc5ca986	-0.013468152
104	0x3dca4c03	0.09877779
105	0xbd49ea29	-0.04929558
106	0x3ca037dc	0.019557886
107	0x3dfe8a04	0.12428668
108	0x3c0d54e7	0.008626199
109	0x3c061559	0.008183801
110	0x3d749ea8	0.05972162
111	0x3bf83d27	0.0075756493
112	0x3ccc77e7	0.024959518
113	0xbd281898	-0.04103908
114	0x3e1cc957	0.1531118
115	0xbb7226c4	-0.0036949376
116	0xbd2b20f4	-0.041779473
117	0x3de07c44	0.10961202
118	0xbcb15920	-0.021648943
119	0xbd8d64f5	-0.06904022
120	0x3db2fea3	0.08739974
121	0x3c640ce1	0.013919086
122	0x3e05bc94	0.13060218
123	0x3d454c1b	0.048168283
124	0xbbde9c1c	-0.006793512
125	0x3d5c28d4	0.053749874
126	0xbcd3fe48	-0.025878087
127	0x3d068657	0.03284296
128	0xbd825f02	-0.063657776
129	0xbd1e5321	-0.038653497
130	0x3d1174a0	0.035511613
131	0x3a3a857d	0.0007115228
132	0xbd2afbf5	-0.04174419
133	0x3d1b397f	0.03789663
134	0xbdfc5ed7	-0.12322777
135	0x3a093ae6	0.0005234912
136	0xbce3a692	-0.027789388
137	0xbcebb237	-0.028771503
138	0x3993d829	0.00028199077
139	0xbc6fe064	-0.014640901
140	0x3b2c0d2d	0.002625297
141	0xbd812be2	-0.06307198
142	0xbb98512a	-0.0046483474
143	0xbd1b7b63	-0.037959468
144	0x3e07dc0f	0.1326754
145	0xbccf074e	-0.025272038
146	0x3e01bc46	0.12669477
147	0xbdc7121b	-0.0972025
148	0x3db0c51c	0.08631346
149	0xbe07bac2	-0.13254836
150	0xbcdea16a	-0.027176578
151	0xbdd27c9d	-0.10277674
152	0xbcf1c66b	-0.029513558
153	0x3ca09334	0.019601442
154	0xbd3c8eec	-0.04603474
155	0x3d6768e6	0.056496523
156	0xbdb86c4f	-0.09005033
157	0xbb968a99	-0.004594159
158	0x3b869be2	0.004107938
159	0xbce6aeb6	-0.02815948
160	0x3cf7b3b7	0.030237062
161	0x3aa70100	0.0012741387
162	0x3cec4b14	0.028844394
163	0x3cd10c50	0.025518566
164	0x3c43a4c9	0.011941143
165	0xbd35532a	-0.044268765
166	0xbd2cbf46	-0.0421746
167	0x3d12f532	0.035878368
168	0x3d1854d0	0.03719026
169	0xbcffe7fe	-0.031238552
170	0xbcdc4f6b	-0.026893338
171	0x3db8128f	0.08987915
172	0xbd011ab7	-0.031519618
173	0xba8668a4	-0.0010254574
174	0xbd0a299e	-0.033731095
175	0x3d881676	0.06644909
176	0x3d0d4a9d	0.034494985
177	0x3d2b01d5	0.041749794
178	0xbdc8d358	-0.098059356
179	0x3d7cbbe2	0.061702617
180	0x3ba0a176	0.00490206
181	0xbd03e06c	-0.032196447
182	0xbd9002de	-0.07031797
183	0xbc1eedc8	-0.009700246
184	0xbb90066b	-0.0043952963
185	0xbd97aaa6	-0.074055955
186	0xbc81d8cd	-0.015850449
187	0xbd62b781	-0.055350784
188	0x3bf82dc1	0.0075738137
189	0xbc13b7bd	-0.009015975
190	0x3d8adb6f	0.06780135
191	0x3d991c9f	0.07476162
192	0x3d45b110	0.048264563
193	0x3b8e1b78	0.0043367706
194	0x3d7c88b8	0.061653823
195	0xbdca7e7f	-0.098874085
196	0xbd835d9a	-0.064143375
197	0xbc031e66	-0.008002853
198	0x3e02191a	0.12704888
199	0xbdc985bc	-0.09839961
200	0xbdaaac95	-0.08333699
201	0xbd64e2d6	-0.05588039
202	0x3d8ea364	0.06964758
203	0xbdbbc513	-0.09168448
204	0xbb949d9b	-0.0045353896
205	0x3d020bcf	0.031749543
206	0xbcabe533	-0.020983314
207	0xbda6587f	-0.08122348
208	0xbca0d651	-0.019633444
209	0xbd69c191	-0.057069365
210	0xbdb55e76	-0.088559076
211	0x3c3f1edb	0.011665071
212	0x3d43fec0	0.04785037
213	0x3c157e6b	0.009124379
214	0xbd7363e3	-0.05942143
215	0xbbef1463	-0.0072961315
216	0x3db55214	0.08853546
217	0xbd3b25ce	-0.04569035
218	0xbda3c31d	-0.07996199
219	0xbda36f57	-0.07980221
220	0xbc56c4f4	-0.013108481
221	0x3d120946	0.035653375
222	0xbd44215c	-0.047883376
223	0x3dbe73c5	0.09299425
224	0x3dace971	0.08442963
225	0x3d1e98a1	0.038719777
226	0x3d2bb7f4	0.04192348
227	0x3b8b3e96	0.004249404
228	0xbd5ba499	-0.05362377
229	0x3d2a9ff9	0.041656468
230	0xbc9c385d	-0.019069845
231	0x3ca84f96	0.020545762
232	0xbcea37d9	-0.028591083
233	0x3d581b7e	0.052760594
234	0x3d6ae0b0	0.057343185
235	0x3c2aa292	0.010414736
236	0xbd9171f8	-0.07101816
237	0xbdc53277	-0.09628766
238	0xbdcb1b47	-0.09917312
239	0x3da908b7	0.08253615
240	0xbd55ff56	-0.05224546
241	0xbb13b2b3	-0.0022536933
242	0x3b559959	0.0032592623
243	0x3c5367d0	0.012903169
244	0x3db7b560	0.089701414
245	0x3d8c4f54	0.06851068
246	0xbddacdc8	-0.10683781
247	0x3ce9a464	0.02852077
248	0xbcc5cae0	-0.02414459
249	0xbd858d46	-0.065210864
250	0x3d81eeeb	0.06344398
251	0x3ceaf3de	0.028680738
252	0x3d19d76c	0.037558958
253	0xbddfa375	-0.10919849
254	0x3cc9fee1	0.024657669
255	0xbd1358b3	-0.035973262

bias f4 [128]
0	0xbe231ba7	-0.15928517
1	0xbe78b7a0	-0.24288797
2	0xbe461edb	-0.19347708
3	0xbe0a8c38	-0.13530052
4	0xbe019f8b	-0.12658517
5	0x3e28aabd	0.16471381
6	0xbbeffd69	-0.00732391
7	0xbe22b084	-0.15887648
8	0xbcc54845	-0.024082312
9	0x3d572a56	0.05253061
10	0xbe403207	-0.18769084
11	0x3e8226b0	0.2542014
12	0x3d8b1e81	0.067929275
13	0x3e172068	0.14758456
14	0x3e378f2d	0.17925711
15	0xbdc6a49b	-0.09699365
16	0xbd913904	-0.07090953
17	0x3e20ae03	0.1569138
18	0x3e6c605f	0.23083638
19	0x3e1eece6	0.15520057
20	0x3d6c1d07	0.05764487
21	0x3e413cec	0.18870896
22	0x3ddaaa0e	0.106769666
23	0x3e8114b7	0.25211117
24	0x3e4dca43	0.20096688
25	0x3dac343d	0.08408401
26	0xbca8cc47	-0.02060522
27	0x3daf6f6b	0.08566173
28	0xbd2b2b99	-0.041789625
29	0x3e9262a8	0.28590894
30	0x3cca26c1	0.024676682
31	0x3df603b7	0.12012427
32	0xbe1437c2	-0.14474395
33	0xbe6089a4	-0.21927506
34	0xbda7432a	-0.081671074
35	0x3e5d6f30	0.21624446
36	0xbe356179	-0.17712964
37	0x3e2c1e11	0.16808344
38	0xbe14f0b9	-0.14544953
39	0x3d940735	0.07227937
40	0x3d9efbd0	0.07762873
41	0x3c9385a9	0.01800807
42	0xbe70dedd	-0.23522516
43	0xbe3163ff	-0.17323302
44	0xbe302abb	-0.172038
45	0x3dad034e	0.08447896
46	0xbe515a65	-0.20444639
47	0x3dfe1256	0.12405841
48	0xbe4a9e81	-0.19787027
49	0xbb1b01db	-0.002365223
50	0xbe11d1c5	-0.14240177
51	0xbe9730ff	-0.2952957
52	0x3d3c15ef	0.045919355
53	0x3e70db6e	0.23521206
54	0x3d273c85	0.0408292
55	0xbdf93e48	-0.12170082
56	0xbe385cd0	-0.18004155
57	0xbdd87d80	-0.10570812
58	0x3d312619	0.043249223
59	0xbe8d7eb0	-0.27635717
60	0x3c622696	0.013803145
61	0x3e094e49	0.1340877
62	0xbdaa76a1	-0.08323408
63	0x3d41fa38	0.047357768
64	0x3a78317c	0.0009467823
65	0x3e5f63ef	0.21815465
66	0xbe3114a3	-0.17293029
67	0xbda7fdf1	-0.08202732
68	0xbe0977d3	-0.13424616
69	0xbd466918	-0.04844007
70	0xbe3a4d5e	-0.18193576
71	0x3e55b875	0.20871146
72	0xbe2bc7a8	-0.16775382
73	0x3d7d4bdb	0.06183992
74	0xbe7959bf	-0.24350642
75	0x3d1f6a30	0.038919628
76	0xbe5190c3	-0.20465378
77	0xbdecf616	-0.11570375
78	0xbe7c6f4b	-0.2465183
79	0xbddee2ac	-0.10883078
80	0x3de4dbbf	0.11174726
81	0x3e57ab13	0.21061353
82	0xbe2fc92e	-0.17166588
83	0xbe29f371	-0.16596772
84	0xbc928c62	-0.017889205
85	0x3d497035	0.049179275
86	0xbe803af2	-0.25044972
87	0x3d746a0f	0.059671458
88	0xbe253800	-0.16134644
89	0x3d678854	0.056526497
90	0x3e2100c1	0.15722944
91	0x3dd80362	0.1054752
92	0xbe2a5dd5	-0.16637357
93	0xbd6a0b44	-0.05713965
94	0xbd896aa2	-0.06709792
95	0x3e0c213d	0.13684554
96	0xbe2c00c4	-0.16797167
97	0x3e856435	0.26053014
98	0xbe2a4756	-0.16628775
99	0x3dcbdea9	0.099545784
100	0x3e241bb3	0.16026191
101	0xbe1f7bee	-0.15574619
102	0x3cce8ffe	0.025215145
103	0x3c727b85	0.014799957
104	0xbe114790	-0.14187455
105	0xbdd4f52e	-0.10398327
106	0xbd606431	-0.05478305
107	0xbc395363	-0.011311385
108	0x3e16245b	0.14662306
109	0xbe1d69e2	-0.15372422
110	0xbe50edb8	-0.20403183
111	0xbd5d362e	-0.054006748
112	0x3e837a3e	0.256792
113	0xbd918ec1	-0.07107306
114	0xbb9614c2	-0.0045801112
115	0x3e4290a3	0.19000487
116	0x3e1fd7d2	0.15609673
117	0xbdda8f77	-0.10671895
118	0x3e3527eb	0.17691009
119	0x3d142fc0	0.03617835
120	0x3e86531c	0.26235282
121	0xbdfb6db0	-0.122767806
122	0x3e4aa3ea	0.19789091
123	0x3d700df4	0.058607057
124	0xbd1db007	-0.03849795
125	0x3e7c9a43	0.24668221
126	0xbdeadff8	-0.114685
127	0xbe1b082d	-0.15139838

weight f4 [128, 128]
0	0x3cb76b97	0.02239017
1	0x3a2198e1	0.00061644433
2	0x3d86be1d	0.0657923
3	0xbae5eeec	-0.0017542518
4	0xbc847e6b	-0.016173562
5	0xbdb9e58a	-0.09076984
6	0x3c4d8c84	0.012545709
7	0xbda7c8d7	-0.08192604
8	0x3d27eefc	0.040999398
9	0xbd5a8a86	-0.053354762
10	0xbd9e29ec	-0.0772284
11	0x3baf0922	0.005341665
12	0x3ccc2835	0.024921516
13	0xbda650e0	-0.081208944
14	0x3d785c96	0.06063517
15	0xbcce7eab	-0.025206884
16	0x3b5538e8	0.003253514
17	0x3d507188	0.05088952
18	0xbdbf68dc	-0.09346172
19	0x3c020853	0.007936555
20	0x3d6cc0a0	0.05780089
21	0xbd9cf34a	-0.07663591
22	0xbb61829b	-0.0034410122
23	0x3db05e05	0.08611683
24	0xbd405560	-0.04695642
25	0x3d7b5109	0.061356578
26	0xbda3dfdc	-0.08001682
27	0x3d8e7073	0.06955042
28	0xbd26da72	-0.04073567
29	0x3cf2f74c	0.029658936
30	0x3cf7ddee	0.030257192
31	0xbd63159f	-0.05544054
32	0x3d6be1ad	0.057588268
33	0x3c1c045c	0.009522524
34	0xbd4f1f97	-0.050567236
35	0xbdbdb8e0	-0.09263778
36	0xbd3305e0	-0.043706775
37	0xbd43b681	-0.04778147
38	0x3c41a466	0.011818981
39	0xbd34e8df	-0.044167396
40	0x3c987099	0.018608378
41	0xbda54e51	-0.08071578
42	0x3e03d873	0.12875538
43	0x3da76a1d	0.081745364
44	0xbc15c415	-0.009140988
45	0x3d444f45	0.04792716
46	0x3dd30308	0.103033125
47	0xbd87d68e	-0.0663272
48	0xbd067f88	-0.032836467
49	0xbd548c70	-0.051891744
50	0x3db31966	0.08745079
51	0x3d853b20	0.06505418
52	0x3c9b911a	0.018990088
53	0x3d60b149	0.054856572
54	0x3d1ae93a	0.03782008
55	0xbd0a1999	-0.033715818
56	0xbda045d6	-0.0782582
57	0xbd2ddc9a	-0.04244671
58	0x3c8125a6	0.015765022
59	0x3cac859c	0.021059804
60	0x3b12cd6f	0.002240028
61	0xbdff23ac	-0.12457976
62	0x3c4bc91e	0.012438087
63	0x3cd2c224	0.02572734
64	0x3d79cbc4	0.06098534
65	0xbce50151	-0.02795473
66	0x3df34385	0.11878113
67	0xb9ddb74f	-0.0004228898
68	0x3c860541	0.016359927
69	0x3c9fe22e	0.01951703
70	0x3cb73173	0.022362446
71	0x3b68fa5b	0.0035549614
72	0x3d50d1b0	0.050981224
73	0xbdfd4517	-0.123666935
74	0x3d6b50f3	0.057450246
75	0xbd3e01be	-0.04638838
76	0xbd9219c9	-0.071338244
77	0x3db6aa90	0.08919251
78	0x3d584c9a	0.052807428
79	0x3c3e5281	0.01161635
80	0xbdcef9ac	-0.10106215
81	0xbdaeb509	-0.085306235
82	0xbb0ffd81	-0.0021971168
83	0xbd869beb	-0.06572708
84	0xbd265126	-0.040604733
85	0x3da18aa2	0.0788777
86	0x3c85a713	0.016315019
87	0x3d9b4869	0.075821705
88	0x3d4d75b9	0.050161097
89	0xbcfd2ec1	-0.030906083
90	0xbc4929cf	-0.012278034
91	0xbd523912	-0.051323958
92	0x3d20b6af	0.03923672
93	0xbd121625	-0.03566565
94	0x3e05059e	0.12990424
95	0xbde9fe96	-0.114255115
96	0x3d7833c7	0.060596254
97	0x3d9a2d56	0.075281784
98	0x3d06c108	0.032898933
99	0x3c98cfe1	0.018653812
100	0x3cc91d76	0.02455018
101	0xbd2b11be	-0.041764967
102	0xbc2f4487	-0.010697491
103	0x3ddfea38	0.109333456
104	0x3ce09d9b	0.027418902
105	0xbd3da5cc	-0.046300694
106	0x3d4eba2c	0.050470516
107	0xbd39985f	-0.045311328
108	0xbd846843	-0.06465199
109	0x3ca50fa4	0.02014906
110	0x3d332af5	0.04374214
111	0xbd6efc1b	-0.058345895
112	0xbd9f648a	-0.07782848
113	0xbd3a1d5d	-0.04543816
114	0x3da54125	0.08069066
115	0xbc1a8865	-0.009431933
116	0xbdcbeb4f	-0.09956991
117	0x3cb71f10	0.022353679
118	0x3c4b4ba7	0.012408174
119	0xbda40d35	-0.080103315
120	0x3da2da7c	0.07951829
121	0xbd43e920	-0.047829747
122	0x3c6b94e1	0.014378757
123	0x3db8bd62	0.09020497
124	0x3d6207fe	0.055183403
125	0xbe072c74	-0.13200551
126	0x3e020955	0.12698872
127	0xbcd1b1f1	-0.025597544
128	0x3dbd174d	0.0923296
129	0x3d9bc714	0.076063305
130	0x3d09ba96	0.033625208
131	0x3d012dd1	0.031537835
132	0x3d5a9714	0.053366736
133	0xbd0b6541	-0.03403211
134	0x3dc7c577	0.0975446
135	0x3cbe9ceb	0.023268184
136	0x3dac0d00	0.08400917
137	0x3a9a18f2	0.0011756702
138	0x3ca63724	0.020289965
139	0xbdc65fb7	-0.09686225
140	0x3dae8f5d	0.08523438
141	0x3ccbadd8	0.024863169
142	0xbcb2d7ce	-0.02183142
143	0xbb92c2ec	-0.004478803
144	0x3d405d49	0.046963964
145	0xbc19676b	-0.009363036
146	0xbd2f3410	-0.04277426
147	0x3d0d90e9	0.034562025
148	0x3d8d45f2	0.06898107
149	0xbcbef5b5	-0.023310522
150	0xbd756d39	-0.059918616
151	0xbd317a7e	-0.04332971
152	0xbd561f72	-0.052276082
153	0xbcb9ddbe	-0.022688743
154	0x3df72ce4	0.12069109
155	0x3d2f48f2	0.042794175
156	0x3c5a81a9	0.013336577
157	0xbd3ff80a	-0.046867408
158	0xbd8babe4	-0.06819895
159	0x3d713b9b	0.058894735
160	0xbd31008d	-0.043213416
161	0x3e1f2084	0.15539747
162	0x3cf3b850	0.029750973
163	0xbe088aa5	-0.13334139
164	0x3d9fc7c7	0.078017764
165	0x3d15f1f5	0.0366077
166	0xbd5055fc	-0.05086325
167	0x3d8e03fd	0.069343545
168	0xbd42d825	-0.047569413
169	0xbcdd51a5	-0.02701647
170	0xbddaaab5	-0.10677091
171	0x3d199cfa	0.03750322
172	0x3c77e28c	0.015129697
173	0x3da8ba72	0.082386866
174	0x3d6e46be	0.058172934
175	0x3d39da3b	0.045374136
176	0x3cfbc5c2	0.030733947
177	0xbd9d894e	-0.076922044
178	0x3c560c59	0.013064467
179	0x3de424b6	0.111398146
180	0x3dc2deac	0.095151275
181	0xbe15a4fb	-0.14613716
182	0xbcf57809	-0.029964464
183	0x3e012295	0.12610848
184	0x3db03877	0.0860452
185	0x3da167b9	0.07881112
186	0xbe1847da	-0.14871159
187	0xbcf99019	-0.030464219
188	0x3cbe1b9e	0.023206528
189	0xba5fa49a	-0.00085313024
190	0x3cbec08a	0.02328517
191	0xbe0b3f9a	-0.13598481
192	0xbd861037	-0.065460615
193	0x3cc284ff	0.023745058
194	0xbd110d9c	-0.03541337
195	0x3d7db467	0.061939623
196	0x3db2ed22	0.08736636
197	0x3e0114b6	0.12605557
198	0x3e03a9ae	0.12857696
199	0xbde204d7	-0.110360794
200	0x39cc3764	0.0003895118
201	0x3da0ebc5	0.078574695
202	0x3df2e6f8	0.1186046
203	0xbb389e0d	-0.0028170377
204	0x3e4d5ffa	0.20056143
205	0x3a900e0e	0.0010990517
206	0xbd532f75	-0.05155893
207	0x3c1e0987	0.009645826
208	0xbd9752b8	-0.07388824
209	0xbc335e5a	-0.010947788
210	0xbcf8e37b	-0.030381909
211	0xbc47d625	-0.012197052
212	0x3d325bb1	0.043544475
213	0x3d8e66d5	0.069532074
214	0xbd3a91ae	-0.045549087
215	0x3ce24e74	0.0276253
216	0x3dd0ae54	0.101895005
217	0x3d9a8862	0.07545544
218	0x3d827865	0.0637062
219	0x3de093c7	0.10965686
220	0x3d9c8a2c	0.07643542
221	0x3cbab472	0.022791121
222	0x3d1ed4c0	0.038777113
223	0xbc568f3d	-0.013095674
224	0xbcd83b5f	-0.026395498
225	0xbd8d4f96	-0.068999454
226	0x3d32ae5e	0.04362332
227	0x3d2952f0	0.04133886
228	0xbd2ebf3b	-0.04266284
229	0xbd4c2aa7	-0.049845364
230	0xbd843dc3	-0.064570926
231	0x3c5e1c82	0.0135566015
232	0xbd146bc0	-0.03623557
233	0x3c58439c	0.013199713
234	0xbb456473	-0.0030119687
235	0x3e1f16dd	0.15536065
236	0xbc3c688c	-0.011499535
237	0x3da26bc7	0.07930713
238	0x3e24c733	0.16091613
239	0xbac779e0	-0.0015218817
240	0xbcaecd84	-0.021338232
241	0xbb8452bc	-0.004038183
242	0x3db36cfc	0.087610215
243	0xbdd9423d	-0.10608337
244	0x3c8a92c4	0.016915686
245	0x3dbcc780	0.09217739
246	0xbe522894	-0.20523292
247	0xbbfa7b1f	-0.0076440717
248	0xbd9f201d	-0.07769797
249	0xbcad0238	-0.021119222
250	0xbc2d4dd2	-0.010577636
251	0x3b7035c6	0.0036653145
252	0xbd3a2c17	-0.045452204
253	0x3d126e5a	0.03574977
254	0x3dac0c82	0.08400823
255	0x3e07266b	0.13198249

bias f4 [128]
0	0xbe414167	-0.18872605
1	0xbe08e953	-0.13370256
2	0xbdc41289	-0.09573848
3	0xbe439bd8	-0.19102418
4	0xbe6bbf66	-0.23022231
5	0x3e2a64d0	0.1664002
6	0xbd82510f	-0.06363117
7	0xbdee6bf7	-0.116416864
8	0xbe6eac97	-0.23308025
9	0x3dd45476	0.10367672
10	0xbc462578	-0.012093894
11	0xbc644a1a	-0.013933683
12	0x3d0ef8f2	0.03490538
13	0xbd457179	-0.04820392
14	0xbd2bd743	-0.041953336
15	0x3e364b67	0.17802201
16	0xbd3171b8	-0.04332134
17	0xbdfb9108	-0.12283522
18	0x3e0d9d5a	0.13829556
19	0x3dec5226	0.11539106
20	0xbda22b8f	-0.079184644
21	0x3e128ff5	0.14312728
22	0xbcd12351	-0.025529535
23	0x3c79ab81	0.015238644
24	0xbe37ed32	-0.17961577
25	0xbe50d22f	-0.20392679
26	0x3d97656a	0.0739239
27	0x3dd94b4a	0.106100634
28	0x3d2b01f2	0.041749902
29	0x3e3e06dc	0.18557304
30	0xbcf8316b	-0.030297002
31	0x3d2a5034	0.041580394
32	0xbd7ab864	-0.061211005
33	0x3e0e4c55	0.13896306
34	0xbe6e08d6	-0.23245558
35	0x3e225860	0.15854025
36	0xbde4e50c	-0.111765
37	0x3e2f5e83	0.17125897
38	0x3db91675	0.090374865
39	0xbe13373d	-0.1437654
40	0x3e362665	0.17788084
41	0xbe425300	-0.18976974
42	0x3d8a8ebb	0.06765505
43	0x3c58fd5a	0.0132439975
44	0x3d52baeb	0.05144779
45	0xbd6373dd	-0.055530418
46	0x3e353f35	0.17699893
47	0x3d725842	0.0591662
48	0x3dd52dab	0.10409101
49	0xbc40ab3b	-0.0117595745
50	0xbd89d5a4	-0.06730202
51	0xbdd76711	-0.10517705
52	0x3e3488c6	0.176303
53	0x3e58178e	0.21102735
54	0x3e4b76b0	0.19869494
55	0x3e3a8db1	0.18218113
56	0xbe25146c	-0.16121072
57	0xbe69bd50	-0.22826123
58	0x3e575c00	0.21031189
59	0x3cc9f61a	0.024653483
60	0x3e684a3f	0.22684573
61	0x3e1ab264	0.15107113
62	0xbc27ea84	-0.010248784
63	0x3e397ee7	0.18114816
64	0xbe308eaf	-0.1724193
65	0x3e62e0b3	0.22156028
66	0x3d2c11fa	0.04200933
67	0x3d044ebb	0.032301646
68	0x3e1343f7	0.14381395
69	0x3e5f162e	0.21785805
70	0xbe5e9b14	-0.21738845
71	0x3ceb0e79	0.028693425
72	0x3e1aeede	0.15130183
73	0x3e360616	0.17775759
74	0xbe6493f2	-0.22322062
75	0xbe5fd41f	-0.21858262
76	0xbddd69ab	-0.1081117
77	0x3c51fcc7	0.0128166145
78	0x3dbf13e3	0.09329965
79	0x3e501c1d	0.20323224
80	0x3e6f1077	0.23346125
81	0xbd75dca3	-0.06002487
82	0xbce5b735	-0.028041461
83	0xbe5ba5d3	-0.21449976
84	0xbdcc74d5	-0.099832214
85	0xbdcd8e4e	-0.10036908
86	0x3da96d58	0.08272809
87	0x3d06d3fa	0.032917
88	0x3e1eb551	0.15498854
89	0x3db346e3	0.08753755
90	0x3e8185d6	0.2529742
91	0x3e2e37d0	0.17013478
92	0x3d8907b0	0.066909194
93	0xbe1d882c	-0.15383977
94	0x3dcfc8d7	0.10145729
95	0x3e05141e	0.12995955
96	0x3db2846f	0.08716666
97	0x3e4b5443	0.19856362
98	0xbe6c7635	-0.23091967
99	0xbe27998c	-0.16367167
100	0xb9df12ba	-0.00042547827
101	0xbdcdfba7	-0.100577645
102	0xbe5b328e	-0.21406004
103	0x3df30df5	0.118678965
104	0x3df65c51	0.12029327
105	0xbd52f62d	-0.051504303
106	0xbe2514bf	-0.16121195
107	0xbe758bf7	-0.23979174
108	0xbe331df8	-0.17491901
109	0xbdc345f5	-0.095348276
110	0x3e0f43b5	0.13990672
111	0x3e589bad	0.21153136
112	0xbd757842	-0.05992914
113	0xbd68846c	-0.056766912
114	0xbe80083b	-0.2500628
115	0x3dfd721e	0.12375282
116	0xbe4a4e5e	-0.19756457
117	0x3b971ab5	0.004611338
118	0xbe3fac7c	-0.18718141
119	0xbe0bfa61	-0.1366973
120	0x3d46f896	0.048576914
121	0x3e6a289a	0.22867051
122	0x3d66f21c	0.056383237
123	0x3d12663d	0.035742033
124	0xbdad204d	-0.084534265
125	0xbc1888ff	-0.009310006
126	0x3e300db3	0.17192726
127	0x3e1da340	0.15394306

weight f4 [4, 128]
0	0xbdbe7e53	-0.09301438
1	0x3c384ea8	0.011249222
2	0xbb0c7847	-0.0021433996
3	0xbd4e66d5	-0.050391037
4	0xbd42733a	-0.04747317
5	0xbd54cb33	-0.0519516
6	0xbd0db684	-0.03459789
7	0xbd88c52a	-0.06678231
8	0xbda36118	-0.079775035
9	0x3ddb1832	0.10697974
10	0x3c6cdd12	0.014457004
11	0x3cd6e3d5	0.026231686
12	0x3d14916b	0.036271494
13	0xbc2aa5f0	-0.010415539
14	0xbd519911	-0.051171366
15	0x3abb145f	0.0014273039
16	0xbc1ed656	-0.009694656
17	0x3c4bc72f	0.012437626
18	0x3bd7b15e	0.006582423
19	0xbd47750e	-0.048695616
20	0xbc553839	-0.013013893
21	0x3bf8b167	0.0075895074
22	0xbdc6f866	-0.09715347
23	0xbd304cac	-0.04304187
24	0x3bc492fe	0.005998968
25	0x3b06f0f5	0.00205904
26	0xbd1fb018	-0.038986295
27	0x3d2a1977	0.04152819
28	0x3d8f2fb1	0.06991518
29	0x3c04fa4a	0.008116314
30	0x3d84b379	0.06479544
31	0xbca97086	-0.020683538
32	0xbc8385ab	-0.016054949
33	0x3cef2222	0.02919108
34	0xbd2183c6	-0.03943231
35	0x3bcf7d69	0.0063320887
36	0x3d60b852	0.05486328
37	0xbc56b254	-0.01310404
38	0xbd857662	-0.0651672
39	0xbd0df2a9	-0.034655247
40	0x3d2a705c	0.04161106
41	0xbcb306e3	-0.02185387
42	0xbb32c3c3	-0.0027277328
43	0xbd99663e	-0.07490204
44	0xbd978097	-0.073975734
45	0xbaa20f5a	-0.0012364194
46	0x3d3aa8b8	0.04557106
47	0xbde7dc78	-0.11321348
48	0x39dad344	0.00041737605
49	0x3c2876fc	0.010282274
50	0xbd9fe8ac	-0.078080505
51	0xbd7973cf	-0.06090146
52	0x3d1aebb5	0.037822444
53	0xbcb01e93	-0.021498954
54	0x3e069da4	0.13146073
55	0x3da53ba4	0.08068016
56	0xbdb93686	-0.09043603
57	0x3d0ea055	0.034820873
58	0xbd060fd5	-0.032729942
59	0x3cf93605	0.030421266
60	0x3da0ad7a	0.07845588
61	0x3c4bf49e	0.012448458
62	0xbc957366	-0.018243503
63	0xbc15ac80	-0.0091353655
64	0xbd736149	-0.05941895
65	0x3c55bce0	0.01304552
66	0xbc3ff517	-0.011716149
67	0x3d1c752f	0.038197692
68	0x3d8297b2	0.0637659
69	0x3d364b65	0.044505496
70	0xbcf4f463	-0.029901689
71	0x3d9fbb53	0.07799401
72	0x3db4d9a4	0.08830574
73	0x3cc6a77e	0.024249788
74	0xbd4247fd	-0.047431935
75	0x3cfb1212	0.030648265
76	0xbd1a3048	-0.0376437
77	0xbc538563	-0.01291022
78	0x3d899e2e	0.067196235
79	0xbccabd56	-0.024748486
80	0x3dc9818f	0.098391645
81	0xbae43434	-0.0017410577
82	0x3c25c8f5	0.010118713
83	0xbdaf7492	-0.08567156
84	0xbd022ffb	-0.03178404
85	0xbd02a074	-0.0318913
86	0x3cbc15ad	0.022959555
87	0xbcbd6761	-0.023120584
88	0x3d839341	0.06424571
89	0x3c202bf4	0.009776104
90	0x3ca76565	0.02043409
91	0x3d0fa2f6	0.03506752
92	0xbd47f092	-0.04881341
93	0x3cdabc78	0.026701197
94	0xbd54a8a0	-0.051918626
95	0x3d319e42	0.043363817
96	0x3d9d770e	0.076887235
97	0x3b8829c0	0.0041553676
98	0xbd47f1f6	-0.048814736
99	0xbcbdcf8f	-0.02317026
100	0xbceb9915	-0.028759519
101	0xbc60f029	-0.013729134
102	0x3c9234bc	0.017847411
103	0xbd106931	-0.03525657
104	0x3d7ca992	0.061685152
105	0xbb9d2812	-0.0047960365
106	0xbd2dcc9c	-0.04243146
107	0xbd17158f	-0.036885794
108	0xbdcade07	-0.099056296
109	0xbd429869	-0.04750863
110	0xbd411759	-0.047141407
111	0x3d9cc005	0.07653812
112	0x3ba02e94	0.004888365
113	0xbc0ee811	-0.008722321
114	0xbd82f9a5	-0.06395272
115	0x3cf82600	0.030291557
116	0xbd4a10eb	-0.04933254
117	0xbc4beca9	-0.012446561
118	0x3b07480e	0.0020642313
119	0x3b4fcf9a	0.0031709434
120	0xbd4264c4	-0.04745938
121	0x3cde137e	0.027108904
122	0xbcb3e528	-0.021959856
123	0x3ab4308f	0.0013747382
124	0x3dc78439	0.09742016
125	0xbdb554a9	-0.08854038
126	0x3cf24c23	0.02957732
127	0x3c6ea646	0.01456601
128	0x3e33975a	0.17538205
129	0xbd8d8439	-0.06909985
130	0x3dc4e2c1	0.096135624
131	0x3ded5a67	0.115895085
132	0xbc777767	-0.015104151
133	0xbd96f7cd	-0.07371483
134	0x3e12313d	0.14276595
135	0x3ddb186b	0.10698017
136	0x3deebf77	0.11657613
137	0xbc0d2be8	-0.008616425
138	0xbcda8874	-0.026676394
139	0xbd3d672f	-0.04624098
140	0xbd6b5dcc	-0.0574625
141	0xbd127378	-0.03575465
142	0x3da5aa36	0.08089106
143	0x3bf3baf4	0.007438058
144	0x3d73156e	0.05934661
145	0xbc353ae9	-0.011061409
146	0xbda5ac67	-0.08089524
147	0xbdb1de9e	-0.08685039
148	0x3dc64ad1	0.09682239
149	0xbc25e305	-0.010124926
150	0x3d24b91b	0.040215593
151	0x3c572f3f	0.013133823
152	0x3d7d3cf9	0.061825726
153	0x3bb6eac0	0.0055821836
154	0xbdfb594f	-0.12272894
155	0xbd16069c	-0.036627397
156	0xbc710185	-0.014709835
157	0xbd7189db	-0.05896936
158	0x3d85336e	0.0650395
159	0x3da4fe0a	0.080562666
160	0x3d91c068	0.07116777
161	0xbe021ed5	-0.12707074
162	0x3dc12bc7	0.09432178
163	0x3d388f44	0.045058504
164	0x3dbff928	0.09373695
165	0x3ca143ac	0.019685589
166	0xbd7df9a0	-0.06200564
167	0x3e10ddfa	0.14147177
168	0x3d699fa1	0.057037
169	0x3e3229ce	0.1739876
170	0xbda579ab	-0.08079847
171	0x3d8e69ce	0.069537744
172	0xbdf20d25	-0.11818913
173	0x3c4c41f3	0.012466895
174	0x3c9dbe4f	0.019255785
175	0xbdb06ec9	-0.086148806
176	0x3bc213c6	0.0059227673
177	0x3cca444c	0.02469077
178	0xbd7c4e47	-0.06159809
179	0x3d2c3c38	0.042049617
180	0xbd9ee862	-0.07759167
181	0xbe38698b	-0.18009011
182	0xbdaf4f15	-0.085600056
183	0xbd7674fc	-0.06017016
184	0x3d5ef930	0.054436862
185	0x3e00ad32	0.12566069
186	0xbe0e5881	-0.13900949
187	0x3c470ef0	0.0121495575
188	0xbdabe0db	-0.08392497
189	0xbe0056cb	-0.12533109
190	0x3e09bd42	0.13451102
191	0xbc56912b	-0.013096134
192	0x3d1b5a16	0.03792771
193	0xbd9730e1	-0.0738237
194	0x3d83c0bd	0.06433246
195	0xbab3840d	-0.001369597
196	0xbd2003f8	-0.039066285
197	0xbde54015	-0.11193863
198	0x3bf06155	0.0073358216
199	0xbb9ee368	-0.0048488863
200	0xbe1ef6a6	-0.15523776
201	0xbd39a26b	-0.04532091
202	0x3e21634e	0.15760538
203	0x3e3a0e4b	0.18169515
204	0xbccd1925	-0.025036404
205	0xbd66d423	-0.056354653
206	0xbd772b21	-0.060343865
207	0xbddd6872	-0.10810937
208	0xbe40cd94	-0.18828422
209	0x3dc27f36	0.0949692
210	0xbc717b00	-0.014738798
211	0x3d01d6d7	0.031699028
212	0x3d73fc25	0.059566636
213	0x3cfd090a	0.0308881
214	0xbc223bb1	-0.009901927
215	0xbbe4bec6	-0.00698075
216	0xbdab0b29	-0.08351738
217	0xbdd8bd23	-0.1058295
218	0xbd15e5d8	-0.03659615
219	0xbe362720	-0.17788363
220	0xbdb01a1f	-0.08598732
221	0x3db19898	0.08671683
222	0xbc5b0815	-0.013368626
223	0xbdf7eac6	-0.12105326
224	0xbc72f98b	-0.0148300035
225	0xbd9da36f	-0.07697188
226	0x3e087d9e	0.13329169
227	0x3e0015b4	0.12508279
228	0xbd458af7	-0.04822823
229	0x3debf796	0.11521833
230	0x3d1b5f6e	0.037932806
231	0xbd66be05	-0.05633356
232	0xbdf19f78	-0.117979944
233	0x3d87884e	0.06617795
234	0x3dfc2b19	0.12312908
235	0x3de18cf3	0.11013212
236	0x3dd713a4	0.10501793
237	0x3d95070c	0.07276735
238	0xbd942c0d	-0.072349645
239	0xbdb87051	-0.09005798
240	0x3c8fbb34	0.01754532
241	0x3d82465f	0.063610785
242	0x3dbc1333	0.091833495
243	0xbd9d79cc	-0.076892465
244	0x3d90c3d3	0.070686005
245	0xbcdaf6bf	-0.026728986
246	0xbc8935ea	-0.016749341
247	0xbc3182b1	-0.010834382
248	0x3d78d21a	0.060747243
249	0xbdc21c5a	-0.09478064
250	0x3da0e03e	0.07855271
251	0x3da7510e	0.08169757
252	0x3ca0abb5	0.019613126
253	0x3d83c86e	0.06434713
254	0xbda0335a	-0.078222945
255	0xbdbd21fd	-0.092349984

bias f4 [4]
0	0x3d6cadd9	0.05778298
1	0xbdc0943a	-0.09403272
2	0xbe70e0b0	-0.23523211
3	0x3d35b9ab	0.04436652
