dapg/examples/dapg_jit_model/no_hammer-v0/model_discriminator.pt (torch, 143224 bytes, 7 tensors)

in_shift f4 [128]
00000000: 0000 0000 0000 0000 0000 0000 0000 0000
00000010: 0000 0000 0000 0000 0000 0000 0000 0000
00000020: 0000 0000 0000 0000 0000 0000 0000 0000
00000030: 0000 0000 0000 0000 0000 0000 0000 0000
00000040: 0000 0000 0000 0000 0000 0000 0000 0000
00000050: 0000 0000 0000 0000 0000 0000 0000 0000
00000060: 0000 0000 0000 0000 0000 0000 0000 0000
00000070: 0000 0000 0000 0000 0000 0000 0000 0000
00000080: 0000 0000 0000 0000 0000 0000 0000 0000
00000090: 0000 0000 0000 0000 0000 0000 0000 0000
000000a0: 0000 0000 0000 0000 0000 0000 0000 0000
000000b0: 0000 0000 0000 0000 0000 0000 0000 0000
000000c0: 0000 0000 0000 0000 0000 0000 0000 0000
000000d0: 0000 0000 0000 0000 0000 0000 0000 0000
000000e0: 0000 0000 0000 0000 0000 0000 0000 0000
000000f0: 0000 0000 0000 0000 0000 0000 0000 0000
00000100: 0000 0000 0000 0000 0000 0000 0000 0000
00000110: 0000 0000 0000 0000 0000 0000 0000 0000
00000120: 0000 0000 0000 0000 0000 0000 0000 0000
00000130: 0000 0000 0000 0000 0000 0000 0000 0000
00000140: 0000 0000 0000 0000 0000 0000 0000 0000
00000150: 0000 0000 0000 0000 0000 0000 0000 0000
00000160: 0000 0000 0000 0000 0000 0000 0000 0000
00000170: 0000 0000 0000 0000 0000 0000 0000 0000
00000180: 0000 0000 0000 0000 0000 0000 0000 0000
00000190: 0000 0000 0000 0000 0000 0000 0000 0000
000001a0: 0000 0000 0000 0000 0000 0000 0000 0000
000001b0: 0000 0000 0000 0000 0000 0000 0000 0000
000001c0: 0000 0000 0000 0000 0000 0000 0000 0000
000001d0: 0000 0000 0000 0000 0000 0000 0000 0000
000001e0: 0000 0000 0000 0000 0000 0000 0000 0000
000001f0: 0000 0000 0000 0000 0000 0000 0000 0000
0.0 0.0 0.0 0.0 0.0 0.0 0.0 0.0
0.0 0.0 0.0 0.0 0.0 0.0 0.0 0.0
0.0 0.0 0.0 0.0 0.0 0.0 0.0 0.0
0.0 0.0 0.0 0.0 0.0 0.0 0.0 0.0
0.0 0.0 0.0 0.0 0.0 0.0 0.0 0.0
0.0 0.0 0.0 0.0 0.0 0.0 0.0 0.0
0.0 0.0 0.0 0.0 0.0 0.0 0.0 0.0
0.0 0.0 0.0 0.0 0.0 0.0 0.0 0.0
0.0 0.0 0.0 0.0 0.0 0.0 0.0 0.0
0.0 0.0 0.0 0.0 0.0 0.0 0.0 0.0
0.0 0.0 0.0 0.0 0.0 0.0 0.0 0.0
0.0 0.0 0.0 0.0 0.0 0.0 0.0 0.0
0.0 0.0 0.0 0.0 0.0 0.0 0.0 0.0
0.0 0.0 0.0 0.0 0.0 0.0 0.0 0.0
0.0 0.0 0.0 0.0 0.0 0.0 0.0 0.0
0.0 0.0 0.0 0.0 0.0 0.0 0.0 0.0

in_scale f4 [128]
00000000: 0000 803f 0000 803f 0000 803f 0000 803f
00000010: 0000 803f 0000 803f 0000 803f 0000 803f
00000020: 0000 803f 0000 803f 0000 803f 0000 803f
00000030: 0000 803f 0000 803f 0000 803f 0000 803f
00000040: 0000 803f 0000 803f 0000 803f 0000 803f
00000050: 0000 803f 0000 803f 0000 803f 0000 803f
00000060: 0000 803f 0000 803f 0000 803f 0000 803f
00000070: 0000 803f 0000 803f 0000 803f 0000 803f
00000080: 0000 803f 0000 803f 0000 803f 0000 803f
00000090: 0000 803f 0000 803f 0000 803f 0000 803f
000000a0: 0000 803f 0000 803f 0000 803f 0000 803f
000000b0: 0000 803f 0000 803f 0000 803f 0000 803f
000000c0: 0000 803f 0000 803f 0000 803f 0000 803f
000000d0: 0000 803f 0000 803f 0000 803f 0000 803f
000000e0: 0000 803f 0000 803f 0000 803f 0000 803f
000000f0: 0000 803f 0000 803f 0000 803f 0000 803f
00000100: 0000 803f 0000 803f 0000 803f 0000 803f
00000110: 0000 803f 0000 803f 0000 803f 0000 803f
00000120: 0000 803f 0000 803f 0000 803f 0000 803f
00000130: 0000 803f 0000 803f 0000 803f 0000 803f
00000140: 0000 803f 0000 803f 0000 803f 0000 803f
00000150: 0000 803f 0000 803f 0000 803f 0000 803f
00000160: 0000 803f 0000 803f 0000 803f 0000 803f
00000170: 0000 803f 0000 803f 0000 803f 0000 803f
00000180: 0000 803f 0000 803f 0000 803f 0000 803f
00000190: 0000 803f 0000 803f 0000 803f 0000 803f
000001a0: 0000 803f 0000 803f 0000 803f 0000 803f
000001b0: 0000 803f 0000 803f 0000 803f 0000 803f
000001c0: 0000 803f 0000 803f 0000 803f 0000 803f
000001d0: 0000 803f 0000 803f 0000 803f 0000 803f
000001e0: 0000 803f 0000 803f 0000 803f 0000 803f
000001f0: 0000 803f 0000 803f 0000 803f 0000 803f
1.0 1.0 1.0 1.0 1.0 1.0 1.0 1.0
1.0 1.0 1.0 1.0 1.0 1.0 1.0 1.0
1.0 1.0 1.0 1.0 1.0 1.0 1.0 1.0
1.0 1.0 1.0 1.0 1.0 1.0 1.0 1.0
1.0 1.0 1.0 1.0 1.0 1.0 1.0 1.0
1.0 1.0 1.0 1.0 1.0 1.0 1.0 1.0
1.0 1.0 1.0 1.0 1.0 1.0 1.0 1.0
1.0 1.0 1.0 1.0 1.0 1.0 1.0 1.0
1.0 1.0 1.0 1.0 1.0 1.0 1.0 1.0
1.0 1.0 1.0 1.0 1.0 1.0 1.0 1.0
1.0 1.0 1.0 1.0 1.0 1.0 1.0 1.0
1.0 1.0 1.0 1.0 1.0 1.0 1.0 1.0
1.0 1.0 1.0 1.0 1.0 1.0 1.0 1.0
1.0 1.0 1.0 1.0 1.0 1.0 1.0 1.0
1.0 1.0 1.0 1.0 1.0 1.0 1.0 1.0
1.0 1.0 1.0 1.0 1.0 1.0 1.0 1.0

weight f4 [128, 128]
00000000: e4ce fe3c aaf5 183d 2ae6 843d 9338 f53d
00000010: 8046 eabd 2399 923d 5c3f 443d bced fbbd
00000020: 9868 92bc 5c96 8ebd 4693 ed3c 5232 6ebc
00000030: 6226 933d 1472 df3c b0fb 42bc d42c 6b3a
00000040: 72b6 c4bb eb3a 5c3a f188 bfbd b2c9 fc3c
00000050: edbe d13d 27e3 eebc ccf7 a63d f921 febc
00000060: 54c2 733c d6ba bebc 4ff7 ffbb 5c9b ba3d
00000070: ae1e 843d 5fa0 813d 67e7 a03d efc0 0c3e
00000080: 77db e43b 9305 2fbd cb9a c3bd 7aab beba
00000090: 343f 5a3c a9b5 a4bd f0c0 8cbd cac7 c1bc
000000a0: 8749 6a3c e8b1 043e 80ea 95bd df30 683d
000000b0: 2dd1 49bd 2a91 f33d 6a8a cabd fa2d a3bc
000000c0: 1c89 1abd dde0 a03b 2340 033e 9418 243d
000000d0: 71d1 5ebd c04d 3f3d db63 833b 39e6 60bd
000000e0: 5569 353d a2ee 2bbd 5c67 39bd 8d66 d43c
000000f0: 997f a1bd 9936 52bd 9de0 fe3b 64cd 833d
00000100: 207e 06bd 48c4 b03d 2644 133d e8f9 b0bb
00000110: b41a a73d 74d3 643c d559 453d d2aa 833c
00000120: b495 f7bb 1666 bc3c 162a 9bbd 8ad4 2e3c
00000130: b199 e73d 8140 873d 3fde cf3d 5db6 243d
00000140: ff5b 9b3d 9b67 abbc 104d b53d 26c8 c23d
00000150: af43 9bbd ceea a7bb dcb1 b63c eebb 8e3d
00000160: 1219 b7bc 6f42 90bd a29a dabd bb80 dc3d
00000170: 7de7 803c 0523 64bd 8542 f6bc 91f8 2f3d
00000180: 9f17 eabd bc28 ac3d 6c17 05be 8d84 923d
00000190: 7e81 f33c bf29 7a3d 3bac cabc 2843 bbbd
000001a0: 8de7 0c3e f92f e93c 8e56 5b3d 815d dabd
000001b0: 1ee3 a1bd b4cb 5cbd 921e 2dbc 694b 5e3d
000001c0: 4dc3 5bbd fe3d cd3c 3c8e 173d 0cee 993c
000001d0: 8169 973d c3c4 183d 08ad b6bd 993e 31bb
000001e0: 0bea 0a3d e943 033c bf9d 95bd 71f1 91bc
000001f0: 991d 24bd 6890 123d 0499 513c 1ca9 7cbd
00000200: cfe2 54bd c672 8dbc 20a0 9dbd 0020 26bd
00000210: f5fe be3d cc7a aebd 642e afba 2f62 b03d
00000220: 226d ccbd c2cf 943c fc87 2ebd 83aa eabc
00000230: be5b 6e3d 8879 173d 8bfe 6f3d 0cac 90bc
00000240: 7285 f23c 3111 6ebd f373 dc3d 70e6 a03d
00000250: c4d3 95bd 4dd8 1ebc 3082 b2bd 9413 633c
00000260: 6dc4 cd3c 1c81 1e3d 8785 aabd 0d8a cdbd
00000270: 805f 6e3d 10d9 5d3c cff0 2bbd 067c bb3c
00000280: 171c 363d 80c0 843c d898 89bc 180f 8ebc
00000290: 2ddd 943d fa01 f93c b5bb bcbd 9026 bf3c
000002a0: d0a7 3ebd 9ae8 9c3c f976 b23c d93b 4b3d
000002b0: 9425 763d 8317 d5bb 2dc5 dc3c 21e1 6b3d
000002c0: a74a 8b3d 20ba 673d b9b3 d8bc 7453 19bc
000002d0: 4ce0 a9bd a705 9fbd 2453 153d bcdd 743c
000002e0: 322d 193d a21d 773d 591b 4ebd 84e6 273d
000002f0: 84ff 6fbd 0bd2 ba3d 6c28 3fbd dd51 933d
00000300: 0ffc 063d d711 d4bd d51d 343d 05bd c63c
00000310: fb23 80bc 6575 a5bd c91d 0c3b 8deb f6bc
00000320: 5872 983d 6d85 d7bc a934 0ebd 8b73 6b3d
00000330: b61c 01be 1098 11bd ce01 e9bd c53e 23bd
00000340: d414 eebd 41cd 943d bc7f a8bc 92b4 09bd
00000350: 3e04 333c e96f e43c c163 5fbc 07cb 76bd
00000360: ff77 1abd fb87 bb3d 7ddb 3d3d e194 babd
00000370: 764a b13d 0564 893d 9a86 5fbd 2780 823d
00000380: b95b 993d 1afc c9bd 63fe 913a b888 1cbd
00000390: 6534 313d 3389 3f3d fdb2 09bd faf6 76bd
000003a0: e328 07bd 10ba a7bd 0fbb 0abd 735d 0abd
000003b0: cdd9 8a3d 8e9a b13c 78e8 a8bd bcbc d7bd
000003c0: 0892 20bc 63f8 333d 16dc ddbc ce41 af3c
000003d0: 0369 0dbc 8a44 5abd 5537 bbbc 3d78 6d3d
000003e0: 2e59 debc 6c22 393c 783d 863d 93e3 9abd
000003f0: a494 3bbd 3d15 07bd c26a 91bd fd16 373d
0.031104513 0.03734366 0.06489213 0.11973681 -0.11439228 0.07158115 0.047911987 -0.123012036
-0.01787214 -0.069622725 0.02900089 -0.0145383645 0.07185055 0.027276076 -0.011900827 0.00089712185
-0.0060031945 0.00084011134 -0.093522914 0.030857895 0.10241494 -0.029161049 0.08152732 -0.031022059
0.014877874 -0.02328245 -0.007811464 0.09111664 0.06451164 0.063294165 0.078566365 0.13745473
0.00698417 -0.042729925 -0.09551009 -0.0014546954 0.013320733 -0.080424614 -0.068727374 -0.023654837
0.014299757 0.12958491 -0.07320118 0.056687232 -0.04927175 0.11892922 -0.09889682 -0.019919384
-0.037728414 0.0049096183 0.12817435 0.040062502 -0.054398958 0.046705008 0.0040097064 -0.054907057
0.044289906 -0.041975625 -0.045264587 0.025927806 -0.078856654 -0.0513216 0.007778241 0.064356595
-0.032835126 0.08631188 0.035953663 -0.005400885 0.0815939 0.01396643 0.048181374 0.016072664
-0.007555688 0.022997897 -0.07576387 0.01067079 0.11308611 0.066041 0.10149812 0.040212978
0.07585906 -0.020923426 0.08852589 0.095108315 -0.07581269 -0.0051244264 0.022301607 0.069694385
-0.022350822 -0.07043921 -0.10674025 0.10766741 0.015735382 -0.05569746 -0.030061016 0.04296166
-0.114302866 0.08406207 -0.12997216 0.07154188 0.029724833 0.06107497 -0.024740329 -0.091436684
0.13760205 0.028465258 0.05354934 -0.10662366 -0.07904647 -0.053905204 -0.010566371 0.054271135
-0.05365305 0.025053974 0.03700088 0.018790267 0.0739317 0.03729702 -0.08919722 -0.0027045368
0.033914607 0.0080117965 -0.07305478 -0.017815324 -0.04006729 0.035782248 0.012792829 -0.061684713
-0.051974114 -0.017266642 -0.07696557 -0.04055786 0.09325973 -0.085195154 -0.0013365266 0.08612477
-0.09981753 0.018165473 -0.042610154 -0.02864576 0.05819296 0.036981136 0.05859236 -0.017660163
0.029604647 -0.058121864 0.10764303 0.078564525 -0.07315782 -0.009695125 -0.087162375 0.013859648
0.025118077 0.038697347 -0.083262496 -0.10036097 0.058196545 0.013540521 -0.0419777 0.022886287
0.044460382 0.016205072 -0.016796514 -0.017341182 0.072687484 0.03039645 -0.0921549 0.023333818
-0.046546757 0.019153882 0.021785246 0.049617622 0.06009443 -0.006503047 0.02694949 0.057587747
0.06801348 0.056573987 -0.026452886 -0.009358276 -0.08294734 -0.0776475 0.036456242 0.014945444
0.037396617 0.060330994 -0.05031905 0.04099132 -0.058593288 0.09122094 -0.04666941 0.071933486
0.032955226 -0.10354965 0.043973763 0.024260053 -0.015642157 -0.08079032 0.0021380058 -0.030141616
0.07443684 -0.02630874 -0.03471819 0.057483237 -0.12608609 -0.03554541 -0.11377297 -0.039854784
-0.116250664 0.072657116 -0.020568721 -0.03361947 0.010926304 0.027885394 -0.013634623 -0.060252216
-0.037712093 0.091567956 0.0463519 -0.09110428 0.086567804 0.0670853 -0.054571725 0.06372099
0.07488198 -0.09862538 0.0011138435 -0.038216323 0.043262858 0.046761703 -0.033617962 -0.06029413
-0.032997977 -0.081897855 -0.0338698 -0.033780526 0.067798235 0.021680143 -0.08247465 -0.10534045
-0.009800442 0.043938052 -0.027082484 0.021393683 -0.008630994 -0.05328802 -0.022853533 0.057975996
-0.027142134 0.011299711 0.06554693 -0.075629376 -0.04579605 -0.03297924 -0.071004406 0.044699658

bias f4 [128]
00000000: 2bdd dabd 052f 263e 48d3 413e 0d66 813c
00000010: d355 ddbd 1e32 f9bd 94fc f73d cc62 1e3e
00000020: 05b2 21be e449 9fbd bc12 d93d b5cb 26bd
00000030: 888a 4f3e 1761 72bd 42ee cd3d 3982 2fbe
00000040: 4226 d13d 2a1c 473e cf0c c73d c6d1 8cbd
00000050: 8a91 883d 4ed0 47be 3ee5 53be 45c5 f2bd
00000060: 5a07 233e 3c8c 54bb bc2c 06be 09b5 d53d
00000070: 3dd1 ba3d 088c 3cbd 6b87 ea3d ee6b c53d
00000080: 74b8 bdba 5ba5 37be fd52 bdbd 78b6 553e
00000090: c110 65bd 33f2 323e b322 e1bd f9d6 12be
000000a0: 5e29 f0bd ff28 b8bc 2425 47be 8ee6 423d
000000b0: f7b0 6abe 095a 0ebe 05a6 c93d 477c 213d
000000c0: 54f8 0e3e 3c2c 34be 1146 b9bd c577 dbbd
000000d0: 4fd2 5f3e fcdd eebd be98 983d 9f85 483e
000000e0: 4aff 403e ce72 983d c70b f53d f30e e8bd
000000f0: 8c7a b1bc ef44 b83d 1408 d03c 383d 42be
00000100: 5d27 313e d93f 493e 65da dabd 42ac 7d3d
00000110: cdfe 813d ed3d 69be 8a4b 3a3e 3db9 22be
00000120: 794a 82bd 2fe9 2a3e 5d5a c6bd dd89 0ebe
00000130: 890c 11bc dd4c 263e 04b6 1ebe bd80 c03d
00000140: 1ca1 af3d 8c7b 08be 2ea7 36bd b3c1 ee3d
00000150: 1ad4 23be 9c1f 25be ced9 143e c584 6abd
00000160: d3d1 653d c4bf 103e 63b7 15bd aef6 3b3d
00000170: 653a 1fbe 6b92 31be b247 18be 2193 02bd
00000180: cd63 b93d 1761 5fbd dcc7 ec3d 4b6f 54bd
00000190: e987 65bd 630d 623d 9190 043d 557d 5a3e
000001a0: fddc 583e d261 83bd 57c1 c83d 24de 1ebe
000001b0: a015 18be 1932 bdbd 6016 8fbd 9a8d b4bd
000001c0: 5d60 d53d 10de cabd 5761 c93d cd89 e1bd
000001d0: 40b1 93bd a9f5 69bd 1e4a 1cbe dc69 a13d
000001e0: 1882 91bd 6f4b ed3c 5b0c 4abe fcd3 e5bd
000001f0: cf77 e7bd 9ed7 4a3e e4dd 623e 82aa f23d
-0.10686716 0.16228874 0.18928254 0.015795732 -0.10807385 -0.12167762 0.12108722 0.15467376
-0.15790565 -0.077777654 0.105992764 -0.040721614 0.20267689 -0.059174623 0.1005521 -0.1713952
0.10212375 0.19444337 0.0971924 -0.068759486 0.066683844 -0.19513056 -0.20692918 -0.118540324
0.15920773 -0.003243222 -0.13103002 0.1043492 0.0912194 -0.04603198 0.1145161 0.096397266
-0.0014474527 -0.17934172 -0.092443444 0.20870388 -0.05592418 0.17475204 -0.109929465 -0.14339818
-0.1172664 -0.022480486 -0.19447762 0.047583155 -0.22919069 -0.13901533 0.09846119 0.03942516
0.13961917 -0.17594999 -0.09046567 -0.107162036 0.2185757 -0.11663434 0.07451008 0.19582222
0.18847385 0.07443772 0.11965137 -0.11330976 -0.02166488 0.08997523 0.025394477 -0.18968666
0.17300172 0.19653262 -0.10686187 0.061931856 0.063474275 -0.22777529 0.18192878 -0.15890975
-0.06361861 0.16690515 -0.09685204 -0.13919778 -0.008853086 0.16240259 -0.15499121 0.09399555
0.08575651 -0.1332838 -0.04459303 0.11658039 -0.15998879 -0.1612534 0.14536211 -0.057255525
0.056108307 0.14135653 -0.036551844 0.04588955 -0.1554962 -0.1734101 -0.148711 -0.031878594
0.090522386 -0.05453595 0.11561558 -0.05186395 -0.056037817 0.055188548 0.03236443 0.21336873
0.2117805 -0.06415142 0.09802502 -0.15514427 -0.14852 -0.09238071 -0.069866896 -0.08816071
0.104187705 -0.09905636 0.09833019 -0.110126115 -0.07211542 -0.057119045 -0.15262648 0.07881519
-0.071048915 0.028966634 -0.19731276 -0.112220734 -0.113021486 0.19808814 0.22154957 0.11848928

weight f4 [128, 128]
00000000: 2f33 50bd 0ddd b73d 2393 fb3d bd6d 603d
00000010: f253 66bb abc8 17be 1331 7f3d c3cd 973c
00000020: 9874 01be 5a80 7fbc e56b adbc fa42 17bd
00000030: c6e8 dd3d fdf5 94bc 5746 e63b bcfc 90bd
00000040: d987 d23d d36e 893d cfe7 df3d b8cd 3fba
00000050: 66b8 b93d 7231 033d 2957 9dbd 290f 9e3b
00000060: 45e8 9d3d 0210 a8bd a284 4f3c 8468 523d
00000070: c89c 39bc a51a ed3c 5c9b e43d b881 8d3d
00000080: 4b0a 99bd b956 26bc d1ee 72bc 1486 843d
00000090: ccad a93c bd01 783d 3609 1cbe 513d 1dbe
000000a0: 872b 0fbd 7072 a6bc 18bb 12be d874 583d
000000b0: 6285 02be 3abe dcbd 8fac fa3d da7b 083e
000000c0: 4776 26bd 9ace 43be 2d28 b3bd b60e b3bd
000000d0: efc7 c13c 2f29 78ba f46d b43d 2684 113e
000000e0: 150a ea3d 777c c1bb b319 09bc a5b1 10bd
000000f0: 26a1 3abd 0ffb ba3d ac0b b53d bfa3 e6bd
00000100: 1116 bf3d dd9e 8e3d 39ab 8fbd 7ec2 5b3d
00000110: 1000 0fbc 7039 d5bc 8022 3bbc ac67 06be
00000120: 3299 a4bd 7f76 113e 5f4f 103d 9478 56bd
00000130: 58e9 1dbd 019a 513d c9c2 97bd 5606 153c
00000140: 33f2 533d f274 bf3c 5e1a ef3c 4d89 9a3d
00000150: 70fa e2bc 9142 f1bd 396f dc3d 9f3c 84bc
00000160: 757d b73d 5a19 133e 1474 993c dade 38bc
00000170: ca3f 3ebd d49f 0cbe 705d 45be 453b c1bd
00000180: 886b 053e d506 aabd 6094 143e 804d 6fbd
00000190: 6022 99bd b7d9 99bc 1e0a 443b 43df 2e3e
000001a0: 5a77 4c3b 8f97 9b3c c288 d93d fb9b 603c
000001b0: 1c79 17be fed3 0cbe 286d f7bd b36a f8bd
000001c0: c44b b03d de45 06be 88a4 f73d a6ba 8abd
000001d0: 9f79 19be 4422 9dba d24a 81bd 12b1 d73d
000001e0: 1f0e e7bc fd01 b33c 26e5 21be 5944 7abd
000001f0: 8506 4fbb cdad b43b 3e4f ac3c 86e1 db3d
00000200: 5500 0d3d 1c7d 70bd 3927 7cbd 4576 77bd
00000210: ee07 b73c 3c56 e53d 5ffd 9abc e71e 0dbe
00000220: d219 4c3d d583 d5bc 52e6 c23c b919 eabc
00000230: 9023 a3bd c366 943d 4f4e 213d 7db9 df3c
00000240: 36e0 88bd f33a 48bd e8d7 87bd a5aa 93bc
00000250: ac2a b0bd fb83 8eba edd5 743d f9ba ce3d
00000260: c6cb f3bd 6325 5abc 9a2f cc3b addd d9bc
00000270: c334 f1bd 6ed0 923d 63af 4cbd 18dc abbc
00000280: 8b95 f43c 249c db3b 87bf 5c3d 5dfc 81bc
00000290: 24a7 7a3b 1959 94bd 9ff7 fa3d e008 103d
000002a0: f456 c6bc 4db2 9cbd 99be d93d 0469 e73b
000002b0: cb99 ab3d 48c9 f03d bda9 c1bc 8f13 d43b
000002c0: d76f 383d 63db f43d db8b df3d ccb9 eb3d
000002d0: 925e 30bd 3d7e 513b ea35 8a3c ff5c e4bd
000002e0: cb28 ffbd 92ea 94bd d829 7bbd 40a7 a23d
000002f0: fe07 69bd 820e b5bd 9092 86bd e2a3 113e
00000300: 8286 a13c e453 403d 31fa d13d 99d8 fcbd
00000310: 2314 f8bc 6137 e43d 1a46 eebd d278 9c3d
00000320: d08c 10bd bccc f7bd 74f5 d93d ec1f 413b
00000330: de31 6f3c e559 14be ba80 343d 4727 bdbb
00000340: 29c7 1c3c b651 563c fc89 193c 4468 dfbc
00000350: c1c5 9a3d 19f0 16bc 78f1 b5bd 57da 0f3d
00000360: d95d e03c e7d2 d1bd f59b 2d3d 578a 46bd
00000370: 708e c83c 5c34 f33d 643e f43d 2169 48ba
00000380: ea03 a1bd 682a e13d afb1 aebd 3e20 d63d
00000390: 7381 923d 8b65 db3b bd7f a8bd 3827 56bd
000003a0: b381 c2bd 69ca a73c 8b0f e9bd 124e e13a
000003b0: 851f b13d 757f 123d 0946 90bb 573f 9c3d
000003c0: 08ab 273d ab7a 1dbd 1f25 9bbd 6437 24bd
000003d0: 3679 22bc 93ed c23d 657d ff3c c77f 9cbd
000003e0: 85fa 1a3d 1d19 cbbd 52fc 043e ea58 25bd
000003f0: 76e8 90bc 867a 5b3c ec84 86bd bb7f d7bc
-0.050830062 0.08977709 0.122839235 0.054792155 -0.003514525 -0.14822643 0.06230266 0.018530732
-0.12642133 -0.015594566 -0.021169612 -0.03692911 0.10835414 -0.018183703 0.007027428 -0.07079455
0.10279817 0.06710591 0.10932886 -0.0007316726 0.09068374 0.032029577 -0.0768264 0.0048235846
0.077103175 -0.08206178 0.0126658995 0.051369205 -0.0113288835 0.02894337 0.11162445 0.069095075
-0.07472666 -0.010152512 -0.014827446 0.06470886 0.020712756 0.060548533 -0.15237889 -0.15355422
-0.03495362 -0.02031824 -0.14329183 0.052845806 -0.12746194 -0.1077847 0.12239944 0.13328496
-0.04064014 -0.19121781 -0.08747897 -0.0874304 0.023654906 -0.0009466586 0.088100344 0.14210567
0.11427704 -0.00590473 -0.008367944 -0.035325665 -0.04556384 0.09129917 0.08840117 -0.11261701
0.09330381 0.069638945 -0.0701508 0.05365228 -0.008728042 -0.026028365 -0.0114218 -0.13125485
-0.08037032 0.14205359 0.035231944 -0.052361086 -0.038552612 0.05117226 -0.07410199 0.009095749
0.05174465 0.023371194 0.029187378 0.07545719 -0.027707309 -0.11780275 0.107634015 -0.016142188
0.08959476 0.1436514 0.018732108 -0.011283601 -0.046447553 -0.13732845 -0.19273925 -0.09435133
0.13029301 -0.08302084 0.14509726 -0.05842352 -0.0747726 -0.018780572 0.0029913257 0.17077355
0.0031199069 0.018993167 0.106217876 0.013709064 -0.14792293 -0.13752744 -0.12081367 -0.12129726
0.08608201 -0.1311259 0.12091929 -0.067738816 -0.14987801 -0.0011988361 -0.06313099 0.1053182
-0.028204976 0.021851534 -0.1581007 -0.061100338 -0.003158958 0.0055138827 0.02103388 0.107363746
0.034424145 -0.058713064 -0.061560843 -0.060415525 0.022342648 0.111980885 -0.018919645 -0.1378132
0.04982931 -0.026063839 0.023791466 -0.028576719 -0.079657674 0.07246163 0.03938132 0.027310127
-0.0668339 -0.048884343 -0.06632978 -0.018025706 -0.08601889 -0.0010873073 0.059774328 0.10094256
-0.11904101 -0.013314578 0.0062312605 -0.026594961 -0.117776416 0.07168661 -0.04997195 -0.020978972
0.029856464 0.006701963 0.053893592 -0.015867407 0.0038246596 -0.072435565 0.12254261 0.035164714
-0.024211384 -0.07651196 0.10632057 0.0070620794 0.08378943 0.11757141 -0.023640508 0.006472058
0.045028534 0.11955907 0.10915347 0.11510047 -0.04305894 0.0031966113 0.016871411 -0.1115055
-0.124589525 -0.07271303 -0.061319202 0.07942057 -0.056892388 -0.08840658 -0.06570923 0.14222673
0.019717459 0.046955004 0.10252798 -0.12346 -0.03028304 0.11143375 -0.116344646 0.07640232
-0.03529054 -0.12099597 0.106425196 0.002946849 0.014599292 -0.14487417 0.044068076 -0.0057725045
0.009568968 0.013081005 0.009371277 -0.027271397 0.0755725 -0.009212517 -0.08883947 0.035120334
0.0273885 -0.102453046 0.04238506 -0.048471775 0.024481982 0.11875221 0.119259626 -0.000764506
-0.07862075 0.109944165 -0.08529984 0.104553685 0.07153597 0.0066954545 -0.08227489 -0.052283496
-0.094973944 0.020482259 -0.11379918 0.0017189404 0.0864859 0.035766084 -0.00440288 0.076292686
0.040934592 -0.038447063 -0.0757544 -0.040091887 -0.009916594 0.0951797 0.031187722 -0.07641559
0.03783657 -0.09916899 0.12986878 -0.040368 -0.017688971 0.013395911 -0.065683216 -0.026306024

bias f4 [128]
00000000: 35d3 363d a996 03bd 7949 afbd a8f0 02be
00000010: 4f73 e1bd bb77 203a fcd7 283d aa8e 213b
00000020: 149a 02be 6bef 03be 798a 8b3d 327f d83a
00000030: 1c6c 1cbe c215 12be 8afa fd3d 8568 09be
00000040: dce0 af3d 96e8 dbbc 1907 ce3d 51bb cd3d
00000050: 8320 67bd 5004 82bd 7cbd 0abe ad0a 11be
00000060: 4467 cb3d 764b 413c 10e0 493d 6cf4 a0bd
00000070: c832 c3bd 51f5 f63d 8ccd 663d e42d 293e
00000080: 0509 413d eabe 893d 0a02 31be e926 033e
00000090: 3c5a e43d 05c1 e7bd a2da 053e 1e54 a53d
000000a0: b535 8dbd b151 d13c cdc4 dbbc 328d 383c
000000b0: d768 0f3e b061 833d dd3e 49bd 9ae5 22bd
000000c0: 805d 113e 86de ebbd 50ad e4bd dc52 5f3d
000000d0: c2df 5cbd f080 143e edde e1bd 6688 183d
000000e0: b43f dfbd ce36 b1bc de70 8cbd 3e17 d0bd
000000f0: d7a6 b6bd 7792 febd 4043 0fbe b23c 06bd
00000100: 044a a33c caad 1e3d 24ae cfbd e98d 1c3c
00000110: c39d 36bd ec98 cb3d 9ea1 a6bd 9fe2 053d
00000120: eaee 9dbb ac48 173b 27c9 cb3c e008 153e
00000130: be5a e8bd ce1e 91bd d8b4 1bbe eba3 593d
00000140: 8b81 13bd 7b16 223d d5e6 87bd bdf0 d5bd
00000150: 9b44 f93c 5aa4 f53d 7369 8b3d d99b 243e
00000160: 350e 133e 9f52 0ebe 0a4f de3d 71a0 88bd
00000170: 5ed2 0dbe 3668 59bc 0700 dcbd fc12 783d
00000180: 2a7b 023e 2759 a4bd e535 99bd 065a 08be
00000190: 28b4 7b3d d70b 87bb e250 183c c61d f03d
000001a0: 44f7 223d 2da8 f33b 4057 4b3c 11c9 fa3d
000001b0: 92b9 dcbd b6dd 82bd 8974 f3bd 6004 353e
000001c0: 7c4c c53d 60ad b83d 0e6a 243e e85f dbbd
000001d0: 42c3 193e a8b5 bb3d 615b bb3d f9ed a53c
000001e0: 3ca1 05be 2dab 283d c542 20be 6a0c eebd
000001f0: 4923 31bc ffb6 853d f01c 353d 2678 29be
0.044635016 -0.032126103 -0.08558936 -0.12787116 -0.110083215 0.0006121357 0.041221604 0.0024651685
-0.12754089 -0.128843 0.06813521 0.0016517399 -0.15275615 -0.14266112 0.12401302 -0.13418777
0.085878104 -0.026844304 0.100599475 0.100454934 -0.05642749 -0.06348479 -0.13548845 -0.14164229
0.09931806 0.011797776 0.04928595 -0.0785912 -0.0953117 0.12058509 0.05634837 0.16521412
0.047127742 0.06725867 -0.17285934 0.12807812 0.11150023 -0.113161124 0.13071683 0.08072685
-0.068950094 0.025551649 -0.02682724 0.011264132 0.14004837 0.06415117 -0.049132217 -0.039769746
0.14195824 -0.11517052 -0.11165869 0.05452238 -0.05392433 0.14502311 -0.11028848 0.037239455
-0.10900822 -0.021632578 -0.06857465 -0.10160683 -0.08918541 -0.1243028 -0.13990498 -0.032772727
0.019932754 0.038739957 -0.101406366 0.009555318 -0.044584047 0.09941277 -0.08136295 0.032686826
-0.0048197405 0.0023084087 0.02487619 0.14554167 -0.11345433 -0.07085954 -0.15205705 0.05313484
-0.036012214 0.03957222 -0.066358246 -0.10446308 0.030428221 0.11994238 0.06807222 0.16075076
0.14360888 -0.13898705 0.10854919 -0.06671227 -0.1384978 -0.013269475 -0.10742193 0.06056498
0.12742296 -0.08024817 -0.07480983 -0.13315591 0.061451107 -0.0041212845 0.009296628 0.11724429
0.039786592 0.0074358196 0.012410939 0.122453816 -0.10777582 -0.06389944 -0.11887462 0.1767745
0.09633729 0.09017444 0.16056082 -0.10711652 0.15015891 0.091655076 0.091482885 0.020255076
-0.13049787 0.04117887 -0.1565047 -0.116234615 -0.010811635 0.06529044 0.04421705 -0.16549739

weight f4 [1, 128]
00000000: 726c 16be 1abd 0f3e 39bb c53d f214 c53d
00000010: 69f1 f93d a34f 093e f975 35be c0ba 283e
00000020: cfcc 003e 7c73 013e bca7 fabd 599d 08be
00000030: 7dd2 b33d e0a4 163e c362 03be 4765 f33d
00000040: 5e2d f3bd 3c32 da3d af32 f5bd 9955 fcbd
00000050: eeff 0a3e f7b0 c13d 9978 c23d f676 133e
00000060: 8236 c8bd 0d15 13be dd79 06be b6bb b63d
00000070: 3b54 283e f798 a4bd f687 a4bd 7693 1fbe
00000080: 327e f0bd d272 08be 046f 4d3e 8fa3 febd
00000090: 4c27 21be c27f 143e ce11 e5bd da06 1ebe
000000a0: d75c b33d 877a e6bd af18 ce3d 4c70 09be
000000b0: e42b 0dbe 0bd5 e2bd 22b9 ee3d deb4 1b3e
000000c0: a400 3cbe 0628 f93d 3668 fa3d 69f5 0bbe
000000d0: 4b6c 0e3e 7cc7 19be 162b 2f3e b3dd e8bd
000000e0: 24ad 0a3e ff1a da3d 371e 113e 1478 093e
000000f0: f9c7 f03d d7f5 263e 12cb 1c3e 6c3a 1c3e
00000100: a59b 4abe a094 fabd 9661 2f3e dbef b9bd
00000110: 870b 0e3e 15bf 0bbe 3fa1 0b3e 993d 24be
00000120: 1fed 113e 0d77 d9bd de65 c6bd 64e3 f2bd
00000130: ea4a c93d 9b9e 183e 30f3 e13d c818 06be
00000140: 3c44 113e 5ad1 0dbe a4da da3d 9d36 183e
00000150: c42f 13be 2017 eabd a8be 2bbe 7875 28be
00000160: 6bb5 edbd cbb6 1a3e 733a 22be a5c7 e53d
00000170: bd6b 0c3e 4fb7 16be 5381 fb3d 2b49 f6bd
00000180: 8cc7 0cbe 1560 303e 02ee eb3d b04a ad3d
00000190: a393 1ebe 310c e43d f0bf df3d 2ff2 e4bd
000001a0: 4a99 d2bd d944 0c3e 7650 093e ef2c fbbd
000001b0: a161 de3d 3810 f43d cc2e a23d c584 f4bd
000001c0: ed1c fcbd e0f8 e6bd 6ae2 3dbe 5341 fa3d
000001d0: 806a 31be 480f efbd fdd9 1cbe 7231 13be
000001e0: f9bf 103e fb14 e3bd 7078 eb3d f1c2 cc3d
000001f0: 6f11 fa3d 02bf 05be abce 34be 8a7a f53d
-0.14689806 0.1403698 0.096548505 0.096231356 0.122042485 0.13409285 -0.17720784 0.1647749
0.12578128 0.1264171 -0.12239024 -0.13341273 0.08780382 0.14711332 -0.12830643 0.118845515
-0.118738875 0.10654113 -0.11972558 -0.12321014 0.13574192 0.094575815 0.094956584 0.14400849
-0.097760215 -0.14363499 -0.13132425 0.08922522 0.16438381 -0.08036988 -0.08033745 -0.15583596
-0.1174282 -0.1332505 0.2006188 -0.1243354 -0.15737647 0.1450186 -0.111850366 -0.15432301
0.08757942 -0.11253839 0.10063302 -0.13421744 -0.13786274 -0.11075791 0.11656405 0.15205714
-0.1835962 0.12165837 0.12226908 -0.13667835 0.13908498 -0.15017503 0.1710628 -0.11370411
0.1354261 0.1064968 0.14171682 0.13424712 0.11756892 0.16304718 0.1531184 0.15256661
-0.19785936 -0.12235379 0.1712707 -0.09078952 0.13871585 -0.13647111 0.13635729 -0.16039123
0.14250611 -0.1061841 -0.096873984 -0.118597776 0.09828742 0.14904253 0.110327125 -0.13095391
0.14186186 -0.13849393 0.10686234 0.14864583 -0.1437369 -0.11430192 -0.16771948 -0.16451061
-0.11606868 0.15108792 -0.15842609 0.1121972 0.13712974 -0.14718364 0.12280526 -0.120256744
-0.13747996 0.17224152 0.11520006 0.08461511 -0.15486006 0.11135138 0.10925281 -0.11179005
-0.10283144 0.13698138 0.134096 -0.1226443 0.10858465 0.11917156 0.07919082 -0.11939386
-0.12310205 -0.11277938 -0.18543401 0.12219491 -0.17325783 -0.116728365 -0.15317531 -0.1437433
0.14135732 -0.11087986 0.11497581 0.099981196 0.122103564 -0.13061145 -0.17656963 0.11986263
