dapg/examples/dapg_jit_model/no_hammer-v0/model_feature.pt (torch, 179982 bytes, 10 tensors)

in_shift f4 [72]
00000000: 0000 0000 0000 0000 0000 0000 0000 0000
00000010: 0000 0000 0000 0000 0000 0000 0000 0000
00000020: 0000 0000 0000 0000 0000 0000 0000 0000
00000030: 0000 0000 0000 0000 0000 0000 0000 0000
00000040: 0000 0000 0000 0000 0000 0000 0000 0000
00000050: 0000 0000 0000 0000 0000 0000 0000 0000
00000060: 0000 0000 0000 0000 0000 0000 0000 0000
00000070: 0000 0000 0000 0000 0000 0000 0000 0000
00000080: 0000 0000 0000 0000 0000 0000 0000 0000
00000090: 0000 0000 0000 0000 0000 0000 0000 0000
000000a0: 0000 0000 0000 0000 0000 0000 0000 0000
000000b0: 0000 0000 0000 0000 0000 0000 0000 0000
000000c0: 0000 0000 0000 0000 0000 0000 0000 0000
000000d0: 0000 0000 0000 0000 0000 0000 0000 0000
000000e0: 0000 0000 0000 0000 0000 0000 0000 0000
000000f0: 0000 0000 0000 0000 0000 0000 0000 0000
00000100: 0000 0000 0000 0000 0000 0000 0000 0000
00000110: 0000 0000 0000 0000 0000 0000 0000 0000
0.0 0.0 0.0 0.0 0.0 0.0 0.0 0.0
0.0 0.0 0.0 0.0 0.0 0.0 0.0 0.0
0.0 0.0 0.0 0.0 0.0 0.0 0.0 0.0
0.0 0.0 0.0 0.0 0.0 0.0 0.0 0.0
0.0 0.0 0.0 0.0 0.0 0.0 0.0 0.0
0.0 0.0 0.0 0.0 0.0 0.0 0.0 0.0
0.0 0.0 0.0 0.0 0.0 0.0 0.0 0.0
0.0 0.0 0.0 0.0 0.0 0.0 0.0 0.0
0.0 0.0 0.0 0.0 0.0 0.0 0.0 0.0

in_scale f4 [72]
00000000: 0000 803f 0000 803f 0000 803f 0000 803f
00000010: 0000 803f 0000 803f 0000 803f 0000 803f
00000020: 0000 803f 0000 803f 0000 803f 0000 803f
00000030: 0000 803f 0000 803f 0000 803f 0000 803f
00000040: 0000 803f 0000 803f 0000 803f 0000 803f
00000050: 0000 803f 0000 803f 0000 803f 0000 803f
00000060: 0000 803f 0000 803f 0000 803f 0000 803f
00000070: 0000 803f 0000 803f 0000 803f 0000 803f
00000080: 0000 803f 0000 803f 0000 803f 0000 803f
00000090: 0000 803f 0000 803f 0000 803f 0000 803f
000000a0: 0000 803f 0000 803f 0000 803f 0000 803f
000000b0: 0000 803f 0000 803f 0000 803f 0000 803f
000000c0: 0000 803f 0000 803f 0000 803f 0000 803f
000000d0: 0000 803f 0000 803f 0000 803f 0000 803f
000000e0: 0000 803f 0000 803f 0000 803f 0000 803f
000000f0: 0000 803f 0000 803f 0000 803f 0000 803f
00000100: 0000 803f 0000 803f 0000 803f 0000 803f
00000110: 0000 803f 0000 803f 0000 803f 0000 803f
1.0 1.0 1.0 1.0 1.0 1.0 1.0 1.0
1.0 1.0 1.0 1.0 1.0 1.0 1.0 1.0
1.0 1.0 1.0 1.0 1.0 1.0 1.0 1.0
1.0 1.0 1.0 1.0 1.0 1.0 1.0 1.0
1.0 1.0 1.0 1.0 1.0 1.0 1.0 1.0
1.0 1.0 1.0 1.0 1.0 1.0 1.0 1.0
1.0 1.0 1.0 1.0 1.0 1.0 1.0 1.0
1.0 1.0 1.0 1.0 1.0 1.0 1.0 1.0
1.0 1.0 1.0 1.0 1.0 1.0 1.0 1.0

out_shift f4 [128]
00000000: 0000 0000 0000 0000 0000 0000 0000 0000
00000010: 0000 0000 0000 0000 0000 0000 0000 0000
00000020: 0000 0000 0000 0000 0000 0000 0000 0000
00000030: 0000 0000 0000 0000 0000 0000 0000 0000
00000040: 0000 0000 0000 0000 0000 0000 0000 0000
00000050: 0000 0000 0000 0000 0000 0000 0000 0000
00000060: 0000 0000 0000 0000 0000 0000 0000 0000
00000070: 0000 0000 0000 0000 0000 0000 0000 0000
00000080: 0000 0000 0000 0000 0000 0000 0000 0000
00000090: 0000 0000 0000 0000 0000 0000 0000 0000
000000a0: 0000 0000 0000 0000 0000 0000 0000 0000
000000b0: 0000 0000 0000 0000 0000 0000 0000 0000
000000c0: 0000 0000 0000 0000 0000 0000 0000 0000
000000d0: 0000 0000 0000 0000 0000 0000 0000 0000
000000e0: 0000 0000 0000 0000 0000 0000 0000 0000
000000f0: 0000 0000 0000 0000 0000 0000 0000 0000
00000100: 0000 0000 0000 0000 0000 0000 0000 0000
00000110: 0000 0000 0000 0000 0000 0000 0000 0000
00000120: 0000 0000 0000 0000 0000 0000 0000 0000
00000130: 0000 0000 0000 0000 0000 0000 0000 0000
00000140: 0000 0000 0000 0000 0000 0000 0000 0000
00000150: 0000 0000 0000 0000 0000 0000 0000 0000
00000160: 0000 0000 0000 0000 0000 0000 0000 0000
00000170: 0000 0000 0000 0000 0000 0000 0000 0000
00000180: 0000 0000 0000 0000 0000 0000 0000 0000
00000190: 0000 0000 0000 0000 0000 0000 0000 0000
000001a0: 0000 0000 0000 0000 0000 0000 0000 0000
000001b0: 0000 0000 0000 0000 0000 0000 0000 0000
000001c0: 0000 0000 0000 0000 0000 0000 0000 0000
000001d0: 0000 0000 0000 0000 0000 0000 0000 0000
000001e0: 0000 0000 0000 0000 0000 0000 0000 0000
000001f0: 0000 0000 0000 0000 0000 0000 0000 0000
0.0 0.0 0.0 0.0 0.0 0.0 0.0 0.0
0.0 0.0 0.0 0.0 0.0 0.0 0.0 0.0
0.0 0.0 0.0 0.0 0.0 0.0 0.0 0.0
0.0 0.0 0.0 0.0 0.0 0.0 0.0 0.0
0.0 0.0 0.0 0.0 0.0 0.0 0.0 0.0
0.0 0.0 0.0 0.0 0.0 0.0 0.0 0.0
0.0 0.0 0.0 0.0 0.0 0.0 0.0 0.0
0.0 0.0 0.0 0.0 0.0 0.0 0.0 0.0
0.0 0.0 0.0 0.0 0.0 0.0 0.0 0.0
0.0 0.0 0.0 0.0 0.0 0.0 0.0 0.0
0.0 0.0 0.0 0.0 0.0 0.0 0.0 0.0
0.0 0.0 0.0 0.0 0.0 0.0 0.0 0.0
0.0 0.0 0.0 0.0 0.0 0.0 0.0 0.0
0.0 0.0 0.0 0.0 0.0 0.0 0.0 0.0
0.0 0.0 0.0 0.0 0.0 0.0 0.0 0.0
0.0 0.0 0.0 0.0 0.0 0.0 0.0 0.0

out_scale f4 [128]
00000000: 0000 803f 0000 803f 0000 803f 0000 803f
00000010: 0000 803f 0000 803f 0000 803f 0000 803f
00000020: 0000 803f 0000 803f 0000 803f 0000 803f
00000030: 0000 803f 0000 803f 0000 803f 0000 803f
00000040: 0000 803f 0000 803f 0000 803f 0000 803f
00000050: 0000 803f 0000 803f 0000 803f 0000 803f
00000060: 0000 803f 0000 803f 0000 803f 0000 803f
00000070: 0000 803f 0000 803f 0000 803f 0000 803f
00000080: 0000 803f 0000 803f 0000 803f 0000 803f
00000090: 0000 803f 0000 803f 0000 803f 0000 803f
000000a0: 0000 803f 0000 803f 0000 803f 0000 803f
000000b0: 0000 803f 0000 803f 0000 803f 0000 803f
000000c0: 0000 803f 0000 803f 0000 803f 0000 803f
000000d0: 0000 803f 0000 803f 0000 803f 0000 803f
000000e0: 0000 803f 0000 803f 0000 803f 0000 803f
000000f0: 0000 803f 0000 803f 0000 803f 0000 803f
00000100: 0000 803f 0000 803f 0000 803f 0000 803f
00000110: 0000 803f 0000 803f 0000 803f 0000 803f
00000120: 0000 803f 0000 803f 0000 803f 0000 803f
00000130: 0000 803f 0000 803f 0000 803f 0000 803f
00000140: 0000 803f 0000 803f 0000 803f 0000 803f
00000150: 0000 803f 0000 803f 0000 803f 0000 803f
00000160: 0000 803f 0000 803f 0000 803f 0000 803f
00000170: 0000 803f 0000 803f 0000 803f 0000 803f
00000180: 0000 803f 0000 803f 0000 803f 0000 803f
00000190: 0000 803f 0000 803f 0000 803f 0000 803f
000001a0: 0000 803f 0000 803f 0000 803f 0000 803f
000001b0: 0000 803f 0000 803f 0000 803f 0000 803f
000001c0: 0000 803f 0000 803f 0000 803f 0000 803f
000001d0: 0000 803f 0000 803f 0000 803f 0000 803f
000001e0: 0000 803f 0000 803f 0000 803f 0000 803f
000001f0: 0000 803f 0000 803f 0000 803f 0000 803f
1.0 1.0 1.0 1.0 1.0 1.0 1.0 1.0
1.0 1.0 1.0 1.0 1.0 1.0 1.0 1.0
1.0 1.0 1.0 1.0 1.0 1.0 1.0 1.0
1.0 1.0 1.0 1.0 1.0 1.0 1.0 1.0
1.0 1.0 1.0 1.0 1.0 1.0 1.0 1.0
1.0 1.0 1.0 1.0 1.0 1.0 1.0 1.0
1.0 1.0 1.0 1.0 1.0 1.0 1.0 1.0
1.0 1.0 1.0 1.0 1.0 1.0 1.0 1.0
1.0 1.0 1.0 1.0 1.0 1.0 1.0 1.0
1.0 1.0 1.0 1.0 1.0 1.0 1.0 1.0
1.0 1.0 1.0 1.0 1.0 1.0 1.0 1.0
1.0 1.0 1.0 1.0 1.0 1.0 1.0 1.0
1.0 1.0 1.0 1.0 1.0 1.0 1.0 1.0
1.0 1.0 1.0 1.0 1.0 1.0 1.0 1.0
1.0 1.0 1.0 1.0 1.0 1.0 1.0 1.0
1.0 1.0 1.0 1.0 1.0 1.0 1.0 1.0

weight f4 [128, 72]
00000000: b14e cb3c c91d ed3d fbc0 e43c 8688 8dbd
00000010: 85b1 a3bd 5537 83bd dc30 6cbd 965c d6bd
00000020: 32c2 8b3d 55e5 613d 8d18 f73b faea 893b
00000030: f847 073e b2a8 8c3d 5f83 bb3d 7c21 4d3b
00000040: 6361 6dbd f17b c23d d9ee 203c 0d24 04be
00000050: f628 19be 4975 133d d87f 773d 3054 003d
00000060: 4da9 9abc 37ab c63d 5352 1b3e a906 01be
00000070: f395 cebb 4e7b cfbc 42bd a8bd 6166 b83a
00000080: 4284 bc3d 1645 63bd 2bed 6b3e c65b 28bd
00000090: 0017 59bc 6cd5 223c 6607 09bc bc78 07bd
000000a0: 2f37 58bd 3c39 10be 80ac 2db9 7654 2cbe
000000b0: 4276 49be 1c9c c7bd c87c 91bd 992f c83c
000000c0: 7f8a 63bd 533b fbbd 2b53 a23d f670 c13d
000000d0: b90a a6bd cd05 0abe bb9a 53bd 0cfe fdbc
000000e0: 9153 203e cd9e d2bd 92a1 643c b4f7 f8bd
000000f0: dc1e 13bc 638c cebd 5111 74bc 2c97 e9bd
00000100: 25fb 6c3d 2389 27bd 10ff 893c 01d7 02be
00000110: e1ab 0b3d 0094 073d abeb b1bd be39 083e
00000120: 1c73 853d 91cb f9bd 87ef ba3d f9a7 3e3d
00000130: 7cfd 85bc 988a 27be be05 8cbd 7ffd e6bd
00000140: e503 c5bd 6495 83bd 1e76 b9bd 5dd3 b33d
00000150: 7e85 5abd 0261 f3bc ad5e 98bd 068f b9bd
00000160: 1637 1dbe e71d 20be 2bac b4bd 2724 dc3c
00000170: f9c9 46bd 3615 65bd df34 923c f85b a6bc
00000180: 61ae 3f3d 8609 99bd 3c48 b8bd 2604 09be
00000190: 42c5 58bc 17cd 03be ae9c 393c 8e73 35bd
000001a0: d41f 843c d61e 6dbc 75e0 c2bd a616 85bd
000001b0: c00e 0ebd 6f3a 2cbd c18f d23d 3a6a 843d
000001c0: 4a31 72bd 9da6 efbd 644d 20bb f020 483d
000001d0: e62d 9bbd 2447 8d3d cdbe 003e 68c8 47bd
000001e0: 4740 b93d 7ee7 913d 0d71 c2bd 0d09 a13d
000001f0: 37c8 593d 2ea0 9cbc e5ec be3b 9121 06bd
00000200: ff67 2bbe e34f 653c c140 c63d 7001 ba3c
00000210: 3ef5 e3bd 0f28 f03c 5581 003e db8b 713d
00000220: f7a5 ee3c 6501 e9bd 8286 11be 01c3 653d
00000230: e0e8 74bc 0a8b ecbd be0d e33d 2f1c 5bbd
00000240: d0c7 0dbd aa71 4c3d d449 f63d c140 ec3d
00000250: f823 9f3c e7e9 b03d 48a8 0c3e 7109 ce3d
00000260: cec5 173d d2cb b73d f1a4 393e ffbf e23d
00000270: a9a6 993d fb3d 7abd 5186 4cbd 215c 333c
00000280: b38c cc3d cadb 933d 17ee 36bd 529e 2e3e
00000290: 66a2 94bd 85b1 84bd 6ba2 ccbd 0934 213e
000002a0: 357a 953d 4e28 993d e38e 9abd d2b5 273d
000002b0: f56a 763d 966a b03d 9c00 223e 8b3c 9bbd
000002c0: 8ec3 09bd cd9f 61bd 527b 333d 08c9 cf3c
000002d0: f0ed a0bd 6902 45bc 7f0f b83d f277 843d
000002e0: 6503 a6bc 1e1b 8ebc ff90 48bd 024f c73c
000002f0: b245 d7bd 5d27 78ba 3781 dabd 9997 033e
00000300: 4471 38bb 7e3d df3c eead 993d c7f3 d93d
00000310: d253 a93d fe16 c33d 7da3 503d fd2d f03c
00000320: 5406 503d 8a16 9cbc f7fe 003e 38df bb3d
00000330: d464 6b3d 14d0 5abc 1b6b de3d 2e41 3f3c
00000340: 8b80 7e3c f986 8a3d dca3 cfbc d4f7 cabb
00000350: b745 133d 6697 c9bc 394b 17bd 05c4 c13c
00000360: f7ca ddbd d05b 2abb e235 a0bd 09ff 923d
00000370: 330f 8dbc 5b44 823d be22 543e a3f7 93bd
00000380: a01a bdbc 3794 a9bc 0c54 643d d2ae 0d3d
00000390: 40d4 d439 8521 d03c bf05 633d ff97 5b3d
000003a0: 5138 c63d e044 acbd 0868 e63d a2d9 c83d
000003b0: dc11 a93d 93d9 f33d f4e3 6a3d dad2 4abc
000003c0: a2ff 003d e449 8a3d dbbf 9cbd 6c59 803d
000003d0: 65a0 81ba a758 91bd a800 643d be11 08be
000003e0: 0c16 fd3d d374 fb3d f704 d03d b7f1 2b3e
000003f0: 0a36 873d b4f8 f53d 6354 043e ba32 03bc
0.024817796 0.11577947 0.027924052 -0.069108054 -0.079928435 -0.06407038 -0.057663783 -0.10466878
0.06824149 0.05515035 0.0075407685 0.0042089196 0.13211048 0.068681136 0.091559164 0.0031300476
-0.057954203 0.09496296 0.009822571 -0.12904377 -0.14957032 0.036000524 0.060424656 0.031330287
-0.018879557 0.097006254 0.15168123 -0.12600197 -0.0063044964 -0.025327351 -0.08239223 0.0014068597
0.09204914 -0.055485807 0.23039691 -0.041103147 -0.0132501125 0.009938579 -0.00836358 -0.033074126
-0.052787002 -0.14084333 -0.00016562827 -0.16829094 -0.19674018 -0.097465724 -0.07103878 0.024436759
-0.055552002 -0.122671746 0.07926019 0.09445374 -0.08107514 -0.13478775 -0.051661234 -0.031004928
0.15656878 -0.10284195 0.013954537 -0.121566206 -0.008979525 -0.100853704 -0.014896707 -0.11405787
0.057856698 -0.04090227 0.016845256 -0.1277733 0.034099463 0.03310013 -0.08687528 0.13303277
0.06516096 -0.1219703 0.091277175 0.04654691 -0.016356222 -0.16361463 -0.06837033 -0.11278819
-0.096198834 -0.064249784 -0.09055732 0.08780549 -0.053349964 -0.029709343 -0.07439933 -0.09060483
-0.15353045 -0.15636407 -0.08821901 0.026872708 -0.04853246 -0.05592843 0.017847477 -0.020307526
0.04679716 -0.074725196 -0.089981526 -0.13380489 -0.013230624 -0.12871204 0.011328859 -0.044299655
0.016128458 -0.014472684 -0.09515468 -0.064984605 -0.034682035 -0.042047914 0.10281325 0.064655736
-0.059129037 -0.11701701 -0.002446019 0.048859537 -0.07577114 0.068983346 0.12572785 -0.048775107
0.09045463 0.07124232 -0.09494219 0.078630544 0.053169455 -0.019119348 0.00582658 -0.032746855
-0.1673889 0.013996097 0.096803196 0.022705764 -0.111307606 0.029315976 0.12549336 0.058971267
0.029131873 -0.11377219 -0.14211467 0.056094173 -0.0149481 -0.11549957 0.110866055 -0.053493675
-0.034614384 0.049913086 0.120258 0.11535788 0.01942633 0.08638363 0.13736069 0.100603946
0.037053876 0.089744225 0.18129326 0.110717766 0.07502491 -0.061094265 -0.04993278 0.010947258
0.09987774 0.07219656 -0.044660654 0.17052582 -0.072575375 -0.06479172 -0.09991916 0.15742506
0.072987 0.07478391 -0.07546785 0.04094488 0.060160596 0.0861408 0.15820545 -0.07579907
-0.03363376 -0.05508404 0.04381878 0.025364414 -0.07857883 -0.0120245 0.08987331 0.0646819
-0.02026529 -0.017346915 -0.048966404 0.024329666 -0.1051134 -0.0009466315 -0.10669177 0.12850799
-0.0028143683 0.027251001 0.075038776 0.106422 0.082679406 0.0952587 0.050937165 0.029318804
0.050787285 -0.019053716 0.12597261 0.09173435 0.057469204 -0.013355274 0.108602725 0.011673255
0.015533577 0.06764025 -0.025346689 -0.006194094 0.035955157 -0.024608325 -0.036936972 0.02365304
-0.10829728 -0.0025994666 -0.07822777 0.0717755 -0.017219162 0.06360694 0.20716378 -0.07224967
-0.023083985 -0.020700557 0.055744216 0.03459055 0.0004059393 0.025406608 0.0554254 0.05361175
0.0967871 -0.08411574 0.11250311 0.09807135 0.082553595 0.11906733 0.0573463 -0.0123793725
0.03149379 0.06752375 -0.07653781 0.06267056 -0.000988972 -0.07096987 0.05566469 -0.13288018
0.12357721 0.12278142 0.10157197 0.16791426 0.06602104 0.12010327 0.12922816 -0.0080077

bias f4 [128]
00000000: 6e73 02be 7354 a63c 9ca3 86bd 14b4 a3bd
00000010: c7a6 dabd 9853 053e a3ed 4dbe a276 bd3d
00000020: 892e dcbd 2e09 173d 23a2 813c 1dab 82bb
00000030: b9ae f53c f7ba 49bd 26ab 583c 12f9 eabb
00000040: 81fc 6a3d c8ff 9b3d d049 26bd c9d0 a53d
00000050: 0494 eb3d 3433 ebbd 0b60 043e 57d2 0cbe
00000060: bd73 68bd fc05 373e bd31 e0bd eab1 a6bd
00000070: e601 32be 9621 ea3d d77b 703d 4c6a 193e
00000080: 2700 ab3d b739 983d 0c54 fa3d f05b fc3c
00000090: 9825 dc3d 9089 4abe 7936 d23c 3f84 93bd
000000a0: 962c f2bc 4b22 723d 3adc 11bd 8bd5 95bc
000000b0: 687d 94bc fc77 7e3d acee 82bc 3a90 d4bd
000000c0: 9498 17bd 1d55 403e 49c8 aa3c 53fb 3bbe
000000d0: 513b 2abe 2058 923d dcd0 0bbe 56b1 e93d
000000e0: 4a79 923d f3a0 4d3c b09f 6b3d 97fb 18be
000000f0: ae6b 93bd 9c96 51bc 1d92 5a3d d0ef 4c3d
00000100: 3871 e6bb ff8d a2bc 6454 123e 408c 733d
00000110: 4bc3 eb3d dfe3 053d fdde 953d 3202 633d
00000120: ca5d 01be 800a 9b3d 7681 e23c 08c9 523d
00000130: aa83 93bd aea1 8f3d 096c e2bd 6121 213e
00000140: 62a3 c0bc 124b 0ebd 319d 58bd ee43 f5bd
00000150: 79fd 293d fc30 4bbd b46b cebb 1020 83bd
00000160: d625 f2bd c975 26be 1dc5 d93c 7322 35be
00000170: 0048 60bd 8b90 e2bd 2a9d 193d ec4e 8a3c
00000180: 7d72 00be 3341 93bd 8c26 0abc 4e20 4fbc
00000190: 0719 bcbc e635 8fbd a84b d1bd 863e 78bc
000001a0: 133f d8bc fe46 d3bc 4f5d a23d 8698 263d
000001b0: 1f18 01bb 365a 963d c504 87bd 3d3e 9bbc
000001c0: 6cc2 7b3d cf6e 653d f867 85bd def3 f83d
000001d0: b395 15bd 0c5d e3ba 7ff1 18be d112 253d
000001e0: 5c14 87bc ace3 433d 344d e8bc fe39 2dbd
000001f0: 8188 363d 39a2 a1bd 7b29 4ebd 385f 49bd
-0.12739345 0.02030394 -0.06574175 -0.079933316 -0.106763415 0.1302017 -0.20110182 0.09251143
-0.107510634 0.03687399 0.015824383 -0.0039876834 0.02999054 -0.04925057 0.013224399 -0.007170805
0.057369713 0.07617146 -0.040597737 0.08096463 0.11502841 -0.114843756 0.12927262 -0.13752113
-0.056751 0.17873377 -0.10946987 -0.08139403 -0.17383537 0.11432187 0.058711853 0.14981955
0.083496384 0.07432883 0.12223062 0.030805558 0.10749358 -0.19779038 0.02566074 -0.07202958
-0.029562276 0.059114736 -0.035610415 -0.018290302 -0.018126205 0.062126145 -0.015982948 -0.103790715
-0.037010744 0.18782468 0.020847457 -0.18357591 -0.1662419 0.07145715 -0.13653892 0.11410777
0.0715204 0.01255058 0.057525337 -0.14939724 -0.07198273 -0.012792256 0.053362 0.05003339
-0.0070325397 -0.0198431 0.14290005 0.059459925 0.115118586 0.032688018 0.07317922 0.055422015
-0.12633434 0.07570362 0.027649622 0.05146125 -0.07202847 0.0701326 -0.11055762 0.1573539
-0.023515407 -0.03473956 -0.052884284 -0.11975847 0.041501496 -0.049607262 -0.0062994603 -0.064026
-0.11823623 -0.16255869 0.026583249 -0.17688923 -0.054756165 -0.11062726 0.0375034 0.016883336
-0.12543674 -0.0719017 -0.008432042 -0.012641979 -0.022961153 -0.06992702 -0.102195084 -0.0151516255
-0.026397264 -0.025790688 0.079279535 0.0406728 -0.0019698215 0.07341425 -0.065927066 -0.018950576
0.061464712 0.05601388 -0.06513971 0.12155889 -0.036519717 -0.0017346456 -0.14935873 0.040301148
-0.0164892 0.047824547 -0.028357126 -0.042291634 0.044563774 -0.0789227 -0.050332528 -0.049163073

weight f4 [128, 128]
00000000: 4d3b 46bc 5259 1dbd 244f 843d 23c4 033e
00000010: 9232 e03d 3364 debd 0d7f f6bc 6795 31bd
00000020: ffe8 9f3c 40a6 733d 2403 4b3e 8924 013d
00000030: a374 d2bc a008 f9bc e895 37bd 8184 80bc
00000040: 17e6 7dbd 91f6 80bd 345d bb3c e574 be3c
00000050: 7d4b 2e3b b626 9e3d 8376 73bd dcf6 413b
00000060: 4f72 c5bd 3def c0bd 41a8 a83d 4546 b0bd
00000070: 1136 c63d 815b aabd 2610 813c 8bf0 46bd
00000080: 11f0 9dbd 7586 9d3a 4577 ac3d 4cc1 36bd
00000090: 5ce9 03bd f811 f8bc fab3 363d 7670 43bd
000000a0: 520b d03d d03f 02be e72c 8d3b c1d3 26bc
000000b0: cf9c 1c3d 8d49 843d 39fb b2bd 4faf 513d
000000c0: 33b4 7dbd 90c2 8bbd e13e efbc 8bf4 2ebd
000000d0: dee1 bbbb 55a8 e8bc 949c 2bbd 7dc2 7bbd
000000e0: e726 693d e879 323c 2faa 4dbb e8ed 68bd
000000f0: 25ba 8b3d 9d7b 1f3d 1804 05be 0dfb 0f3d
00000100: f4b5 efbc 914a 473d b88a abbd 9bb1 433a
00000110: cfb5 473d 1d4d 7fbd 159f 483d fd8e 87bd
00000120: 8bd1 e13d 5086 19bb 954a 96b8 5705 423d
00000130: 4542 963d 8d04 61bc 3ab5 10bd d538 7f3d
00000140: bae9 30bd 8f03 54bd fa13 93b9 821b 28bd
00000150: df46 bbbc 9e1f 753c b13a 733d d7da f63d
00000160: 8982 983d c425 0e3e 18b7 973d 2f28 723d
00000170: ea6c 97bc 7955 3ebd 675e b83a 32c8 56bd
00000180: acd6 dd3d e93e c83b 7679 60bc 7d01 0cbe
00000190: b24a ca3d 20f6 97bb 8cf1 75bd 6d8b 87bd
000001a0: 5b10 c1bd b66a 06bd 7015 93bc ef07 273b
000001b0: cb96 92bd 37d6 52bd 6430 df3c 741a b5bd
000001c0: 8f53 8a3d 2b23 3cbd 0bc4 0ebd 68f9 c53c
000001d0: d9ef d2bc 4c34 6b3d 8a7a 19bc 71c8 a83b
000001e0: cb16 9b3c f234 a63d 9767 f03d 9400 83bd
000001f0: 52e4 82bc 2c62 bf3d 54d7 703d 10fa e03a
00000200: 40f7 09bc e5b3 a53d c927 a13d 6e72 4a3d
00000210: 50d5 6d3c 2fc4 833d 2b7b 2a3d 1d3c f8bc
00000220: b6f4 13be 1772 c1bd 6174 fd3c d2ca dabd
00000230: 2cd8 ba3c 357c b33d 977d b8bc 1152 d1bd
00000240: 8004 7e3d 21be 89bd 44b3 bcbd 47ea b5bc
00000250: dba6 21bc d961 1dbd b34e b83d 892a feba
00000260: 8efc 633c 5e1d c23d ec4b d13c c025 a439
00000270: 3da9 bbbd 66cc 923d 7746 11be 6150 513d
00000280: c849 493d ae01 b03c a388 52bd 1a74 ac3d
00000290: 8a6d 74bd ad06 f7bb f788 303b 0a27 1f3d
000002a0: b7bf 433d 961d c33d 9d0b ae3d 8aa9 943d
000002b0: 36e2 ad3c dedc 353d 31cb b4bd 9982 a23c
000002c0: 4c75 d3bd b691 6b3d 9330 a3bd 4eed 8bbd
000002d0: a127 a6bd c794 95bd d75d 04bc 4a53 343d
000002e0: 27c4 bcbd 4d0e 69bd c20f 0bbd 15b1 76bd
000002f0: 154c 063c a1bf dbbb 3520 07bd bdca 873c
00000300: 556f 7b3d 53f4 0abb 28e7 7d3c 21ea 023c
00000310: b566 143d 4335 e1bd fe4e 31bd ccc6 4abd
00000320: 8cd1 a13c 3a22 9f3d d15a a93d cf77 cb3d
00000330: 3c62 e53c 6f54 c83d 05dd 873c f406 a93d
00000340: 7558 12be f925 0bbd ad88 9bbb 4d18 d83d
00000350: ecf9 c33d 578d 0f3c 0cfd 01bc f111 423d
00000360: f98c 16bb f76b 023c d6c2 a6bc 441c b53a
00000370: d194 d9bc 0b25 78bd c625 cf3b a16b f43d
00000380: 06db 21be 8316 933d 58b3 863d 7a19 02bd
00000390: 43c9 cc3d adfb 97bd 7fbf 09be e33e 583b
000003a0: 737a b6bc 06ce 43bd 47bf d3bd a7b8 8ebb
000003b0: 3cd0 e1bc 7892 d1bd a8cb a1bd 02f7 d0bd
000003c0: 7ed7 e2bd e3d8 293d e157 61bd 4449 93bc
000003d0: 6cf6 d63c 37d8 b33c 4b3a 3c3b 957d 53bd
000003e0: 59c8 89bd 353b f73d c54d f4bc ab2b acbd
000003f0: 7e63 a7bd c6c6 cabc 068d ec3c f6d1 dd3d
-0.012099099 -0.03841526 0.064604074 0.12867789 0.109471455 -0.10858955 -0.03008988 -0.04335537
0.01952028 0.05948472 0.19825417 0.031528983 -0.025690382 -0.03039962 -0.044820696 -0.015688183
-0.06198701 -0.06297029 0.022871591 0.023249099 0.0026595287 0.07722227 -0.059439193 0.0029596603
-0.09640943 -0.09420631 0.08235217 -0.08607153 0.09678281 -0.08318234 0.01575477 -0.048569243
-0.07711805 0.0012018221 0.08421186 -0.044617936 -0.03220497 -0.030282006 0.044605233 -0.047714673
0.10158409 -0.12719655 0.0043083313 -0.010182322 0.03823548 0.06459341 -0.08739323 0.051192578
-0.06193943 -0.06824219 -0.029204788 -0.042713683 -0.0057337126 -0.02840058 -0.04189737 -0.061464775
0.056921866 0.0108933225 -0.0031381955 -0.05686751 0.068226136 0.038936246 -0.12989843 0.03515153
-0.029261567 0.048655096 -0.08376068 0.0007465125 0.04875737 -0.0623294 0.048979837 -0.0661907
0.11026295 -0.0023426004 -7.166449e-05 0.047368374 0.07336859 -0.013733995 -0.03532908 0.06231006
-0.04319165 -0.051761206 -0.0002805291 -0.04104186 -0.022860942 0.014961151 0.059382144 0.12053459
0.074467726 0.13881594 0.07407969 0.059120353 -0.018484551 -0.04646823 0.001406622 -0.052437015
0.10831961 0.006111015 -0.013700834 -0.13672443 0.09877528 -0.0046374947 -0.06004481 -0.0661839
-0.09426948 -0.03281661 -0.017954558 0.0025486907 -0.07157668 -0.051473822 0.027244754 -0.08842936
0.06754219 -0.045931976 -0.03485493 0.024166778 -0.025749134 0.05742292 -0.0093675945 0.0051508476
0.018931767 0.08115567 0.11738508 -0.06396595 -0.015978012 0.09344897 0.058799103 0.0017164368
-0.008420765 0.08090953 0.078689165 0.049425535 0.01451619 0.064339034 0.04162137 -0.030302102
-0.14448819 -0.09445589 0.030939283 -0.10683216 0.022808157 0.08763925 -0.022520823 -0.10220731
0.06201601 -0.06725717 -0.0921388 -0.022206439 -0.009866442 -0.038423393 0.08999386 -0.0019391339
0.013915194 0.094782576 0.025548898 0.00031308644 -0.09163139 0.07167892 -0.14187036 0.051102046
0.04914263 0.021485176 -0.05139984 0.08420582 -0.059674777 -0.0075386376 0.0026937106 0.03885559
0.047790255 0.095271274 0.08498309 0.072588995 0.02122603 0.04440009 -0.08827818 0.019837664
-0.10325107 0.057512008 -0.07968249 -0.06832372 -0.08113027 -0.07303768 -0.008079014 0.044024743
-0.092171006 -0.056898404 -0.033950575 -0.060227472 0.00819685 -0.0067061936 -0.0329897 0.016576165
0.06138547 -0.0021202757 0.0154970065 0.007990391 0.03623076 -0.10996487 -0.043288223 -0.049505994
0.01975324 0.077702 0.08269275 0.09934961 0.028000943 0.097817294 0.016584883 0.08253279
-0.14291556 -0.03397176 -0.0047465176 0.1055151 0.09569153 0.008761725 -0.007933866 0.04738039
-0.002297221 0.007960311 -0.020356577 0.0013817628 -0.026560219 -0.060582202 0.0063216416 0.11934591
-0.15806207 0.07182028 0.06577176 -0.031762578 0.09999325 -0.0742105 -0.13451956 0.0032996468
-0.022275185 -0.0478039 -0.10339218 -0.0043555084 -0.027565114 -0.10233015 -0.079001725 -0.10203363
-0.11076258 0.041466605 -0.05501545 -0.017979272 0.02624055 0.021953685 0.0028721269 -0.051633436
-0.067276664 0.1207184 -0.02982224 -0.084067665 -0.081732735 -0.024752986 0.028875839 0.108310625

bias f4 [128]
00000000: 507b fa3c 67a4 3b3d f96f 85bd 4b09 08bd
00000010: 64d4 0bbd f7e9 d6bc 0306 38bd f7b8 10bc
00000020: d46d 84bd 1110 dfbb a1c8 8ebb 2a9f 19bd
00000030: 197c 733d 484a af3d 6c06 da3b 3126 25bd
00000040: cb6b a33d 71ba e3bd 48b9 efbc 8f84 3cbc
00000050: 808d 6ebc 2165 08bd 70ae 3fbc 56e3 5e3d
00000060: 986b 9b3d 62f1 78bd c540 26bd ea29 4dbd
00000070: 1c67 413d 00f4 59bd e74c 52bd 3d76 5bbd
00000080: d438 e03c d5b3 2fbd e1d0 ef3d b2a6 8bbc
00000090: 3126 bb3d e196 9f3c 6cde 43bc 73f4 9a3d
000000a0: 300a 7f3d 55b8 173d 3173 e1bc fe08 ebbd
000000b0: f853 a1bc d6f7 8a3d 01b9 1cbc b32e 7b3d
000000c0: ee79 8cbc ac9f 9fbd 669d 783b 6869 12bc
000000d0: 2194 74bd 2fc2 78bd e696 b23d 2e80 6bbc
000000e0: ba55 f3bb 3a96 303d 8898 a7bd c59c 90bd
000000f0: 2b24 f83b 7d55 273d 9bd7 ddbc 88e1 91bc
00000100: 6330 733d f6d2 26bd 7f51 41ba 800f 3abd
00000110: c52c 88bc c1d6 9ebd e258 45bd 43ed 18bd
00000120: 9087 803d d740 613c ad7b 2a3d ce32 853d
00000130: 550e ee3d 51d3 113d c776 ab3d 7774 e63d
00000140: 255a 103d 0b72 2bbd 3b15 893d 02af 6b3d
00000150: d955 8dbc fa5c 503d 5b78 463d b476 93bd
00000160: 8b7d 733d 10dc 863c fd3c 273d 4e6a 1dbd
00000170: c364 fabc b86c 533d 8069 cbbd e5ea 81bd
00000180: f771 5c3d dfce 8fbc d6ad b13d fdb0 8dbd
00000190: 8480 a43d 4c48 c83d bbc8 0f3d ff96 213d
000001a0: 0906 d53b 275a d13b 6313 97bc 08c6 81bb
000001b0: bc83 c0bc 3c77 febc 4d14 803d 7bec 583c
000001c0: ef23 663c d11a 8cbd 3436 71bc 8508 8c3c
000001d0: ab2b 01bd 1584 903d 718b e13c 5cdd 67bb
000001e0: 314a d23d 2590 19bd 8a2f a5bd 7be6 213d
000001f0: 9075 99bd 101a afbd 6c02 18bd 337c 32bb
0.030576378 0.045811083 -0.06515498 -0.033211987 -0.0341381 -0.02623461 -0.04492761 -0.008833162
-0.064662606 -0.006807335 -0.004357413 -0.037505306 0.05944452 0.0855909 0.0066535976 -0.040319625
0.07979544 -0.11119545 -0.029263154 -0.011506214 -0.014560103 -0.03329957 -0.011699304 0.054416023
0.07588881 -0.060777076 -0.040589113 -0.0500888 0.047217473 -0.053211212 -0.05134287 -0.053579558
0.027370848 -0.04289611 0.11709762 -0.01704726 0.09138144 0.019481124 -0.011954885 0.07566156
0.062265575 0.037041027 -0.027520748 -0.114763245 -0.01969336 0.06785552 -0.009565593 0.061323833
-0.017147984 -0.07794127 0.0037935614 -0.008936264 -0.05971158 -0.060732063 0.08720188 -0.014373822
-0.007425991 0.043112017 -0.0818339 -0.070611514 0.007572671 0.040853012 -0.027080348 -0.017807737
0.059372317 -0.04072853 -0.00073745096 -0.04542494 -0.01662291 -0.07755805 -0.04818047 -0.037335645
0.062758565 0.013748369 0.041621853 0.06503831 0.11623827 0.035601918 0.08372264 0.11252683
0.03524222 -0.041856807 0.066935025 0.057539947 -0.01725285 0.05086992 0.048454624 -0.07200375
0.0594459 0.016462356 0.040829647 -0.03843146 -0.030565625 0.051617354 -0.09932232 -0.06343631
0.053819623 -0.017554699 0.08675735 -0.069185235 0.08032325 0.097794145 0.03510354 0.03945064
0.0065009636 0.006388921 -0.018441861 -0.0039603747 -0.023500316 -0.031062715 0.06253872 0.013239975
0.014046653 -0.06841052 -0.014722396 0.017093906 -0.031535786 0.07056443 0.027532311 -0.0035379743
0.10268057 -0.037490983 -0.08065708 0.039526444 -0.074931264 -0.08549893 -0.037111685 -0.0027234673

weight f4 [128, 128]
00000000: a805 433d 5532 b7bc 7b19 b8bc a070 643d
00000010: cfe8 3e3d 296c 20bb 8387 fdbc 0f62 183e
00000020: 9386 473d e63b ddbd 9417 0cbd bdee df3b
00000030: c4a0 debc bfae 01bd e973 53bd 0575 7b3d
00000040: a57b 0fbc 09ae aa3c 8a35 393c b529 b23d
00000050: 54c7 3ebc f947 ae3d c62b 17bc 6184 b33c
00000060: fe4c 8f3d 050e 8a3d d74b 95bc 99f8 ad3c
00000070: 9644 3cbd 3ae4 0a3d f51b 8e3d f1ed a5bd
00000080: 2bfa 8a3d 10f5 133d e952 1fbc af54 f2bc
00000090: 0811 0c3d 547e c7bd 8d41 c83d 93f2 3fbd
000000a0: f7a3 023a 1003 003d d6ad 50bd 4823 1bbe
000000b0: e219 593d 0c5d 9dbc 8ea3 193e 26df 7d3d
000000c0: 66b3 f7ba c3a3 aabd 78d3 2b3d 9c7f 60bd
000000d0: 972f 7a3c 948a bdbc 231c 0a3c 4f9f e93d
000000e0: 91cc b83c 5b1c 9a3c 924c 98bd 5c7d 893d
000000f0: b09a c9bc 686b 473d b9ea 803d 5b01 bd3c
00000100: 684d 5d3c 40e8 e5bc 4471 43bd dbba 12be
00000110: c1a5 853d f3b5 6f3d c5c0 0fbd b50e 683c
00000120: 8a19 0bbe 636d a23c af80 3d3d b9b8 1f3d
00000130: caba b83d 817a 863d 268f debd 1b2a 9e3d
00000140: e72a 69bc e21d a83d 185e 24bd a3ab a73d
00000150: 69a2 99bd 7b0a d23b 49a9 29bd eae3 29bd
00000160: 9fe9 f13c 6e0c 663d b932 033b 105e 043d
00000170: e5c8 14bc 69a1 8d3c 176c 5abb 9a96 8c3c
00000180: 8d1f ea3d 9e0e 52bd 2ace ae3c 6f2e b43b
00000190: b3be 673d 4b36 3a3b 1006 b2bb 3738 e9bc
000001a0: 2b76 14bd 58a2 bcbd 7101 cb3d c64f 9c3d
000001b0: e3b6 3d3d 89be 6e3d b0ec 853d b8d6 9f3c
000001c0: b225 ac3a 0d85 7c3d 78b3 c7bd 7654 273e
000001d0: aa56 0c3d 51dc b0bd 6fc8 f73c 7a2f e33a
000001e0: 67a8 79bd fe7f da3c b6c0 803d a43c 87bd
000001f0: d89d 12be 8012 96bd b156 f5bd d573 ae3d
00000200: cfb7 9dbd fc2e 5abd 11f5 443d f2fe 50bc
00000210: d1b2 5c3c 7e22 eb3d 36c5 a6bd 6aca 3cbd
00000220: c352 dd3c 0687 0abc 6bf9 51bd bfe7 a1bb
00000230: 2165 eabc cee5 893c 6ccb 34bd 2a2f 993d
00000240: fafe f1b9 7b4f 44bd 47ac 41bd 824b c83d
00000250: 3431 75bd 8757 32bc 8245 5b3d c4ee bdbc
00000260: e350 653d ef35 fc3d 6ab5 aebd 708c b33d
00000270: be7c be3c 0074 36bc 71d4 efbc 7326 d53c
00000280: b8e4 c93d 062d 3ebc 3e11 b1bd be34 d0bc
00000290: 9817 3f3d 1adb a3bc 789a 843d 8d3f d5bd
000002a0: b647 ac3d ded7 13bd 2977 8fbd b4f4 d7bd
000002b0: eb43 efbc 6be9 a5bd f8fd 873d 9b1c 233d
000002c0: cb08 063d d0f2 d0bd 6fd6 b0bd 7214 9cbd
000002d0: 5a43 a33d aa85 843c a9fc 53bd ba2c 0ebc
000002e0: 5886 11bd f626 7dbd 13f5 743c 1ea2 91bc
000002f0: 98e5 ef3d bc60 b2bd dc7d 39bd 5e66 7b3d
00000300: bcdf 64bd 9fc6 46bb 3829 d63b 95ad f83c
00000310: 2ba1 333d c4e4 c7b9 4083 2dbd ba65 0a3c
00000320: b219 2d3c 62d2 953b d136 cfbd 86be 51bd
00000330: bdeb 88bd 20dd c2bd f9f4 953c d9c5 3a3c
00000340: 19a8 043d 5205 9c3c 986e 363d b36d 44bd
00000350: 9128 603d 6a7e 0cbd 484b adbd fa43 85bd
00000360: c07d 4d3c db49 0a3d 3f69 813c 2b28 763d
00000370: e585 023e bafa 17bc 7d9d 68bb e204 33bd
00000380: 3061 fbbc 54d7 f7bc 3552 b93d cda7 e6bc
00000390: ffd1 7cbd 7fec debd 765d 22bd cabc 4d3d
000003a0: d117 4d3d e6e0 403d 225a 37bc 49be df3d
000003b0: 8c6c a4bd a118 1cbd 593e 513d 394e 5dbd
000003c0: e0d4 ec3c 558a b2bc 8fcf a33d f5d0 023e
000003d0: 6967 a23c 31ab 14bd 2adf 883d bccd e4bd
000003e0: 4827 32bc b545 cdbc 6ae1 a6bd 82fc b2bd
000003f0: dbd8 0b3d 1bd1 f63d 8796 16bd 20d4 2f3d
0.047612816 -0.022362867 -0.022473088 0.05577147 0.046608742 -0.002447853 -0.030948406 0.14881156
0.048712324 -0.1080244 -0.034202173 0.0068338797 -0.027176268 -0.03166079 -0.051624212 0.061390895
-0.0087575065 0.02083494 0.011304269 0.08699361 -0.011644203 0.085098214 -0.009226745 0.02191371
0.06997107 0.06740955 -0.01822464 0.021236705 -0.045963846 0.03390906 0.06938926 -0.08102024
0.06785997 0.03612238 -0.009724357 -0.029581396 0.03419593 -0.09740892 0.09778128 -0.046862196
0.0004983539 0.03125292 -0.050947033 -0.15150177 0.0530032 -0.019209407 0.15003797 0.06198039
-0.0018898069 -0.08332016 0.04194972 -0.054809198 0.015270135 -0.023137368 0.00842956 0.11407339
0.022558482 0.018812349 -0.0743648 0.067133635 -0.024609894 0.048686415 0.0629477 0.023071935
0.013507225 -0.028064847 -0.04771544 -0.14329092 0.06525756 0.05852313 -0.03509595 0.014163663
-0.13583961 0.01982755 0.0462653 0.038994525 0.09020002 0.065663345 -0.10867147 0.07722875
-0.01423142 0.08208825 -0.040128797 0.08187034 -0.075016804 0.006409941 -0.04142121 -0.04147712
0.029530345 0.056164198 0.0020019247 0.032316267 -0.0090811 0.01728888 -0.0033328587 0.017161656
0.11431799 -0.05128347 0.021338541 0.0054986994 0.05657835 0.0028413709 -0.0054328516 -0.028469188
-0.036245506 -0.09210652 0.09912384 0.07632403 0.046316992 0.058287177 0.06539285 0.019511566
0.0013133793 0.061650325 -0.09751028 0.16340813 0.034262337 -0.08635772 0.030246941 0.0017332875
-0.060951617 0.02667236 0.06286757 -0.06603363 -0.14318025 -0.07327747 -0.11979426 0.08518187
-0.07701074 -0.053267464 0.048085276 -0.012756096 0.0134703675 0.11481188 -0.08143084 -0.046091475
0.027017003 -0.008455044 -0.051263254 -0.0049409564 -0.028612675 0.016833212 -0.04413931 0.07479699
-0.00046157074 -0.04792736 -0.047283437 0.09780027 -0.059861377 -0.010885126 0.053533085 -0.023185141
0.055985343 0.123149745 -0.08530696 0.08767021 0.023252841 -0.011136055 -0.029276105 0.02601931
0.09858078 -0.011607414 -0.08645867 -0.025415774 0.04665336 -0.020001937 0.06474775 -0.10412512
0.08412115 -0.03609454 -0.0700515 -0.1054472 -0.02920719 -0.081011616 0.066402376 0.039822202
0.03272323 -0.10202563 -0.0863465 -0.07621087 0.07971831 0.016177017 -0.051754627 -0.008677656
-0.03552851 -0.061804734 0.014951008 -0.017777499 0.117137134 -0.08709857 -0.045286044 0.06137692
-0.055877432 -0.003033079 0.0065356754 0.030356208 0.043854874 -0.00038126681 -0.042361498 0.008447105
0.010565208 0.0045721987 -0.10117877 -0.051207088 -0.066855885 -0.095148325 0.018305289 0.01139971
0.032386873 0.019045506 0.044539064 -0.04795618 0.054726187 -0.034300245 -0.084616244 -0.06507106
0.012542188 0.03376184 0.015797256 0.0600969 0.12746389 -0.009276086 -0.003549426 -0.04370583
-0.030685991 -0.030254044 0.09048883 -0.028156186 -0.061723705 -0.10884952 -0.039639913 0.05022887
0.05007154 0.04708948 -0.011190923 0.10924966 -0.08028516 -0.038109425 0.05108485 -0.054029677
0.0289101 -0.021794477 0.07998573 0.12775023 0.0198247 -0.036296073 0.0668319 -0.11172053
-0.010873623 -0.025057653 -0.08148463 -0.08739568 0.034142356 0.120516025 -0.036764648 0.042926908

bias f4 [128]
00000000: c619 083c 22d0 5ebd 2fab a93d eeff d33c
00000010: 5c88 21bd df21 6cbc 822d 2dbd aee8 78bc
00000020: 83b8 963d 03be febc 6126 563c f0e1 b33d
00000030: a022 96bc 0c18 103d b4b4 533d d3d5 653d
00000040: a660 70bd 6b7c 7f3d 3fb4 243d 676e 4d3d
00000050: 3b6e fc3c 5105 1a3d 6c51 0c3d 6fc4 dfbc
00000060: d40b aebd 315c 89bd 54e4 823d 3390 d63c
00000070: 3a0c 1e3d fe89 c5bd 8443 403d abf5 823c
00000080: 39a8 7bbc 9857 233c 1e79 c43c 901d 8fbc
00000090: 41a0 9bbc 3554 e13c 6b27 6d3d 5489 0d3b
000000a0: 100c 25bb cd47 873d 058b 2c3d 7dbf ac3a
000000b0: 07f5 443d fbab 0ebd e0b3 093c 0a9a 2dbc
000000c0: 46c1 1fbc 9ddb bcbd 624d 953c c082 923d
000000d0: 8ce6 e5bc 2a65 42bd e73d e93d 9f17 3e3c
000000e0: 91b1 8c39 ed64 053d 3f1d 4d3d c4d9 113c
000000f0: d81e 66bd 70b8 c0bc 8bed 0d3d 6673 0e3d
00000100: 4dae a03b 4bc4 b23c 717a d9bc 76f9 81bd
00000110: 18e2 5abd 1664 df3c d5a2 01bd 522b 08bc
00000120: 9068 a03d 960a 12bb 7305 ed37 0a02 f1bc
00000130: 727a 34bc 43be 4abd e36e 86bd 8759 2ebc
00000140: b031 093b 79ba 53bd 5442 0bba e05d 353c
00000150: 0b0b 4cbd 9772 2f3d 5f8a 4abd 62fe cabc
00000160: e977 71bc cff6 e1bc a2f2 5b3d d1b3 a13b
00000170: 8661 1bbd bbae 3f3d a51b 08bd cc38 863b
00000180: 7346 2fbc 7987 54bd 25d4 fcb9 18b9 b93c
00000190: bb7e c9bc 3d0f dc3d 6524 86bc 712d 163c
000001a0: 18c3 453d c4a5 9cbb 6dcc 04bd 5ff5 433b
000001b0: d438 adbd de74 a0bd ce80 743d 908d 083d
000001c0: 711a 63ba 4bd9 b2bd 90a1 fb3c 8d80 43bd
000001d0: 7629 af3d 87a5 e0bc b591 b23d 805d f6bd
000001e0: 4bd8 10bd e999 b53d 3ead 863d d4b2 74bd
000001f0: aece 5bbd 63b2 9539 c1f6 01bc 119a f83c
0.008306926 -0.05439771 0.08284604 0.025878873 -0.039436683 -0.014412372 -0.042279728 -0.015192194
0.073594116 -0.031096464 0.013070674 0.087833285 -0.018327057 0.035179183 0.051686004 0.05611212
-0.05868592 0.062374514 0.04021096 0.050154116 0.03081428 0.037602726 0.034257337 -0.027315347
-0.0849835 -0.06707037 0.063912064 0.026191806 0.03858588 -0.096454605 0.046939388 0.015986284
-0.015359932 0.009969614 0.023983534 -0.017470151 -0.018997313 0.027505973 0.05789892 0.0021596747
-0.0025184192 0.06605492 0.042124767 0.0013179627 0.04808524 -0.034831982 0.008404702 -0.010595808
-0.00975067 -0.092215754 0.018225376 0.07153845 -0.028064035 -0.04745976 0.1138876 0.011602311
0.00026835178 0.032566953 0.05007672 0.008902017 -0.05618176 -0.023525447 0.034650367 0.03477802
0.004903591 0.021822115 -0.026547642 -0.06346409 -0.053438276 0.027269404 -0.03164943 -0.00831111
0.07832444 -0.0022284142 2.825514e-05 -0.029419918 -0.011015521 -0.049497854 -0.06564119 -0.010641462
0.0020934157 -0.051691506 -0.0005312313 0.011069745 -0.04981522 0.04283389 -0.049448367 -0.024779502
-0.014738061 -0.027583508 0.05369819 0.004934766 -0.037934802 0.046797495 -0.03322949 0.004096126
-0.010697949 -0.05188701 -0.00048223246 0.022671267 -0.024596563 0.10745094 -0.016374776 0.0091661075
0.04828176 -0.004780503 -0.032421518 0.0029900891 -0.08458105 -0.07834791 0.05969315 0.03333813
-0.0008663303 -0.087328516 0.030716687 -0.047730017 0.0855283 -0.02742268 0.08719198 -0.120295525
-0.035362523 0.08867247 0.06576012 -0.059740856 -0.053663902 0.00028552403 -0.007932366 0.030346902
