dapg/examples/jit_model/no_hammer-v0/model_feature.pt (torch, 179982 bytes, 10 tensors)

in_shift f4 [72]
0.0 0.0 0.0 0.0 0.0 0.0 0.0 0.0
0.0 0.0 0.0 0.0 0.0 0.0 0.0 0.0
0.0 0.0 0.0 0.0 0.0 0.0 0.0 0.0
0.0 0.0 0.0 0.0 0.0 0.0 0.0 0.0
0.0 0.0 0.0 0.0 0.0 0.0 0.0 0.0
0.0 0.0 0.0 0.0 0.0 0.0 0.0 0.0
0.0 0.0 0.0 0.0 0.0 0.0 0.0 0.0
0.0 0.0 0.0 0.0 0.0 0.0 0.0 0.0
0.0 0.0 0.0 0.0 0.0 0.0 0.0 0.0
00000000: 0000 0000 0000 0000 0000 0000 0000 0000
00000010: 0000 0000 0000 0000 0000 0000 0000 0000
00000020: 0000 0000 0000 0000 0000 0000 0000 0000
00000030: 0000 0000 0000 0000 0000 0000 0000 0000
00000040: 0000 0000 0000 0000 0000 0000 0000 0000
00000050: 0000 0000 0000 0000 0000 0000 0000 0000
00000060: 0000 0000 0000 0000 0000 0000 0000 0000
00000070: 0000 0000 0000 0000 0000 0000 0000 0000
00000080: 0000 0000 0000 0000 0000 0000 0000 0000
00000090: 0000 0000 0000 0000 0000 0000 0000 0000
000000a0: 0000 0000 0000 0000 0000 0000 0000 0000
000000b0: 0000 0000 0000 0000 0000 0000 0000 0000
000000c0: 0000 0000 0000 0000 0000 0000 0000 0000
000000d0: 0000 0000 0000 0000 0000 0000 0000 0000
000000e0: 0000 0000 0000 0000 0000 0000 0000 0000
000000f0: 0000 0000 0000 0000 0000 0000 0000 0000
00000100: 0000 0000 0000 0000 0000 0000 0000 0000
00000110: 0000 0000 0000 0000 0000 0000 0000 0000

in_scale f4 [72]
1.0 1.0 1.0 1.0 1.0 1.0 1.0 1.0
1.0 1.0 1.0 1.0 1.0 1.0 1.0 1.0
1.0 1.0 1.0 1.0 1.0 1.0 1.0 1.0
1.0 1.0 1.0 1.0 1.0 1.0 1.0 1.0
1.0 1.0 1.0 1.0 1.0 1.0 1.0 1.0
1.0 1.0 1.0 1.0 1.0 1.0 1.0 1.0
1.0 1.0 1.0 1.0 1.0 1.0 1.0 1.0
1.0 1.0 1.0 1.0 1.0 1.0 1.0 1.0
1.0 1.0 1.0 1.0 1.0 1.0 1.0 1.0
00000000: 0000 803f 0000 803f 0000 803f 0000 803f
00000010: 0000 803f 0000 803f 0000 803f 0000 803f
00000020: 0000 803f 0000 803f 0000 803f 0000 803f
00000030: 0000 803f 0000 803f 0000 803f 0000 803f
00000040: 0000 803f 0000 803f 0000 803f 0000 803f
00000050: 0000 803f 0000 803f 0000 803f 0000 803f
00000060: 0000 803f 0000 803f 0000 803f 0000 803f
00000070: 0000 803f 0000 803f 0000 803f 0000 803f
00000080: 0000 803f 0000 803f 0000 803f 0000 803f
00000090: 0000 803f 0000 803f 0000 803f 0000 803f
000000a0: 0000 803f 0000 803f 0000 803f 0000 803f
000000b0: 0000 803f 0000 803f 0000 803f 0000 803f
000000c0: 0000 803f 0000 803f 0000 803f 0000 803f
000000d0: 0000 803f 0000 803f 0000 803f 0000 803f
000000e0: 0000 803f 0000 803f 0000 803f 0000 803f
000000f0: 0000 803f 0000 803f 0000 803f 0000 803f
00000100: 0000 803f 0000 803f 0000 803f 0000 803f
00000110: 0000 803f 0000 803f 0000 803f 0000 803f

out_shift f4 [128]
0.0 0.0 0.0 0.0 0.0 0.0 0.0 0.0
0.0 0.0 0.0 0.0 0.0 0.0 0.0 0.0
0.0 0.0 0.0 0.0 0.0 0.0 0.0 0.0
0.0 0.0 0.0 0.0 0.0 0.0 0.0 0.0
0.0 0.0 0.0 0.0 0.0 0.0 0.0 0.0
0.0 0.0 0.0 0.0 0.0 0.0 0.0 0.0
0.0 0.0 0.0 0.0 0.0 0.0 0.0 0.0
0.0 0.0 0.0 0.0 0.0 0.0 0.0 0.0
0.0 0.0 0.0 0.0 0.0 0.0 0.0 0.0
0.0 0.0 0.0 0.0 0.0 0.0 0.0 0.0
0.0 0.0 0.0 0.0 0.0 0.0 0.0 0.0
0.0 0.0 0.0 0.0 0.0 0.0 0.0 0.0
0.0 0.0 0.0 0.0 0.0 0.0 0.0 0.0
0.0 0.0 0.0 0.0 0.0 0.0 0.0 0.0
0.0 0.0 0.0 0.0 0.0 0.0 0.0 0.0
0.0 0.0 0.0 0.0 0.0 0.0 0.0 0.0
00000000: 0000 0000 0000 0000 0000 0000 0000 0000
00000010: 0000 0000 0000 0000 0000 0000 0000 0000
00000020: 0000 0000 0000 0000 0000 0000 0000 0000
00000030: 0000 0000 0000 0000 0000 0000 0000 0000
00000040: 0000 0000 0000 0000 0000 0000 0000 0000
00000050: 0000 0000 0000 0000 0000 0000 0000 0000
00000060: 0000 0000 0000 0000 0000 0000 0000 0000
00000070: 0000 0000 0000 0000 0000 0000 0000 0000
00000080: 0000 0000 0000 0000 0000 0000 0000 0000
00000090: 0000 0000 0000 0000 0000 0000 0000 0000
000000a0: 0000 0000 0000 0000 0000 0000 0000 0000
000000b0: 0000 0000 0000 0000 0000 0000 0000 0000
000000c0: 0000 0000 0000 0000 0000 0000 0000 0000
000000d0: 0000 0000 0000 0000 0000 0000 0000 0000
000000e0: 0000 0000 0000 0000 0000 0000 0000 0000
000000f0: 0000 0000 0000 0000 0000 0000 0000 0000
00000100: 0000 0000 0000 0000 0000 0000 0000 0000
00000110: 0000 0000 0000 0000 0000 0000 0000 0000
00000120: 0000 0000 0000 0000 0000 0000 0000 0000
00000130: 0000 0000 0000 0000 0000 0000 0000 0000
00000140: 0000 0000 0000 0000 0000 0000 0000 0000
00000150: 0000 0000 0000 0000 0000 0000 0000 0000
00000160: 0000 0000 0000 0000 0000 0000 0000 0000
00000170: 0000 0000 0000 0000 0000 0000 0000 0000
00000180: 0000 0000 0000 0000 0000 0000 0000 0000
00000190: 0000 0000 0000 0000 0000 0000 0000 0000
000001a0: 0000 0000 0000 0000 0000 0000 0000 0000
000001b0: 0000 0000 0000 0000 0000 0000 0000 0000
000001c0: 0000 0000 0000 0000 0000 0000 0000 0000
000001d0: 0000 0000 0000 0000 0000 0000 0000 0000
000001e0: 0000 0000 0000 0000 0000 0000 0000 0000
000001f0: 0000 0000 0000 0000 0000 0000 0000 0000

out_scale f4 [128]
1.0 1.0 1.0 1.0 1.0 1.0 1.0 1.0
1.0 1.0 1.0 1.0 1.0 1.0 1.0 1.0
1.0 1.0 1.0 1.0 1.0 1.0 1.0 1.0
1.0 1.0 1.0 1.0 1.0 1.0 1.0 1.0
1.0 1.0 1.0 1.0 1.0 1.0 1.0 1.0
1.0 1.0 1.0 1.0 1.0 1.0 1.0 1.0
1.0 1.0 1.0 1.0 1.0 1.0 1.0 1.0
1.0 1.0 1.0 1.0 1.0 1.0 1.0 1.0
1.0 1.0 1.0 1.0 1.0 1.0 1.0 1.0
1.0 1.0 1.0 1.0 1.0 1.0 1.0 1.0
1.0 1.0 1.0 1.0 1.0 1.0 1.0 1.0
1.0 1.0 1.0 1.0 1.0 1.0 1.0 1.0
1.0 1.0 1.0 1.0 1.0 1.0 1.0 1.0
1.0 1.0 1.0 1.0 1.0 1.0 1.0 1.0
1.0 1.0 1.0 1.0 1.0 1.0 1.0 1.0
1.0 1.0 1.0 1.0 1.0 1.0 1.0 1.0
00000000: 0000 803f 0000 803f 0000 803f 0000 803f
00000010: 0000 803f 0000 803f 0000 803f 0000 803f
00000020: 0000 803f 0000 803f 0000 803f 0000 803f
00000030: 0000 803f 0000 803f 0000 803f 0000 803f
00000040: 0000 803f 0000 803f 0000 803f 0000 803f
00000050: 0000 803f 0000 803f 0000 803f 0000 803f
00000060: 0000 803f 0000 803f 0000 803f 0000 803f
00000070: 0000 803f 0000 803f 0000 803f 0000 803f
00000080: 0000 803f 0000 803f 0000 803f 0000 803f
00000090: 0000 803f 0000 803f 0000 803f 0000 803f
000000a0: 0000 803f 0000 803f 0000 803f 0000 803f
000000b0: 0000 803f 0000 803f 0000 803f 0000 803f
000000c0: 0000 803f 0000 803f 0000 803f 0000 803f
000000d0: 0000 803f 0000 803f 0000 803f 0000 803f
000000e0: 0000 803f 0000 803f 0000 803f 0000 803f
000000f0: 0000 803f 0000 803f 0000 803f 0000 803f
00000100: 0000 803f 0000 803f 0000 803f 0000 803f
00000110: 0000 803f 0000 803f 0000 803f 0000 803f
00000120: 0000 803f 0000 803f 0000 803f 0000 803f
00000130: 0000 803f 0000 803f 0000 803f 0000 803f
00000140: 0000 803f 0000 803f 0000 803f 0000 803f
00000150: 0000 803f 0000 803f 0000 803f 0000 803f
00000160: 0000 803f 0000 803f 0000 803f 0000 803f
00000170: 0000 803f 0000 803f 0000 803f 0000 803f
00000180: 0000 803f 0000 803f 0000 803f 0000 803f
00000190: 0000 803f 0000 803f 0000 803f 0000 803f
000001a0: 0000 803f 0000 803f 0000 803f 0000 803f
000001b0: 0000 803f 0000 803f 0000 803f 0000 803f
000001c0: 0000 803f 0000 803f 0000 803f 0000 803f
000001d0: 0000 803f 0000 803f 0000 803f 0000 803f
000001e0: 0000 803f 0000 803f 0000 803f 0000 803f
000001f0: 0000 803f 0000 803f 0000 803f 0000 803f

weight f4 [128, 72]
-0.14537813 0.090168566 0.11768457 0.02196205 0.066980526 -0.09316847 -0.108124055 -0.014213536
-0.042027514 0.10210074 0.024171827 0.11881693 0.111921266 -0.07226794 -0.062254418 0.017456224
-0.086179934 -0.085523926 0.049466956 -0.06068619 -0.04526477 -0.044560988 -0.036639027 -0.09637659
0.0028947715 -0.06616095 0.15500222 0.040890716 -0.057753727 -0.1448455 0.020146728 -0.11774749
0.08835482 0.025348539 0.119935 0.005594153 0.08550176 0.048196897 -0.0258274 -0.041171633
0.07405156 -0.0853538 -0.12763007 -0.066615045 -0.092342116 -0.017721951 0.009343233 0.07977887
-0.06359131 -0.048752084 0.042230844 -0.17672354 0.02080753 -0.024074785 -0.005209306 -0.081408784
0.10415004 -0.04379728 0.025735741 0.03952694 0.09266101 -0.018185686 -0.09235113 -0.01412041
-0.09109839 0.085649654 0.01898644 0.10065283 -0.108103156 -0.14563902 0.009590126 0.039212205
-0.13344409 0.13915852 -0.061375972 -0.10541306 -0.20550722 -0.00074781204 -0.064468 -0.12982802
-0.13105902 -0.035696276 0.06931501 0.05377877 0.052253697 0.017384175 -0.04461352 0.04056069
-0.15572827 -0.005822721 -0.15167372 -0.0039978344 0.00043512337 0.019455176 0.114205405 -0.040544916
-0.09025852 0.1091881 0.08245541 -0.115169644 -0.0115778465 -0.067207016 0.04339125 -0.11865559
-0.20180745 -0.15423095 -0.07641873 0.009159242 -0.014573749 0.047061335 0.039583314 0.004490725
0.012485516 -0.065334566 -0.05628075 0.020556318 -0.12954062 0.029567294 0.14850149 0.0471849
-0.012763318 0.033608265 0.05003414 -0.016001191 -0.18111756 -0.050030753 -0.13471632 -0.047770765
-0.17959364 -0.018496374 -0.066744365 -0.024073143 0.024598418 -0.17196481 0.07287316 0.124015294
-0.12623437 0.059609607 -0.06653226 -0.069583744 -0.083642796 -0.052565206 0.028109543 0.11630081
-0.056244582 -0.0112893805 -0.037454344 0.056111205 -0.13892342 0.10783606 0.0943012 -0.05883439
-0.025659546 0.14886642 0.08516193 0.028795173 0.10356085 -0.055971485 -0.051502652 0.005258603
-0.065913014 0.05426604 -0.10595714 0.04188812 -0.15766095 -0.04817901 0.16416785 0.04085127
0.031758696 -0.06269312 0.103382245 0.025849989 -0.0024373408 0.0900053 0.017277973 -0.10381105
-0.0574982 0.0787632 0.18958406 -0.039691992 -0.01300604 0.034040563 0.09847016 -0.07306938
0.10182147 0.00025156882 -0.13917638 0.09335865 -0.105950676 -0.07231627 0.18035851 0.041750103
0.12883398 -0.08469288 -0.0073780767 -0.011568112 -0.0913814 -0.07102222 0.16610068 -0.10487177
0.09276762 -0.034035265 0.18591161 0.03316056 0.07473163 -0.101305105 0.07217951 -0.030419087
0.051519632 -0.054634262 -0.10553884 0.04457136 -0.16756053 0.047378898 0.17736503 -0.088132285
-0.21276785 0.11013749 -0.11722474 -0.022871898 0.063526556 -0.084657386 0.113118045 0.038419724
0.0927981 0.042552903 -0.038121693 -0.012486295 0.011385349 -0.008029623 -0.044467717 0.036720876
-0.003956278 0.14838968 -0.008492731 0.11205129 0.07429868 0.1573804 -0.047330048 0.03183241
-0.18823276 0.08032445 -0.08244842 0.035549004 0.0652746 0.056919202 0.08207519 0.0613136
-0.04415713 -0.1159404 -0.07833524 -0.08868514 -0.0016861196 -0.049252845 -0.037493788 0.028028376
00000000: 01de 14be 4caa b83d 9c04 f13d c2e9 b33c
00000010: 162d 893d 1ccf bebd 2570 ddbd e4df 68bc
00000020: 0b25 2cbd 311a d13d ff03 c63c 4a56 f33d
00000030: fa36 e53d 3701 94bd 7dfe 7ebd 5b00 8f3c
00000040: 1b7f b0bd 2b27 afbd dd9d 4a3d 1592 78bd
00000050: 8d67 39bd 9585 36bd ce12 16bd 1761 c5bd
00000060: 35b6 3d3b 647f 87bd e7b8 1e3e 067d 273d
00000070: 2c8f 6cbd 6152 14be c00a a53c 9925 f1bd
00000080: 5ff3 b43d bda7 cf3c 7ba0 f53d 284f b73b
00000090: 8c1b af3d 1c6a 453d fc93 d3bc 96a3 28bd
000000a0: 58a8 973d f9cd aebd 75b1 02be 786d 88bd
000000b0: dd1d bdbd a02d 91bc 5c14 193c 1b63 a33d
000000c0: 293c 82bd 44b0 47bd 40fa 2c3d 04f7 34be
000000d0: 8e74 aa3c 7c38 c5bc d3b2 aabb a6b9 a6bd
000000e0: 9e4c d53d c764 33bd c3d3 d23c 00e7 213d
000000f0: 0ec5 bd3d 26fa 94bc 9722 bdbd 4b59 67bc
00000100: cb91 babd 1669 af3d 7389 9b3c 1223 ce3d
00000110: 3065 ddbd 6522 15be e71f 1d3c fa9c 203d
00000120: 91a5 08be 927f 0e3e 5f65 7bbd cde2 d7bd
00000130: 7c70 52be d108 44ba cc07 84bd a3f1 04be
00000140: 5634 06be 4236 12bd 07f5 8d3d 2147 5c3d
00000150: f907 563d 4269 8e3c abbc 36bd f722 263d
00000160: 3b77 1fbe 86cc bebb 5b50 1bbe 4400 83bb
00000170: 4521 e439 7660 9f3c 86e4 e93d 6d12 26bd
00000180: 75d9 b8bd 039e df3d 62de a83d 10de ebbd
00000190: 02b1 3dbc d5a3 89bd 06bb 313d b401 f3bd
000001a0: 9da6 4ebe b8ee 1dbe 6c81 9cbd a510 163c
000001b0: bcc6 6ebc 63c3 403d 1d22 223d ef26 933b
000001c0: 0d90 4c3c 21ce 85bd a586 66bd b965 a83c
000001d0: 4ca6 04be 1c37 f23c c610 183e f444 413d
000001e0: 3c1d 51bc d2a8 093d 99f0 4c3d ee14 83bc
000001f0: e276 39be 0ced 4cbd 13f3 09be 47ab 43bd
00000200: 65e7 37be b585 97bc 45b1 88bd 0a35 c5bc
00000210: 9f82 c93c 8b17 30be 863e 953d bbfb fd3d
00000220: 9543 01be 3429 743d 1142 88bd ec81 8ebd
00000230: ea4c abbd 9d4e 57bd fc45 e63c 1e2f ee3d
00000240: b860 66bd 18f7 38bc ba69 19bd ddd4 653d
00000250: f141 0ebe 27d9 dc3d fd20 c13d 54fc 70bd
00000260: f833 d2bc 7070 183e 6169 ae3d dbe3 eb3c
00000270: b617 d43d 5b42 65bd 72f4 52bd 5c50 ac3b
00000280: 67fd 86bd 1146 5e3d 0f00 d9bd e192 2b3d
00000290: df71 21be 5b57 45bd 9e1b 283e a953 273d
000002a0: 6815 023d 4065 80bd 12ba d33d 5bc3 d33c
000002b0: cbbb 1fbb b354 b83d 898a 8d3c e39a d4bd
000002c0: 3c83 6bbd 9a4e a13d 5322 423e 1294 22bd
000002d0: 4917 55bc 1e6e 0b3d b9aa c93d 66a5 95bd
000002e0: c687 d03d ffe4 8339 4184 0ebe d232 bf3d
000002f0: abfc d8bd 8d1a 94bd e7af 383e 2802 2b3d
00000300: 0eed 033e 7673 adbd cbc3 f1bb 2e88 3dbc
00000310: 2c26 bbbd 1974 91bd 4c16 2a3e 03c7 d6bd
00000320: f3fc bd3d 9068 0bbd 9d5f 3e3e 5ed3 073d
00000330: e60c 993d 0d79 cfbd dad2 933d 7331 f9bc
00000340: 4006 533d 2dc8 5fbd bf24 d8bd 7590 363d
00000350: fd94 2bbe 6010 423d 2e9f 353e b37e b4bd
00000360: d1df 59be c48f e13d 8613 f0bd d95d bbbc
00000370: 361a 823d da60 adbd 6faa e73d 005e 1d3d
00000380: ee0c be3d f44b 2e3d 7e25 1cbd 5193 4cbc
00000390: 9d89 3a3c ae8e 03bc c823 36bd a168 163d
000003a0: aaa3 81bb 77f3 173e 1825 0bbc 267b e53d
000003b0: e829 983d 5428 213e 27dd 41bd b362 023d
000003c0: 17c0 40be 2581 a43d b8da a8bd d59b 113d
000003d0: b1ae 853d 1c24 693d 0a17 a83d f823 7b3d
000003e0: 1bde 34bd 2972 edbd 3a6e a0bd 8ea0 b5bd
000003f0: c900 ddba 5abd 49bd 1693 19bd c49b e53c

bias f4 [128]
-0.14290962 -0.017378084 0.008828259 0.15070683 0.041718625 -0.028994778 0.1399508 -0.18537387
0.07060281 -0.04395192 0.0081746485 0.061892636 -0.010260551 0.066716045 -0.057030875 0.09652706
0.0048071984 -0.05773144 -0.021280756 0.10388843 -0.032551955 -0.01168205 0.050518908 0.15323669
0.1340587 0.11046227 0.10309629 -0.15403038 0.077854715 0.027807139 0.045630068 -0.10960563
0.10292562 0.085906394 0.04260805 0.010059709 0.09859182 0.04638821 0.10847121 -0.14963289
0.03878843 -0.113212086 -0.17015897 0.13028175 0.04513955 0.02622649 -0.079286896 0.09247178
0.12938635 0.06429 -0.09439728 0.056196343 -0.12691385 0.08398665 -0.095117815 -0.05248785
-0.01302149 -0.064632505 0.15649557 0.10618593 0.15427113 -0.057614528 -0.03107583 0.014814952
-0.077000126 0.084266365 0.037775327 0.100085795 0.052884605 0.04201311 0.068393104 0.1375626
0.061656483 0.07092096 -0.18439701 0.10987252 -0.026522918 -0.068494074 -0.046745956 0.02361363
0.02810288 0.01805086 -0.0734511 -0.0067322287 0.030485388 0.030398503 0.07679715 0.008481402
-0.13723288 0.03743152 -0.18934791 0.121082805 -0.04240048 0.06443233 0.122105986 -0.088791184
-0.09002096 0.045059547 -0.057153035 0.0075548915 -0.043135542 0.061452493 -0.033765804 0.028006844
-0.05863185 -0.08293341 -0.029852599 0.14268094 0.04689634 -0.08271733 -0.018075438 -0.05061465
-0.08123872 0.036904007 0.08996247 0.05497754 0.06744378 -0.0019377884 -0.04341502 0.0009294859
0.027386203 0.028599722 -0.06688108 0.08054318 0.091181666 0.017273491 0.0069230306 -0.17685759
00000000: e656 12be 7c5c 8ebc 67a4 103c e452 1a3e
00000010: 26e1 2a3d 7586 edbc 434f 0f3e a6d2 3dbe
00000020: 3598 903d ee06 34bd f6ee 053c 2283 7d3d
00000030: df1b 28bc 6ca2 883d 3599 69bd fbaf c53d
00000040: b485 9d3b cd77 6cbd fb54 aebc 75c3 d43d
00000050: 3355 05bd 1266 3fbc eaec 4e3d 14ea 1c3e
00000060: af46 093e 0b3a e23d 2624 d33d 24ba 1dbe
00000070: 4b72 9f3d cccb e33c 98e6 3a3d eb78 e0bd
00000080: abca d23d b1ef af3d c785 2e3d 7ad1 243c
00000090: 82ea c93d 9001 3e3d 2726 de3d 5d39 19be
000000a0: 9ee0 1e3d bddb e7bd 273e 2ebe 9468 053e
000000b0: 40e4 383d f0d8 d63c 2b61 a2bd d861 bd3d
000000c0: db7d 043e 7aaa 833d 5c53 c1bd 232e 663d
000000d0: b4f5 01be 3101 ac3d 21cd c2bd 80fd 56bd
000000e0: 1658 55bc 0c5e 84bd 6040 203e 0278 d93d
000000f0: 40f9 1d3e 36fd 6bbd bd92 febc 6aba 723c
00000100: 3eb2 9dbd d893 ac3d 4dba 1a3d c8f9 cc3d
00000110: 879d 583d f015 2c3d af11 8c3d 36dd 0c3e
00000120: 828b 7c3d 023f 913d 92d2 3cbe d804 e13d
00000130: 9746 d9bc 9f46 8cbd b078 3fbd 5f71 c13c
00000140: 0338 e63c 66df 933c 886d 96bd 079a dcbb
00000150: 7ebc f93c 4806 f93c d347 9d3d 94f5 0a3c
00000160: c786 0cbe cb51 193d 6be4 41be 43fa f73d
00000170: 20ac 2dbd 19f5 833d b412 fa3d 27d8 b5bd
00000180: e95c b8bd 5c90 383d 4d19 6abd 068f f73b
00000190: e5ae 30bd 9cb5 7b3d 034e 0abd 9c6e e53c
000001a0: f327 70bd fed8 a9bd 708d f4bc f41a 123e
000001b0: 6016 403d b467 a9bd f112 94bc 4f51 4fbd
000001c0: 7c60 a6bd a828 173d 3e3e b83d 2130 613d
000001d0: f71f 8a3d 64fd fdba f3d3 31bd bea8 733a
000001e0: 0859 e03c f749 ea3c f3f8 88bd d3f3 a43d
000001f0: 74bd ba3d 2381 8d3c 97da e23b 281a 35be

weight f4 [128, 128]
0.024942685 -0.05599251 0.0132914325 0.047757067 0.02421541 0.01457165 0.08260878 -0.016807081
-0.023082172 0.057486203 -0.06953823 0.05483827 0.023458129 -0.15994391 0.121213086 0.028876083
-0.035781417 0.039756082 0.17063856 0.005484677 0.059627797 0.07664765 -0.015644707 -0.1039154
0.02518106 0.028333582 0.022548813 0.0565115 0.02870404 0.03505119 0.045330834 -0.0029813086
-0.08398439 -0.06211221 0.058555238 0.026838433 0.13818501 -0.011020973 -0.037466217 0.051630475
-0.056098968 -0.08550436 0.06970824 -0.0145479245 0.013580614 -0.16909513 0.026450232 -0.078075245
-0.0051978976 -0.03128489 -0.009059967 -0.08077264 -0.047846798 -0.008218459 0.11248985 -0.061461292
-0.05349591 0.11692442 0.032129396 -0.06493374 0.03248077 -0.044297256 0.053297777 0.039481223
0.115276776 0.015036659 0.05660642 -0.08008668 0.10739523 0.05933266 0.14064477 0.07875052
0.10811583 -0.030697286 0.023463003 -0.027852548 0.041364405 0.011253465 -0.008010533 -0.06259515
0.010696517 -0.09228609 0.007782033 0.046534758 -0.054583833 -0.059740484 -0.032598075 -0.07561444
-0.01981495 0.014435336 0.08742512 -0.034947824 -0.0025044389 -0.0065160654 0.0016648117 -0.0059986054
0.055203218 0.087916605 0.04907452 -0.08249242 -0.0016352452 -0.07211013 0.023135625 -0.040204253
-0.07326588 -0.044823572 -0.025087338 0.004199626 0.033437636 -0.13001466 0.034376226 0.024954505
0.014097525 0.16566308 0.13061255 0.016442783 -0.012208819 -0.16202806 0.061376758 0.0583648
-0.03376051 -0.03481263 -0.09875749 0.0007387182 -0.065127835 -0.0005636284 -0.05474989 0.004325483
0.090371616 0.05519838 -0.03860144 -0.10534834 0.032450363 0.056564458 0.022596475 0.09164712
-0.0394018 0.12765075 -0.012477771 0.035363194 0.08219567 -0.027053772 -0.07360392 0.050552208
-0.028702708 0.029754285 -0.060684413 -0.0040016775 0.060922295 -0.014368017 -0.0066185044 0.017626833
-0.109176405 0.005658019 0.0160445 0.09490167 -0.029171351 -0.09678915 -0.07236118 0.026149336
0.0057249684 -0.056815445 -0.09511712 -0.08517199 0.01607302 0.004584528 -0.057196025 0.07765052
0.018397463 -0.0067295097 0.085603684 -0.11165351 -0.124432445 -0.06034155 -0.048632767 0.12058565
-0.07691246 0.14449246 -0.017366763 -0.062230743 0.056798507 -0.01286893 -0.052330323 0.021308852
0.08162609 -0.04242698 0.06795029 -0.029433575 0.08885253 -0.00079039595 -0.07505033 0.041385986
0.015272734 0.11463831 0.04919656 -0.0013523946 0.054897286 -0.1299811 0.0790961 0.035389878
0.13510151 -0.021237351 0.017790938 0.034170147 0.10293121 0.0025988708 -0.03968995 0.018442167
0.03494524 0.008810619 0.053666558 -0.008862071 0.048205398 -0.02617764 0.037304148 0.012723131
0.06807111 -0.16046162 -0.0021821745 -0.040044475 0.02255535 -0.028136816 0.10134407 -0.08784639
0.053019185 0.084803715 -0.13679717 -0.096267425 0.17248188 -0.04742575 -0.06288857 0.12205774
-0.09533459 0.12377111 -0.003091603 0.0045941304 -0.020962285 -0.08873405 -0.1690923 -0.12924123
0.026049059 0.037664097 -0.029440125 -0.04975145 -0.0020858673 -0.010721351 -0.053157665 -0.04893464
-0.12498026 0.11708342 0.0866745 0.029108616 -0.06166309 -0.12816618 -0.08060545 0.09145633
00000000: 9a54 cc3c 6758 65bd 4fc4 593c ea9c 433d
00000010: 655f c63c eebd 6e3c cb2e a93d 01af 89bc
00000020: d316 bdbc a776 6b3d 0f6a 8ebd 189e 603d
00000030: 432b c03c 56c8 23be 913e f83d 898d ec3c
00000040: 898f 12bd 46d7 223d e0bb 2e3e ceb8 b33b
00000050: 473c 743d 71f9 9c3d 5429 80bc 99d1 d4bd
00000060: 8348 ce3c d41b e83c 4ab8 b83c 9a78 673d
00000070: bc24 eb3c d691 0f3d d3ac 393d 0f62 43bb
00000080: 0200 acbd 5f69 7ebd 9ed7 6f3d 46dc db3c
00000090: 5f80 0d3e 5091 34bc 2d76 19bd 7a7a 533d
000000a0: 08c8 65bd e91c afbd 32c3 8e3d 6b5a 6ebc
000000b0: 3981 5e3c 4627 2dbe 28ae d83c eae5 9fbd
000000c0: 2053 aabb 9624 00bd 4170 14bc 206c a5bd
000000d0: 01fb 43bd b7a6 06bc 1461 e63d d6be 7bbd
000000e0: 871e 5bbd 1276 ef3d 1d9a 033d fbfb 84bd
000000f0: 8e0a 053d 0a71 35bd c54e 5a3d 10b7 213d
00000100: 3b16 ec3d 525c 763c 22dc 673d 7c04 a4bd
00000110: 08f2 db3d ce06 733d 2f05 103e f447 a13d
00000120: d56b dd3d e078 fbbc 7c35 c03c 072b e4bc
00000130: b96d 293d 7460 383c 9c3e 03bc e331 80bd
00000140: 7240 2f3c 7d00 bdbd 6d00 ff3b 3b9b 3e3d
00000150: 4c93 5fbd 70b2 74bd 8f85 05bd bedb 9abd
00000160: f652 a2bc 3082 6c3c f10b b33d 7325 0fbd
00000170: 8321 24bb b884 d5bb d035 da3a f38f c4bb
00000180: c51c 623d 9f0d b43d 5d02 493d c9f1 a8bd
00000190: b955 d6ba 7aae 93bd ec86 bd3c 37ad 24bd
000001a0: 6c0c 96bd ec98 37bd f683 cdbc 049d 893b
000001b0: e7f5 083d 9022 05be 16ce 0c3d 646d cc3c
000001c0: 4ef9 663c 95a3 293e 4cbf 053e 04b3 863c
000001d0: 8007 48bc afea 25be 3266 7b3d ee0f 6f3d
000001e0: 7648 0abd b097 0ebd 5e41 cabd 8aa6 413a
000001f0: be61 85bd 76c0 13ba 6c41 60bd c8bc 8d3b
00000200: c114 b93d b217 623d 8b1c 1ebd dfc0 d7bd
00000210: acea 043d 22b0 673d 3e1c b93c 7cb1 bb3d
00000220: c863 21bd e1b6 023e 916f 4cbc ffd8 103d
00000230: 3456 a83d df9f ddbc a7bd 96bd d50f 4f3d
00000240: f121 ebbc 42bf f33c 3890 78bd 8120 83bb
00000250: a889 793d d567 6bbc 0ae0 d8bb 2666 903c
00000260: e197 dfbd e766 b93b c16f 833c cf5b c23d
00000270: c2f8 eebc 6439 c6bd 1932 94bd 2237 d63c
00000280: 8498 bb3b 50b7 68bd c4cc c2bd a76e aebd
00000290: 91ab 833c cf39 963b 6146 6abd 3c07 9f3d
000002a0: 47b6 963c 3883 dcbb fc50 af3d 98aa e4bd
000002b0: 70d6 febd b328 77bd 2733 47bd 9cf5 f63d
000002c0: 4884 9dbd d5f5 133e be44 8ebc aae5 7ebd
000002d0: 8da5 683d 34d8 52bc 5258 56bd e78f ae3c
000002e0: 942b a73d eac7 2dbd 8629 8b3d ae1e f1bc
000002f0: 51f8 b53d 9332 4fba fdb3 99bd 5a84 293d
00000300: 7d3a 7a3c 7ec7 ea3d 5582 493d d542 b1ba
00000310: fadb 603d c419 05be 23fd a13d faf4 103d
00000320: 0d58 0a3e f4f9 adbc 4dbe 913c fff5 0b3d
00000330: 99cd d23d d151 2a3b ee91 22bd 0714 973c
00000340: bd22 0f3d 6a5a 103c 77d1 5b3d 3832 11bc
00000350: 0673 453d 7d72 d6bc 3ccc 183d ae74 503c
00000360: de68 8b3d 0d50 24be d002 0fbb ad05 24bd
00000370: ffc5 b83c 2e7f e6bc 7b8d cf3d cfe8 b3bd
00000380: a52a 593d 92ad ad3d 8f14 0cbe db27 c5bd
00000390: 179f 303e 8141 42bd b9cb 80bd 69f9 f93d
000003a0: c83e c3bd b57b fd3d 7e9c 4abb 5c8a 963b
000003b0: 19b9 abbc 33ba b5bd 8826 2dbe d057 04be
000003c0: d664 d53c ab45 1a3d 6b2c f1bc 2dc8 4bbd
000003d0: 0cb3 08bb 9ba8 2fbc dabb 59bd b06f 48bd
000003e0: a7f5 ffbd 6fc9 ef3d 6682 b13d 3175 ee3c
000003f0: 7092 7cbd ff3d 03be 7814 a5bd 754d bb3d

bias f4 [128]
-0.0673733 -0.028974423 -0.04686436 -0.009262541 0.07871823 0.01620934 -0.025519056 -0.0078867525
-0.038152926 0.013679549 0.05371016 -0.0091885235 0.026693398 -0.03562347 -0.07412676 -0.040202376
0.085390985 0.08692212 0.0026417996 0.009988746 -0.09855854 0.022049343 0.048069566 -0.07080935
0.025025602 -0.025150485 0.05705236 0.08683975 -0.06683583 -0.059382293 0.103448644 -0.03085937
-0.06298214 -0.048240233 -0.076044075 -0.0028335669 -0.06391674 -0.10174811 0.038108543 -0.09306973
0.060199305 0.048360184 0.043397285 -0.07446084 -0.05050435 0.048326664 -0.05244862 0.072355956
-0.03499958 -0.024230938 -0.040393133 0.12883563 0.039352868 0.06939962 0.088907786 0.050864954
-0.07477972 -0.04591063 0.09763239 0.044219304 -0.08869338 0.008729843 -0.052420396 0.024442993
0.04969201 0.040037945 0.124898724 -0.032986518 -0.028141828 -0.055361863 -0.09200287 -0.05168148
-0.10363717 -0.10986594 -0.036452126 -0.099727705 0.028834432 0.038782477 0.007472783 -0.019424183
-0.084085226 0.066003464 -0.003391018 -0.014422671 -0.056341063 0.09441333 0.037512124 0.006712205
-0.10195884 -0.035801593 -0.07447095 -0.13787188 0.08588485 -0.09935675 -0.048807383 0.039041165
0.030637555 0.059419814 0.04368147 -0.09476285 -0.054667894 -0.025867403 0.010019964 -0.061862424
0.01814197 -0.020004626 0.09165777 -0.011232158 -0.05672298 0.08267114 -0.031070545 -0.040562693
0.061648797 0.015060214 0.0843311 -0.1093556 0.05110527 -0.01878831 0.08758069 0.03331945
-0.12029456 0.04982788 0.046132803 0.001961136 -0.07381062 -0.009266038 -0.06872856 0.041375924
00000000: 03fb 89bd c55b edbc d8f4 3fbd eac1 17bc
00000010: 0637 a13d 73c9 843c 570d d1bc 7037 01bc
00000020: 3e46 1cbd 3020 603c 2fff 5b3d 768b 16bc
00000030: 1dac da3c eae9 11bd c5cf 97bd 3fab 24bd
00000040: 78e1 ae3d 3904 b23d 0b22 2d3b d6a7 233c
00000050: 0fd9 c9bd d3a0 b43c 98e4 443d 7e04 91bd
00000060: 7e02 cd3c 6408 cebc bcaf 693d 0ad9 b13d
00000070: 39e1 88bd d93a 73bd e2dc d33d cacc fcbc
00000080: c8fc 80bd 8d97 45bd ffbc 9bbd 5db3 39bb
00000090: c8e6 82bd 5061 d0bd b417 1c3d 589b bebd
000000a0: 8c93 763d 5415 463d 5ac1 313d ed7e 98bd
000000b0: a6dd 4ebd 2ef2 453d 5dd4 56bd 5c2f 943d
000000c0: b85b 0fbd f67f c6bc 4573 25bd 7ded 033e
000000d0: 7930 213d 6321 8e3d 4915 b63d c557 503d
000000e0: 1c26 99bd c90c 3cbd 7ef3 c73d 4d1f 353d
000000f0: e0a4 b5bd 9e07 0f3c c5b6 56bd ac3c c83c
00000100: d989 4b3d d4fe 233d e7ca ff3d df1c 07bd
00000110: b189 e6bc 1fc3 62bd 006c bcbd f6af 53bd
00000120: b93f d4bd 6501 e1bd d34e 15bd 0a3e ccbd
00000130: 3036 ec3c 60da 1e3d 3fde f43b 771f 9fbc
00000140: e034 acbd d32c 873d d73b 5ebb 114d 6cbc
00000150: e3c5 66bd c75b c13d 50a6 193d 0ef2 db3b
00000160: cccf d0bd b1a4 12bd 3a84 98bd 492e 0dbe
00000170: 65e4 af3d 8d7b cbbd 40ea 47bd a1e9 1f3d
00000180: 9cfb fa3c 3162 733d 57eb 323d 0613 c2bd
00000190: 71eb 5fbd e0e7 d3bc c62a 243c 7463 7dbd
000001a0: 789e 943c bee0 a3bc 12b7 bb3d 1607 38bc
000001b0: 5b56 68bd 7d4f a93d a887 febc 1125 26bd
000001c0: 7383 7c3d 1ebf 763c c9b5 ac3d d4f5 dfbd
000001d0: c253 513d f1e9 99bc 815d b33d fa79 083d
000001e0: ff5c f6bd 5218 4c3d c0f5 3c3d 6786 003b
000001f0: 062a 97bd 95d0 17bc 8fc1 8cbd cd79 293d

weight f4 [128, 128]
0.00085948437 0.025566291 -0.03350666 0.068072975 -0.08701585 0.0363961 -0.10481679 -0.0001245246
0.030143095 -0.018092275 0.0033191629 -0.031682678 0.18099284 -0.1311562 -0.048424166 -0.112162836
-0.02355902 -0.05522403 -0.037694495 0.047123726 -0.014923365 0.033023596 0.07908091 0.03636526
-0.057956163 0.0014923821 -0.040891055 0.006041896 0.07365602 0.05718988 0.032392193 0.091891356
0.09812496 -0.013384459 0.018574076 0.059360087 -0.11216136 0.029116664 -0.02637762 -0.074642524
0.008469933 -0.0028826243 0.008559662 -0.046902124 0.028539147 0.04999103 -0.04063496 0.0069841733
-0.08788769 0.0101204375 -0.08338372 -0.027003469 0.002666707 -0.077078186 -0.050192706 -0.042088807
0.05778993 0.08145891 -0.006912163 -0.05352324 -0.058040287 -0.025230516 -0.034771763 -0.05015321
-0.023256894 -0.041871093 0.02384209 -0.0005137576 -0.07199981 -0.063104734 -0.08332781 -0.11252052
-0.052397422 -0.0033702357 0.04472808 -0.016128428 -0.029094083 -0.07349593 0.00619503 -0.10729564
-0.0073302723 -0.059869487 -0.11291568 -0.040239677 -0.006676289 0.0075093615 0.018116085 -0.041073877
-0.041384127 0.11777285 0.118703626 0.018107096 -0.04777851 -0.06647867 0.034144763 -0.047807246
-0.021629227 -0.0102457935 0.10712379 -0.018490467 0.061422743 -0.026261603 0.0043998393 0.011720989
-0.0225464 0.06655508 0.037490632 0.046243027 -0.028613767 0.05795591 0.14023122 -0.0020318024
0.020268591 0.0736656 -0.042167954 -0.12483908 -0.03828504 -0.018691368 -0.017179614 0.020694388
-0.06553084 -0.11628188 -0.055021185 -0.06833375 -0.09681293 0.0109495185 -0.0976439 0.09469254
-0.010836001 0.025857324 -0.010558786 0.106595024 -0.059322443 0.10688865 0.10695201 0.025847744
0.06214514 0.015053082 -0.08878693 0.10395719 -0.14487445 0.02415956 0.042463575 -0.05474112
0.08467329 -0.010153148 -0.020155562 -0.04909165 -0.028568896 -0.0013964152 -0.078073815 -0.0033924938
-0.0032914113 0.07687435 -0.06942523 -0.023082094 0.055056475 0.001676087 0.037915673 -0.10112685
-0.034655716 0.028230295 0.023050033 0.16524446 0.0480412 0.00888963 -0.0640203 0.0132837985
-0.029739212 0.008125264 -0.08219541 -0.052806206 -0.10056318 0.08748782 0.07643902 -0.06641417
0.07811558 0.02652253 0.0074517154 0.01718454 -0.030298539 -0.045250166 -0.11283425 -0.12300226
-0.036689557 0.09895655 0.0182401 0.009377027 -0.024611717 -0.055669867 0.052792225 0.013053367
-0.009256373 0.011986656 -0.03749843 0.0347932 -0.041868955 0.01390641 -0.06490292 -0.00040055052
0.023250911 -0.035563394 0.108478494 0.0860884 0.020144384 0.03659706 0.011713155 0.07981501
-0.050310742 -0.1190867 -0.0036177395 -0.032129236 0.047572818 -0.08929404 0.02727996 0.057158686
0.06274754 0.02266027 0.016780093 0.08985581 -0.01840422 0.057406414 0.048359122 0.05228414
-0.002657593 0.12401462 0.00014145233 -0.021416783 0.00035388416 0.05776348 0.035300907 0.017536893
0.048308957 0.02280609 0.05062983 0.13746321 0.0033663614 -0.005143523 0.04862567 -0.07066364
0.039414838 0.05292741 -0.10709326 0.07979876 -0.03996167 0.037705597 -0.061933063 0.053354386
0.018845573 -0.08229838 0.04941324 0.005850199 -0.032300998 -0.05315925 -0.01819814 -0.006530184
00000000: 054f 613a 6670 d13c 483e 09bd d869 8b3d
00000010: 5e35 b2bd 1414 153d 2faa d6bd d192 02b9
00000020: a7ee f63c 4036 94bc 5086 593b b2c5 01bd
00000030: 3056 393e d04d 06be 6b58 46bd a1b5 e5bd
00000040: d9fe c0bc 9832 62bd 8b65 1abd cf04 413d
00000050: 2181 74bc c043 073d 2cf5 a13d bdf3 143d
00000060: 7163 6dbd 099c c33a 617d 27bd 19fb c53b
00000070: f8d8 963d f03f 6a3d adad 043d 8931 bc3d
00000080: bdf5 c83d 7d4a 5bbc a928 983c 9023 733d
00000090: dbb4 e5bd 1286 ee3c e115 d8bc 2ede 98bd
000000a0: 79c5 0a3c 69ea 3cbb d33d 0c3c 711c 40bd
000000b0: eeca e93c 65c3 4c3d d870 26bd 7edb e43b
000000c0: 76fe b3bd 31d0 253c 15c5 aabd 6136 ddbc
000000d0: ebc3 2e3b 2bdb 9dbd de96 4dbd 5065 2cbd
000000e0: 22b5 6c3d eed3 a63d 6d7f e2bb 2f3b 5bbd
000000f0: a7bb 6dbd 3ab0 cebc d66c 0ebd 746d 4dbd
00000100: 3e85 bebc 0681 2bbd 7d50 c33c b0ad 06ba
00000110: a374 93bd 0e3d 81bd c5a7 aabd 2971 e6bd
00000120: ae9e 56bd 2cdf 5cbb cb34 373d c41f 84bc
00000130: b756 eebc 0985 96bd aeff ca3b d1bd dbbd
00000140: c832 f0bb b539 75bd 5640 e7bd 5cd2 24bd
00000150: c5c4 dabb 1711 f63b 2f68 943c 153d 28bd
00000160: 6782 29bd e432 f13d e31a f33d 5555 943c
00000170: 66b3 43bd f825 88bd 61db 0b3d 88d1 43bd
00000180: c72f b1bc f9dd 27bc b863 db3d 5279 97bc
00000190: 6a96 7b3d 9322 d7bc 872c 903b 6409 403c
000001a0: 3ab3 b8bc 084e 883d c78f 193d 5469 3d3d
000001b0: 6b67 eabc 2d63 6d3d c698 0f3e fd27 05bb
000001c0: 510a a63c fddd 963d 4eb8 2cbd a2ab ffbd
000001d0: c6d0 1cbd a41e 99bc 43bc 8cbc 4787 a93c
000001e0: 0835 86bd 3225 eebd e55d 61bd 91f2 8bbd
000001f0: dc45 c6bd 9c65 333c 86f9 c7bd 2aee c13d
00000200: 7b89 31bc bdd2 d33c c2fe 2cbc 7e4e da3d
00000210: 17fc 72bd 70e8 da3d a809 db3d a6be d33c
00000220: e78b 7e3d 34a1 763c ecd5 b5bd 82e7 d43d
00000230: f859 14be 45ea c53c 49ee 2d3d 3a38 60bd
00000240: 3169 ad3d 6459 26bc 471d a5bc 5314 49bd
00000250: 5109 eabc eb07 b7ba 2ae5 9fbd 9a54 5ebb
00000260: b8b4 57bb 4d70 9d3d d12e 8ebd a916 bdbc
00000270: e682 613d 26b0 db3a 774d 1b3d 981b cfbd
00000280: 27f3 0dbd 3843 e73c 6cd3 bc3c d835 293e
00000290: d9c6 443d d0a5 113c 131d 83bd 4aa4 593c
000002a0: a69f f3bc d41f 053c 1156 a8bd 524b 58bd
000002b0: 12f4 cdbd d02c b33d 108c 9c3d 2704 88bd
000002c0: 10fb 9f3d c745 d93c 852d f43b 98c6 8c3c
000002d0: a434 f8bc 3d58 39bd a515 e7bd 9ce8 fbbd
000002e0: ca47 16bd bba9 ca3d 436c 953c 1aa2 193c
000002f0: 839e c9bc 1606 64bd a93c 583d cadd 553c
00000300: 0ba8 17bc ae63 443c f497 19bd 5183 0e3d
00000310: c87e 2bbd b6d7 633c d2eb 84bd fb00 d2b9
00000320: b278 be3c ecaa 11bd f929 de3d 1d4f b03d
00000330: d605 a53c cce6 153d 88e8 3f3c 0d76 a33d
00000340: a312 4ebd bae3 f3bd 9917 6dbb f299 03bd
00000350: b7db 423d cbdf b6bd 397a df3c 3a1f 6a3d
00000360: c881 803d 08a2 b93c 6876 893c 5306 b83d
00000370: 72c4 96bc fd22 6b3d 3714 463d e527 563d
00000380: 032b 2ebb 61fb fd3d d252 1439 4072 afbc
00000390: 8789 b939 6699 6c3d af97 103d 88a9 8f3c
000003a0: 9ddf 453d d6d3 ba3c 3a61 4f3d 28c3 0c3e
000003b0: 2c9e 5c3b 008b a8bb b62b 473d 19b8 90bd
000003c0: 7471 213d 69ca 583d b653 dbbd 886d a33d
000003d0: d9ae 23bd 2f71 1a3d 86ad 7dbd 218a 5a3d
000003e0: 0862 9a3c 0e8c a8bd 8a65 4a3d 07b3 bf3b
000003f0: 0d4e 04bd 84bd 59bd 4414 95bc 27fb d5bb

bias f4 [128]
0.086112574 -0.01228585 0.042331178 0.09915546 0.08775144 0.021808404 0.07279347 0.051434066
0.04429073 0.034232844 -0.071394116 -0.011227768 -0.034435675 -0.09313119 0.047390934 0.048963316
0.057220474 0.044485677 -0.038646456 0.048131395 -0.030455597 -0.05926055 -0.07675793 -0.027825916
-0.07840308 0.032647178 0.006291708 -0.06282984 0.08583956 0.051985912 -0.0366578 0.07649127
-0.013296474 0.05941814 0.03227496 0.013843684 -0.015670737 -0.03915652 -0.03353977 -0.077138506
0.05263643 -0.10064377 0.04745871 -0.017587358 0.072089456 -0.03331494 0.047335736 -0.070286386
-0.005306197 0.01822928 -0.017441506 0.032735005 -0.06773037 -0.015271657 -0.07203445 0.067806646
-0.057660796 0.10157029 0.011474953 -0.08516 -0.0005653101 0.049119223 0.031892955 0.058133516
0.016931055 -0.029414536 -0.09921885 -0.018482681 -0.019933922 -0.03705007 -0.05373862 -0.07679121
0.09605886 0.11862275 -0.088683486 0.01940529 0.02264564 0.06432158 0.002270211 0.076514564
0.05477797 0.04817306 -0.0041549993 -0.034508 0.061815914 -0.09610397 -0.06405824 0.05467856
0.03384768 0.041343823 -0.041828122 -0.05286719 -0.001984518 0.027152168 -0.022629652 -0.0039602634
0.031291127 0.053888343 -0.002119198 -0.008503143 0.11053855 -0.06651553 0.0033585117 0.04288837
0.02931089 -0.07558535 0.0048400015 0.025555383 -0.003863168 -0.042632803 0.07207413 -0.07027216
0.0143378815 -0.043820694 0.034944728 -0.028517632 0.055426497 0.027901016 0.00066586386 -0.02896382
0.045106158 -0.054959092 -0.010180304 0.07990155 -0.00011435764 0.071422234 0.036942188 0.019493049
00000000: ca5b b03d 974a 49bc 7563 2d3d 0512 cb3d
00000010: 07b7 b33d 8aa7 b23c be14 953d 87ac 523d
00000020: 326a 353d bd37 0c3d 1437 92bd acf4 37bc
00000030: 6c0c 0dbd 91bb bebd ff1c 423d c28d 483d
00000040: 0460 6a3d 9d36 363d bf4b 1ebd 6d25 453d
00000050: 047e f9bc 31bb 72bd 4333 9dbd 2df3 e3bc
00000060: cb91 a0bd 0cb9 053d ac2a ce3b eeac 80bd
00000070: a7cc af3d 2eef 543d 7d26 16bd 74a7 9c3d
00000080: 74d9 59bc 7060 733d c032 043d 9fd0 623c
00000090: eb5f 80bc 9662 20bd ff60 09bd cbfa 9dbd
000000a0: 4c99 573d 521e cebd 1064 423d 5d13 90bc
000000b0: a3a3 933d 3f75 08bd 1ee3 413d 4ff2 8fbd
000000c0: 9bdf adbb 9255 953c 7de1 8ebc 2415 063d
000000d0: 38b6 8abd f935 7abc cc86 93bd 36de 8a3d
000000e0: ba2d 6cbd 1604 d03d 7101 3c3c 5e68 aebd
000000f0: 5231 14ba 3d31 493d 30a2 023d 691d 6e3d
00000100: ffb2 8a3c c1f6 f0bc 4133 cbbd fe68 97bc
00000110: 774c a3bc d0c1 17bd 071d 5cbd b644 9dbd
00000120: 82ba c43d 7cf0 f23d b09f b5bd d8f7 9e3c
00000130: 5983 b93c 08bb 833d d2c7 143b abb3 9c3d
00000140: dd5e 603d 1d51 453d a926 88bb 4358 0dbd
00000150: af32 7d3d 29d2 c4bd f730 83bd a0f6 5f3d
00000160: dda3 0a3d 2458 293d f753 2bbd 448b 58bd
00000170: b00e 02bb 396e de3c d261 b9bc 19c5 81bb
00000180: 202b 003d 06ba 5c3d 3ee2 0abb c450 0bbc
00000190: 0962 e23d 4b39 88bd 7a1a 5c3b b7ab 2f3d
000001a0: 641d f03c 7ecc 9abd e098 9e3b 8659 d13c
000001b0: 342d 7dbb bc9f 2ebd 9a9b 933d daea 8fbd
000001c0: 6fe9 6a3c 547d 33bd 3422 0f3d cf9d e9bc
000001d0: e506 633d ac90 e43c 5e8d 2e3a 8845 edbc
000001e0: 3cc1 383d c91c 61bd 4acb 26bc 6da3 a33d
000001f0: 4ad3 efb8 d245 923d b150 173d e3af 9f3c
