dapg/examples/jit_model/no_hammer-v0/model_classifier.pt (torch, 148333 bytes, 10 tensors)

in_shift f4 [128]
0	0x00000000	0.0
1	0x00000000	0.0
2	0x00000000	0.0
3	0x00000000	0.0
4	0x00000000	0.0
5	0x00000000	0.0
6	0x00000000	0.0
7	0x00000000	0.0
8	0x00000000	0.0
9	0x00000000	0.0
10	0x00000000	0.0
11	0x00000000	0.0
12	0x00000000	0.0
13	0x00000000	0.0
14	0x00000000	0.0
15	0x00000000	0.0
16	0x00000000	0.0
17	0x00000000	0.0
18	0x00000000	0.0
19	0x00000000	0.0
20	0x00000000	0.0
21	0x00000000	0.0
22	0x00000000	0.0
23	0x00000000	0.0
24	0x00000000	0.0
25	0x00000000	0.0
26	0x00000000	0.0
27	0x00000000	0.0
28	0x00000000	0.0
29	0x00000000	0.0
30	0x00000000	0.0
31	0x00000000	0.0
32	0x00000000	0.0
33	0x00000000	0.0
34	0x00000000	0.0
35	0x00000000	0.0
36	0x00000000	0.0
37	0x00000000	0.0
38	0x00000000	0.0
39	0x00000000	0.0
40	0x00000000	0.0
41	0x00000000	0.0
42	0x00000000	0.0
43	0x00000000	0.0
44	0x00000000	0.0
45	0x00000000	0.0
46	0x00000000	0.0
47	0x00000000	0.0
48	0x00000000	0.0
49	0x00000000	0.0
50	0x00000000	0.0
51	0x00000000	0.0
52	0x00000000	0.0
53	0x00000000	0.0
54	0x00000000	0.0
55	0x00000000	0.0
56	0x00000000	0.0
57	0x00000000	0.0
58	0x00000000	0.0
59	0x00000000	0.0
60	0x00000000	0.0
61	0x00000000	0.0
62	0x00000000	0.0
63	0x00000000	0.0
64	0x00000000	0.0
65	0x00000000	0.0
66	0x00000000	0.0
67	0x00000000	0.0
68	0x00000000	0.0
69	0x00000000	0.0
70	0x00000000	0.0
71	0x00000000	0.0
72	0x00000000	0.0
73	0x00000000	0.0
74	0x00000000	0.0
75	0x00000000	0.0
76	0x00000000	0.0
77	0x00000000	0.0
78	0x00000000	0.0
79	0x00000000	0.0
80	0x00000000	0.0
81	0x00000000	0.0
82	0x00000000	0.0
83	0x00000000	0.0
84	0x00000000	0.0
85	0x00000000	0.0
86	0x00000000	0.0
87	0x00000000	0.0
88	0x00000000	0.0
89	0x00000000	0.0
90	0x00000000	0.0
91	0x00000000	0.0
92	0x00000000	0.0
93	0x00000000	0.0
94	0x00000000	0.0
95	0x00000000	0.0
96	0x00000000	0.0
97	0x00000000	0.0
98	0x00000000	0.0
99	0x00000000	0.0
100	0x00000000	0.0
101	0x00000000	0.0
102	0x00000000	0.0
103	0x00000000	0.0
104	0x00000000	0.0
105	0x00000000	0.0
106	0x00000000	0.0
107	0x00000000	0.0
108	0x00000000	0.0
109	0x00000000	0.0
110	0x00000000	0.0
111	0x00000000	0.0
112	0x00000000	0.0
113	0x00000000	0.0
114	0x00000000	0.0
115	0x00000000	0.0
116	0x00000000	0.0
117	0x00000000	0.0
118	0x00000000	0.0
119	0x00000000	0.0
120	0x00000000	0.0
121	0x00000000	0.0
122	0x00000000	0.0
123	0x00000000	0.0
124	0x00000000	0.0
125	0x00000000	0.0
126	0x00000000	0.0
127	0x00000000	0.0

in_scale f4 [128]
0	0x3f800000	1.0
1	0x3f800000	1.0
2	0x3f800000	1.0
3	0x3f800000	1.0
4	0x3f800000	1.0
5	0x3f800000	1.0
6	0x3f800000	1.0
7	0x3f800000	1.0
8	0x3f800000	1.0
9	0x3f800000	1.0
10	0x3f800000	1.0
11	0x3f800000	1.0
12	0x3f800000	1.0
13	0x3f800000	1.0
14	0x3f800000	1.0
15	0x3f800000	1.0
16	0x3f800000	1.0
17	0x3f800000	1.0
18	0x3f800000	1.0
19	0x3f800000	1.0
20	0x3f800000	1.0
21	0x3f800000	1.0
22	0x3f800000	1.0
23	0x3f800000	1.0
24	0x3f800000	1.0
25	0x3f800000	1.0
26	0x3f800000	1.0
27	0x3f800000	1.0
28	0x3f800000	1.0
29	0x3f800000	1.0
30	0x3f800000	1.0
31	0x3f800000	1.0
32	0x3f800000	1.0
33	0x3f800000	1.0
34	0x3f800000	1.0
35	0x3f800000	1.0
36	0x3f800000	1.0
37	0x3f800000	1.0
38	0x3f800000	1.0
39	0x3f800000	1.0
40	0x3f800000	1.0
41	0x3f800000	1.0
42	0x3f800000	1.0
43	0x3f800000	1.0
44	0x3f800000	1.0
45	0x3f800000	1.0
46	0x3f800000	1.0
47	0x3f800000	1.0
48	0x3f800000	1.0
49	0x3f800000	1.0
50	0x3f800000	1.0
51	0x3f800000	1.0
52	0x3f800000	1.0
53	0x3f800000	1.0
54	0x3f800000	1.0
55	0x3f800000	1.0
56	0x3f800000	1.0
57	0x3f800000	1.0
58	0x3f800000	1.0
59	0x3f800000	1.0
60	0x3f800000	1.0
61	0x3f800000	1.0
62	0x3f800000	1.0
63	0x3f800000	1.0
64	0x3f800000	1.0
65	0x3f800000	1.0
66	0x3f800000	1.0
67	0x3f800000	1.0
68	0x3f800000	1.0
69	0x3f800000	1.0
70	0x3f800000	1.0
71	0x3f800000	1.0
72	0x3f800000	1.0
73	0x3f800000	1.0
74	0x3f800000	1.0
75	0x3f800000	1.0
76	0x3f800000	1.0
77	0x3f800000	1.0
78	0x3f800000	1.0
79	0x3f800000	1.0
80	0x3f800000	1.0
81	0x3f800000	1.0
82	0x3f800000	1.0
83	0x3f800000	1.0
84	0x3f800000	1.0
85	0x3f800000	1.0
86	0x3f800000	1.0
87	0x3f800000	1.0
88	0x3f800000	1.0
89	0x3f800000	1.0
90	0x3f800000	1.0
91	0x3f800000	1.0
92	0x3f800000	1.0
93	0x3f800000	1.0
94	0x3f800000	1.0
95	0x3f800000	1.0
96	0x3f800000	1.0
97	0x3f800000	1.0
98	0x3f800000	1.0
99	0x3f800000	1.0
100	0x3f800000	1.0
101	0x3f800000	1.0
102	0x3f800000	1.0
103	0x3f800000	1.0
104	0x3f800000	1.0
105	0x3f800000	1.0
106	0x3f800000	1.0
107	0x3f800000	1.0
108	0x3f800000	1.0
109	0x3f800000	1.0
110	0x3f800000	1.0
111	0x3f800000	1.0
112	0x3f800000	1.0
113	0x3f800000	1.0
114	0x3f800000	1.0
115	0x3f800000	1.0
116	0x3f800000	1.0
117	0x3f800000	1.0
118	0x3f800000	1.0
119	0x3f800000	1.0
120	0x3f800000	1.0
121	0x3f800000	1.0
122	0x3f800000	1.0
123	0x3f800000	1.0
124	0x3f800000	1.0
125	0x3f800000	1.0
126	0x3f800000	1.0
127	0x3f800000	1.0

out_shift f4 [4]
0	0x00000000	0.0
1	0x00000000	0.0
2	0x00000000	0.0
3	0x00000000	0.0

out_scale f4 [4]
0	0x3f800000	1.0
1	0x3f800000	1.0
2	0x3f800000	1.0
3	0x3f800000	1.0

weight f4 [128, 128]
0	0xbcedebcf	-0.029043106
1	0x3d992301	0.074773796
2	0xbc902f67	-0.017600728
3	0x3dc0ff2e	0.09423672
4	0xbc7d1a7e	-0.015448211
5	0x3cc2b42a	0.02376755
6	0x3d1beae2	0.0380658
7	0xbc547e2c	-0.012969535
8	0x3aae72c1	0.0013309346
9	0xbc997b12	-0.018735442
10	0xbd860557	-0.06543987
11	0x3d4d0800	0.050056458
12	0xbc6b8c01	-0.014376641
13	0xbcbaa352	-0.022782955
14	0x3d9251f2	0.07144536
15	0xbc450cf1	-0.012027011
16	0xbd5d3c48	-0.054012567
17	0xbd310725	-0.043219704
18	0xbcf2308d	-0.029564166
19	0x3d75ff06	0.060057662
20	0x3d64fc9e	0.055904977
21	0xbcce3924	-0.025173731
22	0x3d666655	0.056249935
23	0xbcc79320	-0.024362147
24	0xbd26d7c2	-0.040733106
25	0xbc7d366a	-0.015454868
26	0x3de81f6b	0.113341175
27	0xbd3ebfc5	-0.046569604
28	0x3d8f36d0	0.069928765
29	0x3c0a7684	0.008451108
30	0x3cd31050	0.025764614
31	0xbd5308aa	-0.051521935
32	0x3b51ebbd	0.003203138
33	0x3ca28f7a	0.019843806
34	0xbbce85c9	-0.0063025695
35	0x3e074cdb	0.13212912
36	0x3d69ae77	0.05705115
37	0x3d6fc2d7	0.058535423
38	0x3e0252c8	0.12726891
39	0xbdb761a3	-0.089541696
40	0x3cc71288	0.024300829
41	0x3d63d439	0.055622313
42	0xbbe38636	-0.0069434894
43	0x3db6ad81	0.08919812
44	0xbd238874	-0.039925054
45	0x3baecfe4	0.005334841
46	0xbd52519a	-0.051347353
47	0xbcc3295d	-0.023823434
48	0x3d6dc08c	0.058044955
49	0x3d883966	0.06651573
50	0x3cf7c344	0.030244477
51	0xb91848bc	-0.00014522945
52	0xbdcf4dd8	-0.101222694
53	0x3de34408	0.1109696
54	0x3d211e22	0.039335378
55	0xbd810ebb	-0.06301638
56	0x3d6e4692	0.05817277
57	0xbd35e5e0	-0.04440868
58	0x3b9b9c13	0.00474883
59	0xbe1cc52b	-0.15309589
60	0x3bba62b4	0.005688036
61	0xbd842555	-0.06452433
62	0xbcfe4bb5	-0.03104196
63	0x3d08e77f	0.033423897
64	0x3cc89f70	0.024490088
65	0xbce8b324	-0.028405733
66	0xbcb746cf	-0.022372631
67	0xbe0fe217	-0.1405109
68	0x3d848cc6	0.06472163
69	0x3d56e2aa	0.052462257
70	0x3e074c59	0.13212718
71	0xbbab89c0	-0.005234927
72	0x3bec610e	0.0072137183
73	0x3d672c5c	0.05643879
74	0xbd6393c7	-0.055560853
75	0xbd898bd1	-0.06716121
76	0x3d6e00ce	0.058106236
77	0xbd487ef1	-0.048949186
78	0x3e048ba7	0.12943898
79	0xbcdccb6f	-0.026952473
80	0xbe001fb8	-0.125121
81	0x3dd6a010	0.10479748
82	0x3db28098	0.087159336
83	0x3cc397ef	0.023876159
84	0x3c843147	0.016136779
85	0x3ca764a0	0.020433724
86	0xbca48ed9	-0.020087646
87	0x3d39e09e	0.045380227
88	0x3c0571d5	0.008144815
89	0xbd29c81c	-0.041450605
90	0xbd03f883	-0.03221942
91	0xbd270b25	-0.040782113
92	0xbdbb947c	-0.091591805
93	0x3dcc20a6	0.09967165
94	0x3de8d035	0.11367837
95	0xbd978f51	-0.07400382
96	0x3d276d4f	0.04087573
97	0xbd3abc6d	-0.045589853
98	0xbde2d9b8	-0.11076683
99	0xbd8b33f6	-0.0679702
100	0x3dfe4773	0.124159716
101	0xbd11a07c	-0.03555344
102	0x3d078314	0.03308399
103	0x3c9a4c59	0.018835234
104	0xbabbe8f9	-0.0014336399
105	0xbd4b14e7	-0.04958048
106	0xbd6d9e74	-0.05801244
107	0xbc92fe42	-0.017943505
108	0x3d0086d1	0.03137857
109	0xbcbb354b	-0.02285256
110	0xbd895ea0	-0.067075014
111	0x3ccf7a41	0.02532685
112	0x3d7c61c6	0.06161668
113	0x3d660b96	0.056163393
114	0xbd078fad	-0.033096004
115	0xbd098d46	-0.033581994
116	0xbd37a4da	-0.04483495
117	0xbcf937d7	-0.030422134
118	0x3d580677	0.05274054
119	0xbcd9adaa	-0.026572067
120	0xbe030517	-0.1279491
121	0x3d09f0f5	0.03367706
122	0x3d144627	0.036199715
123	0xbc4e0bd4	-0.012576062
124	0xbd5563b0	-0.052097023
125	0xbc5bf231	-0.013424442
126	0x3d043c5a	0.03228412
127	0x3c500724	0.012697015
128	0x3ac89d7b	0.0015305722
129	0x3dbdad37	0.09261554
130	0x3d243db8	0.040097922
131	0x3da8c325	0.08240346
132	0x3e06f31d	0.13178678
133	0xbce8f720	-0.02843815
134	0x3e00aa73	0.12565021
135	0xbd08861d	-0.033331025
136	0xbcb08695	-0.021548549
137	0x3cd0a7d4	0.025470652
138	0x3d1dae24	0.03849615
139	0xbd1b0fd2	-0.037856884
140	0xbb952e40	-0.0045526326
141	0x3cc13bab	0.023588022
142	0xbcbe1534	-0.02320347
143	0xbc6a87bf	-0.014314591
144	0xbd59ea39	-0.053201888
145	0x3d2eb11b	0.04264937
146	0x3e01e77e	0.12685964
147	0x3da913ec	0.08255753
148	0x3d5e3460	0.054249167
149	0xbb1ff840	-0.0024409443
150	0x3c849a9d	0.016187007
151	0x3d7da38b	0.061923545
152	0x3caa49c6	0.020787131
153	0x3dac09ab	0.084002815
154	0xbd820a07	-0.06349569
155	0xbcc10490	-0.023561746
156	0x3b6855ce	0.0035451534
157	0xbd9c9b54	-0.07646814
158	0x3a46c1e0	0.000758199
159	0xbd66d840	-0.056358576
160	0x3e0c7dfc	0.13719934
161	0x3c948a71	0.01813242
162	0xbdb56d4f	-0.088587396
163	0xbcb16438	-0.021654233
164	0x3b798819	0.0038075505
165	0xbd088be7	-0.033336546
166	0x3c0a39bc	0.0084366165
167	0xbdd25986	-0.102709815
168	0x3d035dab	0.03207175
169	0x3d83de80	0.06438923
170	0x3d01eec5	0.03172185
171	0x3d2b7811	0.04186255
172	0x3cf6ddac	0.030134998
173	0x3aa225d8	0.0012370897
174	0x3ce85d96	0.028364938
175	0x3c408d41	0.011752428
176	0xbdf0a734	-0.117506415
177	0xbde58c72	-0.112084284
178	0xbcfdb71e	-0.030971106
179	0xbd9f5f3d	-0.07781837
180	0xbcf32912	-0.02968267
181	0xbcb56be9	-0.022146182
182	0x3d5d8112	0.05407817
183	0x3cc0a6c7	0.023517026
184	0xbc4651cb	-0.012104462
185	0x3d1509a9	0.036386166
186	0xbdb5cb66	-0.08876686
187	0xbe059a16	-0.1304706
188	0xbc10b40d	-0.00883199
189	0xbd9ac033	-0.0755619
190	0xbd549ef9	-0.05190942
191	0x3bf262b0	0.0073970184
192	0xbc8ed46f	-0.01743528
193	0x3de65d46	0.11248259
194	0xbd442b57	-0.047892895
195	0xbcb50f0e	-0.022101905
196	0xbd51f48f	-0.05125862
197	0x3daac204	0.08337787
198	0x3e0d84db	0.13820212
199	0xbcc575c4	-0.024104007
200	0xbd4e06aa	-0.050299324
201	0x3d1afc48	0.03783825
202	0xbd6515fc	-0.05592917
203	0x3cb36d8f	0.021902828
204	0x3cf648ce	0.030064013
205	0x3da64fbc	0.08120677
206	0xbaee7984	-0.0018194173
207	0xbd728a8b	-0.059214156
208	0xbc94fa75	-0.018185833
209	0x3d884fce	0.066558465
210	0xbcdc0194	-0.026856221
211	0xbd4a3969	-0.049371157
212	0x3d7b538f	0.061358985
213	0xbd639b69	-0.055568133
214	0xbc6e9b61	-0.014563412
215	0x3d26ef13	0.040755343
216	0x3d858ea2	0.06521346
217	0xbd5a928e	-0.05336242
218	0xbbc4c273	-0.0060046255
219	0x3d94d014	0.0726625
220	0xbd4ccc40	-0.049999475
221	0xbd040dcb	-0.032239717
222	0x3c78d67d	0.015187857
223	0x3bfacbf0	0.007653706
224	0x3d079e5c	0.033110008
225	0x3de72a95	0.11287419
226	0xbd87f6bf	-0.0663886
227	0xbcebe975	-0.028797844
228	0xbcf27650	-0.029597431
229	0xbcb4f59b	-0.02208977
230	0xbd453b8f	-0.048152503
231	0x3debb074	0.11508265
232	0x3dead45b	0.11466285
233	0x3db985cd	0.090587236
234	0x3dab9aef	0.083791606
235	0xbdbb7b7d	-0.09154413
236	0xbc5158b9	-0.012777501
237	0xbc4c3a52	-0.0124650765
238	0xbd906917	-0.07051294
239	0x3e0588d5	0.13040479
240	0xbd287b24	-0.04113306
241	0xbdfd0bdc	-0.123557776
242	0x3d9775d5	0.073955216
243	0xbd87caa1	-0.06630445
244	0x3d6fa6d6	0.058508717
245	0xbcc89eb0	-0.02448973
246	0xbbfe8373	-0.007767135
247	0xbd05712f	-0.032578643
248	0x3bba19d6	0.0056793494
249	0x3c7178f5	0.014738311
250	0xbd2d4a33	-0.04230709
251	0xbcf6f845	-0.030147681
252	0xbd15dd68	-0.036588103
253	0x3ce8fd91	0.028441222
254	0xbd07e19e	-0.03317415
255	0xbc8e3531	-0.017359348

bias f4 [128]
0	0x3e2eb001	0.17059328
1	0x3e627fb5	0.22119029
2	0x3e840671	0.25786164
3	0xbdc84216	-0.0977823
4	0x3ea9c748	0.33159852
5	0x3dadb4f6	0.08481781
6	0x3e825ebc	0.25462902
7	0x3d92b6ac	0.07163748
8	0x3e90834e	0.28225178
9	0x3e9f6592	0.3113218
10	0x3dbdb866	0.09263687
11	0xbca31b6e	-0.01991054
12	0x3e5de6c5	0.21670063
13	0x3e665949	0.22494997
14	0xbe2f53f2	-0.17121866
15	0x3df1e4d0	0.11811221
16	0xbe5b7052	-0.21429566
17	0x3dc5e3ab	0.09662565
18	0xbdf16258	-0.11786336
19	0xbe631bef	-0.22178625
20	0x3ea04b36	0.3130738
21	0x3eaeebd9	0.34164312
22	0x3e31cbdd	0.17362924
23	0xbe80146a	-0.25015575
24	0x3eaf770c	0.34270513
25	0x3ec75abe	0.38936418
26	0xbdca4e44	-0.09878209
27	0x3ca40d27	0.020025803
28	0x3ea14931	0.31501153
29	0x3d837716	0.06419198
30	0xbdbd6216	-0.09247224
31	0x3e360ee6	0.17779121
32	0x3e772225	0.24134119
33	0xbe0bae9d	-0.13640828
34	0xbeabdac6	-0.33565348
35	0xbe5973a2	-0.21235517
36	0xbe986a86	-0.2976877
37	0x3e78b422	0.24287465
38	0x3e2b6344	0.16737086
39	0xbcd4acee	-0.025961366
40	0xbe99be37	-0.30027935
41	0x3e90e28a	0.28297836
42	0x3e5034c3	0.20332627
43	0xbd19d1d2	-0.037553616
44	0x3e67baff	0.22629927
45	0x3e02e8c2	0.12784103
46	0xbd5755f2	-0.0525722
47	0xbe8f329a	-0.27968293
48	0xbe89678a	-0.26836807
49	0xbe5f5ed5	-0.2181352
50	0xbe9c7136	-0.30555123
51	0xbe6d812e	-0.2319381
52	0x3c9ee57c	0.019396536
53	0xbe1c830d	-0.15284367
54	0x3d4df618	0.05028352
55	0x3e6c7597	0.23091732
56	0x3e58ab21	0.2115903
57	0xbe8715a5	-0.263837
58	0xbe803985	-0.25043884
59	0x3eb0baef	0.3451762
60	0xbd6abcb8	-0.057308882
61	0x3e3c3520	0.1837964
62	0xbea7733e	-0.3270511
63	0x3d6cf828	0.057853848
64	0xbe190c53	-0.14946108
65	0x3e30e265	0.17273863
66	0x3ea08f84	0.31359494
67	0x3e7f17c0	0.24911404
68	0x3e1c0846	0.15237531
69	0xbebfd2a9	-0.37465408
70	0xbe725b35	-0.23667605
71	0x3eb591fd	0.35462943
72	0x3e1cbd0b	0.15306489
73	0x3e8b4f54	0.2720896
74	0xbdc9ffa6	-0.09863214
75	0xbd2f9d6e	-0.042874746
76	0xbd85dd51	-0.065363534
77	0xbe55e2f0	-0.20887351
78	0xbd6abe78	-0.05731055
79	0xbe048fe9	-0.12945522
80	0xbe3a12b2	-0.18171194
81	0x3e8defa4	0.27721894
82	0x3e59daed	0.2127492
83	0xbe1c36d6	-0.15255293
84	0xbe3c085a	-0.18362561
85	0xbe922566	-0.28544158
86	0xbe07ee73	-0.13274555
87	0xbe86eceb	-0.2635263
88	0xbe28c9d3	-0.1648324
89	0x3e4da43a	0.20082179
90	0xbe414a87	-0.18876086
91	0x3e2c3ee1	0.16820861
92	0x3eb49e76	0.35277146
93	0x3ea32f97	0.31872246
94	0xbe8ca4f1	-0.2746959
95	0x3e62b406	0.22138986
96	0xbd38f6e0	-0.045157313
97	0xbe2afb4a	-0.16697422
98	0x3e263fae	0.1623523
99	0xbe52e592	-0.20595387
100	0x3e4da35d	0.2008185
101	0x3e64c891	0.22342135
102	0x3e0c6747	0.13711272
103	0xbe9963d9	-0.2995899
104	0x3d52ae2e	0.051435642
105	0x3e28c1de	0.16480204
106	0xbe5786eb	-0.21047561
107	0x3d8e31b1	0.06943072
108	0xbe392252	-0.18079498
109	0x3e207a65	0.1567169
110	0xbeafd2a5	-0.34340397
111	0x3ea56dbc	0.32310283
112	0x3e7be415	0.24598725
113	0xbea0b45c	-0.31387603
114	0xbe9ae921	-0.30255988
115	0x3e14ec05	0.1454316
116	0x3e805a22	0.25068766
117	0xbe499878	-0.19687068
118	0x3e948750	0.29009485
119	0x3ed33e3d	0.41258422
120	0x3de5fd52	0.11229958
121	0xbe1535f4	-0.14571363
122	0xbe895ec4	-0.26830113
123	0x3e137066	0.14398345
124	0x3e00eb03	0.1258965
125	0x3cadb181	0.021202805
126	0x3e772149	0.24133791
127	0xbe365958	-0.1780752

weight f4 [128, 128]
0	0xbd4c8465	-0.04993095
1	0xbdf20e67	-0.11819153
2	0xbbf22ecf	-0.007390834
3	0x3dc1ba6f	0.094593875
4	0xbcb05c66	-0.021528434
5	0xbda08f62	-0.07839848
6	0x3bee8422	0.007278935
7	0x3d376ed8	0.044783443
8	0x3d18ae67	0.037275698
9	0x3c71d1b9	0.014759474
10	0xbd6138ab	-0.054985683
11	0x3d7c1045	0.061538953
12	0xbe1af0a7	-0.15130864
13	0xbd4426c2	-0.047888525
14	0xbd337f07	-0.043822315
15	0x3d1a37c4	0.03765084
16	0xbc92346a	-0.017847259
17	0x3c89b789	0.01681115
18	0x3c87b83a	0.016567338
19	0xbcf10a3a	-0.029423822
20	0x3c8932ce	0.016747858
21	0xbddd3c3a	-0.10802503
22	0xbcb94026	-0.022613596
23	0xbcf97e8f	-0.030455856
24	0xbd83f012	-0.06442274
25	0x3cc87d59	0.024473833
26	0xbd3710d6	-0.04469379
27	0xbd155640	-0.036459208
28	0xbe082639	-0.13295831
29	0x3cabf10c	0.020988964
30	0xbdda4f75	-0.106596865
31	0x3bfcf18a	0.0077192234
32	0x3e1b6fa8	0.15179312
33	0x3d5b809f	0.05358946
34	0xbc191da9	-0.00934545
35	0x3ddd8198	0.10815734
36	0x3d269359	0.040667865
37	0xbcfb2436	-0.030656915
38	0xbc81b118	-0.015831515
39	0xbce77171	-0.028252335
40	0x3d9b802a	0.07592805
41	0xbd93971f	-0.072065584
42	0x3b3c387c	0.002872019
43	0x3d114f82	0.035476215
44	0xbd2b84b6	-0.04187461
45	0x3b8773da	0.0041336836
46	0xbd9c8049	-0.07641656
47	0x39cc961c	0.00039021752
48	0xbcdd076a	-0.026981074
49	0x3d3787d8	0.044807285
50	0x3cc02c4f	0.023458628
51	0xbd839a74	-0.06425944
52	0x3dbec45f	0.093147986
53	0x3d86ca74	0.065815836
54	0xbc884407	-0.016634
55	0x3d2278ec	0.0396661
56	0x3c9d9719	0.019237088
57	0xbc0668f1	-0.008203731
58	0xbb36a9ac	-0.0027872128
59	0xbca652ef	-0.020303218
60	0x3dac8dd8	0.08425492
61	0x3cae98de	0.021313127
62	0xbda98902	-0.08278085
63	0xbdb3942d	-0.08768497
64	0x3da46327	0.08026724
65	0xbd8de385	-0.069281615
66	0xbd3c499a	-0.04596863
67	0xbd4862aa	-0.04892222
68	0xbb9b8470	-0.0047460124
69	0xbd4a1dae	-0.04934471
70	0x3bd0ec3b	0.006375817
71	0x3beeb446	0.007284674
72	0x3bb55d5e	0.005534812
73	0xbd378efc	-0.044814095
74	0x3b0e91dc	0.002175442
75	0x3dc69100	0.09695625
76	0x3a9a3612	0.0011765382
77	0xbd82d8f1	-0.063890345
78	0x3ce3d364	0.02781076
79	0x3b73ddfa	0.0037211166
80	0xbcf3f04d	-0.02977767
81	0xbd37c384	-0.044864193
82	0xbd9199d9	-0.07109422
83	0x3c19811b	0.00936916
84	0xbdb71a1a	-0.08940525
85	0x3d7713fd	0.060321797
86	0xbc15be11	-0.009139554
87	0x3c9aace5	0.01888127
88	0xbd85e7bb	-0.0653834
89	0xbda40312	-0.08008398
90	0x3d6b62ec	0.057467386
91	0x3d9485bd	0.07252071
92	0xbd848266	-0.06470184
93	0xbd7b8134	-0.061402515
94	0x3e1ccd70	0.15312743
95	0xbcf96681	-0.030444385
96	0xbdfd8a34	-0.12379876
97	0xbcb07f76	-0.021545153
98	0xbc1fa0c2	-0.0097429175
99	0x3c62bc75	0.013838877
100	0x3dc20c53	0.09475007
101	0x3d36c09b	0.044617277
102	0x3c53e57b	0.01293313
103	0xbd926889	-0.07148845
104	0xbd9c9207	-0.0764504
105	0xbd43df19	-0.047820184
106	0x3d9a565a	0.075360015
107	0xbc913a80	-0.01772809
108	0x3d67433e	0.05646061
109	0xbdf393a8	-0.118933976
110	0xbd2670dc	-0.040634975
111	0xbdab62d7	-0.083684616
112	0xbdde28a9	-0.10847599
113	0xbc8e5889	-0.017376201
114	0x3c9ca347	0.019120825
115	0xbdbd8c94	-0.09255329
116	0xbd3cc5a8	-0.046086937
117	0xbd828a37	-0.06374019
118	0x3d66eab4	0.056376174
119	0x3d99b9fc	0.07506177
120	0x3d9cbb19	0.076528735
121	0xbdac2a9e	-0.08406566
122	0x3dba722e	0.09103809
123	0x3d827bd0	0.063712716
124	0x3cc2b53d	0.023768062
125	0xbd41c32c	-0.04730527
126	0xbdab74b5	-0.083718695
127	0xbd153fe8	-0.0364379
128	0xbdcfd798	-0.10148543
129	0xbe1d2789	-0.15347113
130	0x39299f9e	0.00016176558
131	0x3aa27dd0	0.0012397114
132	0x3c205027	0.009784735
133	0x3d9120ee	0.07086359
134	0xbdc60332	-0.09668578
135	0x3cb13cd4	0.02163545
136	0x3d49d39c	0.049274072
137	0xbcb31ba2	-0.021863762
138	0xbd41f461	-0.0473522
139	0xbce81890	-0.028332025
140	0xbdc6d692	-0.09708895
141	0x3d111499	0.035420034
142	0x3d35da41	0.044397596
143	0xbbb2fc68	-0.005462218
144	0xbbdf6345	-0.006817254
145	0xbda58ad0	-0.08083117
146	0xbd9a4d6f	-0.075343005
147	0x3c24ec3d	0.010066089
148	0xbdb7c1c1	-0.089725025
149	0xbb35bd63	-0.0027731291
150	0xbde2f811	-0.11082471
151	0x3da1f91a	0.079088405
152	0xbd53d4fd	-0.051716793
153	0x3c68ddcd	0.014213038
154	0xbdaed49b	-0.08536645
155	0xbb3571ac	-0.0027686162
156	0xb9db32ee	-0.0004180888
157	0x3d1515f5	0.036397893
158	0x3e025888	0.12729084
159	0xbdbd9ee4	-0.092588216
160	0x39b3d01b	0.0003429659
161	0x3de945d5	0.113902725
162	0x3deb10d1	0.11477817
163	0x3d5b010f	0.053467806
164	0x3c1f9318	0.00973966
165	0xbc0cc0f6	-0.008590927
166	0x3d5e289c	0.054237947
167	0x3c7b74dd	0.015347687
168	0x3ddd2fc5	0.10800127
169	0xbda83b79	-0.082144685
170	0xbd181925	-0.037133355
171	0xbcdd3b4f	-0.02700582
172	0xbae92d6c	-0.0017790026
173	0xbdc0b94a	-0.09410341
174	0xbc393403	-0.0113039045
175	0x3d0fe415	0.035129625
176	0x3dd20ca3	0.102563165
177	0x3cc35899	0.023845958
178	0x3ce5d18c	0.028054021
179	0x3d89e1a0	0.06732488
180	0xbbc3189e	-0.0059538623
181	0x3dde8702	0.108655944
182	0xbd9ca654	-0.07648912
183	0xbd935a79	-0.07194991
184	0x3c435dd4	0.011924226
185	0x3e0c0421	0.1367345
186	0xbd357866	-0.044304274
187	0xbcf5402f	-0.029937832
188	0x3df7dd63	0.12102773
189	0x3d9333cb	0.07187613
190	0xbc8c055e	-0.017092403
191	0x3cd94d58	0.026526138
192	0x3e1038ee	0.14084217
193	0x3c47c60a	0.012193212
194	0x3ca6d843	0.020366793
195	0x3c5332af	0.012890502
196	0xbdf487fe	-0.11940001
197	0x3d833639	0.064068265
198	0xbd90f8a8	-0.070786774
199	0xbd1aedd7	-0.037824478
200	0xbda4d5b7	-0.08048575
201	0x3db6a0ff	0.08917426
202	0xbde6dcbe	-0.11272572
203	0xbd1e9097	-0.03871211
204	0xbd26bb69	-0.040706072
205	0xbc12ffcf	-0.008972122
206	0x3d392d87	0.045209434
207	0x3d8ae29e	0.06781505
208	0xbd368dd2	-0.044568844
209	0xbd518b7b	-0.05115841
210	0xbd3a4b59	-0.045482013
211	0xbc0a2d74	-0.008433688
212	0xbd89b23f	-0.06723451
213	0x3e01a972	0.12662295
214	0xbd611fc6	-0.054961942
215	0xbddf36b1	-0.108991034
216	0x3db306a5	0.08741502
217	0x3d15e554	0.036595657
218	0x3defa3d7	0.11701172
219	0x3bef329c	0.0072997343
220	0xbd89adf8	-0.06722635
221	0xbd5b4bee	-0.05353921
222	0x3df94f77	0.1217336
223	0x3d26ac41	0.040691618
224	0xbcfdc5fd	-0.030978197
225	0x3e13ee03	0.14446263
226	0x3cbe3166	0.023216914
227	0xbbd5a669	-0.006520082
228	0xbd557bee	-0.05212014
229	0xbcaf1e88	-0.021376863
230	0x3d818298	0.06323737
231	0x3a82cf19	0.0009979933
232	0xbc03a69c	-0.008035328
233	0x3c00b464	0.0078555085
234	0x3d1923f3	0.0373878
235	0xbc68a483	-0.014199379
236	0xbdae0b0e	-0.08498202
237	0xbda71357	-0.08157986
238	0xbd7bb29e	-0.06144964
239	0xbda28456	-0.07935397
240	0xbdd74c84	-0.10512641
241	0x3de9e730	0.11421049
242	0x3d8832de	0.06650327
243	0xbd652747	-0.05594566
244	0x3d3b2076	0.045685254
245	0x3ccb1f91	0.024795325
246	0x3d697169	0.056992922
247	0xbd842170	-0.0645169
248	0x3afc28d6	0.0019238244
249	0x3df2210d	0.1182271
250	0xbd6a0904	-0.057137504
251	0xbda8fff0	-0.08251941
252	0x3d001a47	0.03127506
253	0x3dbcd699	0.09220619
254	0x3d76529c	0.060137376
255	0xb9c0ef75	-0.00036799503

bias f4 [128]
0	0xbe93fc4c	-0.28903425
1	0xbe7c8fca	-0.24664226
2	0x3da57adf	0.080800764
3	0x3daa829a	0.083256915
4	0xbe804544	-0.25052845
5	0xbe867cd9	-0.26267126
6	0x3e98800b	0.2978519
7	0xbe78c252	-0.24292877
8	0xbd42943f	-0.04750466
9	0x3cbd6b17	0.023122353
10	0x3e4371ea	0.19086424
11	0x3e6e93ff	0.23298644
12	0x3de33545	0.11094145
13	0xbe23e397	-0.16004787
14	0x3ce5822c	0.028016172
15	0x3e2154f3	0.15755062
16	0x3e43bb45	0.19114406
17	0x3ddd566a	0.10807498
18	0xbdedb46d	-0.11606679
19	0x3e32dbe4	0.17466694
20	0x3e5a8e2c	0.21343297
21	0x3da4b492	0.080422536
22	0x3e541705	0.20711906
23	0xbe7b3526	-0.24531993
24	0x3cc9e109	0.024643438
25	0xbd274291	-0.040834967
26	0xbda4e16b	-0.080508076
27	0xbe48c894	-0.19607764
28	0xbeb1a71f	-0.34697816
29	0x3e0e3e0b	0.13890855
30	0x3e94e3ee	0.29080147
31	0x3df24a1d	0.11830542
32	0x3d068513	0.032841753
33	0xbe90ca6b	-0.28279433
34	0x3e1761f4	0.1478346
35	0x3e8dfd15	0.2773215
36	0xbe8dfb2f	-0.277307
37	0xbe803684	-0.25041592
38	0x3e6dd59b	0.23226015
39	0x3e80bd43	0.25144395
40	0x3e43a339	0.19105233
41	0x3e10fd63	0.1415916
42	0xbd4a98c4	-0.049462095
43	0x3dc6895e	0.096941695
44	0x3e92871e	0.2861871
45	0xbe633647	-0.22188674
46	0xbdc0ef1d	-0.09420607
47	0x3e4ff1e2	0.20307115
48	0xbe771309	-0.24128355
49	0x3e447895	0.19186623
50	0xbd7c586c	-0.061607763
51	0xbde606c9	-0.11231763
52	0x3ded27d3	0.115798615
53	0xbd69f814	-0.05712135
54	0x3c267ba0	0.01016131
55	0xbd91bb9f	-0.07115864
56	0xbe6ecebc	-0.2332105
57	0xbe18fa00	-0.14939117
58	0xbe0cce98	-0.13750684
59	0xbd41b08f	-0.04728752
60	0x3e65ce1b	0.22441904
61	0x3ea11b05	0.31465927
62	0xbe1a8f1e	-0.15093657
63	0x3d95530b	0.0729123
64	0x3dde425e	0.10852502
65	0x3d9db4ac	0.07700476
66	0xbe61c726	-0.22048625
67	0xbe98a069	-0.29809883
68	0xbdef0adf	-0.11671995
69	0x3dac8cc6	0.08425288
70	0x3ec44d97	0.38340446
71	0xbe2ecdb9	-0.17070664
72	0x3e3ff3cf	0.1874535
73	0x3e844b76	0.25838822
74	0x3d878dfb	0.066188775
75	0x3d8a1780	0.067427635
76	0xbc04e077	-0.008110157
77	0xbe85ef0a	-0.26158935
78	0x3e57e874	0.21084768
79	0x3e74ff84	0.23925596
80	0x3e4b6c8f	0.1986563
81	0xbe766dda	-0.24065343
82	0x3e9733f2	0.2953182
83	0xbd45b2ca	-0.04826621
84	0x3e451e37	0.19249807
85	0x3dd28030	0.10278356
86	0x3e58b619	0.21163215
87	0xbe7d7df2	-0.24755076
88	0xbde2956a	-0.11063655
89	0x3b964725	0.004586118
90	0x3e55805a	0.20849743
91	0x3d624d84	0.055249706
92	0xbdec0197	-0.11523741
93	0x3e50630f	0.20350288
94	0x3df2b3f7	0.11850732
95	0xbe39c234	-0.18140489
96	0xbda19893	-0.07890429
97	0x3e2e332b	0.17011707
98	0x3e1d34ed	0.15352221
99	0xbe154e50	-0.14580655
100	0x3e98ab0a	0.29817992
101	0x3e40bd7b	0.18822281
102	0x3cb9f596	0.022700112
103	0x3e6f0bae	0.23344299
104	0xbd93f398	-0.07224196
105	0xbe754df6	-0.23955521
106	0x3e8fbe08	0.2807467
107	0x3e8e3155	0.27772012
108	0xbe60ff38	-0.21972358
109	0x3e95aba2	0.29232508
110	0xbdb291d8	-0.08719224
111	0x3a5c2e44	0.0008399228
112	0x3e53ec8d	0.20695706
113	0xbda045a5	-0.07825784
114	0x3e7ed9a9	0.24887718
115	0xbe877356	-0.26455182
116	0x3dc6f376	0.09714405
117	0xbeacdc58	-0.3376186
118	0xbd8994d5	-0.067178406
119	0x3e0412e2	0.12897828
120	0xbc8551f8	-0.016274437
121	0xbe46fbc7	-0.19431983
122	0x3db2457a	0.08704658
123	0xbdff9758	-0.124800384
124	0x3e8a2e23	0.26988325
125	0x3e804949	0.25055912
126	0x3e093317	0.13398395
127	0x3e13f3f2	0.14448527

weight f4 [4, 128]
0	0xbd3e6ee7	-0.046492483
1	0xbde79094	-0.11306873
2	0xbd0afeb4	-0.03393431
3	0xbc8b035b	-0.016969373
4	0xbd3501f1	-0.044191305
5	0xbd8da639	-0.0691647
6	0x3d92166d	0.07133184
7	0xbd07e0f1	-0.033173505
8	0x3d9acf2c	0.07559046
9	0x3d8d3764	0.068953305
10	0xbc9ff8e9	-0.01952787
11	0xbce2b187	-0.027672542
12	0xbc3b72a1	-0.011440904
13	0xbc95253a	-0.018206228
14	0xbcc29d1e	-0.02375656
15	0x3d9cf235	0.07663385
16	0x3d702089	0.058624778
17	0x3d22935f	0.039691325
18	0x3c3424e4	0.010995124
19	0xbc76b75c	-0.015058365
20	0xbbd9af60	-0.006643221
21	0xbd276d9f	-0.040876027
22	0xbcae2281	-0.021256687
23	0xbda38f37	-0.079863004
24	0xbbd52ea1	-0.0065058027
25	0xbd0d818e	-0.03454738
26	0x3d0659c5	0.032800455
27	0xbd281a7c	-0.041040882
28	0xbd262405	-0.040561695
29	0x3c0525f6	0.008126726
30	0x3b100d62	0.0021980633
31	0x3daa6555	0.08320109
32	0xbd6312f5	-0.055438
33	0xbd1524d7	-0.036412086
34	0x3ce764e7	0.028246356
35	0x3dd13c77	0.10216611
36	0xbdf6fe1a	-0.12060185
37	0xbdf00978	-0.11720556
38	0x3d8d4a3f	0.06898927
39	0x3d3ee7b3	0.046607684
40	0x3deab9a8	0.11461192
41	0x3d1a158c	0.037618205
42	0xbd8cb6b7	-0.068707876
43	0x3d795889	0.06087545
44	0x3c85b440	0.016321301
45	0x3ce32cd2	0.027731333
46	0xbd806b79	-0.06270499
47	0x3dda6cea	0.10665305
48	0xbcae9a6d	-0.02131387
49	0x3d14a1e0	0.03628719
50	0x3c58e205	0.013237481
51	0xbc43da12	-0.0119538475
52	0x3d8bfc16	0.06835191
53	0xbb1c4743	-0.0023846186
54	0x3c4164f2	0.011803852
55	0xbde41d64	-0.11138418
56	0xbbffec35	-0.0078101405
57	0xbd53886b	-0.05164377
58	0xbd418beb	-0.047252577
59	0x3d1a6a92	0.03769929
60	0x3c40532f	0.0117385825
61	0x3d6f2caa	0.058392204
62	0xbda2f7d9	-0.079574294
63	0xbbc44b2e	-0.0059904074
64	0x3ddae714	0.10688606
65	0x3d033049	0.03202847
66	0xbc96c1ce	-0.01840296
67	0xbcd30ebb	-0.02576386
68	0xbcac23c2	-0.021013144
69	0x3d83dd7a	0.06438728
70	0x3d0f6a34	0.035013393
71	0xbd9868c4	-0.074418575
72	0xbdb66347	-0.089056544
73	0xbadfc6aa	-0.0017072756
74	0x3d1ecd09	0.038769756
75	0xbaeb46d5	-0.0017950187
76	0xbd6bf342	-0.057605036
77	0xbdd418cc	-0.10356292
78	0xbdef3b6e	-0.11681257
79	0x3cf0d1a8	0.029396847
80	0x3dfe8587	0.12427812
81	0xbd8099a2	-0.06279303
82	0x3d096c1e	0.033550374
83	0xbdabf6af	-0.083966605
84	0x3ddc357f	0.10752391
85	0xbd106a6d	-0.035257746
86	0xbd42d461	-0.04756582
87	0xbd24cf43	-0.040236723
88	0xbd48b1d9	-0.048997734
89	0xbd1df741	-0.038565878
90	0x3dfe0d00	0.12404823
91	0xbc243f5b	-0.010024871
92	0xbd2baddf	-0.041913863
93	0x3dcbb8f8	0.09947389
94	0x3e20d6c3	0.15706925
95	0xbde69b0c	-0.112600416
96	0xbcc8443d	-0.024446601
97	0x3ccf4bc4	0.025304683
98	0x3d6277b9	0.055289958
99	0xbd935675	-0.07194225
100	0x3cadffcb	0.021240136
101	0x3d651341	0.055926565
102	0x3dd15cba	0.10222764
103	0x3af84cba	0.0018943765
104	0xbda8175f	-0.08207583
105	0xbd5b6f86	-0.053573154
106	0x3d92f8d9	0.0717637
107	0x3cc7180d	0.02430346
108	0xbcdaedc7	-0.02672471
109	0x3d4a6797	0.049415197
110	0x3c14cad1	0.009081558
111	0xbd1512e9	-0.036394987
112	0x3db08553	0.086191796
113	0xbe03f334	-0.12885743
114	0x3d97798e	0.073962316
115	0x3d84036e	0.06445967
116	0x3d3da874	0.046303228
117	0xbdba3998	-0.090930164
118	0x3bd6b30f	0.006552107
119	0x3d41be0c	0.047300383
120	0xbd088665	-0.033331294
121	0x3cfdd005	0.03098298
122	0xbcb1b459	-0.021692442
123	0xbda1ac7d	-0.07894228
124	0x3dcb80bf	0.09936666
125	0x3d3a7d33	0.045529556
126	0xbc63ed9e	-0.013911633
127	0x3da1bee8	0.078977406
128	0x3e3fefa4	0.1874376
129	0x3e10ba66	0.14133605
130	0xbe0d1d41	-0.1378069
131	0x3d0612d5	0.032732803
132	0x3e55a7c7	0.20864783
133	0x3e5261a7	0.20545064
134	0xbe8009e6	-0.25007552
135	0x3e7ac021	0.24487354
136	0x3d0a92ed	0.033831526
137	0xbad60d81	-0.0016330929
138	0xbe2fb79d	-0.17159887
139	0xbe4f7f36	-0.20263371
140	0xbd98da7b	-0.07463547
141	0x3e2012e9	0.15632214
142	0x3e31afa3	0.17352156
143	0xbd7f9a1e	-0.062402837
144	0xbd9d7f1e	-0.07690261
145	0xbdb6781d	-0.089096285
146	0x3c9ab55c	0.018885307
147	0xbd27dd2c	-0.04098241
148	0xbd83d57d	-0.06437204
149	0x3ce7dfd4	0.028304972
150	0xbe145193	-0.14484243
151	0x3e3c0d01	0.18364336
152	0x3d31a2e5	0.04336824
153	0x3d99d5d2	0.07511486
154	0x3e250f09	0.16119017
155	0x3e3b24c2	0.1827574
156	0x3e39f133	0.18158416
157	0xbda2ab51	-0.07942832
158	0xbe5784b6	-0.21046719
159	0xbd4c9d2e	-0.049954586
160	0xbd2d3651	-0.04228813
161	0xbd0f74f2	-0.035023637
162	0xbdc824b5	-0.09772626
163	0xbc8c9c0c	-0.017164253
164	0x3cbd64f6	0.023119431
165	0x3e269e1b	0.1627125
166	0xbe42ad09	-0.1901132
167	0xbe6ec408	-0.23316967
168	0xbda70e9c	-0.081570834
169	0xbb904ef2	-0.0044039423
170	0x3cc23b04	0.023709781
171	0xbdd346d7	-0.10316246
172	0xbdef19a3	-0.11674812
173	0xbcb909dc	-0.02258771
174	0x3d8bdc7e	0.06829165
175	0xbc9acb27	-0.018895699
176	0xbcd13aa9	-0.025540667
177	0x3b232638	0.0024894606
178	0x3aa8a66a	0.0012866978
179	0x3d89de90	0.067319036
180	0xbe2d746d	-0.16938944
181	0xbbda6a06	-0.006665471
182	0x3d82240f	0.06354534
183	0x3cdcf989	0.026974456
184	0x3e866363	0.262477
185	0x3e1e1a66	0.15439758
186	0xbcca86c8	-0.024722472
187	0xbd82c1a3	-0.063845895
188	0xbe2d0a2f	-0.16898416
189	0xbe3438cd	-0.17599793
190	0xbb404ff9	-0.0029344542
191	0xbdf5512c	-0.11978373
192	0xbb79f1c4	-0.0038138488
193	0xbe127375	-0.14301856
194	0x3d849034	0.06472817
195	0x3e8417a8	0.25799298
196	0xbbe592b9	-0.007006016
197	0xbd551d00	-0.05202961
198	0xbe5f7e8a	-0.21825615
199	0x3e7510d2	0.23932198
200	0xbddb925d	-0.10721276
201	0xbd0dd91b	-0.034630876
202	0xbd4fd2fc	-0.05073832
203	0xbd748503	-0.059697162
204	0x3db73fdb	0.08947726
205	0x3e468fdf	0.1939082
206	0xbdfe147d	-0.124062516
207	0xbe002554	-0.1251424
208	0xbe39cd89	-0.18144812
209	0x3e50fa5c	0.20408005
210	0xbdb00bff	-0.08596038
211	0x3c345589	0.011006721
212	0xbd749dfd	-0.059720982
213	0x3d00bf8f	0.031432685
214	0xbe2feb91	-0.17179705
215	0x3e2ded7d	0.16985126
216	0x3e1c5d57	0.15269981
217	0x3be188f6	0.006882782
218	0xbc8d05fe	-0.017214771
219	0x3d76d626	0.06026282
220	0x3d252ef9	0.040328
221	0xbda81161	-0.0820644
222	0xbe0f0f2a	-0.13970628
223	0x3e1014cc	0.14070433
224	0x3dd3b99d	0.10338137
225	0xbe47e6a8	-0.19521582
226	0xbd80a790	-0.0628196
227	0xbcf340c1	-0.029693963
228	0xbe3b4e05	-0.18291481
229	0x3c05a3bf	0.008156716
230	0xbdec744a	-0.11545618
231	0xbcd8474f	-0.02640119
232	0x3d48c399	0.04901466
233	0x3ddb26e4	0.10700777
234	0xbe458ec7	-0.19292746
235	0xbe499f4a	-0.1968967
236	0x3ddee178	0.108828485
237	0xbe8343ef	-0.25637767
238	0x3e00f669	0.12593998
239	0x3de94214	0.113895565
240	0xbd92dfdf	-0.07171606
241	0x3d8b713a	0.06808706
242	0xbe2ea6db	-0.17055838
243	0x3e6f8245	0.23389538
244	0x3ca3fd73	0.020018315
245	0x3e402cef	0.18767141
246	0xbb274e57	-0.0025528872
247	0xbbaea081	-0.005329192
248	0x3daffc1f	0.0859301
249	0x3dffaced	0.12484155
250	0x3d96588a	0.07341106
251	0x3c9e0586	0.019289743
252	0xbe1c6613	-0.15273313
253	0xbe964ba4	-0.29354584
254	0xbe2ac23e	-0.1667566
255	0xbda60ff9	-0.08108515

bias f4 [4]
0	0x3d09e50a	0.033665694
1	0xbe42e031	-0.19030835
2	0xbe534c1a	-0.20634499
3	0x3e074a23	0.13211875
